module @jit_train_step attributes {mhlo.num_partitions = 4 : i32, mhlo.num_replicas = 1 : i32} {
  sdy.mesh @mesh = <["dp"=4]>
  sdy.mesh @empty_mesh = <[]>
  func.func public @main(%arg0: tensor<30522x768xbf16> {sdy.sharding = #sdy.sharding<@mesh, [{}, {}]>}, %arg1: tensor<512x768xbf16> {sdy.sharding = #sdy.sharding<@mesh, [{}, {}]>}, %arg2: tensor<2x768xbf16> {sdy.sharding = #sdy.sharding<@mesh, [{}, {}]>}, %arg3: tensor<768xbf16> {sdy.sharding = #sdy.sharding<@mesh, [{}]>}, %arg4: tensor<768xbf16> {sdy.sharding = #sdy.sharding<@mesh, [{}]>}, %arg5: tensor<12x768x768xbf16> {sdy.sharding = #sdy.sharding<@mesh, [{}, {}, {}]>}, %arg6: tensor<12x768xbf16> {sdy.sharding = #sdy.sharding<@mesh, [{}, {}]>}, %arg7: tensor<12x768x768xbf16> {sdy.sharding = #sdy.sharding<@mesh, [{}, {}, {}]>}, %arg8: tensor<12x768xbf16> {sdy.sharding = #sdy.sharding<@mesh, [{}, {}]>}, %arg9: tensor<12x768x768xbf16> {sdy.sharding = #sdy.sharding<@mesh, [{}, {}, {}]>}, %arg10: tensor<12x768xbf16> {sdy.sharding = #sdy.sharding<@mesh, [{}, {}]>}, %arg11: tensor<12x768x768xbf16> {sdy.sharding = #sdy.sharding<@mesh, [{}, {}, {}]>}, %arg12: tensor<12x768xbf16> {sdy.sharding = #sdy.sharding<@mesh, [{}, {}]>}, %arg13: tensor<12x768xbf16> {sdy.sharding = #sdy.sharding<@mesh, [{}, {}]>}, %arg14: tensor<12x768xbf16> {sdy.sharding = #sdy.sharding<@mesh, [{}, {}]>}, %arg15: tensor<12x3072x768xbf16> {sdy.sharding = #sdy.sharding<@mesh, [{}, {}, {}]>}, %arg16: tensor<12x3072xbf16> {sdy.sharding = #sdy.sharding<@mesh, [{}, {}]>}, %arg17: tensor<12x768x3072xbf16> {sdy.sharding = #sdy.sharding<@mesh, [{}, {}, {}]>}, %arg18: tensor<12x768xbf16> {sdy.sharding = #sdy.sharding<@mesh, [{}, {}]>}, %arg19: tensor<12x768xbf16> {sdy.sharding = #sdy.sharding<@mesh, [{}, {}]>}, %arg20: tensor<12x768xbf16> {sdy.sharding = #sdy.sharding<@mesh, [{}, {}]>}, %arg21: tensor<768x768xbf16> {sdy.sharding = #sdy.sharding<@mesh, [{}, {}]>}, %arg22: tensor<768xbf16> {sdy.sharding = #sdy.sharding<@mesh, [{}]>}, %arg23: tensor<768xbf16> {sdy.sharding = #sdy.sharding<@mesh, [{}]>}, %arg24: tensor<768xbf16> {sdy.sharding = #sdy.sharding<@mesh, [{}]>}, %arg25: tensor<30522x768xbf16> {sdy.sharding = #sdy.sharding<@mesh, [{}, {}]>}, %arg26: tensor<30522xbf16> {sdy.sharding = #sdy.sharding<@mesh, [{}]>}, %arg27: tensor<i32> {sdy.sharding = #sdy.sharding<@empty_mesh, []>}, %arg28: tensor<i32> {sdy.sharding = #sdy.sharding<@empty_mesh, []>}, %arg29: tensor<i32> {sdy.sharding = #sdy.sharding<@empty_mesh, []>}, %arg30: tensor<30522x768xbf16> {sdy.sharding = #sdy.sharding<@mesh, [{}, {}]>}, %arg31: tensor<512x768xbf16> {sdy.sharding = #sdy.sharding<@mesh, [{}, {}]>}, %arg32: tensor<2x768xbf16> {sdy.sharding = #sdy.sharding<@mesh, [{}, {}]>}, %arg33: tensor<768xbf16> {sdy.sharding = #sdy.sharding<@mesh, [{}]>}, %arg34: tensor<768xbf16> {sdy.sharding = #sdy.sharding<@mesh, [{}]>}, %arg35: tensor<12x768x768xbf16> {sdy.sharding = #sdy.sharding<@mesh, [{}, {}, {}]>}, %arg36: tensor<12x768xbf16> {sdy.sharding = #sdy.sharding<@mesh, [{}, {}]>}, %arg37: tensor<12x768x768xbf16> {sdy.sharding = #sdy.sharding<@mesh, [{}, {}, {}]>}, %arg38: tensor<12x768xbf16> {sdy.sharding = #sdy.sharding<@mesh, [{}, {}]>}, %arg39: tensor<12x768x768xbf16> {sdy.sharding = #sdy.sharding<@mesh, [{}, {}, {}]>}, %arg40: tensor<12x768xbf16> {sdy.sharding = #sdy.sharding<@mesh, [{}, {}]>}, %arg41: tensor<12x768x768xbf16> {sdy.sharding = #sdy.sharding<@mesh, [{}, {}, {}]>}, %arg42: tensor<12x768xbf16> {sdy.sharding = #sdy.sharding<@mesh, [{}, {}]>}, %arg43: tensor<12x768xbf16> {sdy.sharding = #sdy.sharding<@mesh, [{}, {}]>}, %arg44: tensor<12x768xbf16> {sdy.sharding = #sdy.sharding<@mesh, [{}, {}]>}, %arg45: tensor<12x3072x768xbf16> {sdy.sharding = #sdy.sharding<@mesh, [{}, {}, {}]>}, %arg46: tensor<12x3072xbf16> {sdy.sharding = #sdy.sharding<@mesh, [{}, {}]>}, %arg47: tensor<12x768x3072xbf16> {sdy.sharding = #sdy.sharding<@mesh, [{}, {}, {}]>}, %arg48: tensor<12x768xbf16> {sdy.sharding = #sdy.sharding<@mesh, [{}, {}]>}, %arg49: tensor<12x768xbf16> {sdy.sharding = #sdy.sharding<@mesh, [{}, {}]>}, %arg50: tensor<12x768xbf16> {sdy.sharding = #sdy.sharding<@mesh, [{}, {}]>}, %arg51: tensor<768x768xbf16> {sdy.sharding = #sdy.sharding<@mesh, [{}, {}]>}, %arg52: tensor<768xbf16> {sdy.sharding = #sdy.sharding<@mesh, [{}]>}, %arg53: tensor<768xbf16> {sdy.sharding = #sdy.sharding<@mesh, [{}]>}, %arg54: tensor<768xbf16> {sdy.sharding = #sdy.sharding<@mesh, [{}]>}, %arg55: tensor<30522x768xbf16> {sdy.sharding = #sdy.sharding<@mesh, [{}, {}]>}, %arg56: tensor<30522xbf16> {sdy.sharding = #sdy.sharding<@mesh, [{}]>}, %arg57: tensor<30522x768xbf16> {sdy.sharding = #sdy.sharding<@mesh, [{}, {}]>}, %arg58: tensor<512x768xbf16> {sdy.sharding = #sdy.sharding<@mesh, [{}, {}]>}, %arg59: tensor<2x768xbf16> {sdy.sharding = #sdy.sharding<@mesh, [{}, {}]>}, %arg60: tensor<768xbf16> {sdy.sharding = #sdy.sharding<@mesh, [{}]>}, %arg61: tensor<768xbf16> {sdy.sharding = #sdy.sharding<@mesh, [{}]>}, %arg62: tensor<12x768x768xbf16> {sdy.sharding = #sdy.sharding<@mesh, [{}, {}, {}]>}, %arg63: tensor<12x768xbf16> {sdy.sharding = #sdy.sharding<@mesh, [{}, {}]>}, %arg64: tensor<12x768x768xbf16> {sdy.sharding = #sdy.sharding<@mesh, [{}, {}, {}]>}, %arg65: tensor<12x768xbf16> {sdy.sharding = #sdy.sharding<@mesh, [{}, {}]>}, %arg66: tensor<12x768x768xbf16> {sdy.sharding = #sdy.sharding<@mesh, [{}, {}, {}]>}, %arg67: tensor<12x768xbf16> {sdy.sharding = #sdy.sharding<@mesh, [{}, {}]>}, %arg68: tensor<12x768x768xbf16> {sdy.sharding = #sdy.sharding<@mesh, [{}, {}, {}]>}, %arg69: tensor<12x768xbf16> {sdy.sharding = #sdy.sharding<@mesh, [{}, {}]>}, %arg70: tensor<12x768xbf16> {sdy.sharding = #sdy.sharding<@mesh, [{}, {}]>}, %arg71: tensor<12x768xbf16> {sdy.sharding = #sdy.sharding<@mesh, [{}, {}]>}, %arg72: tensor<12x3072x768xbf16> {sdy.sharding = #sdy.sharding<@mesh, [{}, {}, {}]>}, %arg73: tensor<12x3072xbf16> {sdy.sharding = #sdy.sharding<@mesh, [{}, {}]>}, %arg74: tensor<12x768x3072xbf16> {sdy.sharding = #sdy.sharding<@mesh, [{}, {}, {}]>}, %arg75: tensor<12x768xbf16> {sdy.sharding = #sdy.sharding<@mesh, [{}, {}]>}, %arg76: tensor<12x768xbf16> {sdy.sharding = #sdy.sharding<@mesh, [{}, {}]>}, %arg77: tensor<12x768xbf16> {sdy.sharding = #sdy.sharding<@mesh, [{}, {}]>}, %arg78: tensor<768x768xbf16> {sdy.sharding = #sdy.sharding<@mesh, [{}, {}]>}, %arg79: tensor<768xbf16> {sdy.sharding = #sdy.sharding<@mesh, [{}]>}, %arg80: tensor<768xbf16> {sdy.sharding = #sdy.sharding<@mesh, [{}]>}, %arg81: tensor<768xbf16> {sdy.sharding = #sdy.sharding<@mesh, [{}]>}, %arg82: tensor<30522x768xbf16> {sdy.sharding = #sdy.sharding<@mesh, [{}, {}]>}, %arg83: tensor<30522xbf16> {sdy.sharding = #sdy.sharding<@mesh, [{}]>}, %arg84: tensor<64x512xi32> {sdy.sharding = #sdy.sharding<@mesh, [{"dp"}, {}]>}, %arg85: tensor<64x512xi32> {sdy.sharding = #sdy.sharding<@mesh, [{"dp"}, {}]>}, %arg86: tensor<64x512xi32> {sdy.sharding = #sdy.sharding<@mesh, [{"dp"}, {}]>}, %arg87: tensor<64x512xi32> {sdy.sharding = #sdy.sharding<@mesh, [{"dp"}, {}]>}, %arg88: tensor<2xui32>) -> (tensor<i32> {jax.result_info = "result[0]"}, tensor<30522x768xbf16> {jax.result_info = "result[1][0].bert.embeddings.word_embeddings.weight"}, tensor<512x768xbf16> {jax.result_info = "result[1][0].bert.embeddings.position_embeddings.weight"}, tensor<2x768xbf16> {jax.result_info = "result[1][0].bert.embeddings.token_type_embeddings.weight"}, tensor<768xbf16> {jax.result_info = "result[1][0].bert.embeddings.layer_norm.weight"}, tensor<768xbf16> {jax.result_info = "result[1][0].bert.embeddings.layer_norm.bias"}, tensor<12x768x768xbf16> {jax.result_info = "result[1][0].bert.encoder.layers.attention.self_attention.query.weight"}, tensor<12x768xbf16> {jax.result_info = "result[1][0].bert.encoder.layers.attention.self_attention.query.bias"}, tensor<12x768x768xbf16> {jax.result_info = "result[1][0].bert.encoder.layers.attention.self_attention.key.weight"}, tensor<12x768xbf16> {jax.result_info = "result[1][0].bert.encoder.layers.attention.self_attention.key.bias"}, tensor<12x768x768xbf16> {jax.result_info = "result[1][0].bert.encoder.layers.attention.self_attention.value.weight"}, tensor<12x768xbf16> {jax.result_info = "result[1][0].bert.encoder.layers.attention.self_attention.value.bias"}, tensor<12x768x768xbf16> {jax.result_info = "result[1][0].bert.encoder.layers.attention.output.dense.weight"}, tensor<12x768xbf16> {jax.result_info = "result[1][0].bert.encoder.layers.attention.output.dense.bias"}, tensor<12x768xbf16> {jax.result_info = "result[1][0].bert.encoder.layers.attention.output.layer_norm.weight"}, tensor<12x768xbf16> {jax.result_info = "result[1][0].bert.encoder.layers.attention.output.layer_norm.bias"}, tensor<12x3072x768xbf16> {jax.result_info = "result[1][0].bert.encoder.layers.intermediate.dense.weight"}, tensor<12x3072xbf16> {jax.result_info = "result[1][0].bert.encoder.layers.intermediate.dense.bias"}, tensor<12x768x3072xbf16> {jax.result_info = "result[1][0].bert.encoder.layers.output.dense.weight"}, tensor<12x768xbf16> {jax.result_info = "result[1][0].bert.encoder.layers.output.dense.bias"}, tensor<12x768xbf16> {jax.result_info = "result[1][0].bert.encoder.layers.output.layer_norm.weight"}, tensor<12x768xbf16> {jax.result_info = "result[1][0].bert.encoder.layers.output.layer_norm.bias"}, tensor<768x768xbf16> {jax.result_info = "result[1][0].mlm_head.dense.weight"}, tensor<768xbf16> {jax.result_info = "result[1][0].mlm_head.dense.bias"}, tensor<768xbf16> {jax.result_info = "result[1][0].mlm_head.layer_norm.weight"}, tensor<768xbf16> {jax.result_info = "result[1][0].mlm_head.layer_norm.bias"}, tensor<30522x768xbf16> {jax.result_info = "result[1][0].mlm_head.lm_head.pytree[0].weight"}, tensor<30522xbf16> {jax.result_info = "result[1][0].mlm_head.bias"}, tensor<i32> {jax.result_info = "result[1][1].opt_state.count"}, tensor<bf16> {jax.result_info = "result[1][1].opt_state.hyperparams['learning_rate']"}, tensor<i32> {jax.result_info = "result[1][1].opt_state.hyperparams_states['learning_rate'].count"}, tensor<i32> {jax.result_info = "result[1][1].opt_state.inner_state[1].count"}, tensor<30522x768xbf16> {jax.result_info = "result[1][1].opt_state.inner_state[1].mu.bert.embeddings.word_embeddings.weight"}, tensor<512x768xbf16> {jax.result_info = "result[1][1].opt_state.inner_state[1].mu.bert.embeddings.position_embeddings.weight"}, tensor<2x768xbf16> {jax.result_info = "result[1][1].opt_state.inner_state[1].mu.bert.embeddings.token_type_embeddings.weight"}, tensor<768xbf16> {jax.result_info = "result[1][1].opt_state.inner_state[1].mu.bert.embeddings.layer_norm.weight"}, tensor<768xbf16> {jax.result_info = "result[1][1].opt_state.inner_state[1].mu.bert.embeddings.layer_norm.bias"}, tensor<12x768x768xbf16> {jax.result_info = "result[1][1].opt_state.inner_state[1].mu.bert.encoder.layers.attention.self_attention.query.weight"}, tensor<12x768xbf16> {jax.result_info = "result[1][1].opt_state.inner_state[1].mu.bert.encoder.layers.attention.self_attention.query.bias"}, tensor<12x768x768xbf16> {jax.result_info = "result[1][1].opt_state.inner_state[1].mu.bert.encoder.layers.attention.self_attention.key.weight"}, tensor<12x768xbf16> {jax.result_info = "result[1][1].opt_state.inner_state[1].mu.bert.encoder.layers.attention.self_attention.key.bias"}, tensor<12x768x768xbf16> {jax.result_info = "result[1][1].opt_state.inner_state[1].mu.bert.encoder.layers.attention.self_attention.value.weight"}, tensor<12x768xbf16> {jax.result_info = "result[1][1].opt_state.inner_state[1].mu.bert.encoder.layers.attention.self_attention.value.bias"}, tensor<12x768x768xbf16> {jax.result_info = "result[1][1].opt_state.inner_state[1].mu.bert.encoder.layers.attention.output.dense.weight"}, tensor<12x768xbf16> {jax.result_info = "result[1][1].opt_state.inner_state[1].mu.bert.encoder.layers.attention.output.dense.bias"}, tensor<12x768xbf16> {jax.result_info = "result[1][1].opt_state.inner_state[1].mu.bert.encoder.layers.attention.output.layer_norm.weight"}, tensor<12x768xbf16> {jax.result_info = "result[1][1].opt_state.inner_state[1].mu.bert.encoder.layers.attention.output.layer_norm.bias"}, tensor<12x3072x768xbf16> {jax.result_info = "result[1][1].opt_state.inner_state[1].mu.bert.encoder.layers.intermediate.dense.weight"}, tensor<12x3072xbf16> {jax.result_info = "result[1][1].opt_state.inner_state[1].mu.bert.encoder.layers.intermediate.dense.bias"}, tensor<12x768x3072xbf16> {jax.result_info = "result[1][1].opt_state.inner_state[1].mu.bert.encoder.layers.output.dense.weight"}, tensor<12x768xbf16> {jax.result_info = "result[1][1].opt_state.inner_state[1].mu.bert.encoder.layers.output.dense.bias"}, tensor<12x768xbf16> {jax.result_info = "result[1][1].opt_state.inner_state[1].mu.bert.encoder.layers.output.layer_norm.weight"}, tensor<12x768xbf16> {jax.result_info = "result[1][1].opt_state.inner_state[1].mu.bert.encoder.layers.output.layer_norm.bias"}, tensor<768x768xbf16> {jax.result_info = "result[1][1].opt_state.inner_state[1].mu.mlm_head.dense.weight"}, tensor<768xbf16> {jax.result_info = "result[1][1].opt_state.inner_state[1].mu.mlm_head.dense.bias"}, tensor<768xbf16> {jax.result_info = "result[1][1].opt_state.inner_state[1].mu.mlm_head.layer_norm.weight"}, tensor<768xbf16> {jax.result_info = "result[1][1].opt_state.inner_state[1].mu.mlm_head.layer_norm.bias"}, tensor<30522x768xbf16> {jax.result_info = "result[1][1].opt_state.inner_state[1].mu.mlm_head.lm_head.pytree[0].weight"}, tensor<30522xbf16> {jax.result_info = "result[1][1].opt_state.inner_state[1].mu.mlm_head.bias"}, tensor<30522x768xbf16> {jax.result_info = "result[1][1].opt_state.inner_state[1].nu.bert.embeddings.word_embeddings.weight"}, tensor<512x768xbf16> {jax.result_info = "result[1][1].opt_state.inner_state[1].nu.bert.embeddings.position_embeddings.weight"}, tensor<2x768xbf16> {jax.result_info = "result[1][1].opt_state.inner_state[1].nu.bert.embeddings.token_type_embeddings.weight"}, tensor<768xbf16> {jax.result_info = "result[1][1].opt_state.inner_state[1].nu.bert.embeddings.layer_norm.weight"}, tensor<768xbf16> {jax.result_info = "result[1][1].opt_state.inner_state[1].nu.bert.embeddings.layer_norm.bias"}, tensor<12x768x768xbf16> {jax.result_info = "result[1][1].opt_state.inner_state[1].nu.bert.encoder.layers.attention.self_attention.query.weight"}, tensor<12x768xbf16> {jax.result_info = "result[1][1].opt_state.inner_state[1].nu.bert.encoder.layers.attention.self_attention.query.bias"}, tensor<12x768x768xbf16> {jax.result_info = "result[1][1].opt_state.inner_state[1].nu.bert.encoder.layers.attention.self_attention.key.weight"}, tensor<12x768xbf16> {jax.result_info = "result[1][1].opt_state.inner_state[1].nu.bert.encoder.layers.attention.self_attention.key.bias"}, tensor<12x768x768xbf16> {jax.result_info = "result[1][1].opt_state.inner_state[1].nu.bert.encoder.layers.attention.self_attention.value.weight"}, tensor<12x768xbf16> {jax.result_info = "result[1][1].opt_state.inner_state[1].nu.bert.encoder.layers.attention.self_attention.value.bias"}, tensor<12x768x768xbf16> {jax.result_info = "result[1][1].opt_state.inner_state[1].nu.bert.encoder.layers.attention.output.dense.weight"}, tensor<12x768xbf16> {jax.result_info = "result[1][1].opt_state.inner_state[1].nu.bert.encoder.layers.attention.output.dense.bias"}, tensor<12x768xbf16> {jax.result_info = "result[1][1].opt_state.inner_state[1].nu.bert.encoder.layers.attention.output.layer_norm.weight"}, tensor<12x768xbf16> {jax.result_info = "result[1][1].opt_state.inner_state[1].nu.bert.encoder.layers.attention.output.layer_norm.bias"}, tensor<12x3072x768xbf16> {jax.result_info = "result[1][1].opt_state.inner_state[1].nu.bert.encoder.layers.intermediate.dense.weight"}, tensor<12x3072xbf16> {jax.result_info = "result[1][1].opt_state.inner_state[1].nu.bert.encoder.layers.intermediate.dense.bias"}, tensor<12x768x3072xbf16> {jax.result_info = "result[1][1].opt_state.inner_state[1].nu.bert.encoder.layers.output.dense.weight"}, tensor<12x768xbf16> {jax.result_info = "result[1][1].opt_state.inner_state[1].nu.bert.encoder.layers.output.dense.bias"}, tensor<12x768xbf16> {jax.result_info = "result[1][1].opt_state.inner_state[1].nu.bert.encoder.layers.output.layer_norm.weight"}, tensor<12x768xbf16> {jax.result_info = "result[1][1].opt_state.inner_state[1].nu.bert.encoder.layers.output.layer_norm.bias"}, tensor<768x768xbf16> {jax.result_info = "result[1][1].opt_state.inner_state[1].nu.mlm_head.dense.weight"}, tensor<768xbf16> {jax.result_info = "result[1][1].opt_state.inner_state[1].nu.mlm_head.dense.bias"}, tensor<768xbf16> {jax.result_info = "result[1][1].opt_state.inner_state[1].nu.mlm_head.layer_norm.weight"}, tensor<768xbf16> {jax.result_info = "result[1][1].opt_state.inner_state[1].nu.mlm_head.layer_norm.bias"}, tensor<30522x768xbf16> {jax.result_info = "result[1][1].opt_state.inner_state[1].nu.mlm_head.lm_head.pytree[0].weight"}, tensor<30522xbf16> {jax.result_info = "result[1][1].opt_state.inner_state[1].nu.mlm_head.bias"}, tensor<i32> {jax.result_info = "result[1][2]['acc'][0]"}, tensor<i32> {jax.result_info = "result[1][2]['acc'][1]"}, tensor<f32> {jax.result_info = "result[1][2]['loss'][0]"}, tensor<i32> {jax.result_info = "result[1][2]['loss'][1]"}, tensor<i32> {jax.result_info = "result[1][2]['total_token']"}) {
    %0 = call @_threefry_split(%arg88) : (tensor<2xui32>) -> tensor<2x2xui32>
    %1 = stablehlo.slice %0 [1:2, 0:2] : (tensor<2x2xui32>) -> tensor<1x2xui32>
    %2 = stablehlo.reshape %1 : (tensor<1x2xui32>) -> tensor<2xui32>
    %3 = stablehlo.iota dim = 0 : tensor<512xi32>
    %4 = stablehlo.broadcast_in_dim %3, dims = [1] : (tensor<512xi32>) -> tensor<1x512xi32>
    %5 = stablehlo.broadcast_in_dim %4, dims = [0, 1] : (tensor<1x512xi32>) -> tensor<64x512xi32>
    %6 = call @_threefry_split(%2) : (tensor<2xui32>) -> tensor<2x2xui32>
    %7 = stablehlo.slice %6 [0:1, 0:2] : (tensor<2x2xui32>) -> tensor<1x2xui32>
    %8 = stablehlo.reshape %7 : (tensor<1x2xui32>) -> tensor<2xui32>
    %9 = call @_threefry_split(%8) : (tensor<2xui32>) -> tensor<2x2xui32>
    %10 = stablehlo.slice %9 [0:1, 0:2] : (tensor<2x2xui32>) -> tensor<1x2xui32>
    %11 = stablehlo.reshape %10 : (tensor<1x2xui32>) -> tensor<2xui32>
    %12 = stablehlo.slice %9 [1:2, 0:2] : (tensor<2x2xui32>) -> tensor<1x2xui32>
    %13 = stablehlo.reshape %12 : (tensor<1x2xui32>) -> tensor<2xui32>
    %14:2 = call @_take(%arg0, %arg84) : (tensor<30522x768xbf16>, tensor<64x512xi32>) -> (tensor<64x512x768xbf16>, tensor<64x512x1xi32>)
    %15:2 = call @_take_15(%arg1, %5) : (tensor<512x768xbf16>, tensor<64x512xi32>) -> (tensor<64x512x768xbf16>, tensor<64x512x1xi32>)
    %16 = stablehlo.add %14#0, %15#0 : tensor<64x512x768xbf16>
    %17:2 = call @_take_29(%arg2, %arg86) : (tensor<2x768xbf16>, tensor<64x512xi32>) -> (tensor<64x512x768xbf16>, tensor<64x512x1xi32>)
    %18 = stablehlo.add %16, %17#0 : tensor<64x512x768xbf16>
    %19 = stablehlo.convert %18 : (tensor<64x512x768xbf16>) -> tensor<64x512x768xf32>
    %cst = stablehlo.constant dense<0.000000e+00> : tensor<f32>
    %20 = stablehlo.reduce(%19 init: %cst) applies stablehlo.add across dimensions = [2] : (tensor<64x512x768xf32>, tensor<f32>) -> tensor<64x512xf32>
    %21 = stablehlo.broadcast_in_dim %20, dims = [0, 1] : (tensor<64x512xf32>) -> tensor<64x512x1xf32>
    %cst_0 = stablehlo.constant dense<7.680000e+02> : tensor<f32>
    %22 = stablehlo.broadcast_in_dim %cst_0, dims = [] : (tensor<f32>) -> tensor<64x512x1xf32>
    %23 = stablehlo.divide %21, %22 : tensor<64x512x1xf32>
    %24 = stablehlo.broadcast_in_dim %23, dims = [0, 1, 2] : (tensor<64x512x1xf32>) -> tensor<64x512x768xf32>
    %25 = stablehlo.subtract %19, %24 : tensor<64x512x768xf32>
    %26 = stablehlo.multiply %19, %19 : tensor<64x512x768xf32>
    %cst_1 = stablehlo.constant dense<2.000000e+00> : tensor<f32>
    %27 = stablehlo.broadcast_in_dim %cst_1, dims = [] : (tensor<f32>) -> tensor<64x512x768xf32>
    %28 = stablehlo.multiply %27, %19 : tensor<64x512x768xf32>
    %cst_2 = stablehlo.constant dense<0.000000e+00> : tensor<f32>
    %29 = stablehlo.reduce(%26 init: %cst_2) applies stablehlo.add across dimensions = [2] : (tensor<64x512x768xf32>, tensor<f32>) -> tensor<64x512xf32>
    %30 = stablehlo.broadcast_in_dim %29, dims = [0, 1] : (tensor<64x512xf32>) -> tensor<64x512x1xf32>
    %cst_3 = stablehlo.constant dense<7.680000e+02> : tensor<f32>
    %31 = stablehlo.broadcast_in_dim %cst_3, dims = [] : (tensor<f32>) -> tensor<64x512x1xf32>
    %32 = stablehlo.divide %30, %31 : tensor<64x512x1xf32>
    %33 = stablehlo.multiply %23, %23 : tensor<64x512x1xf32>
    %cst_4 = stablehlo.constant dense<2.000000e+00> : tensor<f32>
    %34 = stablehlo.broadcast_in_dim %cst_4, dims = [] : (tensor<f32>) -> tensor<64x512x1xf32>
    %35 = stablehlo.multiply %34, %23 : tensor<64x512x1xf32>
    %36 = stablehlo.subtract %32, %33 : tensor<64x512x1xf32>
    %cst_5 = stablehlo.constant dense<0.000000e+00> : tensor<f32>
    %37 = stablehlo.broadcast_in_dim %cst_5, dims = [] : (tensor<f32>) -> tensor<64x512x1xf32>
    %38 = stablehlo.maximum %37, %36 : tensor<64x512x1xf32>
    %39 = stablehlo.compare  EQ, %36, %38,  FLOAT : (tensor<64x512x1xf32>, tensor<64x512x1xf32>) -> tensor<64x512x1xi1>
    %cst_6 = stablehlo.constant dense<1.000000e+00> : tensor<f32>
    %40 = stablehlo.broadcast_in_dim %cst_6, dims = [] : (tensor<f32>) -> tensor<64x512x1xf32>
    %cst_7 = stablehlo.constant dense<0.000000e+00> : tensor<f32>
    %41 = stablehlo.broadcast_in_dim %cst_7, dims = [] : (tensor<f32>) -> tensor<64x512x1xf32>
    %42 = stablehlo.select %39, %40, %41 : tensor<64x512x1xi1>, tensor<64x512x1xf32>
    %cst_8 = stablehlo.constant dense<0.000000e+00> : tensor<f32>
    %43 = stablehlo.broadcast_in_dim %cst_8, dims = [] : (tensor<f32>) -> tensor<64x512x1xf32>
    %44 = stablehlo.compare  EQ, %43, %38,  FLOAT : (tensor<64x512x1xf32>, tensor<64x512x1xf32>) -> tensor<64x512x1xi1>
    %cst_9 = stablehlo.constant dense<2.000000e+00> : tensor<f32>
    %45 = stablehlo.broadcast_in_dim %cst_9, dims = [] : (tensor<f32>) -> tensor<64x512x1xf32>
    %cst_10 = stablehlo.constant dense<1.000000e+00> : tensor<f32>
    %46 = stablehlo.broadcast_in_dim %cst_10, dims = [] : (tensor<f32>) -> tensor<64x512x1xf32>
    %47 = stablehlo.select %44, %45, %46 : tensor<64x512x1xi1>, tensor<64x512x1xf32>
    %48 = stablehlo.divide %42, %47 : tensor<64x512x1xf32>
    %cst_11 = stablehlo.constant dense<9.99999996E-13> : tensor<f32>
    %49 = stablehlo.broadcast_in_dim %cst_11, dims = [] : (tensor<f32>) -> tensor<64x512x1xf32>
    %50 = stablehlo.add %38, %49 : tensor<64x512x1xf32>
    %51 = stablehlo.rsqrt %50 : tensor<64x512x1xf32>
    %52 = stablehlo.divide %51, %50 : tensor<64x512x1xf32>
    %cst_12 = stablehlo.constant dense<-5.000000e-01> : tensor<f32>
    %53 = stablehlo.broadcast_in_dim %cst_12, dims = [] : (tensor<f32>) -> tensor<64x512x1xf32>
    %54 = stablehlo.multiply %53, %52 : tensor<64x512x1xf32>
    %55 = stablehlo.broadcast_in_dim %51, dims = [0, 1, 2] : (tensor<64x512x1xf32>) -> tensor<64x512x768xf32>
    %56 = stablehlo.multiply %25, %55 : tensor<64x512x768xf32>
    %57 = stablehlo.convert %arg3 : (tensor<768xbf16>) -> tensor<768xf32>
    %58 = stablehlo.broadcast_in_dim %57, dims = [2] : (tensor<768xf32>) -> tensor<1x1x768xf32>
    %59 = stablehlo.broadcast_in_dim %58, dims = [0, 1, 2] : (tensor<1x1x768xf32>) -> tensor<64x512x768xf32>
    %60 = stablehlo.multiply %59, %56 : tensor<64x512x768xf32>
    %61 = stablehlo.convert %arg4 : (tensor<768xbf16>) -> tensor<768xf32>
    %62 = stablehlo.broadcast_in_dim %61, dims = [2] : (tensor<768xf32>) -> tensor<1x1x768xf32>
    %63 = stablehlo.broadcast_in_dim %62, dims = [0, 1, 2] : (tensor<1x1x768xf32>) -> tensor<64x512x768xf32>
    %64 = stablehlo.add %60, %63 : tensor<64x512x768xf32>
    %65 = stablehlo.convert %64 : (tensor<64x512x768xf32>) -> tensor<64x512x768xbf16>
    %cst_13 = stablehlo.constant dense<0.899999976> : tensor<f32>
    %66 = call @_bernoulli(%11, %cst_13) : (tensor<2xui32>, tensor<f32>) -> tensor<64x512x768xi1>
    %cst_14 = stablehlo.constant dense<8.984370e-01> : tensor<bf16>
    %67 = stablehlo.broadcast_in_dim %cst_14, dims = [] : (tensor<bf16>) -> tensor<64x512x768xbf16>
    %68 = stablehlo.divide %65, %67 : tensor<64x512x768xbf16>
    %c = stablehlo.constant dense<0> : tensor<i32>
    %69 = call @_where_65(%66, %68, %c) : (tensor<64x512x768xi1>, tensor<64x512x768xbf16>, tensor<i32>) -> tensor<64x512x768xbf16>
    %c_15 = stablehlo.constant dense<true> : tensor<i1>
    %70 = stablehlo.broadcast_in_dim %c_15, dims = [] : (tensor<i1>) -> tensor<512xi1>
    %71 = stablehlo.broadcast_in_dim %70, dims = [1] : (tensor<512xi1>) -> tensor<512x512xi1>
    %72 = stablehlo.broadcast_in_dim %71, dims = [1, 2] : (tensor<512x512xi1>) -> tensor<64x512x512xi1>
    %73 = stablehlo.broadcast_in_dim %arg85, dims = [0, 1] : (tensor<64x512xi32>) -> tensor<64x512x1xi32>
    %74 = stablehlo.convert %72 : (tensor<64x512x512xi1>) -> tensor<64x512x512xi32>
    %75 = stablehlo.broadcast_in_dim %73, dims = [0, 1, 2] : (tensor<64x512x1xi32>) -> tensor<64x512x512xi32>
    %76 = stablehlo.and %74, %75 : tensor<64x512x512xi32>
    %77 = call @_threefry_split_75(%13) : (tensor<2xui32>) -> tensor<12x2xui32>
    %cst_16 = stablehlo.constant dense<6.400000e+01> : tensor<f32>
    %78 = stablehlo.sqrt %cst_16 : tensor<f32>
    %79 = stablehlo.convert %78 : (tensor<f32>) -> tensor<bf16>
    %80 = stablehlo.broadcast_in_dim %76, dims = [0, 1, 3] : (tensor<64x512x512xi32>) -> tensor<64x512x1x512xi32>
    %cst_17 = stablehlo.constant dense<-3.389530e+38> : tensor<bf16>
    %81:2 = call @_where_89(%80, %cst_17) : (tensor<64x512x1x512xi32>, tensor<bf16>) -> (tensor<64x512x12x512xi1>, tensor<64x512x12x512xbf16>)
    %82:2 = call @_bernoulli_93() : () -> (tensor<1x1x1x1xf32>, tensor<1x1x1x1xf32>)
    %c_18 = stablehlo.constant dense<0> : tensor<i32>
    %83 = call @_where_97(%c_18) : (tensor<i32>) -> tensor<64x512x12x512xbf16>
    %84:2 = call @_bernoulli_99() : () -> (tensor<1x1x1xf32>, tensor<1x1x1xf32>)
    %c_19 = stablehlo.constant dense<0> : tensor<i32>
    %85 = call @_where_101(%c_19) : (tensor<i32>) -> tensor<64x512x768xbf16>
    %cst_20 = stablehlo.constant dense<1.000000e+00> : tensor<f32>
    %86 = stablehlo.broadcast_in_dim %cst_20, dims = [] : (tensor<f32>) -> tensor<64x512x1xf32>
    %cst_21 = stablehlo.constant dense<0.000000e+00> : tensor<f32>
    %87 = stablehlo.broadcast_in_dim %cst_21, dims = [] : (tensor<f32>) -> tensor<64x512x1xf32>
    %cst_22 = stablehlo.constant dense<2.000000e+00> : tensor<f32>
    %88 = stablehlo.broadcast_in_dim %cst_22, dims = [] : (tensor<f32>) -> tensor<64x512x1xf32>
    %cst_23 = stablehlo.constant dense<1.000000e+00> : tensor<f32>
    %89 = stablehlo.broadcast_in_dim %cst_23, dims = [] : (tensor<f32>) -> tensor<64x512x1xf32>
    %cst_24 = stablehlo.constant dense<1.000000e+00> : tensor<bf16>
    %90 = stablehlo.broadcast_in_dim %cst_24, dims = [] : (tensor<bf16>) -> tensor<bf16>
    %91:2 = call @_bernoulli_99() : () -> (tensor<1x1x1xf32>, tensor<1x1x1xf32>)
    %c_25 = stablehlo.constant dense<0> : tensor<i32>
    %92 = call @_where_101(%c_25) : (tensor<i32>) -> tensor<64x512x768xbf16>
    %cst_26 = stablehlo.constant dense<1.000000e+00> : tensor<f32>
    %93 = stablehlo.broadcast_in_dim %cst_26, dims = [] : (tensor<f32>) -> tensor<64x512x1xf32>
    %cst_27 = stablehlo.constant dense<0.000000e+00> : tensor<f32>
    %94 = stablehlo.broadcast_in_dim %cst_27, dims = [] : (tensor<f32>) -> tensor<64x512x1xf32>
    %cst_28 = stablehlo.constant dense<2.000000e+00> : tensor<f32>
    %95 = stablehlo.broadcast_in_dim %cst_28, dims = [] : (tensor<f32>) -> tensor<64x512x1xf32>
    %cst_29 = stablehlo.constant dense<1.000000e+00> : tensor<f32>
    %96 = stablehlo.broadcast_in_dim %cst_29, dims = [] : (tensor<f32>) -> tensor<64x512x1xf32>
    %cst_30 = stablehlo.constant dense<0.899999976> : tensor<f32>
    %cst_31 = stablehlo.constant dense<0.899999976> : tensor<f32>
    %cst_32 = stablehlo.constant dense<0.899999976> : tensor<f32>
    %cst_33 = stablehlo.constant dense<0.000000e+00> : tensor<bf16>
    %97 = stablehlo.broadcast_in_dim %cst_33, dims = [] : (tensor<bf16>) -> tensor<12x768x768xbf16>
    %cst_34 = stablehlo.constant dense<0.000000e+00> : tensor<bf16>
    %98 = stablehlo.broadcast_in_dim %cst_34, dims = [] : (tensor<bf16>) -> tensor<12x64x512x768xbf16>
    %cst_35 = stablehlo.constant dense<0.000000e+00> : tensor<bf16>
    %99 = stablehlo.broadcast_in_dim %cst_35, dims = [] : (tensor<bf16>) -> tensor<12x768x768xbf16>
    %cst_36 = stablehlo.constant dense<0.000000e+00> : tensor<bf16>
    %100 = stablehlo.broadcast_in_dim %cst_36, dims = [] : (tensor<bf16>) -> tensor<12x768x768xbf16>
    %cst_37 = stablehlo.constant dense<0.000000e+00> : tensor<bf16>
    %101 = stablehlo.broadcast_in_dim %cst_37, dims = [] : (tensor<bf16>) -> tensor<12x64x512x12x64xbf16>
    %cst_38 = stablehlo.constant dense<0.000000e+00> : tensor<bf16>
    %102 = stablehlo.broadcast_in_dim %cst_38, dims = [] : (tensor<bf16>) -> tensor<12x64x512x12x64xbf16>
    %cst_39 = stablehlo.constant dense<0.000000e+00> : tensor<f32>
    %103 = stablehlo.broadcast_in_dim %cst_39, dims = [] : (tensor<f32>) -> tensor<12x64x512x12x512xf32>
    %cst_40 = stablehlo.constant dense<0.000000e+00> : tensor<f32>
    %104 = stablehlo.broadcast_in_dim %cst_40, dims = [] : (tensor<f32>) -> tensor<12x64x512x12x1xf32>
    %cst_41 = stablehlo.constant dense<0.000000e+00> : tensor<f32>
    %105 = stablehlo.broadcast_in_dim %cst_41, dims = [] : (tensor<f32>) -> tensor<12x64x512x12x1xf32>
    %c_42 = stablehlo.constant dense<false> : tensor<i1>
    %106 = stablehlo.broadcast_in_dim %c_42, dims = [] : (tensor<i1>) -> tensor<12x64x512x12x512xi1>
    %cst_43 = stablehlo.constant dense<0.000000e+00> : tensor<bf16>
    %107 = stablehlo.broadcast_in_dim %cst_43, dims = [] : (tensor<bf16>) -> tensor<12x64x512x12x512xbf16>
    %cst_44 = stablehlo.constant dense<0.000000e+00> : tensor<bf16>
    %108 = stablehlo.broadcast_in_dim %cst_44, dims = [] : (tensor<bf16>) -> tensor<12x64x512x12x64xbf16>
    %cst_45 = stablehlo.constant dense<0.000000e+00> : tensor<bf16>
    %109 = stablehlo.broadcast_in_dim %cst_45, dims = [] : (tensor<bf16>) -> tensor<12x768x768xbf16>
    %cst_46 = stablehlo.constant dense<0.000000e+00> : tensor<bf16>
    %110 = stablehlo.broadcast_in_dim %cst_46, dims = [] : (tensor<bf16>) -> tensor<12x64x512x768xbf16>
    %c_47 = stablehlo.constant dense<false> : tensor<i1>
    %111 = stablehlo.broadcast_in_dim %c_47, dims = [] : (tensor<i1>) -> tensor<12x64x512x768xi1>
    %cst_48 = stablehlo.constant dense<0.000000e+00> : tensor<f32>
    %112 = stablehlo.broadcast_in_dim %cst_48, dims = [] : (tensor<f32>) -> tensor<12x64x512x768xf32>
    %cst_49 = stablehlo.constant dense<0.000000e+00> : tensor<f32>
    %113 = stablehlo.broadcast_in_dim %cst_49, dims = [] : (tensor<f32>) -> tensor<12x64x512x1xf32>
    %cst_50 = stablehlo.constant dense<0.000000e+00> : tensor<f32>
    %114 = stablehlo.broadcast_in_dim %cst_50, dims = [] : (tensor<f32>) -> tensor<12x64x512x1xf32>
    %cst_51 = stablehlo.constant dense<0.000000e+00> : tensor<f32>
    %115 = stablehlo.broadcast_in_dim %cst_51, dims = [] : (tensor<f32>) -> tensor<12x64x512x1xf32>
    %cst_52 = stablehlo.constant dense<0.000000e+00> : tensor<f32>
    %116 = stablehlo.broadcast_in_dim %cst_52, dims = [] : (tensor<f32>) -> tensor<12x64x512x1xf32>
    %cst_53 = stablehlo.constant dense<0.000000e+00> : tensor<f32>
    %117 = stablehlo.broadcast_in_dim %cst_53, dims = [] : (tensor<f32>) -> tensor<12x64x512x768xf32>
    %cst_54 = stablehlo.constant dense<0.000000e+00> : tensor<f32>
    %118 = stablehlo.broadcast_in_dim %cst_54, dims = [] : (tensor<f32>) -> tensor<12x64x512x768xf32>
    %cst_55 = stablehlo.constant dense<0.000000e+00> : tensor<f32>
    %119 = stablehlo.broadcast_in_dim %cst_55, dims = [] : (tensor<f32>) -> tensor<12x1x1x768xf32>
    %cst_56 = stablehlo.constant dense<0.000000e+00> : tensor<bf16>
    %120 = stablehlo.broadcast_in_dim %cst_56, dims = [] : (tensor<bf16>) -> tensor<12x768x3072xbf16>
    %cst_57 = stablehlo.constant dense<0.000000e+00> : tensor<bf16>
    %121 = stablehlo.broadcast_in_dim %cst_57, dims = [] : (tensor<bf16>) -> tensor<12x64x512x768xbf16>
    %cst_58 = stablehlo.constant dense<0.000000e+00> : tensor<bf16>
    %122 = stablehlo.broadcast_in_dim %cst_58, dims = [] : (tensor<bf16>) -> tensor<12x64x512x3072xbf16>
    %cst_59 = stablehlo.constant dense<0.000000e+00> : tensor<bf16>
    %123 = stablehlo.broadcast_in_dim %cst_59, dims = [] : (tensor<bf16>) -> tensor<12x64x512x3072xbf16>
    %cst_60 = stablehlo.constant dense<0.000000e+00> : tensor<bf16>
    %124 = stablehlo.broadcast_in_dim %cst_60, dims = [] : (tensor<bf16>) -> tensor<12x64x512x3072xbf16>
    %cst_61 = stablehlo.constant dense<0.000000e+00> : tensor<bf16>
    %125 = stablehlo.broadcast_in_dim %cst_61, dims = [] : (tensor<bf16>) -> tensor<12x64x512x3072xbf16>
    %cst_62 = stablehlo.constant dense<0.000000e+00> : tensor<bf16>
    %126 = stablehlo.broadcast_in_dim %cst_62, dims = [] : (tensor<bf16>) -> tensor<12x64x512x3072xbf16>
    %cst_63 = stablehlo.constant dense<0.000000e+00> : tensor<bf16>
    %127 = stablehlo.broadcast_in_dim %cst_63, dims = [] : (tensor<bf16>) -> tensor<12x3072x768xbf16>
    %cst_64 = stablehlo.constant dense<0.000000e+00> : tensor<bf16>
    %128 = stablehlo.broadcast_in_dim %cst_64, dims = [] : (tensor<bf16>) -> tensor<12x64x512x3072xbf16>
    %c_65 = stablehlo.constant dense<false> : tensor<i1>
    %129 = stablehlo.broadcast_in_dim %c_65, dims = [] : (tensor<i1>) -> tensor<12x64x512x768xi1>
    %cst_66 = stablehlo.constant dense<0.000000e+00> : tensor<f32>
    %130 = stablehlo.broadcast_in_dim %cst_66, dims = [] : (tensor<f32>) -> tensor<12x64x512x768xf32>
    %cst_67 = stablehlo.constant dense<0.000000e+00> : tensor<f32>
    %131 = stablehlo.broadcast_in_dim %cst_67, dims = [] : (tensor<f32>) -> tensor<12x64x512x1xf32>
    %cst_68 = stablehlo.constant dense<0.000000e+00> : tensor<f32>
    %132 = stablehlo.broadcast_in_dim %cst_68, dims = [] : (tensor<f32>) -> tensor<12x64x512x1xf32>
    %cst_69 = stablehlo.constant dense<0.000000e+00> : tensor<f32>
    %133 = stablehlo.broadcast_in_dim %cst_69, dims = [] : (tensor<f32>) -> tensor<12x64x512x1xf32>
    %cst_70 = stablehlo.constant dense<0.000000e+00> : tensor<f32>
    %134 = stablehlo.broadcast_in_dim %cst_70, dims = [] : (tensor<f32>) -> tensor<12x64x512x1xf32>
    %cst_71 = stablehlo.constant dense<0.000000e+00> : tensor<f32>
    %135 = stablehlo.broadcast_in_dim %cst_71, dims = [] : (tensor<f32>) -> tensor<12x64x512x768xf32>
    %cst_72 = stablehlo.constant dense<0.000000e+00> : tensor<f32>
    %136 = stablehlo.broadcast_in_dim %cst_72, dims = [] : (tensor<f32>) -> tensor<12x64x512x768xf32>
    %cst_73 = stablehlo.constant dense<0.000000e+00> : tensor<f32>
    %137 = stablehlo.broadcast_in_dim %cst_73, dims = [] : (tensor<f32>) -> tensor<12x1x1x768xf32>
    %c_74 = stablehlo.constant dense<0> : tensor<i32>
    %138:84 = stablehlo.while(%iterArg = %arg5, %iterArg_417 = %arg6, %iterArg_418 = %arg7, %iterArg_419 = %arg8, %iterArg_420 = %arg9, %iterArg_421 = %arg10, %iterArg_422 = %arg11, %iterArg_423 = %arg12, %iterArg_424 = %arg13, %iterArg_425 = %arg14, %iterArg_426 = %arg15, %iterArg_427 = %arg16, %iterArg_428 = %arg17, %iterArg_429 = %arg18, %iterArg_430 = %arg19, %iterArg_431 = %arg20, %iterArg_432 = %77, %iterArg_433 = %91#0, %iterArg_434 = %91#1, %iterArg_435 = %cst_30, %iterArg_436 = %84#0, %iterArg_437 = %84#1, %iterArg_438 = %cst_31, %iterArg_439 = %82#0, %iterArg_440 = %82#1, %iterArg_441 = %cst_32, %iterArg_442 = %79, %iterArg_443 = %81#0, %iterArg_444 = %81#1, %iterArg_445 = %83, %iterArg_446 = %85, %iterArg_447 = %92, %iterArg_448 = %87, %iterArg_449 = %86, %iterArg_450 = %89, %iterArg_451 = %88, %iterArg_452 = %90, %iterArg_453 = %94, %iterArg_454 = %93, %iterArg_455 = %96, %iterArg_456 = %95, %iterArg_457 = %c_74, %iterArg_458 = %69, %iterArg_459 = %97, %iterArg_460 = %98, %iterArg_461 = %99, %iterArg_462 = %100, %iterArg_463 = %101, %iterArg_464 = %102, %iterArg_465 = %103, %iterArg_466 = %104, %iterArg_467 = %105, %iterArg_468 = %106, %iterArg_469 = %107, %iterArg_470 = %108, %iterArg_471 = %109, %iterArg_472 = %110, %iterArg_473 = %111, %iterArg_474 = %112, %iterArg_475 = %113, %iterArg_476 = %114, %iterArg_477 = %115, %iterArg_478 = %116, %iterArg_479 = %117, %iterArg_480 = %118, %iterArg_481 = %119, %iterArg_482 = %120, %iterArg_483 = %121, %iterArg_484 = %122, %iterArg_485 = %123, %iterArg_486 = %124, %iterArg_487 = %125, %iterArg_488 = %126, %iterArg_489 = %127, %iterArg_490 = %128, %iterArg_491 = %129, %iterArg_492 = %130, %iterArg_493 = %131, %iterArg_494 = %132, %iterArg_495 = %133, %iterArg_496 = %134, %iterArg_497 = %135, %iterArg_498 = %136, %iterArg_499 = %137) : tensor<12x768x768xbf16>, tensor<12x768xbf16>, tensor<12x768x768xbf16>, tensor<12x768xbf16>, tensor<12x768x768xbf16>, tensor<12x768xbf16>, tensor<12x768x768xbf16>, tensor<12x768xbf16>, tensor<12x768xbf16>, tensor<12x768xbf16>, tensor<12x3072x768xbf16>, tensor<12x3072xbf16>, tensor<12x768x3072xbf16>, tensor<12x768xbf16>, tensor<12x768xbf16>, tensor<12x768xbf16>, tensor<12x2xui32>, tensor<1x1x1xf32>, tensor<1x1x1xf32>, tensor<f32>, tensor<1x1x1xf32>, tensor<1x1x1xf32>, tensor<f32>, tensor<1x1x1x1xf32>, tensor<1x1x1x1xf32>, tensor<f32>, tensor<bf16>, tensor<64x512x12x512xi1>, tensor<64x512x12x512xbf16>, tensor<64x512x12x512xbf16>, tensor<64x512x768xbf16>, tensor<64x512x768xbf16>, tensor<64x512x1xf32>, tensor<64x512x1xf32>, tensor<64x512x1xf32>, tensor<64x512x1xf32>, tensor<bf16>, tensor<64x512x1xf32>, tensor<64x512x1xf32>, tensor<64x512x1xf32>, tensor<64x512x1xf32>, tensor<i32>, tensor<64x512x768xbf16>, tensor<12x768x768xbf16>, tensor<12x64x512x768xbf16>, tensor<12x768x768xbf16>, tensor<12x768x768xbf16>, tensor<12x64x512x12x64xbf16>, tensor<12x64x512x12x64xbf16>, tensor<12x64x512x12x512xf32>, tensor<12x64x512x12x1xf32>, tensor<12x64x512x12x1xf32>, tensor<12x64x512x12x512xi1>, tensor<12x64x512x12x512xbf16>, tensor<12x64x512x12x64xbf16>, tensor<12x768x768xbf16>, tensor<12x64x512x768xbf16>, tensor<12x64x512x768xi1>, tensor<12x64x512x768xf32>, tensor<12x64x512x1xf32>, tensor<12x64x512x1xf32>, tensor<12x64x512x1xf32>, tensor<12x64x512x1xf32>, tensor<12x64x512x768xf32>, tensor<12x64x512x768xf32>, tensor<12x1x1x768xf32>, tensor<12x768x3072xbf16>, tensor<12x64x512x768xbf16>, tensor<12x64x512x3072xbf16>, tensor<12x64x512x3072xbf16>, tensor<12x64x512x3072xbf16>, tensor<12x64x512x3072xbf16>, tensor<12x64x512x3072xbf16>, tensor<12x3072x768xbf16>, tensor<12x64x512x3072xbf16>, tensor<12x64x512x768xi1>, tensor<12x64x512x768xf32>, tensor<12x64x512x1xf32>, tensor<12x64x512x1xf32>, tensor<12x64x512x1xf32>, tensor<12x64x512x1xf32>, tensor<12x64x512x768xf32>, tensor<12x64x512x768xf32>, tensor<12x1x1x768xf32>
    cond {
      %c_500 = stablehlo.constant dense<12> : tensor<i32>
      %1457 = stablehlo.compare  LT, %iterArg_457, %c_500,  SIGNED : (tensor<i32>, tensor<i32>) -> tensor<i1>
      stablehlo.return %1457 : tensor<i1>
    } do {
      %c_500 = stablehlo.constant dense<0> : tensor<i32>
      %c_501 = stablehlo.constant dense<0> : tensor<i32>
      %1457 = stablehlo.dynamic_slice %iterArg, %iterArg_457, %c_500, %c_501, sizes = [1, 768, 768] : (tensor<12x768x768xbf16>, tensor<i32>, tensor<i32>, tensor<i32>) -> tensor<1x768x768xbf16>
      %1458 = stablehlo.reshape %1457 : (tensor<1x768x768xbf16>) -> tensor<768x768xbf16>
      %c_502 = stablehlo.constant dense<0> : tensor<i32>
      %1459 = stablehlo.dynamic_slice %iterArg_417, %iterArg_457, %c_502, sizes = [1, 768] : (tensor<12x768xbf16>, tensor<i32>, tensor<i32>) -> tensor<1x768xbf16>
      %1460 = stablehlo.reshape %1459 : (tensor<1x768xbf16>) -> tensor<768xbf16>
      %c_503 = stablehlo.constant dense<0> : tensor<i32>
      %c_504 = stablehlo.constant dense<0> : tensor<i32>
      %1461 = stablehlo.dynamic_slice %iterArg_418, %iterArg_457, %c_503, %c_504, sizes = [1, 768, 768] : (tensor<12x768x768xbf16>, tensor<i32>, tensor<i32>, tensor<i32>) -> tensor<1x768x768xbf16>
      %1462 = stablehlo.reshape %1461 : (tensor<1x768x768xbf16>) -> tensor<768x768xbf16>
      %c_505 = stablehlo.constant dense<0> : tensor<i32>
      %1463 = stablehlo.dynamic_slice %iterArg_419, %iterArg_457, %c_505, sizes = [1, 768] : (tensor<12x768xbf16>, tensor<i32>, tensor<i32>) -> tensor<1x768xbf16>
      %1464 = stablehlo.reshape %1463 : (tensor<1x768xbf16>) -> tensor<768xbf16>
      %c_506 = stablehlo.constant dense<0> : tensor<i32>
      %c_507 = stablehlo.constant dense<0> : tensor<i32>
      %1465 = stablehlo.dynamic_slice %iterArg_420, %iterArg_457, %c_506, %c_507, sizes = [1, 768, 768] : (tensor<12x768x768xbf16>, tensor<i32>, tensor<i32>, tensor<i32>) -> tensor<1x768x768xbf16>
      %1466 = stablehlo.reshape %1465 : (tensor<1x768x768xbf16>) -> tensor<768x768xbf16>
      %c_508 = stablehlo.constant dense<0> : tensor<i32>
      %1467 = stablehlo.dynamic_slice %iterArg_421, %iterArg_457, %c_508, sizes = [1, 768] : (tensor<12x768xbf16>, tensor<i32>, tensor<i32>) -> tensor<1x768xbf16>
      %1468 = stablehlo.reshape %1467 : (tensor<1x768xbf16>) -> tensor<768xbf16>
      %c_509 = stablehlo.constant dense<0> : tensor<i32>
      %c_510 = stablehlo.constant dense<0> : tensor<i32>
      %1469 = stablehlo.dynamic_slice %iterArg_422, %iterArg_457, %c_509, %c_510, sizes = [1, 768, 768] : (tensor<12x768x768xbf16>, tensor<i32>, tensor<i32>, tensor<i32>) -> tensor<1x768x768xbf16>
      %1470 = stablehlo.reshape %1469 : (tensor<1x768x768xbf16>) -> tensor<768x768xbf16>
      %c_511 = stablehlo.constant dense<0> : tensor<i32>
      %1471 = stablehlo.dynamic_slice %iterArg_423, %iterArg_457, %c_511, sizes = [1, 768] : (tensor<12x768xbf16>, tensor<i32>, tensor<i32>) -> tensor<1x768xbf16>
      %1472 = stablehlo.reshape %1471 : (tensor<1x768xbf16>) -> tensor<768xbf16>
      %c_512 = stablehlo.constant dense<0> : tensor<i32>
      %1473 = stablehlo.dynamic_slice %iterArg_424, %iterArg_457, %c_512, sizes = [1, 768] : (tensor<12x768xbf16>, tensor<i32>, tensor<i32>) -> tensor<1x768xbf16>
      %1474 = stablehlo.reshape %1473 : (tensor<1x768xbf16>) -> tensor<768xbf16>
      %c_513 = stablehlo.constant dense<0> : tensor<i32>
      %1475 = stablehlo.dynamic_slice %iterArg_425, %iterArg_457, %c_513, sizes = [1, 768] : (tensor<12x768xbf16>, tensor<i32>, tensor<i32>) -> tensor<1x768xbf16>
      %1476 = stablehlo.reshape %1475 : (tensor<1x768xbf16>) -> tensor<768xbf16>
      %c_514 = stablehlo.constant dense<0> : tensor<i32>
      %c_515 = stablehlo.constant dense<0> : tensor<i32>
      %1477 = stablehlo.dynamic_slice %iterArg_426, %iterArg_457, %c_514, %c_515, sizes = [1, 3072, 768] : (tensor<12x3072x768xbf16>, tensor<i32>, tensor<i32>, tensor<i32>) -> tensor<1x3072x768xbf16>
      %1478 = stablehlo.reshape %1477 : (tensor<1x3072x768xbf16>) -> tensor<3072x768xbf16>
      %c_516 = stablehlo.constant dense<0> : tensor<i32>
      %1479 = stablehlo.dynamic_slice %iterArg_427, %iterArg_457, %c_516, sizes = [1, 3072] : (tensor<12x3072xbf16>, tensor<i32>, tensor<i32>) -> tensor<1x3072xbf16>
      %1480 = stablehlo.reshape %1479 : (tensor<1x3072xbf16>) -> tensor<3072xbf16>
      %c_517 = stablehlo.constant dense<0> : tensor<i32>
      %c_518 = stablehlo.constant dense<0> : tensor<i32>
      %1481 = stablehlo.dynamic_slice %iterArg_428, %iterArg_457, %c_517, %c_518, sizes = [1, 768, 3072] : (tensor<12x768x3072xbf16>, tensor<i32>, tensor<i32>, tensor<i32>) -> tensor<1x768x3072xbf16>
      %1482 = stablehlo.reshape %1481 : (tensor<1x768x3072xbf16>) -> tensor<768x3072xbf16>
      %c_519 = stablehlo.constant dense<0> : tensor<i32>
      %1483 = stablehlo.dynamic_slice %iterArg_429, %iterArg_457, %c_519, sizes = [1, 768] : (tensor<12x768xbf16>, tensor<i32>, tensor<i32>) -> tensor<1x768xbf16>
      %1484 = stablehlo.reshape %1483 : (tensor<1x768xbf16>) -> tensor<768xbf16>
      %c_520 = stablehlo.constant dense<0> : tensor<i32>
      %1485 = stablehlo.dynamic_slice %iterArg_430, %iterArg_457, %c_520, sizes = [1, 768] : (tensor<12x768xbf16>, tensor<i32>, tensor<i32>) -> tensor<1x768xbf16>
      %1486 = stablehlo.reshape %1485 : (tensor<1x768xbf16>) -> tensor<768xbf16>
      %c_521 = stablehlo.constant dense<0> : tensor<i32>
      %1487 = stablehlo.dynamic_slice %iterArg_431, %iterArg_457, %c_521, sizes = [1, 768] : (tensor<12x768xbf16>, tensor<i32>, tensor<i32>) -> tensor<1x768xbf16>
      %1488 = stablehlo.reshape %1487 : (tensor<1x768xbf16>) -> tensor<768xbf16>
      %c_522 = stablehlo.constant dense<0> : tensor<i32>
      %1489 = stablehlo.dynamic_slice %iterArg_432, %iterArg_457, %c_522, sizes = [1, 2] : (tensor<12x2xui32>, tensor<i32>, tensor<i32>) -> tensor<1x2xui32>
      %1490 = stablehlo.reshape %1489 : (tensor<1x2xui32>) -> tensor<2xui32>
      %1491:42 = func.call @closed_call(%iterArg_433, %iterArg_434, %iterArg_435, %iterArg_436, %iterArg_437, %iterArg_438, %iterArg_439, %iterArg_440, %iterArg_441, %iterArg_442, %iterArg_443, %iterArg_444, %iterArg_445, %iterArg_446, %iterArg_447, %iterArg_448, %iterArg_449, %iterArg_450, %iterArg_451, %iterArg_452, %iterArg_453, %iterArg_454, %iterArg_455, %iterArg_456, %iterArg_458, %1458, %1460, %1462, %1464, %1466, %1468, %1470, %1472, %1474, %1476, %1478, %1480, %1482, %1484, %1486, %1488, %1490) : (tensor<1x1x1xf32>, tensor<1x1x1xf32>, tensor<f32>, tensor<1x1x1xf32>, tensor<1x1x1xf32>, tensor<f32>, tensor<1x1x1x1xf32>, tensor<1x1x1x1xf32>, tensor<f32>, tensor<bf16>, tensor<64x512x12x512xi1>, tensor<64x512x12x512xbf16>, tensor<64x512x12x512xbf16>, tensor<64x512x768xbf16>, tensor<64x512x768xbf16>, tensor<64x512x1xf32>, tensor<64x512x1xf32>, tensor<64x512x1xf32>, tensor<64x512x1xf32>, tensor<bf16>, tensor<64x512x1xf32>, tensor<64x512x1xf32>, tensor<64x512x1xf32>, tensor<64x512x1xf32>, tensor<64x512x768xbf16>, tensor<768x768xbf16>, tensor<768xbf16>, tensor<768x768xbf16>, tensor<768xbf16>, tensor<768x768xbf16>, tensor<768xbf16>, tensor<768x768xbf16>, tensor<768xbf16>, tensor<768xbf16>, tensor<768xbf16>, tensor<3072x768xbf16>, tensor<3072xbf16>, tensor<768x3072xbf16>, tensor<768xbf16>, tensor<768xbf16>, tensor<768xbf16>, tensor<2xui32>) -> (tensor<64x512x768xbf16>, tensor<768x768xbf16>, tensor<64x512x768xbf16>, tensor<768x768xbf16>, tensor<768x768xbf16>, tensor<64x512x12x64xbf16>, tensor<64x512x12x64xbf16>, tensor<64x512x12x512xf32>, tensor<64x512x12x1xf32>, tensor<64x512x12x1xf32>, tensor<64x512x12x512xi1>, tensor<64x512x12x512xbf16>, tensor<64x512x12x64xbf16>, tensor<768x768xbf16>, tensor<64x512x768xbf16>, tensor<64x512x768xi1>, tensor<64x512x768xf32>, tensor<64x512x1xf32>, tensor<64x512x1xf32>, tensor<64x512x1xf32>, tensor<64x512x1xf32>, tensor<64x512x768xf32>, tensor<64x512x768xf32>, tensor<1x1x768xf32>, tensor<768x3072xbf16>, tensor<64x512x768xbf16>, tensor<64x512x3072xbf16>, tensor<64x512x3072xbf16>, tensor<64x512x3072xbf16>, tensor<64x512x3072xbf16>, tensor<64x512x3072xbf16>, tensor<3072x768xbf16>, tensor<64x512x3072xbf16>, tensor<64x512x768xi1>, tensor<64x512x768xf32>, tensor<64x512x1xf32>, tensor<64x512x1xf32>, tensor<64x512x1xf32>, tensor<64x512x1xf32>, tensor<64x512x768xf32>, tensor<64x512x768xf32>, tensor<1x1x768xf32>)
      %1492 = stablehlo.broadcast_in_dim %1491#1, dims = [1, 2] : (tensor<768x768xbf16>) -> tensor<1x768x768xbf16>
      %c_523 = stablehlo.constant dense<0> : tensor<i32>
      %c_524 = stablehlo.constant dense<0> : tensor<i32>
      %1493 = stablehlo.dynamic_update_slice %iterArg_459, %1492, %iterArg_457, %c_523, %c_524 : (tensor<12x768x768xbf16>, tensor<1x768x768xbf16>, tensor<i32>, tensor<i32>, tensor<i32>) -> tensor<12x768x768xbf16>
      %1494 = stablehlo.broadcast_in_dim %1491#2, dims = [1, 2, 3] : (tensor<64x512x768xbf16>) -> tensor<1x64x512x768xbf16>
      %c_525 = stablehlo.constant dense<0> : tensor<i32>
      %c_526 = stablehlo.constant dense<0> : tensor<i32>
      %c_527 = stablehlo.constant dense<0> : tensor<i32>
      %1495 = stablehlo.dynamic_update_slice %iterArg_460, %1494, %iterArg_457, %c_525, %c_526, %c_527 : (tensor<12x64x512x768xbf16>, tensor<1x64x512x768xbf16>, tensor<i32>, tensor<i32>, tensor<i32>, tensor<i32>) -> tensor<12x64x512x768xbf16>
      %1496 = stablehlo.broadcast_in_dim %1491#3, dims = [1, 2] : (tensor<768x768xbf16>) -> tensor<1x768x768xbf16>
      %c_528 = stablehlo.constant dense<0> : tensor<i32>
      %c_529 = stablehlo.constant dense<0> : tensor<i32>
      %1497 = stablehlo.dynamic_update_slice %iterArg_461, %1496, %iterArg_457, %c_528, %c_529 : (tensor<12x768x768xbf16>, tensor<1x768x768xbf16>, tensor<i32>, tensor<i32>, tensor<i32>) -> tensor<12x768x768xbf16>
      %1498 = stablehlo.broadcast_in_dim %1491#4, dims = [1, 2] : (tensor<768x768xbf16>) -> tensor<1x768x768xbf16>
      %c_530 = stablehlo.constant dense<0> : tensor<i32>
      %c_531 = stablehlo.constant dense<0> : tensor<i32>
      %1499 = stablehlo.dynamic_update_slice %iterArg_462, %1498, %iterArg_457, %c_530, %c_531 : (tensor<12x768x768xbf16>, tensor<1x768x768xbf16>, tensor<i32>, tensor<i32>, tensor<i32>) -> tensor<12x768x768xbf16>
      %1500 = stablehlo.broadcast_in_dim %1491#5, dims = [1, 2, 3, 4] : (tensor<64x512x12x64xbf16>) -> tensor<1x64x512x12x64xbf16>
      %c_532 = stablehlo.constant dense<0> : tensor<i32>
      %c_533 = stablehlo.constant dense<0> : tensor<i32>
      %c_534 = stablehlo.constant dense<0> : tensor<i32>
      %c_535 = stablehlo.constant dense<0> : tensor<i32>
      %1501 = stablehlo.dynamic_update_slice %iterArg_463, %1500, %iterArg_457, %c_532, %c_533, %c_534, %c_535 : (tensor<12x64x512x12x64xbf16>, tensor<1x64x512x12x64xbf16>, tensor<i32>, tensor<i32>, tensor<i32>, tensor<i32>, tensor<i32>) -> tensor<12x64x512x12x64xbf16>
      %1502 = stablehlo.broadcast_in_dim %1491#6, dims = [1, 2, 3, 4] : (tensor<64x512x12x64xbf16>) -> tensor<1x64x512x12x64xbf16>
      %c_536 = stablehlo.constant dense<0> : tensor<i32>
      %c_537 = stablehlo.constant dense<0> : tensor<i32>
      %c_538 = stablehlo.constant dense<0> : tensor<i32>
      %c_539 = stablehlo.constant dense<0> : tensor<i32>
      %1503 = stablehlo.dynamic_update_slice %iterArg_464, %1502, %iterArg_457, %c_536, %c_537, %c_538, %c_539 : (tensor<12x64x512x12x64xbf16>, tensor<1x64x512x12x64xbf16>, tensor<i32>, tensor<i32>, tensor<i32>, tensor<i32>, tensor<i32>) -> tensor<12x64x512x12x64xbf16>
      %1504 = stablehlo.broadcast_in_dim %1491#7, dims = [1, 2, 3, 4] : (tensor<64x512x12x512xf32>) -> tensor<1x64x512x12x512xf32>
      %c_540 = stablehlo.constant dense<0> : tensor<i32>
      %c_541 = stablehlo.constant dense<0> : tensor<i32>
      %c_542 = stablehlo.constant dense<0> : tensor<i32>
      %c_543 = stablehlo.constant dense<0> : tensor<i32>
      %1505 = stablehlo.dynamic_update_slice %iterArg_465, %1504, %iterArg_457, %c_540, %c_541, %c_542, %c_543 : (tensor<12x64x512x12x512xf32>, tensor<1x64x512x12x512xf32>, tensor<i32>, tensor<i32>, tensor<i32>, tensor<i32>, tensor<i32>) -> tensor<12x64x512x12x512xf32>
      %1506 = stablehlo.broadcast_in_dim %1491#8, dims = [1, 2, 3, 4] : (tensor<64x512x12x1xf32>) -> tensor<1x64x512x12x1xf32>
      %c_544 = stablehlo.constant dense<0> : tensor<i32>
      %c_545 = stablehlo.constant dense<0> : tensor<i32>
      %c_546 = stablehlo.constant dense<0> : tensor<i32>
      %c_547 = stablehlo.constant dense<0> : tensor<i32>
      %1507 = stablehlo.dynamic_update_slice %iterArg_466, %1506, %iterArg_457, %c_544, %c_545, %c_546, %c_547 : (tensor<12x64x512x12x1xf32>, tensor<1x64x512x12x1xf32>, tensor<i32>, tensor<i32>, tensor<i32>, tensor<i32>, tensor<i32>) -> tensor<12x64x512x12x1xf32>
      %1508 = stablehlo.broadcast_in_dim %1491#9, dims = [1, 2, 3, 4] : (tensor<64x512x12x1xf32>) -> tensor<1x64x512x12x1xf32>
      %c_548 = stablehlo.constant dense<0> : tensor<i32>
      %c_549 = stablehlo.constant dense<0> : tensor<i32>
      %c_550 = stablehlo.constant dense<0> : tensor<i32>
      %c_551 = stablehlo.constant dense<0> : tensor<i32>
      %1509 = stablehlo.dynamic_update_slice %iterArg_467, %1508, %iterArg_457, %c_548, %c_549, %c_550, %c_551 : (tensor<12x64x512x12x1xf32>, tensor<1x64x512x12x1xf32>, tensor<i32>, tensor<i32>, tensor<i32>, tensor<i32>, tensor<i32>) -> tensor<12x64x512x12x1xf32>
      %1510 = stablehlo.broadcast_in_dim %1491#10, dims = [1, 2, 3, 4] : (tensor<64x512x12x512xi1>) -> tensor<1x64x512x12x512xi1>
      %c_552 = stablehlo.constant dense<0> : tensor<i32>
      %c_553 = stablehlo.constant dense<0> : tensor<i32>
      %c_554 = stablehlo.constant dense<0> : tensor<i32>
      %c_555 = stablehlo.constant dense<0> : tensor<i32>
      %1511 = stablehlo.dynamic_update_slice %iterArg_468, %1510, %iterArg_457, %c_552, %c_553, %c_554, %c_555 : (tensor<12x64x512x12x512xi1>, tensor<1x64x512x12x512xi1>, tensor<i32>, tensor<i32>, tensor<i32>, tensor<i32>, tensor<i32>) -> tensor<12x64x512x12x512xi1>
      %1512 = stablehlo.broadcast_in_dim %1491#11, dims = [1, 2, 3, 4] : (tensor<64x512x12x512xbf16>) -> tensor<1x64x512x12x512xbf16>
      %c_556 = stablehlo.constant dense<0> : tensor<i32>
      %c_557 = stablehlo.constant dense<0> : tensor<i32>
      %c_558 = stablehlo.constant dense<0> : tensor<i32>
      %c_559 = stablehlo.constant dense<0> : tensor<i32>
      %1513 = stablehlo.dynamic_update_slice %iterArg_469, %1512, %iterArg_457, %c_556, %c_557, %c_558, %c_559 : (tensor<12x64x512x12x512xbf16>, tensor<1x64x512x12x512xbf16>, tensor<i32>, tensor<i32>, tensor<i32>, tensor<i32>, tensor<i32>) -> tensor<12x64x512x12x512xbf16>
      %1514 = stablehlo.broadcast_in_dim %1491#12, dims = [1, 2, 3, 4] : (tensor<64x512x12x64xbf16>) -> tensor<1x64x512x12x64xbf16>
      %c_560 = stablehlo.constant dense<0> : tensor<i32>
      %c_561 = stablehlo.constant dense<0> : tensor<i32>
      %c_562 = stablehlo.constant dense<0> : tensor<i32>
      %c_563 = stablehlo.constant dense<0> : tensor<i32>
      %1515 = stablehlo.dynamic_update_slice %iterArg_470, %1514, %iterArg_457, %c_560, %c_561, %c_562, %c_563 : (tensor<12x64x512x12x64xbf16>, tensor<1x64x512x12x64xbf16>, tensor<i32>, tensor<i32>, tensor<i32>, tensor<i32>, tensor<i32>) -> tensor<12x64x512x12x64xbf16>
      %1516 = stablehlo.broadcast_in_dim %1491#13, dims = [1, 2] : (tensor<768x768xbf16>) -> tensor<1x768x768xbf16>
      %c_564 = stablehlo.constant dense<0> : tensor<i32>
      %c_565 = stablehlo.constant dense<0> : tensor<i32>
      %1517 = stablehlo.dynamic_update_slice %iterArg_471, %1516, %iterArg_457, %c_564, %c_565 : (tensor<12x768x768xbf16>, tensor<1x768x768xbf16>, tensor<i32>, tensor<i32>, tensor<i32>) -> tensor<12x768x768xbf16>
      %1518 = stablehlo.broadcast_in_dim %1491#14, dims = [1, 2, 3] : (tensor<64x512x768xbf16>) -> tensor<1x64x512x768xbf16>
      %c_566 = stablehlo.constant dense<0> : tensor<i32>
      %c_567 = stablehlo.constant dense<0> : tensor<i32>
      %c_568 = stablehlo.constant dense<0> : tensor<i32>
      %1519 = stablehlo.dynamic_update_slice %iterArg_472, %1518, %iterArg_457, %c_566, %c_567, %c_568 : (tensor<12x64x512x768xbf16>, tensor<1x64x512x768xbf16>, tensor<i32>, tensor<i32>, tensor<i32>, tensor<i32>) -> tensor<12x64x512x768xbf16>
      %1520 = stablehlo.broadcast_in_dim %1491#15, dims = [1, 2, 3] : (tensor<64x512x768xi1>) -> tensor<1x64x512x768xi1>
      %c_569 = stablehlo.constant dense<0> : tensor<i32>
      %c_570 = stablehlo.constant dense<0> : tensor<i32>
      %c_571 = stablehlo.constant dense<0> : tensor<i32>
      %1521 = stablehlo.dynamic_update_slice %iterArg_473, %1520, %iterArg_457, %c_569, %c_570, %c_571 : (tensor<12x64x512x768xi1>, tensor<1x64x512x768xi1>, tensor<i32>, tensor<i32>, tensor<i32>, tensor<i32>) -> tensor<12x64x512x768xi1>
      %1522 = stablehlo.broadcast_in_dim %1491#16, dims = [1, 2, 3] : (tensor<64x512x768xf32>) -> tensor<1x64x512x768xf32>
      %c_572 = stablehlo.constant dense<0> : tensor<i32>
      %c_573 = stablehlo.constant dense<0> : tensor<i32>
      %c_574 = stablehlo.constant dense<0> : tensor<i32>
      %1523 = stablehlo.dynamic_update_slice %iterArg_474, %1522, %iterArg_457, %c_572, %c_573, %c_574 : (tensor<12x64x512x768xf32>, tensor<1x64x512x768xf32>, tensor<i32>, tensor<i32>, tensor<i32>, tensor<i32>) -> tensor<12x64x512x768xf32>
      %1524 = stablehlo.broadcast_in_dim %1491#17, dims = [1, 2, 3] : (tensor<64x512x1xf32>) -> tensor<1x64x512x1xf32>
      %c_575 = stablehlo.constant dense<0> : tensor<i32>
      %c_576 = stablehlo.constant dense<0> : tensor<i32>
      %c_577 = stablehlo.constant dense<0> : tensor<i32>
      %1525 = stablehlo.dynamic_update_slice %iterArg_475, %1524, %iterArg_457, %c_575, %c_576, %c_577 : (tensor<12x64x512x1xf32>, tensor<1x64x512x1xf32>, tensor<i32>, tensor<i32>, tensor<i32>, tensor<i32>) -> tensor<12x64x512x1xf32>
      %1526 = stablehlo.broadcast_in_dim %1491#18, dims = [1, 2, 3] : (tensor<64x512x1xf32>) -> tensor<1x64x512x1xf32>
      %c_578 = stablehlo.constant dense<0> : tensor<i32>
      %c_579 = stablehlo.constant dense<0> : tensor<i32>
      %c_580 = stablehlo.constant dense<0> : tensor<i32>
      %1527 = stablehlo.dynamic_update_slice %iterArg_476, %1526, %iterArg_457, %c_578, %c_579, %c_580 : (tensor<12x64x512x1xf32>, tensor<1x64x512x1xf32>, tensor<i32>, tensor<i32>, tensor<i32>, tensor<i32>) -> tensor<12x64x512x1xf32>
      %1528 = stablehlo.broadcast_in_dim %1491#19, dims = [1, 2, 3] : (tensor<64x512x1xf32>) -> tensor<1x64x512x1xf32>
      %c_581 = stablehlo.constant dense<0> : tensor<i32>
      %c_582 = stablehlo.constant dense<0> : tensor<i32>
      %c_583 = stablehlo.constant dense<0> : tensor<i32>
      %1529 = stablehlo.dynamic_update_slice %iterArg_477, %1528, %iterArg_457, %c_581, %c_582, %c_583 : (tensor<12x64x512x1xf32>, tensor<1x64x512x1xf32>, tensor<i32>, tensor<i32>, tensor<i32>, tensor<i32>) -> tensor<12x64x512x1xf32>
      %1530 = stablehlo.broadcast_in_dim %1491#20, dims = [1, 2, 3] : (tensor<64x512x1xf32>) -> tensor<1x64x512x1xf32>
      %c_584 = stablehlo.constant dense<0> : tensor<i32>
      %c_585 = stablehlo.constant dense<0> : tensor<i32>
      %c_586 = stablehlo.constant dense<0> : tensor<i32>
      %1531 = stablehlo.dynamic_update_slice %iterArg_478, %1530, %iterArg_457, %c_584, %c_585, %c_586 : (tensor<12x64x512x1xf32>, tensor<1x64x512x1xf32>, tensor<i32>, tensor<i32>, tensor<i32>, tensor<i32>) -> tensor<12x64x512x1xf32>
      %1532 = stablehlo.broadcast_in_dim %1491#21, dims = [1, 2, 3] : (tensor<64x512x768xf32>) -> tensor<1x64x512x768xf32>
      %c_587 = stablehlo.constant dense<0> : tensor<i32>
      %c_588 = stablehlo.constant dense<0> : tensor<i32>
      %c_589 = stablehlo.constant dense<0> : tensor<i32>
      %1533 = stablehlo.dynamic_update_slice %iterArg_479, %1532, %iterArg_457, %c_587, %c_588, %c_589 : (tensor<12x64x512x768xf32>, tensor<1x64x512x768xf32>, tensor<i32>, tensor<i32>, tensor<i32>, tensor<i32>) -> tensor<12x64x512x768xf32>
      %1534 = stablehlo.broadcast_in_dim %1491#22, dims = [1, 2, 3] : (tensor<64x512x768xf32>) -> tensor<1x64x512x768xf32>
      %c_590 = stablehlo.constant dense<0> : tensor<i32>
      %c_591 = stablehlo.constant dense<0> : tensor<i32>
      %c_592 = stablehlo.constant dense<0> : tensor<i32>
      %1535 = stablehlo.dynamic_update_slice %iterArg_480, %1534, %iterArg_457, %c_590, %c_591, %c_592 : (tensor<12x64x512x768xf32>, tensor<1x64x512x768xf32>, tensor<i32>, tensor<i32>, tensor<i32>, tensor<i32>) -> tensor<12x64x512x768xf32>
      %1536 = stablehlo.broadcast_in_dim %1491#23, dims = [1, 2, 3] : (tensor<1x1x768xf32>) -> tensor<1x1x1x768xf32>
      %c_593 = stablehlo.constant dense<0> : tensor<i32>
      %c_594 = stablehlo.constant dense<0> : tensor<i32>
      %c_595 = stablehlo.constant dense<0> : tensor<i32>
      %1537 = stablehlo.dynamic_update_slice %iterArg_481, %1536, %iterArg_457, %c_593, %c_594, %c_595 : (tensor<12x1x1x768xf32>, tensor<1x1x1x768xf32>, tensor<i32>, tensor<i32>, tensor<i32>, tensor<i32>) -> tensor<12x1x1x768xf32>
      %1538 = stablehlo.broadcast_in_dim %1491#24, dims = [1, 2] : (tensor<768x3072xbf16>) -> tensor<1x768x3072xbf16>
      %c_596 = stablehlo.constant dense<0> : tensor<i32>
      %c_597 = stablehlo.constant dense<0> : tensor<i32>
      %1539 = stablehlo.dynamic_update_slice %iterArg_482, %1538, %iterArg_457, %c_596, %c_597 : (tensor<12x768x3072xbf16>, tensor<1x768x3072xbf16>, tensor<i32>, tensor<i32>, tensor<i32>) -> tensor<12x768x3072xbf16>
      %1540 = stablehlo.broadcast_in_dim %1491#25, dims = [1, 2, 3] : (tensor<64x512x768xbf16>) -> tensor<1x64x512x768xbf16>
      %c_598 = stablehlo.constant dense<0> : tensor<i32>
      %c_599 = stablehlo.constant dense<0> : tensor<i32>
      %c_600 = stablehlo.constant dense<0> : tensor<i32>
      %1541 = stablehlo.dynamic_update_slice %iterArg_483, %1540, %iterArg_457, %c_598, %c_599, %c_600 : (tensor<12x64x512x768xbf16>, tensor<1x64x512x768xbf16>, tensor<i32>, tensor<i32>, tensor<i32>, tensor<i32>) -> tensor<12x64x512x768xbf16>
      %1542 = stablehlo.broadcast_in_dim %1491#26, dims = [1, 2, 3] : (tensor<64x512x3072xbf16>) -> tensor<1x64x512x3072xbf16>
      %c_601 = stablehlo.constant dense<0> : tensor<i32>
      %c_602 = stablehlo.constant dense<0> : tensor<i32>
      %c_603 = stablehlo.constant dense<0> : tensor<i32>
      %1543 = stablehlo.dynamic_update_slice %iterArg_484, %1542, %iterArg_457, %c_601, %c_602, %c_603 : (tensor<12x64x512x3072xbf16>, tensor<1x64x512x3072xbf16>, tensor<i32>, tensor<i32>, tensor<i32>, tensor<i32>) -> tensor<12x64x512x3072xbf16>
      %1544 = stablehlo.broadcast_in_dim %1491#27, dims = [1, 2, 3] : (tensor<64x512x3072xbf16>) -> tensor<1x64x512x3072xbf16>
      %c_604 = stablehlo.constant dense<0> : tensor<i32>
      %c_605 = stablehlo.constant dense<0> : tensor<i32>
      %c_606 = stablehlo.constant dense<0> : tensor<i32>
      %1545 = stablehlo.dynamic_update_slice %iterArg_485, %1544, %iterArg_457, %c_604, %c_605, %c_606 : (tensor<12x64x512x3072xbf16>, tensor<1x64x512x3072xbf16>, tensor<i32>, tensor<i32>, tensor<i32>, tensor<i32>) -> tensor<12x64x512x3072xbf16>
      %1546 = stablehlo.broadcast_in_dim %1491#28, dims = [1, 2, 3] : (tensor<64x512x3072xbf16>) -> tensor<1x64x512x3072xbf16>
      %c_607 = stablehlo.constant dense<0> : tensor<i32>
      %c_608 = stablehlo.constant dense<0> : tensor<i32>
      %c_609 = stablehlo.constant dense<0> : tensor<i32>
      %1547 = stablehlo.dynamic_update_slice %iterArg_486, %1546, %iterArg_457, %c_607, %c_608, %c_609 : (tensor<12x64x512x3072xbf16>, tensor<1x64x512x3072xbf16>, tensor<i32>, tensor<i32>, tensor<i32>, tensor<i32>) -> tensor<12x64x512x3072xbf16>
      %1548 = stablehlo.broadcast_in_dim %1491#29, dims = [1, 2, 3] : (tensor<64x512x3072xbf16>) -> tensor<1x64x512x3072xbf16>
      %c_610 = stablehlo.constant dense<0> : tensor<i32>
      %c_611 = stablehlo.constant dense<0> : tensor<i32>
      %c_612 = stablehlo.constant dense<0> : tensor<i32>
      %1549 = stablehlo.dynamic_update_slice %iterArg_487, %1548, %iterArg_457, %c_610, %c_611, %c_612 : (tensor<12x64x512x3072xbf16>, tensor<1x64x512x3072xbf16>, tensor<i32>, tensor<i32>, tensor<i32>, tensor<i32>) -> tensor<12x64x512x3072xbf16>
      %1550 = stablehlo.broadcast_in_dim %1491#30, dims = [1, 2, 3] : (tensor<64x512x3072xbf16>) -> tensor<1x64x512x3072xbf16>
      %c_613 = stablehlo.constant dense<0> : tensor<i32>
      %c_614 = stablehlo.constant dense<0> : tensor<i32>
      %c_615 = stablehlo.constant dense<0> : tensor<i32>
      %1551 = stablehlo.dynamic_update_slice %iterArg_488, %1550, %iterArg_457, %c_613, %c_614, %c_615 : (tensor<12x64x512x3072xbf16>, tensor<1x64x512x3072xbf16>, tensor<i32>, tensor<i32>, tensor<i32>, tensor<i32>) -> tensor<12x64x512x3072xbf16>
      %1552 = stablehlo.broadcast_in_dim %1491#31, dims = [1, 2] : (tensor<3072x768xbf16>) -> tensor<1x3072x768xbf16>
      %c_616 = stablehlo.constant dense<0> : tensor<i32>
      %c_617 = stablehlo.constant dense<0> : tensor<i32>
      %1553 = stablehlo.dynamic_update_slice %iterArg_489, %1552, %iterArg_457, %c_616, %c_617 : (tensor<12x3072x768xbf16>, tensor<1x3072x768xbf16>, tensor<i32>, tensor<i32>, tensor<i32>) -> tensor<12x3072x768xbf16>
      %1554 = stablehlo.broadcast_in_dim %1491#32, dims = [1, 2, 3] : (tensor<64x512x3072xbf16>) -> tensor<1x64x512x3072xbf16>
      %c_618 = stablehlo.constant dense<0> : tensor<i32>
      %c_619 = stablehlo.constant dense<0> : tensor<i32>
      %c_620 = stablehlo.constant dense<0> : tensor<i32>
      %1555 = stablehlo.dynamic_update_slice %iterArg_490, %1554, %iterArg_457, %c_618, %c_619, %c_620 : (tensor<12x64x512x3072xbf16>, tensor<1x64x512x3072xbf16>, tensor<i32>, tensor<i32>, tensor<i32>, tensor<i32>) -> tensor<12x64x512x3072xbf16>
      %1556 = stablehlo.broadcast_in_dim %1491#33, dims = [1, 2, 3] : (tensor<64x512x768xi1>) -> tensor<1x64x512x768xi1>
      %c_621 = stablehlo.constant dense<0> : tensor<i32>
      %c_622 = stablehlo.constant dense<0> : tensor<i32>
      %c_623 = stablehlo.constant dense<0> : tensor<i32>
      %1557 = stablehlo.dynamic_update_slice %iterArg_491, %1556, %iterArg_457, %c_621, %c_622, %c_623 : (tensor<12x64x512x768xi1>, tensor<1x64x512x768xi1>, tensor<i32>, tensor<i32>, tensor<i32>, tensor<i32>) -> tensor<12x64x512x768xi1>
      %1558 = stablehlo.broadcast_in_dim %1491#34, dims = [1, 2, 3] : (tensor<64x512x768xf32>) -> tensor<1x64x512x768xf32>
      %c_624 = stablehlo.constant dense<0> : tensor<i32>
      %c_625 = stablehlo.constant dense<0> : tensor<i32>
      %c_626 = stablehlo.constant dense<0> : tensor<i32>
      %1559 = stablehlo.dynamic_update_slice %iterArg_492, %1558, %iterArg_457, %c_624, %c_625, %c_626 : (tensor<12x64x512x768xf32>, tensor<1x64x512x768xf32>, tensor<i32>, tensor<i32>, tensor<i32>, tensor<i32>) -> tensor<12x64x512x768xf32>
      %1560 = stablehlo.broadcast_in_dim %1491#35, dims = [1, 2, 3] : (tensor<64x512x1xf32>) -> tensor<1x64x512x1xf32>
      %c_627 = stablehlo.constant dense<0> : tensor<i32>
      %c_628 = stablehlo.constant dense<0> : tensor<i32>
      %c_629 = stablehlo.constant dense<0> : tensor<i32>
      %1561 = stablehlo.dynamic_update_slice %iterArg_493, %1560, %iterArg_457, %c_627, %c_628, %c_629 : (tensor<12x64x512x1xf32>, tensor<1x64x512x1xf32>, tensor<i32>, tensor<i32>, tensor<i32>, tensor<i32>) -> tensor<12x64x512x1xf32>
      %1562 = stablehlo.broadcast_in_dim %1491#36, dims = [1, 2, 3] : (tensor<64x512x1xf32>) -> tensor<1x64x512x1xf32>
      %c_630 = stablehlo.constant dense<0> : tensor<i32>
      %c_631 = stablehlo.constant dense<0> : tensor<i32>
      %c_632 = stablehlo.constant dense<0> : tensor<i32>
      %1563 = stablehlo.dynamic_update_slice %iterArg_494, %1562, %iterArg_457, %c_630, %c_631, %c_632 : (tensor<12x64x512x1xf32>, tensor<1x64x512x1xf32>, tensor<i32>, tensor<i32>, tensor<i32>, tensor<i32>) -> tensor<12x64x512x1xf32>
      %1564 = stablehlo.broadcast_in_dim %1491#37, dims = [1, 2, 3] : (tensor<64x512x1xf32>) -> tensor<1x64x512x1xf32>
      %c_633 = stablehlo.constant dense<0> : tensor<i32>
      %c_634 = stablehlo.constant dense<0> : tensor<i32>
      %c_635 = stablehlo.constant dense<0> : tensor<i32>
      %1565 = stablehlo.dynamic_update_slice %iterArg_495, %1564, %iterArg_457, %c_633, %c_634, %c_635 : (tensor<12x64x512x1xf32>, tensor<1x64x512x1xf32>, tensor<i32>, tensor<i32>, tensor<i32>, tensor<i32>) -> tensor<12x64x512x1xf32>
      %1566 = stablehlo.broadcast_in_dim %1491#38, dims = [1, 2, 3] : (tensor<64x512x1xf32>) -> tensor<1x64x512x1xf32>
      %c_636 = stablehlo.constant dense<0> : tensor<i32>
      %c_637 = stablehlo.constant dense<0> : tensor<i32>
      %c_638 = stablehlo.constant dense<0> : tensor<i32>
      %1567 = stablehlo.dynamic_update_slice %iterArg_496, %1566, %iterArg_457, %c_636, %c_637, %c_638 : (tensor<12x64x512x1xf32>, tensor<1x64x512x1xf32>, tensor<i32>, tensor<i32>, tensor<i32>, tensor<i32>) -> tensor<12x64x512x1xf32>
      %1568 = stablehlo.broadcast_in_dim %1491#39, dims = [1, 2, 3] : (tensor<64x512x768xf32>) -> tensor<1x64x512x768xf32>
      %c_639 = stablehlo.constant dense<0> : tensor<i32>
      %c_640 = stablehlo.constant dense<0> : tensor<i32>
      %c_641 = stablehlo.constant dense<0> : tensor<i32>
      %1569 = stablehlo.dynamic_update_slice %iterArg_497, %1568, %iterArg_457, %c_639, %c_640, %c_641 : (tensor<12x64x512x768xf32>, tensor<1x64x512x768xf32>, tensor<i32>, tensor<i32>, tensor<i32>, tensor<i32>) -> tensor<12x64x512x768xf32>
      %1570 = stablehlo.broadcast_in_dim %1491#40, dims = [1, 2, 3] : (tensor<64x512x768xf32>) -> tensor<1x64x512x768xf32>
      %c_642 = stablehlo.constant dense<0> : tensor<i32>
      %c_643 = stablehlo.constant dense<0> : tensor<i32>
      %c_644 = stablehlo.constant dense<0> : tensor<i32>
      %1571 = stablehlo.dynamic_update_slice %iterArg_498, %1570, %iterArg_457, %c_642, %c_643, %c_644 : (tensor<12x64x512x768xf32>, tensor<1x64x512x768xf32>, tensor<i32>, tensor<i32>, tensor<i32>, tensor<i32>) -> tensor<12x64x512x768xf32>
      %1572 = stablehlo.broadcast_in_dim %1491#41, dims = [1, 2, 3] : (tensor<1x1x768xf32>) -> tensor<1x1x1x768xf32>
      %c_645 = stablehlo.constant dense<0> : tensor<i32>
      %c_646 = stablehlo.constant dense<0> : tensor<i32>
      %c_647 = stablehlo.constant dense<0> : tensor<i32>
      %1573 = stablehlo.dynamic_update_slice %iterArg_499, %1572, %iterArg_457, %c_645, %c_646, %c_647 : (tensor<12x1x1x768xf32>, tensor<1x1x1x768xf32>, tensor<i32>, tensor<i32>, tensor<i32>, tensor<i32>) -> tensor<12x1x1x768xf32>
      %c_648 = stablehlo.constant dense<1> : tensor<i32>
      %1574 = stablehlo.add %iterArg_457, %c_648 : tensor<i32>
      stablehlo.return %iterArg, %iterArg_417, %iterArg_418, %iterArg_419, %iterArg_420, %iterArg_421, %iterArg_422, %iterArg_423, %iterArg_424, %iterArg_425, %iterArg_426, %iterArg_427, %iterArg_428, %iterArg_429, %iterArg_430, %iterArg_431, %iterArg_432, %iterArg_433, %iterArg_434, %iterArg_435, %iterArg_436, %iterArg_437, %iterArg_438, %iterArg_439, %iterArg_440, %iterArg_441, %iterArg_442, %iterArg_443, %iterArg_444, %iterArg_445, %iterArg_446, %iterArg_447, %iterArg_448, %iterArg_449, %iterArg_450, %iterArg_451, %iterArg_452, %iterArg_453, %iterArg_454, %iterArg_455, %iterArg_456, %1574, %1491#0, %1493, %1495, %1497, %1499, %1501, %1503, %1505, %1507, %1509, %1511, %1513, %1515, %1517, %1519, %1521, %1523, %1525, %1527, %1529, %1531, %1533, %1535, %1537, %1539, %1541, %1543, %1545, %1547, %1549, %1551, %1553, %1555, %1557, %1559, %1561, %1563, %1565, %1567, %1569, %1571, %1573 : tensor<12x768x768xbf16>, tensor<12x768xbf16>, tensor<12x768x768xbf16>, tensor<12x768xbf16>, tensor<12x768x768xbf16>, tensor<12x768xbf16>, tensor<12x768x768xbf16>, tensor<12x768xbf16>, tensor<12x768xbf16>, tensor<12x768xbf16>, tensor<12x3072x768xbf16>, tensor<12x3072xbf16>, tensor<12x768x3072xbf16>, tensor<12x768xbf16>, tensor<12x768xbf16>, tensor<12x768xbf16>, tensor<12x2xui32>, tensor<1x1x1xf32>, tensor<1x1x1xf32>, tensor<f32>, tensor<1x1x1xf32>, tensor<1x1x1xf32>, tensor<f32>, tensor<1x1x1x1xf32>, tensor<1x1x1x1xf32>, tensor<f32>, tensor<bf16>, tensor<64x512x12x512xi1>, tensor<64x512x12x512xbf16>, tensor<64x512x12x512xbf16>, tensor<64x512x768xbf16>, tensor<64x512x768xbf16>, tensor<64x512x1xf32>, tensor<64x512x1xf32>, tensor<64x512x1xf32>, tensor<64x512x1xf32>, tensor<bf16>, tensor<64x512x1xf32>, tensor<64x512x1xf32>, tensor<64x512x1xf32>, tensor<64x512x1xf32>, tensor<i32>, tensor<64x512x768xbf16>, tensor<12x768x768xbf16>, tensor<12x64x512x768xbf16>, tensor<12x768x768xbf16>, tensor<12x768x768xbf16>, tensor<12x64x512x12x64xbf16>, tensor<12x64x512x12x64xbf16>, tensor<12x64x512x12x512xf32>, tensor<12x64x512x12x1xf32>, tensor<12x64x512x12x1xf32>, tensor<12x64x512x12x512xi1>, tensor<12x64x512x12x512xbf16>, tensor<12x64x512x12x64xbf16>, tensor<12x768x768xbf16>, tensor<12x64x512x768xbf16>, tensor<12x64x512x768xi1>, tensor<12x64x512x768xf32>, tensor<12x64x512x1xf32>, tensor<12x64x512x1xf32>, tensor<12x64x512x1xf32>, tensor<12x64x512x1xf32>, tensor<12x64x512x768xf32>, tensor<12x64x512x768xf32>, tensor<12x1x1x768xf32>, tensor<12x768x3072xbf16>, tensor<12x64x512x768xbf16>, tensor<12x64x512x3072xbf16>, tensor<12x64x512x3072xbf16>, tensor<12x64x512x3072xbf16>, tensor<12x64x512x3072xbf16>, tensor<12x64x512x3072xbf16>, tensor<12x3072x768xbf16>, tensor<12x64x512x3072xbf16>, tensor<12x64x512x768xi1>, tensor<12x64x512x768xf32>, tensor<12x64x512x1xf32>, tensor<12x64x512x1xf32>, tensor<12x64x512x1xf32>, tensor<12x64x512x1xf32>, tensor<12x64x512x768xf32>, tensor<12x64x512x768xf32>, tensor<12x1x1x768xf32>
    }
    %139 = stablehlo.transpose %arg21, dims = [1, 0] : (tensor<768x768xbf16>) -> tensor<768x768xbf16>
    %140 = stablehlo.dot_general %138#42, %139, contracting_dims = [2] x [0], precision = [DEFAULT, DEFAULT] : (tensor<64x512x768xbf16>, tensor<768x768xbf16>) -> tensor<64x512x768xbf16>
    %141 = stablehlo.broadcast_in_dim %arg22, dims = [2] : (tensor<768xbf16>) -> tensor<1x1x768xbf16>
    %142 = stablehlo.broadcast_in_dim %141, dims = [0, 1, 2] : (tensor<1x1x768xbf16>) -> tensor<64x512x768xbf16>
    %143 = stablehlo.add %140, %142 : tensor<64x512x768xbf16>
    %144 = stablehlo.multiply %143, %143 : tensor<64x512x768xbf16>
    %145 = stablehlo.multiply %144, %143 : tensor<64x512x768xbf16>
    %146 = stablehlo.multiply %143, %143 : tensor<64x512x768xbf16>
    %cst_75 = stablehlo.constant dense<3.000000e+00> : tensor<bf16>
    %147 = stablehlo.broadcast_in_dim %cst_75, dims = [] : (tensor<bf16>) -> tensor<64x512x768xbf16>
    %148 = stablehlo.multiply %147, %146 : tensor<64x512x768xbf16>
    %cst_76 = stablehlo.constant dense<4.467770e-02> : tensor<bf16>
    %149 = stablehlo.broadcast_in_dim %cst_76, dims = [] : (tensor<bf16>) -> tensor<64x512x768xbf16>
    %150 = stablehlo.multiply %149, %145 : tensor<64x512x768xbf16>
    %151 = stablehlo.add %143, %150 : tensor<64x512x768xbf16>
    %cst_77 = stablehlo.constant dense<7.968750e-01> : tensor<bf16>
    %152 = stablehlo.broadcast_in_dim %cst_77, dims = [] : (tensor<bf16>) -> tensor<64x512x768xbf16>
    %153 = stablehlo.multiply %152, %151 : tensor<64x512x768xbf16>
    %154 = stablehlo.tanh %153 : tensor<64x512x768xbf16>
    %cst_78 = stablehlo.constant dense<1.000000e+00> : tensor<bf16>
    %155 = stablehlo.broadcast_in_dim %cst_78, dims = [] : (tensor<bf16>) -> tensor<bf16>
    %156 = stablehlo.broadcast_in_dim %155, dims = [] : (tensor<bf16>) -> tensor<64x512x768xbf16>
    %157 = stablehlo.subtract %156, %154 : tensor<64x512x768xbf16>
    %cst_79 = stablehlo.constant dense<1.000000e+00> : tensor<bf16>
    %158 = stablehlo.broadcast_in_dim %cst_79, dims = [] : (tensor<bf16>) -> tensor<64x512x768xbf16>
    %159 = stablehlo.add %158, %154 : tensor<64x512x768xbf16>
    %cst_80 = stablehlo.constant dense<5.000000e-01> : tensor<bf16>
    %160 = stablehlo.broadcast_in_dim %cst_80, dims = [] : (tensor<bf16>) -> tensor<64x512x768xbf16>
    %161 = stablehlo.multiply %160, %159 : tensor<64x512x768xbf16>
    %162 = stablehlo.multiply %143, %161 : tensor<64x512x768xbf16>
    %163 = stablehlo.convert %162 : (tensor<64x512x768xbf16>) -> tensor<64x512x768xf32>
    %cst_81 = stablehlo.constant dense<0.000000e+00> : tensor<f32>
    %164 = stablehlo.reduce(%163 init: %cst_81) applies stablehlo.add across dimensions = [2] : (tensor<64x512x768xf32>, tensor<f32>) -> tensor<64x512xf32>
    %165 = stablehlo.broadcast_in_dim %164, dims = [0, 1] : (tensor<64x512xf32>) -> tensor<64x512x1xf32>
    %cst_82 = stablehlo.constant dense<7.680000e+02> : tensor<f32>
    %166 = stablehlo.broadcast_in_dim %cst_82, dims = [] : (tensor<f32>) -> tensor<64x512x1xf32>
    %167 = stablehlo.divide %165, %166 : tensor<64x512x1xf32>
    %168 = stablehlo.broadcast_in_dim %167, dims = [0, 1, 2] : (tensor<64x512x1xf32>) -> tensor<64x512x768xf32>
    %169 = stablehlo.subtract %163, %168 : tensor<64x512x768xf32>
    %170 = stablehlo.multiply %163, %163 : tensor<64x512x768xf32>
    %cst_83 = stablehlo.constant dense<2.000000e+00> : tensor<f32>
    %171 = stablehlo.broadcast_in_dim %cst_83, dims = [] : (tensor<f32>) -> tensor<64x512x768xf32>
    %172 = stablehlo.multiply %171, %163 : tensor<64x512x768xf32>
    %cst_84 = stablehlo.constant dense<0.000000e+00> : tensor<f32>
    %173 = stablehlo.reduce(%170 init: %cst_84) applies stablehlo.add across dimensions = [2] : (tensor<64x512x768xf32>, tensor<f32>) -> tensor<64x512xf32>
    %174 = stablehlo.broadcast_in_dim %173, dims = [0, 1] : (tensor<64x512xf32>) -> tensor<64x512x1xf32>
    %cst_85 = stablehlo.constant dense<7.680000e+02> : tensor<f32>
    %175 = stablehlo.broadcast_in_dim %cst_85, dims = [] : (tensor<f32>) -> tensor<64x512x1xf32>
    %176 = stablehlo.divide %174, %175 : tensor<64x512x1xf32>
    %177 = stablehlo.multiply %167, %167 : tensor<64x512x1xf32>
    %cst_86 = stablehlo.constant dense<2.000000e+00> : tensor<f32>
    %178 = stablehlo.broadcast_in_dim %cst_86, dims = [] : (tensor<f32>) -> tensor<64x512x1xf32>
    %179 = stablehlo.multiply %178, %167 : tensor<64x512x1xf32>
    %180 = stablehlo.subtract %176, %177 : tensor<64x512x1xf32>
    %cst_87 = stablehlo.constant dense<0.000000e+00> : tensor<f32>
    %181 = stablehlo.broadcast_in_dim %cst_87, dims = [] : (tensor<f32>) -> tensor<64x512x1xf32>
    %182 = stablehlo.maximum %181, %180 : tensor<64x512x1xf32>
    %183 = stablehlo.compare  EQ, %180, %182,  FLOAT : (tensor<64x512x1xf32>, tensor<64x512x1xf32>) -> tensor<64x512x1xi1>
    %cst_88 = stablehlo.constant dense<1.000000e+00> : tensor<f32>
    %184 = stablehlo.broadcast_in_dim %cst_88, dims = [] : (tensor<f32>) -> tensor<64x512x1xf32>
    %cst_89 = stablehlo.constant dense<0.000000e+00> : tensor<f32>
    %185 = stablehlo.broadcast_in_dim %cst_89, dims = [] : (tensor<f32>) -> tensor<64x512x1xf32>
    %186 = stablehlo.select %183, %184, %185 : tensor<64x512x1xi1>, tensor<64x512x1xf32>
    %cst_90 = stablehlo.constant dense<0.000000e+00> : tensor<f32>
    %187 = stablehlo.broadcast_in_dim %cst_90, dims = [] : (tensor<f32>) -> tensor<64x512x1xf32>
    %188 = stablehlo.compare  EQ, %187, %182,  FLOAT : (tensor<64x512x1xf32>, tensor<64x512x1xf32>) -> tensor<64x512x1xi1>
    %cst_91 = stablehlo.constant dense<2.000000e+00> : tensor<f32>
    %189 = stablehlo.broadcast_in_dim %cst_91, dims = [] : (tensor<f32>) -> tensor<64x512x1xf32>
    %cst_92 = stablehlo.constant dense<1.000000e+00> : tensor<f32>
    %190 = stablehlo.broadcast_in_dim %cst_92, dims = [] : (tensor<f32>) -> tensor<64x512x1xf32>
    %191 = stablehlo.select %188, %189, %190 : tensor<64x512x1xi1>, tensor<64x512x1xf32>
    %192 = stablehlo.divide %186, %191 : tensor<64x512x1xf32>
    %cst_93 = stablehlo.constant dense<9.99999996E-13> : tensor<f32>
    %193 = stablehlo.broadcast_in_dim %cst_93, dims = [] : (tensor<f32>) -> tensor<64x512x1xf32>
    %194 = stablehlo.add %182, %193 : tensor<64x512x1xf32>
    %195 = stablehlo.rsqrt %194 : tensor<64x512x1xf32>
    %196 = stablehlo.divide %195, %194 : tensor<64x512x1xf32>
    %cst_94 = stablehlo.constant dense<-5.000000e-01> : tensor<f32>
    %197 = stablehlo.broadcast_in_dim %cst_94, dims = [] : (tensor<f32>) -> tensor<64x512x1xf32>
    %198 = stablehlo.multiply %197, %196 : tensor<64x512x1xf32>
    %199 = stablehlo.broadcast_in_dim %195, dims = [0, 1, 2] : (tensor<64x512x1xf32>) -> tensor<64x512x768xf32>
    %200 = stablehlo.multiply %169, %199 : tensor<64x512x768xf32>
    %201 = stablehlo.convert %arg23 : (tensor<768xbf16>) -> tensor<768xf32>
    %202 = stablehlo.broadcast_in_dim %201, dims = [2] : (tensor<768xf32>) -> tensor<1x1x768xf32>
    %203 = stablehlo.broadcast_in_dim %202, dims = [0, 1, 2] : (tensor<1x1x768xf32>) -> tensor<64x512x768xf32>
    %204 = stablehlo.multiply %203, %200 : tensor<64x512x768xf32>
    %205 = stablehlo.convert %arg24 : (tensor<768xbf16>) -> tensor<768xf32>
    %206 = stablehlo.broadcast_in_dim %205, dims = [2] : (tensor<768xf32>) -> tensor<1x1x768xf32>
    %207 = stablehlo.broadcast_in_dim %206, dims = [0, 1, 2] : (tensor<1x1x768xf32>) -> tensor<64x512x768xf32>
    %208 = stablehlo.add %204, %207 : tensor<64x512x768xf32>
    %209 = stablehlo.convert %208 : (tensor<64x512x768xf32>) -> tensor<64x512x768xbf16>
    %210 = stablehlo.transpose %arg25, dims = [1, 0] : (tensor<30522x768xbf16>) -> tensor<768x30522xbf16>
    %211 = stablehlo.dot_general %209, %210, contracting_dims = [2] x [0], precision = [DEFAULT, DEFAULT] : (tensor<64x512x768xbf16>, tensor<768x30522xbf16>) -> tensor<64x512x30522xbf16>
    %212 = stablehlo.broadcast_in_dim %arg26, dims = [2] : (tensor<30522xbf16>) -> tensor<1x1x30522xbf16>
    %213 = stablehlo.broadcast_in_dim %212, dims = [0, 1, 2] : (tensor<1x1x30522xbf16>) -> tensor<64x512x30522xbf16>
    %214 = stablehlo.add %211, %213 : tensor<64x512x30522xbf16>
    %215 = stablehlo.convert %214 : (tensor<64x512x30522xbf16>) -> tensor<64x512x30522xf32>
    %c_95 = stablehlo.constant dense<-100> : tensor<i32>
    %216 = stablehlo.broadcast_in_dim %c_95, dims = [] : (tensor<i32>) -> tensor<64x512xi32>
    %217 = stablehlo.compare  NE, %arg87, %216,  SIGNED : (tensor<64x512xi32>, tensor<64x512xi32>) -> tensor<64x512xi1>
    %c_96 = stablehlo.constant dense<0> : tensor<i32>
    %218 = call @_where_228(%217, %arg87, %c_96) : (tensor<64x512xi1>, tensor<64x512xi32>, tensor<i32>) -> tensor<64x512xi32>
    %c_97 = stablehlo.constant dense<0> : tensor<i32>
    %219 = call @_where_228(%217, %218, %c_97) : (tensor<64x512xi1>, tensor<64x512xi32>, tensor<i32>) -> tensor<64x512xi32>
    %cst_98 = stablehlo.constant dense<0xFF800000> : tensor<f32>
    %220 = stablehlo.reduce(%215 init: %cst_98) applies stablehlo.maximum across dimensions = [2] : (tensor<64x512x30522xf32>, tensor<f32>) -> tensor<64x512xf32>
    %221 = stablehlo.broadcast_in_dim %220, dims = [0, 1] : (tensor<64x512xf32>) -> tensor<64x512x1xf32>
    %222 = stablehlo.broadcast_in_dim %221, dims = [0, 1, 2] : (tensor<64x512x1xf32>) -> tensor<64x512x30522xf32>
    %223 = stablehlo.subtract %215, %222 : tensor<64x512x30522xf32>
    %224 = stablehlo.exponential %223 : tensor<64x512x30522xf32>
    %cst_99 = stablehlo.constant dense<0.000000e+00> : tensor<f32>
    %225 = stablehlo.reduce(%224 init: %cst_99) applies stablehlo.add across dimensions = [2] : (tensor<64x512x30522xf32>, tensor<f32>) -> tensor<64x512xf32>
    %226 = stablehlo.log %225 : tensor<64x512xf32>
    %227 = stablehlo.broadcast_in_dim %219, dims = [0, 1] : (tensor<64x512xi32>) -> tensor<64x512x1xi32>
    %228:2 = call @take_along_axis(%223, %227) : (tensor<64x512x30522xf32>, tensor<64x512x1xi32>) -> (tensor<64x512x1xf32>, tensor<64x512x1x1xi32>)
    %229 = stablehlo.slice %228#0 [0:64, 0:512, 0:1] : (tensor<64x512x1xf32>) -> tensor<64x512x1xf32>
    %230 = stablehlo.reshape %229 : (tensor<64x512x1xf32>) -> tensor<64x512xf32>
    %231 = stablehlo.subtract %226, %230 : tensor<64x512xf32>
    %cst_100 = stablehlo.constant dense<0.000000e+00> : tensor<f32>
    %232 = call @_where_250(%217, %231, %cst_100) : (tensor<64x512xi1>, tensor<64x512xf32>, tensor<f32>) -> tensor<64x512xf32>
    %cst_101 = stablehlo.constant dense<0.000000e+00> : tensor<f32>
    %233 = stablehlo.reduce(%232 init: %cst_101) applies stablehlo.add across dimensions = [0, 1] : (tensor<64x512xf32>, tensor<f32>) -> tensor<f32>
    %234 = stablehlo.convert %217 : (tensor<64x512xi1>) -> tensor<64x512xi32>
    %c_102 = stablehlo.constant dense<0> : tensor<i32>
    %235 = stablehlo.reduce(%234 init: %c_102) applies stablehlo.add across dimensions = [0, 1] : (tensor<64x512xi32>, tensor<i32>) -> tensor<i32>
    %236 = call @argmax(%215) : (tensor<64x512x30522xf32>) -> tensor<64x512xi32>
    %237 = stablehlo.compare  EQ, %236, %arg87,  SIGNED : (tensor<64x512xi32>, tensor<64x512xi32>) -> tensor<64x512xi1>
    %238 = stablehlo.and %237, %217 : tensor<64x512xi1>
    %239 = stablehlo.convert %238 : (tensor<64x512xi1>) -> tensor<64x512xi32>
    %c_103 = stablehlo.constant dense<0> : tensor<i32>
    %240 = stablehlo.reduce(%239 init: %c_103) applies stablehlo.add across dimensions = [0, 1] : (tensor<64x512xi32>, tensor<i32>) -> tensor<i32>
    %cst_104 = stablehlo.constant dense<1.000000e+00> : tensor<f32>
    %241 = stablehlo.broadcast_in_dim %cst_104, dims = [] : (tensor<f32>) -> tensor<f32>
    %242 = stablehlo.broadcast_in_dim %241, dims = [] : (tensor<f32>) -> tensor<64x512xf32>
    %243 = call @_where_268(%217, %242) : (tensor<64x512xi1>, tensor<64x512xf32>) -> tensor<64x512xf32>
    %244 = stablehlo.negate %243 : tensor<64x512xf32>
    %245 = stablehlo.broadcast_in_dim %244, dims = [0, 1] : (tensor<64x512xf32>) -> tensor<64x512x1xf32>
    %cst_105 = stablehlo.constant dense<0.000000e+00> : tensor<f32>
    %246 = stablehlo.pad %245, %cst_105, low = [0, 0, 0], high = [0, 0, 0], interior = [0, 0, 0] : (tensor<64x512x1xf32>, tensor<f32>) -> tensor<64x512x1xf32>
    %247 = call @take_along_axis_269(%228#1, %246) : (tensor<64x512x1x1xi32>, tensor<64x512x1xf32>) -> tensor<64x512x30522xf32>
    %248 = stablehlo.divide %243, %225 : tensor<64x512xf32>
    %249 = stablehlo.broadcast_in_dim %248, dims = [0, 1] : (tensor<64x512xf32>) -> tensor<64x512x30522xf32>
    %250 = stablehlo.multiply %249, %224 : tensor<64x512x30522xf32>
    %251 = stablehlo.add %247, %250 : tensor<64x512x30522xf32>
    %252 = stablehlo.convert %251 : (tensor<64x512x30522xf32>) -> tensor<64x512x30522xbf16>
    %cst_106 = stablehlo.constant dense<0.000000e+00> : tensor<bf16>
    %253 = stablehlo.reduce(%252 init: %cst_106) applies stablehlo.add across dimensions = [0, 1] : (tensor<64x512x30522xbf16>, tensor<bf16>) -> tensor<30522xbf16>
    %254 = stablehlo.reshape %253 : (tensor<30522xbf16>) -> tensor<1x1x30522xbf16>
    %cst_107 = stablehlo.constant dense<0.000000e+00> : tensor<bf16>
    %255 = stablehlo.reduce(%254 init: %cst_107) applies stablehlo.add across dimensions = [0, 1] : (tensor<1x1x30522xbf16>, tensor<bf16>) -> tensor<30522xbf16>
    %256 = stablehlo.dot_general %252, %209, contracting_dims = [0, 1] x [0, 1], precision = [DEFAULT, DEFAULT] : (tensor<64x512x30522xbf16>, tensor<64x512x768xbf16>) -> tensor<30522x768xbf16>
    %257 = stablehlo.transpose %256, dims = [1, 0] : (tensor<30522x768xbf16>) -> tensor<768x30522xbf16>
    %258 = stablehlo.dot_general %252, %210, contracting_dims = [2] x [1], precision = [DEFAULT, DEFAULT] : (tensor<64x512x30522xbf16>, tensor<768x30522xbf16>) -> tensor<64x512x768xbf16>
    %259 = stablehlo.transpose %257, dims = [1, 0] : (tensor<768x30522xbf16>) -> tensor<30522x768xbf16>
    %260 = stablehlo.convert %258 : (tensor<64x512x768xbf16>) -> tensor<64x512x768xf32>
    %cst_108 = stablehlo.constant dense<0.000000e+00> : tensor<f32>
    %261 = stablehlo.reduce(%260 init: %cst_108) applies stablehlo.add across dimensions = [0, 1] : (tensor<64x512x768xf32>, tensor<f32>) -> tensor<768xf32>
    %262 = stablehlo.reshape %261 : (tensor<768xf32>) -> tensor<1x1x768xf32>
    %cst_109 = stablehlo.constant dense<0.000000e+00> : tensor<f32>
    %263 = stablehlo.reduce(%262 init: %cst_109) applies stablehlo.add across dimensions = [0, 1] : (tensor<1x1x768xf32>, tensor<f32>) -> tensor<768xf32>
    %264 = stablehlo.convert %263 : (tensor<768xf32>) -> tensor<768xbf16>
    %265 = stablehlo.broadcast_in_dim %202, dims = [0, 1, 2] : (tensor<1x1x768xf32>) -> tensor<64x512x768xf32>
    %266 = stablehlo.multiply %265, %260 : tensor<64x512x768xf32>
    %267 = stablehlo.multiply %260, %200 : tensor<64x512x768xf32>
    %cst_110 = stablehlo.constant dense<0.000000e+00> : tensor<f32>
    %268 = stablehlo.reduce(%267 init: %cst_110) applies stablehlo.add across dimensions = [0, 1] : (tensor<64x512x768xf32>, tensor<f32>) -> tensor<768xf32>
    %269 = stablehlo.reshape %268 : (tensor<768xf32>) -> tensor<1x1x768xf32>
    %cst_111 = stablehlo.constant dense<0.000000e+00> : tensor<f32>
    %270 = stablehlo.reduce(%269 init: %cst_111) applies stablehlo.add across dimensions = [0, 1] : (tensor<1x1x768xf32>, tensor<f32>) -> tensor<768xf32>
    %271 = stablehlo.convert %270 : (tensor<768xf32>) -> tensor<768xbf16>
    %272 = stablehlo.multiply %169, %266 : tensor<64x512x768xf32>
    %cst_112 = stablehlo.constant dense<0.000000e+00> : tensor<f32>
    %273 = stablehlo.reduce(%272 init: %cst_112) applies stablehlo.add across dimensions = [2] : (tensor<64x512x768xf32>, tensor<f32>) -> tensor<64x512xf32>
    %274 = stablehlo.reshape %273 : (tensor<64x512xf32>) -> tensor<64x512x1xf32>
    %275 = stablehlo.broadcast_in_dim %195, dims = [0, 1, 2] : (tensor<64x512x1xf32>) -> tensor<64x512x768xf32>
    %276 = stablehlo.multiply %266, %275 : tensor<64x512x768xf32>
    %277 = stablehlo.multiply %274, %198 : tensor<64x512x1xf32>
    %278 = stablehlo.multiply %277, %192 : tensor<64x512x1xf32>
    %279 = stablehlo.negate %278 : tensor<64x512x1xf32>
    %280 = stablehlo.multiply %279, %179 : tensor<64x512x1xf32>
    %cst_113 = stablehlo.constant dense<7.680000e+02> : tensor<f32>
    %281 = stablehlo.broadcast_in_dim %cst_113, dims = [] : (tensor<f32>) -> tensor<64x512x1xf32>
    %282 = stablehlo.divide %278, %281 : tensor<64x512x1xf32>
    %cst_114 = stablehlo.constant dense<0.000000e+00> : tensor<f32>
    %283 = stablehlo.reduce(%282 init: %cst_114) applies stablehlo.add across dimensions = [2] : (tensor<64x512x1xf32>, tensor<f32>) -> tensor<64x512xf32>
    %284 = stablehlo.broadcast_in_dim %283, dims = [0, 1] : (tensor<64x512xf32>) -> tensor<64x512x768xf32>
    %285 = stablehlo.multiply %284, %172 : tensor<64x512x768xf32>
    %286 = stablehlo.negate %276 : tensor<64x512x768xf32>
    %cst_115 = stablehlo.constant dense<0.000000e+00> : tensor<f32>
    %287 = stablehlo.reduce(%286 init: %cst_115) applies stablehlo.add across dimensions = [2] : (tensor<64x512x768xf32>, tensor<f32>) -> tensor<64x512xf32>
    %288 = stablehlo.reshape %287 : (tensor<64x512xf32>) -> tensor<64x512x1xf32>
    %289 = stablehlo.add %285, %276 : tensor<64x512x768xf32>
    %290 = stablehlo.add %280, %288 : tensor<64x512x1xf32>
    %cst_116 = stablehlo.constant dense<7.680000e+02> : tensor<f32>
    %291 = stablehlo.broadcast_in_dim %cst_116, dims = [] : (tensor<f32>) -> tensor<64x512x1xf32>
    %292 = stablehlo.divide %290, %291 : tensor<64x512x1xf32>
    %cst_117 = stablehlo.constant dense<0.000000e+00> : tensor<f32>
    %293 = stablehlo.reduce(%292 init: %cst_117) applies stablehlo.add across dimensions = [2] : (tensor<64x512x1xf32>, tensor<f32>) -> tensor<64x512xf32>
    %294 = stablehlo.broadcast_in_dim %293, dims = [0, 1] : (tensor<64x512xf32>) -> tensor<64x512x768xf32>
    %295 = stablehlo.add %289, %294 : tensor<64x512x768xf32>
    %296 = stablehlo.convert %295 : (tensor<64x512x768xf32>) -> tensor<64x512x768xbf16>
    %297 = stablehlo.multiply %143, %296 : tensor<64x512x768xbf16>
    %298 = stablehlo.multiply %296, %161 : tensor<64x512x768xbf16>
    %cst_118 = stablehlo.constant dense<5.000000e-01> : tensor<bf16>
    %299 = stablehlo.broadcast_in_dim %cst_118, dims = [] : (tensor<bf16>) -> tensor<64x512x768xbf16>
    %300 = stablehlo.multiply %299, %297 : tensor<64x512x768xbf16>
    %301 = stablehlo.multiply %300, %157 : tensor<64x512x768xbf16>
    %302 = stablehlo.multiply %301, %154 : tensor<64x512x768xbf16>
    %303 = stablehlo.add %301, %302 : tensor<64x512x768xbf16>
    %cst_119 = stablehlo.constant dense<7.968750e-01> : tensor<bf16>
    %304 = stablehlo.broadcast_in_dim %cst_119, dims = [] : (tensor<bf16>) -> tensor<64x512x768xbf16>
    %305 = stablehlo.multiply %304, %303 : tensor<64x512x768xbf16>
    %306 = stablehlo.add %298, %305 : tensor<64x512x768xbf16>
    %cst_120 = stablehlo.constant dense<4.467770e-02> : tensor<bf16>
    %307 = stablehlo.broadcast_in_dim %cst_120, dims = [] : (tensor<bf16>) -> tensor<64x512x768xbf16>
    %308 = stablehlo.multiply %307, %305 : tensor<64x512x768xbf16>
    %309 = stablehlo.multiply %308, %148 : tensor<64x512x768xbf16>
    %310 = stablehlo.add %306, %309 : tensor<64x512x768xbf16>
    %cst_121 = stablehlo.constant dense<0.000000e+00> : tensor<bf16>
    %311 = stablehlo.reduce(%310 init: %cst_121) applies stablehlo.add across dimensions = [0, 1] : (tensor<64x512x768xbf16>, tensor<bf16>) -> tensor<768xbf16>
    %312 = stablehlo.reshape %311 : (tensor<768xbf16>) -> tensor<1x1x768xbf16>
    %cst_122 = stablehlo.constant dense<0.000000e+00> : tensor<bf16>
    %313 = stablehlo.reduce(%312 init: %cst_122) applies stablehlo.add across dimensions = [0, 1] : (tensor<1x1x768xbf16>, tensor<bf16>) -> tensor<768xbf16>
    %314 = stablehlo.dot_general %310, %138#42, contracting_dims = [0, 1] x [0, 1], precision = [DEFAULT, DEFAULT] : (tensor<64x512x768xbf16>, tensor<64x512x768xbf16>) -> tensor<768x768xbf16>
    %315 = stablehlo.transpose %314, dims = [1, 0] : (tensor<768x768xbf16>) -> tensor<768x768xbf16>
    %316 = stablehlo.dot_general %310, %139, contracting_dims = [2] x [1], precision = [DEFAULT, DEFAULT] : (tensor<64x512x768xbf16>, tensor<768x768xbf16>) -> tensor<64x512x768xbf16>
    %317 = stablehlo.transpose %315, dims = [1, 0] : (tensor<768x768xbf16>) -> tensor<768x768xbf16>
    %cst_123 = stablehlo.constant dense<0.000000e+00> : tensor<bf16>
    %318 = stablehlo.broadcast_in_dim %cst_123, dims = [] : (tensor<bf16>) -> tensor<12x768x768xbf16>
    %cst_124 = stablehlo.constant dense<0.000000e+00> : tensor<bf16>
    %319 = stablehlo.broadcast_in_dim %cst_124, dims = [] : (tensor<bf16>) -> tensor<12x768xbf16>
    %cst_125 = stablehlo.constant dense<0.000000e+00> : tensor<bf16>
    %320 = stablehlo.broadcast_in_dim %cst_125, dims = [] : (tensor<bf16>) -> tensor<12x768x768xbf16>
    %cst_126 = stablehlo.constant dense<0.000000e+00> : tensor<bf16>
    %321 = stablehlo.broadcast_in_dim %cst_126, dims = [] : (tensor<bf16>) -> tensor<12x768xbf16>
    %cst_127 = stablehlo.constant dense<0.000000e+00> : tensor<bf16>
    %322 = stablehlo.broadcast_in_dim %cst_127, dims = [] : (tensor<bf16>) -> tensor<12x768x768xbf16>
    %cst_128 = stablehlo.constant dense<0.000000e+00> : tensor<bf16>
    %323 = stablehlo.broadcast_in_dim %cst_128, dims = [] : (tensor<bf16>) -> tensor<12x768xbf16>
    %cst_129 = stablehlo.constant dense<0.000000e+00> : tensor<bf16>
    %324 = stablehlo.broadcast_in_dim %cst_129, dims = [] : (tensor<bf16>) -> tensor<12x768x768xbf16>
    %cst_130 = stablehlo.constant dense<0.000000e+00> : tensor<bf16>
    %325 = stablehlo.broadcast_in_dim %cst_130, dims = [] : (tensor<bf16>) -> tensor<12x768xbf16>
    %cst_131 = stablehlo.constant dense<0.000000e+00> : tensor<bf16>
    %326 = stablehlo.broadcast_in_dim %cst_131, dims = [] : (tensor<bf16>) -> tensor<12x768xbf16>
    %cst_132 = stablehlo.constant dense<0.000000e+00> : tensor<bf16>
    %327 = stablehlo.broadcast_in_dim %cst_132, dims = [] : (tensor<bf16>) -> tensor<12x768xbf16>
    %cst_133 = stablehlo.constant dense<0.000000e+00> : tensor<bf16>
    %328 = stablehlo.broadcast_in_dim %cst_133, dims = [] : (tensor<bf16>) -> tensor<12x3072x768xbf16>
    %cst_134 = stablehlo.constant dense<0.000000e+00> : tensor<bf16>
    %329 = stablehlo.broadcast_in_dim %cst_134, dims = [] : (tensor<bf16>) -> tensor<12x3072xbf16>
    %cst_135 = stablehlo.constant dense<0.000000e+00> : tensor<bf16>
    %330 = stablehlo.broadcast_in_dim %cst_135, dims = [] : (tensor<bf16>) -> tensor<12x768x3072xbf16>
    %cst_136 = stablehlo.constant dense<0.000000e+00> : tensor<bf16>
    %331 = stablehlo.broadcast_in_dim %cst_136, dims = [] : (tensor<bf16>) -> tensor<12x768xbf16>
    %cst_137 = stablehlo.constant dense<0.000000e+00> : tensor<bf16>
    %332 = stablehlo.broadcast_in_dim %cst_137, dims = [] : (tensor<bf16>) -> tensor<12x768xbf16>
    %cst_138 = stablehlo.constant dense<0.000000e+00> : tensor<bf16>
    %333 = stablehlo.broadcast_in_dim %cst_138, dims = [] : (tensor<bf16>) -> tensor<12x768xbf16>
    %c_139 = stablehlo.constant dense<0> : tensor<i32>
    %334:61 = stablehlo.while(%iterArg = %138#43, %iterArg_417 = %138#44, %iterArg_418 = %138#45, %iterArg_419 = %138#46, %iterArg_420 = %138#47, %iterArg_421 = %138#48, %iterArg_422 = %138#49, %iterArg_423 = %138#50, %iterArg_424 = %138#51, %iterArg_425 = %138#52, %iterArg_426 = %138#53, %iterArg_427 = %138#54, %iterArg_428 = %138#55, %iterArg_429 = %138#56, %iterArg_430 = %138#57, %iterArg_431 = %138#58, %iterArg_432 = %138#59, %iterArg_433 = %138#60, %iterArg_434 = %138#61, %iterArg_435 = %138#62, %iterArg_436 = %138#63, %iterArg_437 = %138#64, %iterArg_438 = %138#65, %iterArg_439 = %138#66, %iterArg_440 = %138#67, %iterArg_441 = %138#68, %iterArg_442 = %138#69, %iterArg_443 = %138#70, %iterArg_444 = %138#71, %iterArg_445 = %138#72, %iterArg_446 = %138#73, %iterArg_447 = %138#74, %iterArg_448 = %138#75, %iterArg_449 = %138#76, %iterArg_450 = %138#77, %iterArg_451 = %138#78, %iterArg_452 = %138#79, %iterArg_453 = %138#80, %iterArg_454 = %138#81, %iterArg_455 = %138#82, %iterArg_456 = %138#83, %iterArg_457 = %79, %iterArg_458 = %81#0, %iterArg_459 = %c_139, %iterArg_460 = %316, %iterArg_461 = %318, %iterArg_462 = %319, %iterArg_463 = %320, %iterArg_464 = %321, %iterArg_465 = %322, %iterArg_466 = %323, %iterArg_467 = %324, %iterArg_468 = %325, %iterArg_469 = %326, %iterArg_470 = %327, %iterArg_471 = %328, %iterArg_472 = %329, %iterArg_473 = %330, %iterArg_474 = %331, %iterArg_475 = %332, %iterArg_476 = %333) : tensor<12x768x768xbf16>, tensor<12x64x512x768xbf16>, tensor<12x768x768xbf16>, tensor<12x768x768xbf16>, tensor<12x64x512x12x64xbf16>, tensor<12x64x512x12x64xbf16>, tensor<12x64x512x12x512xf32>, tensor<12x64x512x12x1xf32>, tensor<12x64x512x12x1xf32>, tensor<12x64x512x12x512xi1>, tensor<12x64x512x12x512xbf16>, tensor<12x64x512x12x64xbf16>, tensor<12x768x768xbf16>, tensor<12x64x512x768xbf16>, tensor<12x64x512x768xi1>, tensor<12x64x512x768xf32>, tensor<12x64x512x1xf32>, tensor<12x64x512x1xf32>, tensor<12x64x512x1xf32>, tensor<12x64x512x1xf32>, tensor<12x64x512x768xf32>, tensor<12x64x512x768xf32>, tensor<12x1x1x768xf32>, tensor<12x768x3072xbf16>, tensor<12x64x512x768xbf16>, tensor<12x64x512x3072xbf16>, tensor<12x64x512x3072xbf16>, tensor<12x64x512x3072xbf16>, tensor<12x64x512x3072xbf16>, tensor<12x64x512x3072xbf16>, tensor<12x3072x768xbf16>, tensor<12x64x512x3072xbf16>, tensor<12x64x512x768xi1>, tensor<12x64x512x768xf32>, tensor<12x64x512x1xf32>, tensor<12x64x512x1xf32>, tensor<12x64x512x1xf32>, tensor<12x64x512x1xf32>, tensor<12x64x512x768xf32>, tensor<12x64x512x768xf32>, tensor<12x1x1x768xf32>, tensor<bf16>, tensor<64x512x12x512xi1>, tensor<i32>, tensor<64x512x768xbf16>, tensor<12x768x768xbf16>, tensor<12x768xbf16>, tensor<12x768x768xbf16>, tensor<12x768xbf16>, tensor<12x768x768xbf16>, tensor<12x768xbf16>, tensor<12x768x768xbf16>, tensor<12x768xbf16>, tensor<12x768xbf16>, tensor<12x768xbf16>, tensor<12x3072x768xbf16>, tensor<12x3072xbf16>, tensor<12x768x3072xbf16>, tensor<12x768xbf16>, tensor<12x768xbf16>, tensor<12x768xbf16>
    cond {
      %c_477 = stablehlo.constant dense<12> : tensor<i32>
      %1457 = stablehlo.compare  LT, %iterArg_459, %c_477,  SIGNED : (tensor<i32>, tensor<i32>) -> tensor<i1>
      stablehlo.return %1457 : tensor<i1>
    } do {
      %c_477 = stablehlo.constant dense<12> : tensor<i32>
      %1457 = stablehlo.subtract %c_477, %iterArg_459 : tensor<i32>
      %c_478 = stablehlo.constant dense<1> : tensor<i32>
      %1458 = stablehlo.subtract %1457, %c_478 : tensor<i32>
      %c_479 = stablehlo.constant dense<0> : tensor<i32>
      %c_480 = stablehlo.constant dense<0> : tensor<i32>
      %1459 = stablehlo.dynamic_slice %iterArg, %1458, %c_479, %c_480, sizes = [1, 768, 768] : (tensor<12x768x768xbf16>, tensor<i32>, tensor<i32>, tensor<i32>) -> tensor<1x768x768xbf16>
      %1460 = stablehlo.reshape %1459 : (tensor<1x768x768xbf16>) -> tensor<768x768xbf16>
      %c_481 = stablehlo.constant dense<0> : tensor<i32>
      %c_482 = stablehlo.constant dense<0> : tensor<i32>
      %c_483 = stablehlo.constant dense<0> : tensor<i32>
      %1461 = stablehlo.dynamic_slice %iterArg_417, %1458, %c_481, %c_482, %c_483, sizes = [1, 64, 512, 768] : (tensor<12x64x512x768xbf16>, tensor<i32>, tensor<i32>, tensor<i32>, tensor<i32>) -> tensor<1x64x512x768xbf16>
      %1462 = stablehlo.reshape %1461 : (tensor<1x64x512x768xbf16>) -> tensor<64x512x768xbf16>
      %c_484 = stablehlo.constant dense<0> : tensor<i32>
      %c_485 = stablehlo.constant dense<0> : tensor<i32>
      %1463 = stablehlo.dynamic_slice %iterArg_418, %1458, %c_484, %c_485, sizes = [1, 768, 768] : (tensor<12x768x768xbf16>, tensor<i32>, tensor<i32>, tensor<i32>) -> tensor<1x768x768xbf16>
      %1464 = stablehlo.reshape %1463 : (tensor<1x768x768xbf16>) -> tensor<768x768xbf16>
      %c_486 = stablehlo.constant dense<0> : tensor<i32>
      %c_487 = stablehlo.constant dense<0> : tensor<i32>
      %1465 = stablehlo.dynamic_slice %iterArg_419, %1458, %c_486, %c_487, sizes = [1, 768, 768] : (tensor<12x768x768xbf16>, tensor<i32>, tensor<i32>, tensor<i32>) -> tensor<1x768x768xbf16>
      %1466 = stablehlo.reshape %1465 : (tensor<1x768x768xbf16>) -> tensor<768x768xbf16>
      %c_488 = stablehlo.constant dense<0> : tensor<i32>
      %c_489 = stablehlo.constant dense<0> : tensor<i32>
      %c_490 = stablehlo.constant dense<0> : tensor<i32>
      %c_491 = stablehlo.constant dense<0> : tensor<i32>
      %1467 = stablehlo.dynamic_slice %iterArg_420, %1458, %c_488, %c_489, %c_490, %c_491, sizes = [1, 64, 512, 12, 64] : (tensor<12x64x512x12x64xbf16>, tensor<i32>, tensor<i32>, tensor<i32>, tensor<i32>, tensor<i32>) -> tensor<1x64x512x12x64xbf16>
      %1468 = stablehlo.reshape %1467 : (tensor<1x64x512x12x64xbf16>) -> tensor<64x512x12x64xbf16>
      %c_492 = stablehlo.constant dense<0> : tensor<i32>
      %c_493 = stablehlo.constant dense<0> : tensor<i32>
      %c_494 = stablehlo.constant dense<0> : tensor<i32>
      %c_495 = stablehlo.constant dense<0> : tensor<i32>
      %1469 = stablehlo.dynamic_slice %iterArg_421, %1458, %c_492, %c_493, %c_494, %c_495, sizes = [1, 64, 512, 12, 64] : (tensor<12x64x512x12x64xbf16>, tensor<i32>, tensor<i32>, tensor<i32>, tensor<i32>, tensor<i32>) -> tensor<1x64x512x12x64xbf16>
      %1470 = stablehlo.reshape %1469 : (tensor<1x64x512x12x64xbf16>) -> tensor<64x512x12x64xbf16>
      %c_496 = stablehlo.constant dense<0> : tensor<i32>
      %c_497 = stablehlo.constant dense<0> : tensor<i32>
      %c_498 = stablehlo.constant dense<0> : tensor<i32>
      %c_499 = stablehlo.constant dense<0> : tensor<i32>
      %1471 = stablehlo.dynamic_slice %iterArg_422, %1458, %c_496, %c_497, %c_498, %c_499, sizes = [1, 64, 512, 12, 512] : (tensor<12x64x512x12x512xf32>, tensor<i32>, tensor<i32>, tensor<i32>, tensor<i32>, tensor<i32>) -> tensor<1x64x512x12x512xf32>
      %1472 = stablehlo.reshape %1471 : (tensor<1x64x512x12x512xf32>) -> tensor<64x512x12x512xf32>
      %c_500 = stablehlo.constant dense<0> : tensor<i32>
      %c_501 = stablehlo.constant dense<0> : tensor<i32>
      %c_502 = stablehlo.constant dense<0> : tensor<i32>
      %c_503 = stablehlo.constant dense<0> : tensor<i32>
      %1473 = stablehlo.dynamic_slice %iterArg_423, %1458, %c_500, %c_501, %c_502, %c_503, sizes = [1, 64, 512, 12, 1] : (tensor<12x64x512x12x1xf32>, tensor<i32>, tensor<i32>, tensor<i32>, tensor<i32>, tensor<i32>) -> tensor<1x64x512x12x1xf32>
      %1474 = stablehlo.reshape %1473 : (tensor<1x64x512x12x1xf32>) -> tensor<64x512x12x1xf32>
      %c_504 = stablehlo.constant dense<0> : tensor<i32>
      %c_505 = stablehlo.constant dense<0> : tensor<i32>
      %c_506 = stablehlo.constant dense<0> : tensor<i32>
      %c_507 = stablehlo.constant dense<0> : tensor<i32>
      %1475 = stablehlo.dynamic_slice %iterArg_424, %1458, %c_504, %c_505, %c_506, %c_507, sizes = [1, 64, 512, 12, 1] : (tensor<12x64x512x12x1xf32>, tensor<i32>, tensor<i32>, tensor<i32>, tensor<i32>, tensor<i32>) -> tensor<1x64x512x12x1xf32>
      %1476 = stablehlo.reshape %1475 : (tensor<1x64x512x12x1xf32>) -> tensor<64x512x12x1xf32>
      %c_508 = stablehlo.constant dense<0> : tensor<i32>
      %c_509 = stablehlo.constant dense<0> : tensor<i32>
      %c_510 = stablehlo.constant dense<0> : tensor<i32>
      %c_511 = stablehlo.constant dense<0> : tensor<i32>
      %1477 = stablehlo.dynamic_slice %iterArg_425, %1458, %c_508, %c_509, %c_510, %c_511, sizes = [1, 64, 512, 12, 512] : (tensor<12x64x512x12x512xi1>, tensor<i32>, tensor<i32>, tensor<i32>, tensor<i32>, tensor<i32>) -> tensor<1x64x512x12x512xi1>
      %1478 = stablehlo.reshape %1477 : (tensor<1x64x512x12x512xi1>) -> tensor<64x512x12x512xi1>
      %c_512 = stablehlo.constant dense<0> : tensor<i32>
      %c_513 = stablehlo.constant dense<0> : tensor<i32>
      %c_514 = stablehlo.constant dense<0> : tensor<i32>
      %c_515 = stablehlo.constant dense<0> : tensor<i32>
      %1479 = stablehlo.dynamic_slice %iterArg_426, %1458, %c_512, %c_513, %c_514, %c_515, sizes = [1, 64, 512, 12, 512] : (tensor<12x64x512x12x512xbf16>, tensor<i32>, tensor<i32>, tensor<i32>, tensor<i32>, tensor<i32>) -> tensor<1x64x512x12x512xbf16>
      %1480 = stablehlo.reshape %1479 : (tensor<1x64x512x12x512xbf16>) -> tensor<64x512x12x512xbf16>
      %c_516 = stablehlo.constant dense<0> : tensor<i32>
      %c_517 = stablehlo.constant dense<0> : tensor<i32>
      %c_518 = stablehlo.constant dense<0> : tensor<i32>
      %c_519 = stablehlo.constant dense<0> : tensor<i32>
      %1481 = stablehlo.dynamic_slice %iterArg_427, %1458, %c_516, %c_517, %c_518, %c_519, sizes = [1, 64, 512, 12, 64] : (tensor<12x64x512x12x64xbf16>, tensor<i32>, tensor<i32>, tensor<i32>, tensor<i32>, tensor<i32>) -> tensor<1x64x512x12x64xbf16>
      %1482 = stablehlo.reshape %1481 : (tensor<1x64x512x12x64xbf16>) -> tensor<64x512x12x64xbf16>
      %c_520 = stablehlo.constant dense<0> : tensor<i32>
      %c_521 = stablehlo.constant dense<0> : tensor<i32>
      %1483 = stablehlo.dynamic_slice %iterArg_428, %1458, %c_520, %c_521, sizes = [1, 768, 768] : (tensor<12x768x768xbf16>, tensor<i32>, tensor<i32>, tensor<i32>) -> tensor<1x768x768xbf16>
      %1484 = stablehlo.reshape %1483 : (tensor<1x768x768xbf16>) -> tensor<768x768xbf16>
      %c_522 = stablehlo.constant dense<0> : tensor<i32>
      %c_523 = stablehlo.constant dense<0> : tensor<i32>
      %c_524 = stablehlo.constant dense<0> : tensor<i32>
      %1485 = stablehlo.dynamic_slice %iterArg_429, %1458, %c_522, %c_523, %c_524, sizes = [1, 64, 512, 768] : (tensor<12x64x512x768xbf16>, tensor<i32>, tensor<i32>, tensor<i32>, tensor<i32>) -> tensor<1x64x512x768xbf16>
      %1486 = stablehlo.reshape %1485 : (tensor<1x64x512x768xbf16>) -> tensor<64x512x768xbf16>
      %c_525 = stablehlo.constant dense<0> : tensor<i32>
      %c_526 = stablehlo.constant dense<0> : tensor<i32>
      %c_527 = stablehlo.constant dense<0> : tensor<i32>
      %1487 = stablehlo.dynamic_slice %iterArg_430, %1458, %c_525, %c_526, %c_527, sizes = [1, 64, 512, 768] : (tensor<12x64x512x768xi1>, tensor<i32>, tensor<i32>, tensor<i32>, tensor<i32>) -> tensor<1x64x512x768xi1>
      %1488 = stablehlo.reshape %1487 : (tensor<1x64x512x768xi1>) -> tensor<64x512x768xi1>
      %c_528 = stablehlo.constant dense<0> : tensor<i32>
      %c_529 = stablehlo.constant dense<0> : tensor<i32>
      %c_530 = stablehlo.constant dense<0> : tensor<i32>
      %1489 = stablehlo.dynamic_slice %iterArg_431, %1458, %c_528, %c_529, %c_530, sizes = [1, 64, 512, 768] : (tensor<12x64x512x768xf32>, tensor<i32>, tensor<i32>, tensor<i32>, tensor<i32>) -> tensor<1x64x512x768xf32>
      %1490 = stablehlo.reshape %1489 : (tensor<1x64x512x768xf32>) -> tensor<64x512x768xf32>
      %c_531 = stablehlo.constant dense<0> : tensor<i32>
      %c_532 = stablehlo.constant dense<0> : tensor<i32>
      %c_533 = stablehlo.constant dense<0> : tensor<i32>
      %1491 = stablehlo.dynamic_slice %iterArg_432, %1458, %c_531, %c_532, %c_533, sizes = [1, 64, 512, 1] : (tensor<12x64x512x1xf32>, tensor<i32>, tensor<i32>, tensor<i32>, tensor<i32>) -> tensor<1x64x512x1xf32>
      %1492 = stablehlo.reshape %1491 : (tensor<1x64x512x1xf32>) -> tensor<64x512x1xf32>
      %c_534 = stablehlo.constant dense<0> : tensor<i32>
      %c_535 = stablehlo.constant dense<0> : tensor<i32>
      %c_536 = stablehlo.constant dense<0> : tensor<i32>
      %1493 = stablehlo.dynamic_slice %iterArg_433, %1458, %c_534, %c_535, %c_536, sizes = [1, 64, 512, 1] : (tensor<12x64x512x1xf32>, tensor<i32>, tensor<i32>, tensor<i32>, tensor<i32>) -> tensor<1x64x512x1xf32>
      %1494 = stablehlo.reshape %1493 : (tensor<1x64x512x1xf32>) -> tensor<64x512x1xf32>
      %c_537 = stablehlo.constant dense<0> : tensor<i32>
      %c_538 = stablehlo.constant dense<0> : tensor<i32>
      %c_539 = stablehlo.constant dense<0> : tensor<i32>
      %1495 = stablehlo.dynamic_slice %iterArg_434, %1458, %c_537, %c_538, %c_539, sizes = [1, 64, 512, 1] : (tensor<12x64x512x1xf32>, tensor<i32>, tensor<i32>, tensor<i32>, tensor<i32>) -> tensor<1x64x512x1xf32>
      %1496 = stablehlo.reshape %1495 : (tensor<1x64x512x1xf32>) -> tensor<64x512x1xf32>
      %c_540 = stablehlo.constant dense<0> : tensor<i32>
      %c_541 = stablehlo.constant dense<0> : tensor<i32>
      %c_542 = stablehlo.constant dense<0> : tensor<i32>
      %1497 = stablehlo.dynamic_slice %iterArg_435, %1458, %c_540, %c_541, %c_542, sizes = [1, 64, 512, 1] : (tensor<12x64x512x1xf32>, tensor<i32>, tensor<i32>, tensor<i32>, tensor<i32>) -> tensor<1x64x512x1xf32>
      %1498 = stablehlo.reshape %1497 : (tensor<1x64x512x1xf32>) -> tensor<64x512x1xf32>
      %c_543 = stablehlo.constant dense<0> : tensor<i32>
      %c_544 = stablehlo.constant dense<0> : tensor<i32>
      %c_545 = stablehlo.constant dense<0> : tensor<i32>
      %1499 = stablehlo.dynamic_slice %iterArg_436, %1458, %c_543, %c_544, %c_545, sizes = [1, 64, 512, 768] : (tensor<12x64x512x768xf32>, tensor<i32>, tensor<i32>, tensor<i32>, tensor<i32>) -> tensor<1x64x512x768xf32>
      %1500 = stablehlo.reshape %1499 : (tensor<1x64x512x768xf32>) -> tensor<64x512x768xf32>
      %c_546 = stablehlo.constant dense<0> : tensor<i32>
      %c_547 = stablehlo.constant dense<0> : tensor<i32>
      %c_548 = stablehlo.constant dense<0> : tensor<i32>
      %1501 = stablehlo.dynamic_slice %iterArg_437, %1458, %c_546, %c_547, %c_548, sizes = [1, 64, 512, 768] : (tensor<12x64x512x768xf32>, tensor<i32>, tensor<i32>, tensor<i32>, tensor<i32>) -> tensor<1x64x512x768xf32>
      %1502 = stablehlo.reshape %1501 : (tensor<1x64x512x768xf32>) -> tensor<64x512x768xf32>
      %c_549 = stablehlo.constant dense<0> : tensor<i32>
      %c_550 = stablehlo.constant dense<0> : tensor<i32>
      %c_551 = stablehlo.constant dense<0> : tensor<i32>
      %1503 = stablehlo.dynamic_slice %iterArg_438, %1458, %c_549, %c_550, %c_551, sizes = [1, 1, 1, 768] : (tensor<12x1x1x768xf32>, tensor<i32>, tensor<i32>, tensor<i32>, tensor<i32>) -> tensor<1x1x1x768xf32>
      %1504 = stablehlo.reshape %1503 : (tensor<1x1x1x768xf32>) -> tensor<1x1x768xf32>
      %c_552 = stablehlo.constant dense<0> : tensor<i32>
      %c_553 = stablehlo.constant dense<0> : tensor<i32>
      %1505 = stablehlo.dynamic_slice %iterArg_439, %1458, %c_552, %c_553, sizes = [1, 768, 3072] : (tensor<12x768x3072xbf16>, tensor<i32>, tensor<i32>, tensor<i32>) -> tensor<1x768x3072xbf16>
      %1506 = stablehlo.reshape %1505 : (tensor<1x768x3072xbf16>) -> tensor<768x3072xbf16>
      %c_554 = stablehlo.constant dense<0> : tensor<i32>
      %c_555 = stablehlo.constant dense<0> : tensor<i32>
      %c_556 = stablehlo.constant dense<0> : tensor<i32>
      %1507 = stablehlo.dynamic_slice %iterArg_440, %1458, %c_554, %c_555, %c_556, sizes = [1, 64, 512, 768] : (tensor<12x64x512x768xbf16>, tensor<i32>, tensor<i32>, tensor<i32>, tensor<i32>) -> tensor<1x64x512x768xbf16>
      %1508 = stablehlo.reshape %1507 : (tensor<1x64x512x768xbf16>) -> tensor<64x512x768xbf16>
      %c_557 = stablehlo.constant dense<0> : tensor<i32>
      %c_558 = stablehlo.constant dense<0> : tensor<i32>
      %c_559 = stablehlo.constant dense<0> : tensor<i32>
      %1509 = stablehlo.dynamic_slice %iterArg_441, %1458, %c_557, %c_558, %c_559, sizes = [1, 64, 512, 3072] : (tensor<12x64x512x3072xbf16>, tensor<i32>, tensor<i32>, tensor<i32>, tensor<i32>) -> tensor<1x64x512x3072xbf16>
      %1510 = stablehlo.reshape %1509 : (tensor<1x64x512x3072xbf16>) -> tensor<64x512x3072xbf16>
      %c_560 = stablehlo.constant dense<0> : tensor<i32>
      %c_561 = stablehlo.constant dense<0> : tensor<i32>
      %c_562 = stablehlo.constant dense<0> : tensor<i32>
      %1511 = stablehlo.dynamic_slice %iterArg_442, %1458, %c_560, %c_561, %c_562, sizes = [1, 64, 512, 3072] : (tensor<12x64x512x3072xbf16>, tensor<i32>, tensor<i32>, tensor<i32>, tensor<i32>) -> tensor<1x64x512x3072xbf16>
      %1512 = stablehlo.reshape %1511 : (tensor<1x64x512x3072xbf16>) -> tensor<64x512x3072xbf16>
      %c_563 = stablehlo.constant dense<0> : tensor<i32>
      %c_564 = stablehlo.constant dense<0> : tensor<i32>
      %c_565 = stablehlo.constant dense<0> : tensor<i32>
      %1513 = stablehlo.dynamic_slice %iterArg_443, %1458, %c_563, %c_564, %c_565, sizes = [1, 64, 512, 3072] : (tensor<12x64x512x3072xbf16>, tensor<i32>, tensor<i32>, tensor<i32>, tensor<i32>) -> tensor<1x64x512x3072xbf16>
      %1514 = stablehlo.reshape %1513 : (tensor<1x64x512x3072xbf16>) -> tensor<64x512x3072xbf16>
      %c_566 = stablehlo.constant dense<0> : tensor<i32>
      %c_567 = stablehlo.constant dense<0> : tensor<i32>
      %c_568 = stablehlo.constant dense<0> : tensor<i32>
      %1515 = stablehlo.dynamic_slice %iterArg_444, %1458, %c_566, %c_567, %c_568, sizes = [1, 64, 512, 3072] : (tensor<12x64x512x3072xbf16>, tensor<i32>, tensor<i32>, tensor<i32>, tensor<i32>) -> tensor<1x64x512x3072xbf16>
      %1516 = stablehlo.reshape %1515 : (tensor<1x64x512x3072xbf16>) -> tensor<64x512x3072xbf16>
      %c_569 = stablehlo.constant dense<0> : tensor<i32>
      %c_570 = stablehlo.constant dense<0> : tensor<i32>
      %c_571 = stablehlo.constant dense<0> : tensor<i32>
      %1517 = stablehlo.dynamic_slice %iterArg_445, %1458, %c_569, %c_570, %c_571, sizes = [1, 64, 512, 3072] : (tensor<12x64x512x3072xbf16>, tensor<i32>, tensor<i32>, tensor<i32>, tensor<i32>) -> tensor<1x64x512x3072xbf16>
      %1518 = stablehlo.reshape %1517 : (tensor<1x64x512x3072xbf16>) -> tensor<64x512x3072xbf16>
      %c_572 = stablehlo.constant dense<0> : tensor<i32>
      %c_573 = stablehlo.constant dense<0> : tensor<i32>
      %1519 = stablehlo.dynamic_slice %iterArg_446, %1458, %c_572, %c_573, sizes = [1, 3072, 768] : (tensor<12x3072x768xbf16>, tensor<i32>, tensor<i32>, tensor<i32>) -> tensor<1x3072x768xbf16>
      %1520 = stablehlo.reshape %1519 : (tensor<1x3072x768xbf16>) -> tensor<3072x768xbf16>
      %c_574 = stablehlo.constant dense<0> : tensor<i32>
      %c_575 = stablehlo.constant dense<0> : tensor<i32>
      %c_576 = stablehlo.constant dense<0> : tensor<i32>
      %1521 = stablehlo.dynamic_slice %iterArg_447, %1458, %c_574, %c_575, %c_576, sizes = [1, 64, 512, 3072] : (tensor<12x64x512x3072xbf16>, tensor<i32>, tensor<i32>, tensor<i32>, tensor<i32>) -> tensor<1x64x512x3072xbf16>
      %1522 = stablehlo.reshape %1521 : (tensor<1x64x512x3072xbf16>) -> tensor<64x512x3072xbf16>
      %c_577 = stablehlo.constant dense<0> : tensor<i32>
      %c_578 = stablehlo.constant dense<0> : tensor<i32>
      %c_579 = stablehlo.constant dense<0> : tensor<i32>
      %1523 = stablehlo.dynamic_slice %iterArg_448, %1458, %c_577, %c_578, %c_579, sizes = [1, 64, 512, 768] : (tensor<12x64x512x768xi1>, tensor<i32>, tensor<i32>, tensor<i32>, tensor<i32>) -> tensor<1x64x512x768xi1>
      %1524 = stablehlo.reshape %1523 : (tensor<1x64x512x768xi1>) -> tensor<64x512x768xi1>
      %c_580 = stablehlo.constant dense<0> : tensor<i32>
      %c_581 = stablehlo.constant dense<0> : tensor<i32>
      %c_582 = stablehlo.constant dense<0> : tensor<i32>
      %1525 = stablehlo.dynamic_slice %iterArg_449, %1458, %c_580, %c_581, %c_582, sizes = [1, 64, 512, 768] : (tensor<12x64x512x768xf32>, tensor<i32>, tensor<i32>, tensor<i32>, tensor<i32>) -> tensor<1x64x512x768xf32>
      %1526 = stablehlo.reshape %1525 : (tensor<1x64x512x768xf32>) -> tensor<64x512x768xf32>
      %c_583 = stablehlo.constant dense<0> : tensor<i32>
      %c_584 = stablehlo.constant dense<0> : tensor<i32>
      %c_585 = stablehlo.constant dense<0> : tensor<i32>
      %1527 = stablehlo.dynamic_slice %iterArg_450, %1458, %c_583, %c_584, %c_585, sizes = [1, 64, 512, 1] : (tensor<12x64x512x1xf32>, tensor<i32>, tensor<i32>, tensor<i32>, tensor<i32>) -> tensor<1x64x512x1xf32>
      %1528 = stablehlo.reshape %1527 : (tensor<1x64x512x1xf32>) -> tensor<64x512x1xf32>
      %c_586 = stablehlo.constant dense<0> : tensor<i32>
      %c_587 = stablehlo.constant dense<0> : tensor<i32>
      %c_588 = stablehlo.constant dense<0> : tensor<i32>
      %1529 = stablehlo.dynamic_slice %iterArg_451, %1458, %c_586, %c_587, %c_588, sizes = [1, 64, 512, 1] : (tensor<12x64x512x1xf32>, tensor<i32>, tensor<i32>, tensor<i32>, tensor<i32>) -> tensor<1x64x512x1xf32>
      %1530 = stablehlo.reshape %1529 : (tensor<1x64x512x1xf32>) -> tensor<64x512x1xf32>
      %c_589 = stablehlo.constant dense<0> : tensor<i32>
      %c_590 = stablehlo.constant dense<0> : tensor<i32>
      %c_591 = stablehlo.constant dense<0> : tensor<i32>
      %1531 = stablehlo.dynamic_slice %iterArg_452, %1458, %c_589, %c_590, %c_591, sizes = [1, 64, 512, 1] : (tensor<12x64x512x1xf32>, tensor<i32>, tensor<i32>, tensor<i32>, tensor<i32>) -> tensor<1x64x512x1xf32>
      %1532 = stablehlo.reshape %1531 : (tensor<1x64x512x1xf32>) -> tensor<64x512x1xf32>
      %c_592 = stablehlo.constant dense<0> : tensor<i32>
      %c_593 = stablehlo.constant dense<0> : tensor<i32>
      %c_594 = stablehlo.constant dense<0> : tensor<i32>
      %1533 = stablehlo.dynamic_slice %iterArg_453, %1458, %c_592, %c_593, %c_594, sizes = [1, 64, 512, 1] : (tensor<12x64x512x1xf32>, tensor<i32>, tensor<i32>, tensor<i32>, tensor<i32>) -> tensor<1x64x512x1xf32>
      %1534 = stablehlo.reshape %1533 : (tensor<1x64x512x1xf32>) -> tensor<64x512x1xf32>
      %c_595 = stablehlo.constant dense<0> : tensor<i32>
      %c_596 = stablehlo.constant dense<0> : tensor<i32>
      %c_597 = stablehlo.constant dense<0> : tensor<i32>
      %1535 = stablehlo.dynamic_slice %iterArg_454, %1458, %c_595, %c_596, %c_597, sizes = [1, 64, 512, 768] : (tensor<12x64x512x768xf32>, tensor<i32>, tensor<i32>, tensor<i32>, tensor<i32>) -> tensor<1x64x512x768xf32>
      %1536 = stablehlo.reshape %1535 : (tensor<1x64x512x768xf32>) -> tensor<64x512x768xf32>
      %c_598 = stablehlo.constant dense<0> : tensor<i32>
      %c_599 = stablehlo.constant dense<0> : tensor<i32>
      %c_600 = stablehlo.constant dense<0> : tensor<i32>
      %1537 = stablehlo.dynamic_slice %iterArg_455, %1458, %c_598, %c_599, %c_600, sizes = [1, 64, 512, 768] : (tensor<12x64x512x768xf32>, tensor<i32>, tensor<i32>, tensor<i32>, tensor<i32>) -> tensor<1x64x512x768xf32>
      %1538 = stablehlo.reshape %1537 : (tensor<1x64x512x768xf32>) -> tensor<64x512x768xf32>
      %c_601 = stablehlo.constant dense<0> : tensor<i32>
      %c_602 = stablehlo.constant dense<0> : tensor<i32>
      %c_603 = stablehlo.constant dense<0> : tensor<i32>
      %1539 = stablehlo.dynamic_slice %iterArg_456, %1458, %c_601, %c_602, %c_603, sizes = [1, 1, 1, 768] : (tensor<12x1x1x768xf32>, tensor<i32>, tensor<i32>, tensor<i32>, tensor<i32>) -> tensor<1x1x1x768xf32>
      %1540 = stablehlo.reshape %1539 : (tensor<1x1x1x768xf32>) -> tensor<1x1x768xf32>
      %1541:17 = func.call @closed_call_328(%iterArg_457, %iterArg_458, %iterArg_460, %1460, %1462, %1464, %1466, %1468, %1470, %1472, %1474, %1476, %1478, %1480, %1482, %1484, %1486, %1488, %1490, %1492, %1494, %1496, %1498, %1500, %1502, %1504, %1506, %1508, %1510, %1512, %1514, %1516, %1518, %1520, %1522, %1524, %1526, %1528, %1530, %1532, %1534, %1536, %1538, %1540) : (tensor<bf16>, tensor<64x512x12x512xi1>, tensor<64x512x768xbf16>, tensor<768x768xbf16>, tensor<64x512x768xbf16>, tensor<768x768xbf16>, tensor<768x768xbf16>, tensor<64x512x12x64xbf16>, tensor<64x512x12x64xbf16>, tensor<64x512x12x512xf32>, tensor<64x512x12x1xf32>, tensor<64x512x12x1xf32>, tensor<64x512x12x512xi1>, tensor<64x512x12x512xbf16>, tensor<64x512x12x64xbf16>, tensor<768x768xbf16>, tensor<64x512x768xbf16>, tensor<64x512x768xi1>, tensor<64x512x768xf32>, tensor<64x512x1xf32>, tensor<64x512x1xf32>, tensor<64x512x1xf32>, tensor<64x512x1xf32>, tensor<64x512x768xf32>, tensor<64x512x768xf32>, tensor<1x1x768xf32>, tensor<768x3072xbf16>, tensor<64x512x768xbf16>, tensor<64x512x3072xbf16>, tensor<64x512x3072xbf16>, tensor<64x512x3072xbf16>, tensor<64x512x3072xbf16>, tensor<64x512x3072xbf16>, tensor<3072x768xbf16>, tensor<64x512x3072xbf16>, tensor<64x512x768xi1>, tensor<64x512x768xf32>, tensor<64x512x1xf32>, tensor<64x512x1xf32>, tensor<64x512x1xf32>, tensor<64x512x1xf32>, tensor<64x512x768xf32>, tensor<64x512x768xf32>, tensor<1x1x768xf32>) -> (tensor<64x512x768xbf16>, tensor<768x768xbf16>, tensor<768xbf16>, tensor<768x768xbf16>, tensor<768xbf16>, tensor<768x768xbf16>, tensor<768xbf16>, tensor<768x768xbf16>, tensor<768xbf16>, tensor<768xbf16>, tensor<768xbf16>, tensor<3072x768xbf16>, tensor<3072xbf16>, tensor<768x3072xbf16>, tensor<768xbf16>, tensor<768xbf16>, tensor<768xbf16>)
      %1542 = stablehlo.broadcast_in_dim %1541#1, dims = [1, 2] : (tensor<768x768xbf16>) -> tensor<1x768x768xbf16>
      %c_604 = stablehlo.constant dense<0> : tensor<i32>
      %c_605 = stablehlo.constant dense<0> : tensor<i32>
      %1543 = stablehlo.dynamic_update_slice %iterArg_461, %1542, %1458, %c_604, %c_605 : (tensor<12x768x768xbf16>, tensor<1x768x768xbf16>, tensor<i32>, tensor<i32>, tensor<i32>) -> tensor<12x768x768xbf16>
      %1544 = stablehlo.broadcast_in_dim %1541#2, dims = [1] : (tensor<768xbf16>) -> tensor<1x768xbf16>
      %c_606 = stablehlo.constant dense<0> : tensor<i32>
      %1545 = stablehlo.dynamic_update_slice %iterArg_462, %1544, %1458, %c_606 : (tensor<12x768xbf16>, tensor<1x768xbf16>, tensor<i32>, tensor<i32>) -> tensor<12x768xbf16>
      %1546 = stablehlo.broadcast_in_dim %1541#3, dims = [1, 2] : (tensor<768x768xbf16>) -> tensor<1x768x768xbf16>
      %c_607 = stablehlo.constant dense<0> : tensor<i32>
      %c_608 = stablehlo.constant dense<0> : tensor<i32>
      %1547 = stablehlo.dynamic_update_slice %iterArg_463, %1546, %1458, %c_607, %c_608 : (tensor<12x768x768xbf16>, tensor<1x768x768xbf16>, tensor<i32>, tensor<i32>, tensor<i32>) -> tensor<12x768x768xbf16>
      %1548 = stablehlo.broadcast_in_dim %1541#4, dims = [1] : (tensor<768xbf16>) -> tensor<1x768xbf16>
      %c_609 = stablehlo.constant dense<0> : tensor<i32>
      %1549 = stablehlo.dynamic_update_slice %iterArg_464, %1548, %1458, %c_609 : (tensor<12x768xbf16>, tensor<1x768xbf16>, tensor<i32>, tensor<i32>) -> tensor<12x768xbf16>
      %1550 = stablehlo.broadcast_in_dim %1541#5, dims = [1, 2] : (tensor<768x768xbf16>) -> tensor<1x768x768xbf16>
      %c_610 = stablehlo.constant dense<0> : tensor<i32>
      %c_611 = stablehlo.constant dense<0> : tensor<i32>
      %1551 = stablehlo.dynamic_update_slice %iterArg_465, %1550, %1458, %c_610, %c_611 : (tensor<12x768x768xbf16>, tensor<1x768x768xbf16>, tensor<i32>, tensor<i32>, tensor<i32>) -> tensor<12x768x768xbf16>
      %1552 = stablehlo.broadcast_in_dim %1541#6, dims = [1] : (tensor<768xbf16>) -> tensor<1x768xbf16>
      %c_612 = stablehlo.constant dense<0> : tensor<i32>
      %1553 = stablehlo.dynamic_update_slice %iterArg_466, %1552, %1458, %c_612 : (tensor<12x768xbf16>, tensor<1x768xbf16>, tensor<i32>, tensor<i32>) -> tensor<12x768xbf16>
      %1554 = stablehlo.broadcast_in_dim %1541#7, dims = [1, 2] : (tensor<768x768xbf16>) -> tensor<1x768x768xbf16>
      %c_613 = stablehlo.constant dense<0> : tensor<i32>
      %c_614 = stablehlo.constant dense<0> : tensor<i32>
      %1555 = stablehlo.dynamic_update_slice %iterArg_467, %1554, %1458, %c_613, %c_614 : (tensor<12x768x768xbf16>, tensor<1x768x768xbf16>, tensor<i32>, tensor<i32>, tensor<i32>) -> tensor<12x768x768xbf16>
      %1556 = stablehlo.broadcast_in_dim %1541#8, dims = [1] : (tensor<768xbf16>) -> tensor<1x768xbf16>
      %c_615 = stablehlo.constant dense<0> : tensor<i32>
      %1557 = stablehlo.dynamic_update_slice %iterArg_468, %1556, %1458, %c_615 : (tensor<12x768xbf16>, tensor<1x768xbf16>, tensor<i32>, tensor<i32>) -> tensor<12x768xbf16>
      %1558 = stablehlo.broadcast_in_dim %1541#9, dims = [1] : (tensor<768xbf16>) -> tensor<1x768xbf16>
      %c_616 = stablehlo.constant dense<0> : tensor<i32>
      %1559 = stablehlo.dynamic_update_slice %iterArg_469, %1558, %1458, %c_616 : (tensor<12x768xbf16>, tensor<1x768xbf16>, tensor<i32>, tensor<i32>) -> tensor<12x768xbf16>
      %1560 = stablehlo.broadcast_in_dim %1541#10, dims = [1] : (tensor<768xbf16>) -> tensor<1x768xbf16>
      %c_617 = stablehlo.constant dense<0> : tensor<i32>
      %1561 = stablehlo.dynamic_update_slice %iterArg_470, %1560, %1458, %c_617 : (tensor<12x768xbf16>, tensor<1x768xbf16>, tensor<i32>, tensor<i32>) -> tensor<12x768xbf16>
      %1562 = stablehlo.broadcast_in_dim %1541#11, dims = [1, 2] : (tensor<3072x768xbf16>) -> tensor<1x3072x768xbf16>
      %c_618 = stablehlo.constant dense<0> : tensor<i32>
      %c_619 = stablehlo.constant dense<0> : tensor<i32>
      %1563 = stablehlo.dynamic_update_slice %iterArg_471, %1562, %1458, %c_618, %c_619 : (tensor<12x3072x768xbf16>, tensor<1x3072x768xbf16>, tensor<i32>, tensor<i32>, tensor<i32>) -> tensor<12x3072x768xbf16>
      %1564 = stablehlo.broadcast_in_dim %1541#12, dims = [1] : (tensor<3072xbf16>) -> tensor<1x3072xbf16>
      %c_620 = stablehlo.constant dense<0> : tensor<i32>
      %1565 = stablehlo.dynamic_update_slice %iterArg_472, %1564, %1458, %c_620 : (tensor<12x3072xbf16>, tensor<1x3072xbf16>, tensor<i32>, tensor<i32>) -> tensor<12x3072xbf16>
      %1566 = stablehlo.broadcast_in_dim %1541#13, dims = [1, 2] : (tensor<768x3072xbf16>) -> tensor<1x768x3072xbf16>
      %c_621 = stablehlo.constant dense<0> : tensor<i32>
      %c_622 = stablehlo.constant dense<0> : tensor<i32>
      %1567 = stablehlo.dynamic_update_slice %iterArg_473, %1566, %1458, %c_621, %c_622 : (tensor<12x768x3072xbf16>, tensor<1x768x3072xbf16>, tensor<i32>, tensor<i32>, tensor<i32>) -> tensor<12x768x3072xbf16>
      %1568 = stablehlo.broadcast_in_dim %1541#14, dims = [1] : (tensor<768xbf16>) -> tensor<1x768xbf16>
      %c_623 = stablehlo.constant dense<0> : tensor<i32>
      %1569 = stablehlo.dynamic_update_slice %iterArg_474, %1568, %1458, %c_623 : (tensor<12x768xbf16>, tensor<1x768xbf16>, tensor<i32>, tensor<i32>) -> tensor<12x768xbf16>
      %1570 = stablehlo.broadcast_in_dim %1541#15, dims = [1] : (tensor<768xbf16>) -> tensor<1x768xbf16>
      %c_624 = stablehlo.constant dense<0> : tensor<i32>
      %1571 = stablehlo.dynamic_update_slice %iterArg_475, %1570, %1458, %c_624 : (tensor<12x768xbf16>, tensor<1x768xbf16>, tensor<i32>, tensor<i32>) -> tensor<12x768xbf16>
      %1572 = stablehlo.broadcast_in_dim %1541#16, dims = [1] : (tensor<768xbf16>) -> tensor<1x768xbf16>
      %c_625 = stablehlo.constant dense<0> : tensor<i32>
      %1573 = stablehlo.dynamic_update_slice %iterArg_476, %1572, %1458, %c_625 : (tensor<12x768xbf16>, tensor<1x768xbf16>, tensor<i32>, tensor<i32>) -> tensor<12x768xbf16>
      %c_626 = stablehlo.constant dense<1> : tensor<i32>
      %1574 = stablehlo.add %iterArg_459, %c_626 : tensor<i32>
      stablehlo.return %iterArg, %iterArg_417, %iterArg_418, %iterArg_419, %iterArg_420, %iterArg_421, %iterArg_422, %iterArg_423, %iterArg_424, %iterArg_425, %iterArg_426, %iterArg_427, %iterArg_428, %iterArg_429, %iterArg_430, %iterArg_431, %iterArg_432, %iterArg_433, %iterArg_434, %iterArg_435, %iterArg_436, %iterArg_437, %iterArg_438, %iterArg_439, %iterArg_440, %iterArg_441, %iterArg_442, %iterArg_443, %iterArg_444, %iterArg_445, %iterArg_446, %iterArg_447, %iterArg_448, %iterArg_449, %iterArg_450, %iterArg_451, %iterArg_452, %iterArg_453, %iterArg_454, %iterArg_455, %iterArg_456, %iterArg_457, %iterArg_458, %1574, %1541#0, %1543, %1545, %1547, %1549, %1551, %1553, %1555, %1557, %1559, %1561, %1563, %1565, %1567, %1569, %1571, %1573 : tensor<12x768x768xbf16>, tensor<12x64x512x768xbf16>, tensor<12x768x768xbf16>, tensor<12x768x768xbf16>, tensor<12x64x512x12x64xbf16>, tensor<12x64x512x12x64xbf16>, tensor<12x64x512x12x512xf32>, tensor<12x64x512x12x1xf32>, tensor<12x64x512x12x1xf32>, tensor<12x64x512x12x512xi1>, tensor<12x64x512x12x512xbf16>, tensor<12x64x512x12x64xbf16>, tensor<12x768x768xbf16>, tensor<12x64x512x768xbf16>, tensor<12x64x512x768xi1>, tensor<12x64x512x768xf32>, tensor<12x64x512x1xf32>, tensor<12x64x512x1xf32>, tensor<12x64x512x1xf32>, tensor<12x64x512x1xf32>, tensor<12x64x512x768xf32>, tensor<12x64x512x768xf32>, tensor<12x1x1x768xf32>, tensor<12x768x3072xbf16>, tensor<12x64x512x768xbf16>, tensor<12x64x512x3072xbf16>, tensor<12x64x512x3072xbf16>, tensor<12x64x512x3072xbf16>, tensor<12x64x512x3072xbf16>, tensor<12x64x512x3072xbf16>, tensor<12x3072x768xbf16>, tensor<12x64x512x3072xbf16>, tensor<12x64x512x768xi1>, tensor<12x64x512x768xf32>, tensor<12x64x512x1xf32>, tensor<12x64x512x1xf32>, tensor<12x64x512x1xf32>, tensor<12x64x512x1xf32>, tensor<12x64x512x768xf32>, tensor<12x64x512x768xf32>, tensor<12x1x1x768xf32>, tensor<bf16>, tensor<64x512x12x512xi1>, tensor<i32>, tensor<64x512x768xbf16>, tensor<12x768x768xbf16>, tensor<12x768xbf16>, tensor<12x768x768xbf16>, tensor<12x768xbf16>, tensor<12x768x768xbf16>, tensor<12x768xbf16>, tensor<12x768x768xbf16>, tensor<12x768xbf16>, tensor<12x768xbf16>, tensor<12x768xbf16>, tensor<12x3072x768xbf16>, tensor<12x3072xbf16>, tensor<12x768x3072xbf16>, tensor<12x768xbf16>, tensor<12x768xbf16>, tensor<12x768xbf16>
    }
    %335 = call @_where_365(%66, %334#44) : (tensor<64x512x768xi1>, tensor<64x512x768xbf16>) -> tensor<64x512x768xbf16>
    %cst_140 = stablehlo.constant dense<8.984370e-01> : tensor<bf16>
    %336 = stablehlo.broadcast_in_dim %cst_140, dims = [] : (tensor<bf16>) -> tensor<64x512x768xbf16>
    %337 = stablehlo.divide %335, %336 : tensor<64x512x768xbf16>
    %338 = stablehlo.convert %337 : (tensor<64x512x768xbf16>) -> tensor<64x512x768xf32>
    %cst_141 = stablehlo.constant dense<0.000000e+00> : tensor<f32>
    %339 = stablehlo.reduce(%338 init: %cst_141) applies stablehlo.add across dimensions = [0, 1] : (tensor<64x512x768xf32>, tensor<f32>) -> tensor<768xf32>
    %340 = stablehlo.reshape %339 : (tensor<768xf32>) -> tensor<1x1x768xf32>
    %cst_142 = stablehlo.constant dense<0.000000e+00> : tensor<f32>
    %341 = stablehlo.reduce(%340 init: %cst_142) applies stablehlo.add across dimensions = [0, 1] : (tensor<1x1x768xf32>, tensor<f32>) -> tensor<768xf32>
    %342 = stablehlo.convert %341 : (tensor<768xf32>) -> tensor<768xbf16>
    %343 = stablehlo.broadcast_in_dim %58, dims = [0, 1, 2] : (tensor<1x1x768xf32>) -> tensor<64x512x768xf32>
    %344 = stablehlo.multiply %343, %338 : tensor<64x512x768xf32>
    %345 = stablehlo.multiply %338, %56 : tensor<64x512x768xf32>
    %cst_143 = stablehlo.constant dense<0.000000e+00> : tensor<f32>
    %346 = stablehlo.reduce(%345 init: %cst_143) applies stablehlo.add across dimensions = [0, 1] : (tensor<64x512x768xf32>, tensor<f32>) -> tensor<768xf32>
    %347 = stablehlo.reshape %346 : (tensor<768xf32>) -> tensor<1x1x768xf32>
    %cst_144 = stablehlo.constant dense<0.000000e+00> : tensor<f32>
    %348 = stablehlo.reduce(%347 init: %cst_144) applies stablehlo.add across dimensions = [0, 1] : (tensor<1x1x768xf32>, tensor<f32>) -> tensor<768xf32>
    %349 = stablehlo.convert %348 : (tensor<768xf32>) -> tensor<768xbf16>
    %350 = stablehlo.multiply %25, %344 : tensor<64x512x768xf32>
    %cst_145 = stablehlo.constant dense<0.000000e+00> : tensor<f32>
    %351 = stablehlo.reduce(%350 init: %cst_145) applies stablehlo.add across dimensions = [2] : (tensor<64x512x768xf32>, tensor<f32>) -> tensor<64x512xf32>
    %352 = stablehlo.reshape %351 : (tensor<64x512xf32>) -> tensor<64x512x1xf32>
    %353 = stablehlo.broadcast_in_dim %51, dims = [0, 1, 2] : (tensor<64x512x1xf32>) -> tensor<64x512x768xf32>
    %354 = stablehlo.multiply %344, %353 : tensor<64x512x768xf32>
    %355 = stablehlo.multiply %352, %54 : tensor<64x512x1xf32>
    %356 = stablehlo.multiply %355, %48 : tensor<64x512x1xf32>
    %357 = stablehlo.negate %356 : tensor<64x512x1xf32>
    %358 = stablehlo.multiply %357, %35 : tensor<64x512x1xf32>
    %cst_146 = stablehlo.constant dense<7.680000e+02> : tensor<f32>
    %359 = stablehlo.broadcast_in_dim %cst_146, dims = [] : (tensor<f32>) -> tensor<64x512x1xf32>
    %360 = stablehlo.divide %356, %359 : tensor<64x512x1xf32>
    %cst_147 = stablehlo.constant dense<0.000000e+00> : tensor<f32>
    %361 = stablehlo.reduce(%360 init: %cst_147) applies stablehlo.add across dimensions = [2] : (tensor<64x512x1xf32>, tensor<f32>) -> tensor<64x512xf32>
    %362 = stablehlo.broadcast_in_dim %361, dims = [0, 1] : (tensor<64x512xf32>) -> tensor<64x512x768xf32>
    %363 = stablehlo.multiply %362, %28 : tensor<64x512x768xf32>
    %364 = stablehlo.negate %354 : tensor<64x512x768xf32>
    %cst_148 = stablehlo.constant dense<0.000000e+00> : tensor<f32>
    %365 = stablehlo.reduce(%364 init: %cst_148) applies stablehlo.add across dimensions = [2] : (tensor<64x512x768xf32>, tensor<f32>) -> tensor<64x512xf32>
    %366 = stablehlo.reshape %365 : (tensor<64x512xf32>) -> tensor<64x512x1xf32>
    %367 = stablehlo.add %363, %354 : tensor<64x512x768xf32>
    %368 = stablehlo.add %358, %366 : tensor<64x512x1xf32>
    %cst_149 = stablehlo.constant dense<7.680000e+02> : tensor<f32>
    %369 = stablehlo.broadcast_in_dim %cst_149, dims = [] : (tensor<f32>) -> tensor<64x512x1xf32>
    %370 = stablehlo.divide %368, %369 : tensor<64x512x1xf32>
    %cst_150 = stablehlo.constant dense<0.000000e+00> : tensor<f32>
    %371 = stablehlo.reduce(%370 init: %cst_150) applies stablehlo.add across dimensions = [2] : (tensor<64x512x1xf32>, tensor<f32>) -> tensor<64x512xf32>
    %372 = stablehlo.broadcast_in_dim %371, dims = [0, 1] : (tensor<64x512xf32>) -> tensor<64x512x768xf32>
    %373 = stablehlo.add %367, %372 : tensor<64x512x768xf32>
    %374 = stablehlo.convert %373 : (tensor<64x512x768xf32>) -> tensor<64x512x768xbf16>
    %375 = call @_take_366(%17#1, %374) : (tensor<64x512x1xi32>, tensor<64x512x768xbf16>) -> tensor<2x768xbf16>
    %376 = call @_take_370(%15#1, %374) : (tensor<64x512x1xi32>, tensor<64x512x768xbf16>) -> tensor<512x768xbf16>
    %377 = call @_take_373(%14#1, %374) : (tensor<64x512x1xi32>, tensor<64x512x768xbf16>) -> tensor<30522x768xbf16>
    %c_151 = stablehlo.constant dense<0> : tensor<i32>
    %378 = stablehlo.subtract %arg28, %c_151 : tensor<i32>
    %c_152 = stablehlo.constant dense<0> : tensor<i32>
    %c_153 = stablehlo.constant dense<40> : tensor<i32>
    %379 = call @clip(%378, %c_152, %c_153) : (tensor<i32>, tensor<i32>, tensor<i32>) -> tensor<i32>
    %380 = stablehlo.convert %379 : (tensor<i32>) -> tensor<f32>
    %cst_154 = stablehlo.constant dense<4.000000e+01> : tensor<f32>
    %381 = stablehlo.divide %380, %cst_154 : tensor<f32>
    %cst_155 = stablehlo.constant dense<1.000000e+00> : tensor<f32>
    %382 = stablehlo.subtract %cst_155, %381 : tensor<f32>
    %cst_156 = stablehlo.constant dense<-5.000000e-05> : tensor<f32>
    %383 = stablehlo.multiply %cst_156, %382 : tensor<f32>
    %cst_157 = stablehlo.constant dense<5.000000e-05> : tensor<f32>
    %384 = stablehlo.add %383, %cst_157 : tensor<f32>
    %385 = stablehlo.convert %384 : (tensor<f32>) -> tensor<bf16>
    %c_158 = stablehlo.constant dense<2147483647> : tensor<i32>
    %386 = stablehlo.compare  LT, %arg28, %c_158,  SIGNED : (tensor<i32>, tensor<i32>) -> tensor<i1>
    %c_159 = stablehlo.constant dense<1> : tensor<i32>
    %387 = stablehlo.add %arg28, %c_159 : tensor<i32>
    %c_160 = stablehlo.constant dense<2147483647> : tensor<i32>
    %388 = call @_where_385(%386, %387, %c_160) : (tensor<i1>, tensor<i32>, tensor<i32>) -> tensor<i32>
    %389 = stablehlo.negate %385 : tensor<bf16>
    %390 = stablehlo.multiply %377, %377 : tensor<30522x768xbf16>
    %391 = stablehlo.convert %390 : (tensor<30522x768xbf16>) -> tensor<30522x768xf32>
    %cst_161 = stablehlo.constant dense<0.000000e+00> : tensor<f32>
    %392 = stablehlo.reduce(%391 init: %cst_161) applies stablehlo.add across dimensions = [0, 1] : (tensor<30522x768xf32>, tensor<f32>) -> tensor<f32>
    %393 = stablehlo.convert %392 : (tensor<f32>) -> tensor<bf16>
    %cst_162 = stablehlo.constant dense<0.000000e+00> : tensor<bf16>
    %394 = stablehlo.add %cst_162, %393 : tensor<bf16>
    %395 = stablehlo.multiply %376, %376 : tensor<512x768xbf16>
    %396 = stablehlo.convert %395 : (tensor<512x768xbf16>) -> tensor<512x768xf32>
    %cst_163 = stablehlo.constant dense<0.000000e+00> : tensor<f32>
    %397 = stablehlo.reduce(%396 init: %cst_163) applies stablehlo.add across dimensions = [0, 1] : (tensor<512x768xf32>, tensor<f32>) -> tensor<f32>
    %398 = stablehlo.convert %397 : (tensor<f32>) -> tensor<bf16>
    %399 = stablehlo.add %394, %398 : tensor<bf16>
    %400 = stablehlo.multiply %375, %375 : tensor<2x768xbf16>
    %401 = stablehlo.convert %400 : (tensor<2x768xbf16>) -> tensor<2x768xf32>
    %cst_164 = stablehlo.constant dense<0.000000e+00> : tensor<f32>
    %402 = stablehlo.reduce(%401 init: %cst_164) applies stablehlo.add across dimensions = [0, 1] : (tensor<2x768xf32>, tensor<f32>) -> tensor<f32>
    %403 = stablehlo.convert %402 : (tensor<f32>) -> tensor<bf16>
    %404 = stablehlo.add %399, %403 : tensor<bf16>
    %405 = stablehlo.multiply %349, %349 : tensor<768xbf16>
    %406 = stablehlo.convert %405 : (tensor<768xbf16>) -> tensor<768xf32>
    %cst_165 = stablehlo.constant dense<0.000000e+00> : tensor<f32>
    %407 = stablehlo.reduce(%406 init: %cst_165) applies stablehlo.add across dimensions = [0] : (tensor<768xf32>, tensor<f32>) -> tensor<f32>
    %408 = stablehlo.convert %407 : (tensor<f32>) -> tensor<bf16>
    %409 = stablehlo.add %404, %408 : tensor<bf16>
    %410 = stablehlo.multiply %342, %342 : tensor<768xbf16>
    %411 = stablehlo.convert %410 : (tensor<768xbf16>) -> tensor<768xf32>
    %cst_166 = stablehlo.constant dense<0.000000e+00> : tensor<f32>
    %412 = stablehlo.reduce(%411 init: %cst_166) applies stablehlo.add across dimensions = [0] : (tensor<768xf32>, tensor<f32>) -> tensor<f32>
    %413 = stablehlo.convert %412 : (tensor<f32>) -> tensor<bf16>
    %414 = stablehlo.add %409, %413 : tensor<bf16>
    %415 = stablehlo.multiply %334#45, %334#45 : tensor<12x768x768xbf16>
    %416 = stablehlo.convert %415 : (tensor<12x768x768xbf16>) -> tensor<12x768x768xf32>
    %cst_167 = stablehlo.constant dense<0.000000e+00> : tensor<f32>
    %417 = stablehlo.reduce(%416 init: %cst_167) applies stablehlo.add across dimensions = [0, 1, 2] : (tensor<12x768x768xf32>, tensor<f32>) -> tensor<f32>
    %418 = stablehlo.convert %417 : (tensor<f32>) -> tensor<bf16>
    %419 = stablehlo.add %414, %418 : tensor<bf16>
    %420 = stablehlo.multiply %334#46, %334#46 : tensor<12x768xbf16>
    %421 = stablehlo.convert %420 : (tensor<12x768xbf16>) -> tensor<12x768xf32>
    %cst_168 = stablehlo.constant dense<0.000000e+00> : tensor<f32>
    %422 = stablehlo.reduce(%421 init: %cst_168) applies stablehlo.add across dimensions = [0, 1] : (tensor<12x768xf32>, tensor<f32>) -> tensor<f32>
    %423 = stablehlo.convert %422 : (tensor<f32>) -> tensor<bf16>
    %424 = stablehlo.add %419, %423 : tensor<bf16>
    %425 = stablehlo.multiply %334#47, %334#47 : tensor<12x768x768xbf16>
    %426 = stablehlo.convert %425 : (tensor<12x768x768xbf16>) -> tensor<12x768x768xf32>
    %cst_169 = stablehlo.constant dense<0.000000e+00> : tensor<f32>
    %427 = stablehlo.reduce(%426 init: %cst_169) applies stablehlo.add across dimensions = [0, 1, 2] : (tensor<12x768x768xf32>, tensor<f32>) -> tensor<f32>
    %428 = stablehlo.convert %427 : (tensor<f32>) -> tensor<bf16>
    %429 = stablehlo.add %424, %428 : tensor<bf16>
    %430 = stablehlo.multiply %334#48, %334#48 : tensor<12x768xbf16>
    %431 = stablehlo.convert %430 : (tensor<12x768xbf16>) -> tensor<12x768xf32>
    %cst_170 = stablehlo.constant dense<0.000000e+00> : tensor<f32>
    %432 = stablehlo.reduce(%431 init: %cst_170) applies stablehlo.add across dimensions = [0, 1] : (tensor<12x768xf32>, tensor<f32>) -> tensor<f32>
    %433 = stablehlo.convert %432 : (tensor<f32>) -> tensor<bf16>
    %434 = stablehlo.add %429, %433 : tensor<bf16>
    %435 = stablehlo.multiply %334#49, %334#49 : tensor<12x768x768xbf16>
    %436 = stablehlo.convert %435 : (tensor<12x768x768xbf16>) -> tensor<12x768x768xf32>
    %cst_171 = stablehlo.constant dense<0.000000e+00> : tensor<f32>
    %437 = stablehlo.reduce(%436 init: %cst_171) applies stablehlo.add across dimensions = [0, 1, 2] : (tensor<12x768x768xf32>, tensor<f32>) -> tensor<f32>
    %438 = stablehlo.convert %437 : (tensor<f32>) -> tensor<bf16>
    %439 = stablehlo.add %434, %438 : tensor<bf16>
    %440 = stablehlo.multiply %334#50, %334#50 : tensor<12x768xbf16>
    %441 = stablehlo.convert %440 : (tensor<12x768xbf16>) -> tensor<12x768xf32>
    %cst_172 = stablehlo.constant dense<0.000000e+00> : tensor<f32>
    %442 = stablehlo.reduce(%441 init: %cst_172) applies stablehlo.add across dimensions = [0, 1] : (tensor<12x768xf32>, tensor<f32>) -> tensor<f32>
    %443 = stablehlo.convert %442 : (tensor<f32>) -> tensor<bf16>
    %444 = stablehlo.add %439, %443 : tensor<bf16>
    %445 = stablehlo.multiply %334#51, %334#51 : tensor<12x768x768xbf16>
    %446 = stablehlo.convert %445 : (tensor<12x768x768xbf16>) -> tensor<12x768x768xf32>
    %cst_173 = stablehlo.constant dense<0.000000e+00> : tensor<f32>
    %447 = stablehlo.reduce(%446 init: %cst_173) applies stablehlo.add across dimensions = [0, 1, 2] : (tensor<12x768x768xf32>, tensor<f32>) -> tensor<f32>
    %448 = stablehlo.convert %447 : (tensor<f32>) -> tensor<bf16>
    %449 = stablehlo.add %444, %448 : tensor<bf16>
    %450 = stablehlo.multiply %334#52, %334#52 : tensor<12x768xbf16>
    %451 = stablehlo.convert %450 : (tensor<12x768xbf16>) -> tensor<12x768xf32>
    %cst_174 = stablehlo.constant dense<0.000000e+00> : tensor<f32>
    %452 = stablehlo.reduce(%451 init: %cst_174) applies stablehlo.add across dimensions = [0, 1] : (tensor<12x768xf32>, tensor<f32>) -> tensor<f32>
    %453 = stablehlo.convert %452 : (tensor<f32>) -> tensor<bf16>
    %454 = stablehlo.add %449, %453 : tensor<bf16>
    %455 = stablehlo.multiply %334#53, %334#53 : tensor<12x768xbf16>
    %456 = stablehlo.convert %455 : (tensor<12x768xbf16>) -> tensor<12x768xf32>
    %cst_175 = stablehlo.constant dense<0.000000e+00> : tensor<f32>
    %457 = stablehlo.reduce(%456 init: %cst_175) applies stablehlo.add across dimensions = [0, 1] : (tensor<12x768xf32>, tensor<f32>) -> tensor<f32>
    %458 = stablehlo.convert %457 : (tensor<f32>) -> tensor<bf16>
    %459 = stablehlo.add %454, %458 : tensor<bf16>
    %460 = stablehlo.multiply %334#54, %334#54 : tensor<12x768xbf16>
    %461 = stablehlo.convert %460 : (tensor<12x768xbf16>) -> tensor<12x768xf32>
    %cst_176 = stablehlo.constant dense<0.000000e+00> : tensor<f32>
    %462 = stablehlo.reduce(%461 init: %cst_176) applies stablehlo.add across dimensions = [0, 1] : (tensor<12x768xf32>, tensor<f32>) -> tensor<f32>
    %463 = stablehlo.convert %462 : (tensor<f32>) -> tensor<bf16>
    %464 = stablehlo.add %459, %463 : tensor<bf16>
    %465 = stablehlo.multiply %334#55, %334#55 : tensor<12x3072x768xbf16>
    %466 = stablehlo.convert %465 : (tensor<12x3072x768xbf16>) -> tensor<12x3072x768xf32>
    %cst_177 = stablehlo.constant dense<0.000000e+00> : tensor<f32>
    %467 = stablehlo.reduce(%466 init: %cst_177) applies stablehlo.add across dimensions = [0, 1, 2] : (tensor<12x3072x768xf32>, tensor<f32>) -> tensor<f32>
    %468 = stablehlo.convert %467 : (tensor<f32>) -> tensor<bf16>
    %469 = stablehlo.add %464, %468 : tensor<bf16>
    %470 = stablehlo.multiply %334#56, %334#56 : tensor<12x3072xbf16>
    %471 = stablehlo.convert %470 : (tensor<12x3072xbf16>) -> tensor<12x3072xf32>
    %cst_178 = stablehlo.constant dense<0.000000e+00> : tensor<f32>
    %472 = stablehlo.reduce(%471 init: %cst_178) applies stablehlo.add across dimensions = [0, 1] : (tensor<12x3072xf32>, tensor<f32>) -> tensor<f32>
    %473 = stablehlo.convert %472 : (tensor<f32>) -> tensor<bf16>
    %474 = stablehlo.add %469, %473 : tensor<bf16>
    %475 = stablehlo.multiply %334#57, %334#57 : tensor<12x768x3072xbf16>
    %476 = stablehlo.convert %475 : (tensor<12x768x3072xbf16>) -> tensor<12x768x3072xf32>
    %cst_179 = stablehlo.constant dense<0.000000e+00> : tensor<f32>
    %477 = stablehlo.reduce(%476 init: %cst_179) applies stablehlo.add across dimensions = [0, 1, 2] : (tensor<12x768x3072xf32>, tensor<f32>) -> tensor<f32>
    %478 = stablehlo.convert %477 : (tensor<f32>) -> tensor<bf16>
    %479 = stablehlo.add %474, %478 : tensor<bf16>
    %480 = stablehlo.multiply %334#58, %334#58 : tensor<12x768xbf16>
    %481 = stablehlo.convert %480 : (tensor<12x768xbf16>) -> tensor<12x768xf32>
    %cst_180 = stablehlo.constant dense<0.000000e+00> : tensor<f32>
    %482 = stablehlo.reduce(%481 init: %cst_180) applies stablehlo.add across dimensions = [0, 1] : (tensor<12x768xf32>, tensor<f32>) -> tensor<f32>
    %483 = stablehlo.convert %482 : (tensor<f32>) -> tensor<bf16>
    %484 = stablehlo.add %479, %483 : tensor<bf16>
    %485 = stablehlo.multiply %334#59, %334#59 : tensor<12x768xbf16>
    %486 = stablehlo.convert %485 : (tensor<12x768xbf16>) -> tensor<12x768xf32>
    %cst_181 = stablehlo.constant dense<0.000000e+00> : tensor<f32>
    %487 = stablehlo.reduce(%486 init: %cst_181) applies stablehlo.add across dimensions = [0, 1] : (tensor<12x768xf32>, tensor<f32>) -> tensor<f32>
    %488 = stablehlo.convert %487 : (tensor<f32>) -> tensor<bf16>
    %489 = stablehlo.add %484, %488 : tensor<bf16>
    %490 = stablehlo.multiply %334#60, %334#60 : tensor<12x768xbf16>
    %491 = stablehlo.convert %490 : (tensor<12x768xbf16>) -> tensor<12x768xf32>
    %cst_182 = stablehlo.constant dense<0.000000e+00> : tensor<f32>
    %492 = stablehlo.reduce(%491 init: %cst_182) applies stablehlo.add across dimensions = [0, 1] : (tensor<12x768xf32>, tensor<f32>) -> tensor<f32>
    %493 = stablehlo.convert %492 : (tensor<f32>) -> tensor<bf16>
    %494 = stablehlo.add %489, %493 : tensor<bf16>
    %495 = stablehlo.multiply %317, %317 : tensor<768x768xbf16>
    %496 = stablehlo.convert %495 : (tensor<768x768xbf16>) -> tensor<768x768xf32>
    %cst_183 = stablehlo.constant dense<0.000000e+00> : tensor<f32>
    %497 = stablehlo.reduce(%496 init: %cst_183) applies stablehlo.add across dimensions = [0, 1] : (tensor<768x768xf32>, tensor<f32>) -> tensor<f32>
    %498 = stablehlo.convert %497 : (tensor<f32>) -> tensor<bf16>
    %499 = stablehlo.add %494, %498 : tensor<bf16>
    %500 = stablehlo.multiply %313, %313 : tensor<768xbf16>
    %501 = stablehlo.convert %500 : (tensor<768xbf16>) -> tensor<768xf32>
    %cst_184 = stablehlo.constant dense<0.000000e+00> : tensor<f32>
    %502 = stablehlo.reduce(%501 init: %cst_184) applies stablehlo.add across dimensions = [0] : (tensor<768xf32>, tensor<f32>) -> tensor<f32>
    %503 = stablehlo.convert %502 : (tensor<f32>) -> tensor<bf16>
    %504 = stablehlo.add %499, %503 : tensor<bf16>
    %505 = stablehlo.multiply %271, %271 : tensor<768xbf16>
    %506 = stablehlo.convert %505 : (tensor<768xbf16>) -> tensor<768xf32>
    %cst_185 = stablehlo.constant dense<0.000000e+00> : tensor<f32>
    %507 = stablehlo.reduce(%506 init: %cst_185) applies stablehlo.add across dimensions = [0] : (tensor<768xf32>, tensor<f32>) -> tensor<f32>
    %508 = stablehlo.convert %507 : (tensor<f32>) -> tensor<bf16>
    %509 = stablehlo.add %504, %508 : tensor<bf16>
    %510 = stablehlo.multiply %264, %264 : tensor<768xbf16>
    %511 = stablehlo.convert %510 : (tensor<768xbf16>) -> tensor<768xf32>
    %cst_186 = stablehlo.constant dense<0.000000e+00> : tensor<f32>
    %512 = stablehlo.reduce(%511 init: %cst_186) applies stablehlo.add across dimensions = [0] : (tensor<768xf32>, tensor<f32>) -> tensor<f32>
    %513 = stablehlo.convert %512 : (tensor<f32>) -> tensor<bf16>
    %514 = stablehlo.add %509, %513 : tensor<bf16>
    %515 = stablehlo.multiply %259, %259 : tensor<30522x768xbf16>
    %516 = stablehlo.convert %515 : (tensor<30522x768xbf16>) -> tensor<30522x768xf32>
    %cst_187 = stablehlo.constant dense<0.000000e+00> : tensor<f32>
    %517 = stablehlo.reduce(%516 init: %cst_187) applies stablehlo.add across dimensions = [0, 1] : (tensor<30522x768xf32>, tensor<f32>) -> tensor<f32>
    %518 = stablehlo.convert %517 : (tensor<f32>) -> tensor<bf16>
    %519 = stablehlo.add %514, %518 : tensor<bf16>
    %520 = stablehlo.multiply %255, %255 : tensor<30522xbf16>
    %521 = stablehlo.convert %520 : (tensor<30522xbf16>) -> tensor<30522xf32>
    %cst_188 = stablehlo.constant dense<0.000000e+00> : tensor<f32>
    %522 = stablehlo.reduce(%521 init: %cst_188) applies stablehlo.add across dimensions = [0] : (tensor<30522xf32>, tensor<f32>) -> tensor<f32>
    %523 = stablehlo.convert %522 : (tensor<f32>) -> tensor<bf16>
    %524 = stablehlo.add %519, %523 : tensor<bf16>
    %525 = stablehlo.sqrt %524 : tensor<bf16>
    %cst_189 = stablehlo.constant dense<1.000000e+00> : tensor<bf16>
    %526 = stablehlo.compare  LT, %525, %cst_189,  FLOAT : (tensor<bf16>, tensor<bf16>) -> tensor<i1>
    %527 = stablehlo.broadcast_in_dim %525, dims = [] : (tensor<bf16>) -> tensor<30522x768xbf16>
    %528 = stablehlo.divide %377, %527 : tensor<30522x768xbf16>
    %cst_190 = stablehlo.constant dense<1.000000e+00> : tensor<bf16>
    %529 = stablehlo.broadcast_in_dim %cst_190, dims = [] : (tensor<bf16>) -> tensor<30522x768xbf16>
    %530 = stablehlo.multiply %528, %529 : tensor<30522x768xbf16>
    %531 = stablehlo.select %526, %377, %530 : tensor<i1>, tensor<30522x768xbf16>
    %532 = stablehlo.broadcast_in_dim %525, dims = [] : (tensor<bf16>) -> tensor<512x768xbf16>
    %533 = stablehlo.divide %376, %532 : tensor<512x768xbf16>
    %cst_191 = stablehlo.constant dense<1.000000e+00> : tensor<bf16>
    %534 = stablehlo.broadcast_in_dim %cst_191, dims = [] : (tensor<bf16>) -> tensor<512x768xbf16>
    %535 = stablehlo.multiply %533, %534 : tensor<512x768xbf16>
    %536 = stablehlo.select %526, %376, %535 : tensor<i1>, tensor<512x768xbf16>
    %537 = stablehlo.broadcast_in_dim %525, dims = [] : (tensor<bf16>) -> tensor<2x768xbf16>
    %538 = stablehlo.divide %375, %537 : tensor<2x768xbf16>
    %cst_192 = stablehlo.constant dense<1.000000e+00> : tensor<bf16>
    %539 = stablehlo.broadcast_in_dim %cst_192, dims = [] : (tensor<bf16>) -> tensor<2x768xbf16>
    %540 = stablehlo.multiply %538, %539 : tensor<2x768xbf16>
    %541 = stablehlo.select %526, %375, %540 : tensor<i1>, tensor<2x768xbf16>
    %542 = stablehlo.broadcast_in_dim %525, dims = [] : (tensor<bf16>) -> tensor<768xbf16>
    %543 = stablehlo.divide %349, %542 : tensor<768xbf16>
…
    %c_12 = stablehlo.constant dense<3> : tensor<ui32>
    %50 = stablehlo.broadcast_in_dim %c_12, dims = [] : (tensor<ui32>) -> tensor<64x512x12x512xui32>
    %51 = stablehlo.shift_right_logical %46, %50 : tensor<64x512x12x512xui32>
    %52 = stablehlo.or %49, %51 : tensor<64x512x12x512xui32>
    %53 = stablehlo.xor %47, %52 : tensor<64x512x12x512xui32>
    %54 = stablehlo.add %47, %53 : tensor<64x512x12x512xui32>
    %c_13 = stablehlo.constant dense<16> : tensor<ui32>
    %55 = stablehlo.broadcast_in_dim %c_13, dims = [] : (tensor<ui32>) -> tensor<64x512x12x512xui32>
    %56 = stablehlo.shift_left %53, %55 : tensor<64x512x12x512xui32>
    %c_14 = stablehlo.constant dense<16> : tensor<ui32>
    %57 = stablehlo.broadcast_in_dim %c_14, dims = [] : (tensor<ui32>) -> tensor<64x512x12x512xui32>
    %58 = stablehlo.shift_right_logical %53, %57 : tensor<64x512x12x512xui32>
    %59 = stablehlo.or %56, %58 : tensor<64x512x12x512xui32>
    %60 = stablehlo.xor %54, %59 : tensor<64x512x12x512xui32>
    %61 = stablehlo.add %54, %60 : tensor<64x512x12x512xui32>
    %c_15 = stablehlo.constant dense<24> : tensor<ui32>
    %62 = stablehlo.broadcast_in_dim %c_15, dims = [] : (tensor<ui32>) -> tensor<64x512x12x512xui32>
    %63 = stablehlo.shift_left %60, %62 : tensor<64x512x12x512xui32>
    %c_16 = stablehlo.constant dense<8> : tensor<ui32>
    %64 = stablehlo.broadcast_in_dim %c_16, dims = [] : (tensor<ui32>) -> tensor<64x512x12x512xui32>
    %65 = stablehlo.shift_right_logical %60, %64 : tensor<64x512x12x512xui32>
    %66 = stablehlo.or %63, %65 : tensor<64x512x12x512xui32>
    %67 = stablehlo.xor %61, %66 : tensor<64x512x12x512xui32>
    %68 = stablehlo.broadcast_in_dim %1, dims = [] : (tensor<ui32>) -> tensor<64x512x12x512xui32>
    %69 = stablehlo.add %61, %68 : tensor<64x512x12x512xui32>
    %70 = stablehlo.broadcast_in_dim %arg0, dims = [] : (tensor<ui32>) -> tensor<64x512x12x512xui32>
    %71 = stablehlo.add %67, %70 : tensor<64x512x12x512xui32>
    %c_17 = stablehlo.constant dense<2> : tensor<ui32>
    %72 = stablehlo.broadcast_in_dim %c_17, dims = [] : (tensor<ui32>) -> tensor<64x512x12x512xui32>
    %73 = stablehlo.add %71, %72 : tensor<64x512x12x512xui32>
    %74 = stablehlo.add %69, %73 : tensor<64x512x12x512xui32>
    %c_18 = stablehlo.constant dense<13> : tensor<ui32>
    %75 = stablehlo.broadcast_in_dim %c_18, dims = [] : (tensor<ui32>) -> tensor<64x512x12x512xui32>
    %76 = stablehlo.shift_left %73, %75 : tensor<64x512x12x512xui32>
    %c_19 = stablehlo.constant dense<19> : tensor<ui32>
    %77 = stablehlo.broadcast_in_dim %c_19, dims = [] : (tensor<ui32>) -> tensor<64x512x12x512xui32>
    %78 = stablehlo.shift_right_logical %73, %77 : tensor<64x512x12x512xui32>
    %79 = stablehlo.or %76, %78 : tensor<64x512x12x512xui32>
    %80 = stablehlo.xor %74, %79 : tensor<64x512x12x512xui32>
    %81 = stablehlo.add %74, %80 : tensor<64x512x12x512xui32>
    %c_20 = stablehlo.constant dense<15> : tensor<ui32>
    %82 = stablehlo.broadcast_in_dim %c_20, dims = [] : (tensor<ui32>) -> tensor<64x512x12x512xui32>
    %83 = stablehlo.shift_left %80, %82 : tensor<64x512x12x512xui32>
    %c_21 = stablehlo.constant dense<17> : tensor<ui32>
    %84 = stablehlo.broadcast_in_dim %c_21, dims = [] : (tensor<ui32>) -> tensor<64x512x12x512xui32>
    %85 = stablehlo.shift_right_logical %80, %84 : tensor<64x512x12x512xui32>
    %86 = stablehlo.or %83, %85 : tensor<64x512x12x512xui32>
    %87 = stablehlo.xor %81, %86 : tensor<64x512x12x512xui32>
    %88 = stablehlo.add %81, %87 : tensor<64x512x12x512xui32>
    %c_22 = stablehlo.constant dense<26> : tensor<ui32>
    %89 = stablehlo.broadcast_in_dim %c_22, dims = [] : (tensor<ui32>) -> tensor<64x512x12x512xui32>
    %90 = stablehlo.shift_left %87, %89 : tensor<64x512x12x512xui32>
    %c_23 = stablehlo.constant dense<6> : tensor<ui32>
    %91 = stablehlo.broadcast_in_dim %c_23, dims = [] : (tensor<ui32>) -> tensor<64x512x12x512xui32>
    %92 = stablehlo.shift_right_logical %87, %91 : tensor<64x512x12x512xui32>
    %93 = stablehlo.or %90, %92 : tensor<64x512x12x512xui32>
    %94 = stablehlo.xor %88, %93 : tensor<64x512x12x512xui32>
    %95 = stablehlo.add %88, %94 : tensor<64x512x12x512xui32>
    %c_24 = stablehlo.constant dense<6> : tensor<ui32>
    %96 = stablehlo.broadcast_in_dim %c_24, dims = [] : (tensor<ui32>) -> tensor<64x512x12x512xui32>
    %97 = stablehlo.shift_left %94, %96 : tensor<64x512x12x512xui32>
    %c_25 = stablehlo.constant dense<26> : tensor<ui32>
    %98 = stablehlo.broadcast_in_dim %c_25, dims = [] : (tensor<ui32>) -> tensor<64x512x12x512xui32>
    %99 = stablehlo.shift_right_logical %94, %98 : tensor<64x512x12x512xui32>
    %100 = stablehlo.or %97, %99 : tensor<64x512x12x512xui32>
    %101 = stablehlo.xor %95, %100 : tensor<64x512x12x512xui32>
    %102 = stablehlo.broadcast_in_dim %arg0, dims = [] : (tensor<ui32>) -> tensor<64x512x12x512xui32>
    %103 = stablehlo.add %95, %102 : tensor<64x512x12x512xui32>
    %104 = stablehlo.broadcast_in_dim %arg1, dims = [] : (tensor<ui32>) -> tensor<64x512x12x512xui32>
    %105 = stablehlo.add %101, %104 : tensor<64x512x12x512xui32>
    %c_26 = stablehlo.constant dense<3> : tensor<ui32>
    %106 = stablehlo.broadcast_in_dim %c_26, dims = [] : (tensor<ui32>) -> tensor<64x512x12x512xui32>
    %107 = stablehlo.add %105, %106 : tensor<64x512x12x512xui32>
    %108 = stablehlo.add %103, %107 : tensor<64x512x12x512xui32>
    %c_27 = stablehlo.constant dense<17> : tensor<ui32>
    %109 = stablehlo.broadcast_in_dim %c_27, dims = [] : (tensor<ui32>) -> tensor<64x512x12x512xui32>
    %110 = stablehlo.shift_left %107, %109 : tensor<64x512x12x512xui32>
    %c_28 = stablehlo.constant dense<15> : tensor<ui32>
    %111 = stablehlo.broadcast_in_dim %c_28, dims = [] : (tensor<ui32>) -> tensor<64x512x12x512xui32>
    %112 = stablehlo.shift_right_logical %107, %111 : tensor<64x512x12x512xui32>
    %113 = stablehlo.or %110, %112 : tensor<64x512x12x512xui32>
    %114 = stablehlo.xor %108, %113 : tensor<64x512x12x512xui32>
    %115 = stablehlo.add %108, %114 : tensor<64x512x12x512xui32>
    %c_29 = stablehlo.constant dense<29> : tensor<ui32>
    %116 = stablehlo.broadcast_in_dim %c_29, dims = [] : (tensor<ui32>) -> tensor<64x512x12x512xui32>
    %117 = stablehlo.shift_left %114, %116 : tensor<64x512x12x512xui32>
    %c_30 = stablehlo.constant dense<3> : tensor<ui32>
    %118 = stablehlo.broadcast_in_dim %c_30, dims = [] : (tensor<ui32>) -> tensor<64x512x12x512xui32>
    %119 = stablehlo.shift_right_logical %114, %118 : tensor<64x512x12x512xui32>
    %120 = stablehlo.or %117, %119 : tensor<64x512x12x512xui32>
    %121 = stablehlo.xor %115, %120 : tensor<64x512x12x512xui32>
    %122 = stablehlo.add %115, %121 : tensor<64x512x12x512xui32>
    %c_31 = stablehlo.constant dense<16> : tensor<ui32>
    %123 = stablehlo.broadcast_in_dim %c_31, dims = [] : (tensor<ui32>) -> tensor<64x512x12x512xui32>
    %124 = stablehlo.shift_left %121, %123 : tensor<64x512x12x512xui32>
    %c_32 = stablehlo.constant dense<16> : tensor<ui32>
    %125 = stablehlo.broadcast_in_dim %c_32, dims = [] : (tensor<ui32>) -> tensor<64x512x12x512xui32>
    %126 = stablehlo.shift_right_logical %121, %125 : tensor<64x512x12x512xui32>
    %127 = stablehlo.or %124, %126 : tensor<64x512x12x512xui32>
    %128 = stablehlo.xor %122, %127 : tensor<64x512x12x512xui32>
    %129 = stablehlo.add %122, %128 : tensor<64x512x12x512xui32>
    %c_33 = stablehlo.constant dense<24> : tensor<ui32>
    %130 = stablehlo.broadcast_in_dim %c_33, dims = [] : (tensor<ui32>) -> tensor<64x512x12x512xui32>
    %131 = stablehlo.shift_left %128, %130 : tensor<64x512x12x512xui32>
    %c_34 = stablehlo.constant dense<8> : tensor<ui32>
    %132 = stablehlo.broadcast_in_dim %c_34, dims = [] : (tensor<ui32>) -> tensor<64x512x12x512xui32>
    %133 = stablehlo.shift_right_logical %128, %132 : tensor<64x512x12x512xui32>
    %134 = stablehlo.or %131, %133 : tensor<64x512x12x512xui32>
    %135 = stablehlo.xor %129, %134 : tensor<64x512x12x512xui32>
    %136 = stablehlo.broadcast_in_dim %arg1, dims = [] : (tensor<ui32>) -> tensor<64x512x12x512xui32>
    %137 = stablehlo.add %129, %136 : tensor<64x512x12x512xui32>
    %138 = stablehlo.broadcast_in_dim %1, dims = [] : (tensor<ui32>) -> tensor<64x512x12x512xui32>
    %139 = stablehlo.add %135, %138 : tensor<64x512x12x512xui32>
    %c_35 = stablehlo.constant dense<4> : tensor<ui32>
    %140 = stablehlo.broadcast_in_dim %c_35, dims = [] : (tensor<ui32>) -> tensor<64x512x12x512xui32>
    %141 = stablehlo.add %139, %140 : tensor<64x512x12x512xui32>
    %142 = stablehlo.add %137, %141 : tensor<64x512x12x512xui32>
    %c_36 = stablehlo.constant dense<13> : tensor<ui32>
    %143 = stablehlo.broadcast_in_dim %c_36, dims = [] : (tensor<ui32>) -> tensor<64x512x12x512xui32>
    %144 = stablehlo.shift_left %141, %143 : tensor<64x512x12x512xui32>
    %c_37 = stablehlo.constant dense<19> : tensor<ui32>
    %145 = stablehlo.broadcast_in_dim %c_37, dims = [] : (tensor<ui32>) -> tensor<64x512x12x512xui32>
    %146 = stablehlo.shift_right_logical %141, %145 : tensor<64x512x12x512xui32>
    %147 = stablehlo.or %144, %146 : tensor<64x512x12x512xui32>
    %148 = stablehlo.xor %142, %147 : tensor<64x512x12x512xui32>
    %149 = stablehlo.add %142, %148 : tensor<64x512x12x512xui32>
    %c_38 = stablehlo.constant dense<15> : tensor<ui32>
    %150 = stablehlo.broadcast_in_dim %c_38, dims = [] : (tensor<ui32>) -> tensor<64x512x12x512xui32>
    %151 = stablehlo.shift_left %148, %150 : tensor<64x512x12x512xui32>
    %c_39 = stablehlo.constant dense<17> : tensor<ui32>
    %152 = stablehlo.broadcast_in_dim %c_39, dims = [] : (tensor<ui32>) -> tensor<64x512x12x512xui32>
    %153 = stablehlo.shift_right_logical %148, %152 : tensor<64x512x12x512xui32>
    %154 = stablehlo.or %151, %153 : tensor<64x512x12x512xui32>
    %155 = stablehlo.xor %149, %154 : tensor<64x512x12x512xui32>
    %156 = stablehlo.add %149, %155 : tensor<64x512x12x512xui32>
    %c_40 = stablehlo.constant dense<26> : tensor<ui32>
    %157 = stablehlo.broadcast_in_dim %c_40, dims = [] : (tensor<ui32>) -> tensor<64x512x12x512xui32>
    %158 = stablehlo.shift_left %155, %157 : tensor<64x512x12x512xui32>
    %c_41 = stablehlo.constant dense<6> : tensor<ui32>
    %159 = stablehlo.broadcast_in_dim %c_41, dims = [] : (tensor<ui32>) -> tensor<64x512x12x512xui32>
    %160 = stablehlo.shift_right_logical %155, %159 : tensor<64x512x12x512xui32>
    %161 = stablehlo.or %158, %160 : tensor<64x512x12x512xui32>
    %162 = stablehlo.xor %156, %161 : tensor<64x512x12x512xui32>
    %163 = stablehlo.add %156, %162 : tensor<64x512x12x512xui32>
    %c_42 = stablehlo.constant dense<6> : tensor<ui32>
    %164 = stablehlo.broadcast_in_dim %c_42, dims = [] : (tensor<ui32>) -> tensor<64x512x12x512xui32>
    %165 = stablehlo.shift_left %162, %164 : tensor<64x512x12x512xui32>
    %c_43 = stablehlo.constant dense<26> : tensor<ui32>
    %166 = stablehlo.broadcast_in_dim %c_43, dims = [] : (tensor<ui32>) -> tensor<64x512x12x512xui32>
    %167 = stablehlo.shift_right_logical %162, %166 : tensor<64x512x12x512xui32>
    %168 = stablehlo.or %165, %167 : tensor<64x512x12x512xui32>
    %169 = stablehlo.xor %163, %168 : tensor<64x512x12x512xui32>
    %170 = stablehlo.broadcast_in_dim %1, dims = [] : (tensor<ui32>) -> tensor<64x512x12x512xui32>
    %171 = stablehlo.add %163, %170 : tensor<64x512x12x512xui32>
    %172 = stablehlo.broadcast_in_dim %arg0, dims = [] : (tensor<ui32>) -> tensor<64x512x12x512xui32>
    %173 = stablehlo.add %169, %172 : tensor<64x512x12x512xui32>
    %c_44 = stablehlo.constant dense<5> : tensor<ui32>
    %174 = stablehlo.broadcast_in_dim %c_44, dims = [] : (tensor<ui32>) -> tensor<64x512x12x512xui32>
    %175 = stablehlo.add %173, %174 : tensor<64x512x12x512xui32>
    return %171, %175 : tensor<64x512x12x512xui32>, tensor<64x512x12x512xui32>
  }
  func.func private @_where_166(%arg0: tensor<64x512x12x512xi1>, %arg1: tensor<64x512x12x512xbf16>, %arg2: tensor<64x512x12x512xbf16>) -> tensor<64x512x12x512xbf16> {
    %0 = stablehlo.select %arg0, %arg1, %arg2 : tensor<64x512x12x512xi1>, tensor<64x512x12x512xbf16>
    return %0 : tensor<64x512x12x512xbf16>
  }
  func.func private @_bernoulli_171(%arg0: tensor<2xui32>, %arg1: tensor<1x1x1xf32>, %arg2: tensor<1x1x1xf32>, %arg3: tensor<f32>) -> tensor<64x512x768xi1> {
    %0 = call @_uniform_172(%arg0, %arg1, %arg2) : (tensor<2xui32>, tensor<1x1x1xf32>, tensor<1x1x1xf32>) -> tensor<64x512x768xf32>
    %1 = stablehlo.broadcast_in_dim %arg3, dims = [] : (tensor<f32>) -> tensor<64x512x768xf32>
    %2 = stablehlo.compare  LT, %0, %1,  FLOAT : (tensor<64x512x768xf32>, tensor<64x512x768xf32>) -> tensor<64x512x768xi1>
    return %2 : tensor<64x512x768xi1>
  }
  func.func private @_uniform_172(%arg0: tensor<2xui32>, %arg1: tensor<1x1x1xf32>, %arg2: tensor<1x1x1xf32>) -> tensor<64x512x768xf32> {
    %0 = stablehlo.slice %arg0 [0:1] : (tensor<2xui32>) -> tensor<1xui32>
    %1 = stablehlo.reshape %0 : (tensor<1xui32>) -> tensor<ui32>
    %2 = stablehlo.slice %arg0 [1:2] : (tensor<2xui32>) -> tensor<1xui32>
    %3 = stablehlo.reshape %2 : (tensor<1xui32>) -> tensor<ui32>
    %4 = stablehlo.iota dim = 0 : tensor<64x512x768xui64>
    %5 = stablehlo.iota dim = 1 : tensor<64x512x768xui64>
    %6 = stablehlo.iota dim = 2 : tensor<64x512x768xui64>
    %c = stablehlo.constant dense<393216> : tensor<ui64>
    %7 = stablehlo.broadcast_in_dim %c, dims = [] : (tensor<ui64>) -> tensor<64x512x768xui64>
    %8 = stablehlo.multiply %7, %4 : tensor<64x512x768xui64>
    %c_0 = stablehlo.constant dense<768> : tensor<ui64>
    %9 = stablehlo.broadcast_in_dim %c_0, dims = [] : (tensor<ui64>) -> tensor<64x512x768xui64>
    %10 = stablehlo.multiply %9, %5 : tensor<64x512x768xui64>
    %c_1 = stablehlo.constant dense<1> : tensor<ui64>
    %11 = stablehlo.broadcast_in_dim %c_1, dims = [] : (tensor<ui64>) -> tensor<64x512x768xui64>
    %12 = stablehlo.multiply %11, %6 : tensor<64x512x768xui64>
    %13 = stablehlo.add %8, %10 : tensor<64x512x768xui64>
    %14 = stablehlo.add %13, %12 : tensor<64x512x768xui64>
    %c_2 = stablehlo.constant dense<32> : tensor<ui64>
    %15 = stablehlo.broadcast_in_dim %c_2, dims = [] : (tensor<ui64>) -> tensor<64x512x768xui64>
    %16 = stablehlo.shift_right_logical %14, %15 : tensor<64x512x768xui64>
    %17 = stablehlo.convert %14 : (tensor<64x512x768xui64>) -> tensor<64x512x768xui32>
    %18 = stablehlo.convert %16 : (tensor<64x512x768xui64>) -> tensor<64x512x768xui32>
    %19:2 = call @threefry2x32_50(%1, %3, %18, %17) : (tensor<ui32>, tensor<ui32>, tensor<64x512x768xui32>, tensor<64x512x768xui32>) -> (tensor<64x512x768xui32>, tensor<64x512x768xui32>)
    %20 = stablehlo.xor %19#0, %19#1 : tensor<64x512x768xui32>
    %c_3 = stablehlo.constant dense<9> : tensor<ui32>
    %21 = stablehlo.broadcast_in_dim %c_3, dims = [] : (tensor<ui32>) -> tensor<64x512x768xui32>
    %22 = stablehlo.shift_right_logical %20, %21 : tensor<64x512x768xui32>
    %c_4 = stablehlo.constant dense<1065353216> : tensor<ui32>
    %23 = stablehlo.broadcast_in_dim %c_4, dims = [] : (tensor<ui32>) -> tensor<64x512x768xui32>
    %24 = stablehlo.or %22, %23 : tensor<64x512x768xui32>
    %25 = stablehlo.bitcast_convert %24 : (tensor<64x512x768xui32>) -> tensor<64x512x768xf32>
    %cst = stablehlo.constant dense<1.000000e+00> : tensor<f32>
    %26 = stablehlo.broadcast_in_dim %cst, dims = [] : (tensor<f32>) -> tensor<64x512x768xf32>
    %27 = stablehlo.subtract %25, %26 : tensor<64x512x768xf32>
    %28 = stablehlo.broadcast_in_dim %arg2, dims = [0, 1, 2] : (tensor<1x1x1xf32>) -> tensor<64x512x768xf32>
    %29 = stablehlo.multiply %27, %28 : tensor<64x512x768xf32>
    %30 = stablehlo.broadcast_in_dim %arg1, dims = [0, 1, 2] : (tensor<1x1x1xf32>) -> tensor<64x512x768xf32>
    %31 = stablehlo.add %29, %30 : tensor<64x512x768xf32>
    %32 = stablehlo.broadcast_in_dim %arg1, dims = [0, 1, 2] : (tensor<1x1x1xf32>) -> tensor<64x512x768xf32>
    %33 = stablehlo.maximum %32, %31 : tensor<64x512x768xf32>
    return %33 : tensor<64x512x768xf32>
  }
  func.func private @_where_173(%arg0: tensor<64x512x768xi1>, %arg1: tensor<64x512x768xbf16>, %arg2: tensor<64x512x768xbf16>) -> tensor<64x512x768xbf16> {
    %0 = stablehlo.select %arg0, %arg1, %arg2 : tensor<64x512x768xi1>, tensor<64x512x768xbf16>
    return %0 : tensor<64x512x768xbf16>
  }
  func.func private @_where_228(%arg0: tensor<64x512xi1>, %arg1: tensor<64x512xi32>, %arg2: tensor<i32>) -> tensor<64x512xi32> {
    %0 = stablehlo.convert %arg2 : tensor<i32>
    %1 = stablehlo.broadcast_in_dim %0, dims = [] : (tensor<i32>) -> tensor<64x512xi32>
    %2 = stablehlo.select %arg0, %arg1, %1 : tensor<64x512xi1>, tensor<64x512xi32>
    return %2 : tensor<64x512xi32>
  }
  func.func private @take_along_axis(%arg0: tensor<64x512x30522xf32>, %arg1: tensor<64x512x1xi32>) -> (tensor<64x512x1xf32>, tensor<64x512x1x1xi32>) {
    %c = stablehlo.constant dense<0> : tensor<i32>
    %0 = stablehlo.broadcast_in_dim %c, dims = [] : (tensor<i32>) -> tensor<64x512x1xi32>
    %1 = stablehlo.compare  LT, %arg1, %0,  SIGNED : (tensor<64x512x1xi32>, tensor<64x512x1xi32>) -> tensor<64x512x1xi1>
    %c_0 = stablehlo.constant dense<30522> : tensor<i32>
    %2 = stablehlo.broadcast_in_dim %c_0, dims = [] : (tensor<i32>) -> tensor<64x512x1xi32>
    %3 = stablehlo.add %arg1, %2 : tensor<64x512x1xi32>
    %4 = stablehlo.select %1, %3, %arg1 : tensor<64x512x1xi1>, tensor<64x512x1xi32>
    %5 = stablehlo.reshape %4 : (tensor<64x512x1xi32>) -> tensor<64x512x1x1xi32>
    %c_1 = stablehlo.constant dense<30521> : tensor<1xi32>
    %c_2 = stablehlo.constant dense<0> : tensor<i32>
    %6 = stablehlo.broadcast_in_dim %c_2, dims = [] : (tensor<i32>) -> tensor<64x512x1x1xi32>
    %7 = stablehlo.compare  GE, %5, %6,  SIGNED : (tensor<64x512x1x1xi32>, tensor<64x512x1x1xi32>) -> tensor<64x512x1x1xi1>
    %8 = stablehlo.broadcast_in_dim %c_1, dims = [3] : (tensor<1xi32>) -> tensor<1x1x1x1xi32>
    %9 = stablehlo.broadcast_in_dim %8, dims = [0, 1, 2, 3] : (tensor<1x1x1x1xi32>) -> tensor<64x512x1x1xi32>
    %10 = stablehlo.compare  LE, %5, %9,  SIGNED : (tensor<64x512x1x1xi32>, tensor<64x512x1x1xi32>) -> tensor<64x512x1x1xi1>
    %11 = stablehlo.and %7, %10 : tensor<64x512x1x1xi1>
    %c_3 = stablehlo.constant dense<true> : tensor<i1>
    %12 = stablehlo.reduce(%11 init: %c_3) applies stablehlo.and across dimensions = [3] : (tensor<64x512x1x1xi1>, tensor<i1>) -> tensor<64x512x1xi1>
    %13 = "stablehlo.gather"(%arg0, %5) <{dimension_numbers = #stablehlo.gather<collapsed_slice_dims = [2], operand_batching_dims = [0, 1], start_indices_batching_dims = [0, 1], start_index_map = [2], index_vector_dim = 3>, indices_are_sorted = false, slice_sizes = array<i64: 1, 1, 1>}> : (tensor<64x512x30522xf32>, tensor<64x512x1x1xi32>) -> tensor<64x512x1xf32>
    %cst = stablehlo.constant dense<0x7FC00000> : tensor<f32>
    %14 = stablehlo.broadcast_in_dim %cst, dims = [] : (tensor<f32>) -> tensor<64x512x1xf32>
    %15 = stablehlo.select %12, %13, %14 : tensor<64x512x1xi1>, tensor<64x512x1xf32>
    return %15, %5 : tensor<64x512x1xf32>, tensor<64x512x1x1xi32>
  }
  func.func private @_where_250(%arg0: tensor<64x512xi1>, %arg1: tensor<64x512xf32>, %arg2: tensor<f32>) -> tensor<64x512xf32> {
    %0 = stablehlo.convert %arg2 : tensor<f32>
    %1 = stablehlo.broadcast_in_dim %0, dims = [] : (tensor<f32>) -> tensor<64x512xf32>
    %2 = stablehlo.select %arg0, %arg1, %1 : tensor<64x512xi1>, tensor<64x512xf32>
    return %2 : tensor<64x512xf32>
  }
  func.func private @argmax(%arg0: tensor<64x512x30522xf32>) -> tensor<64x512xi32> {
    %0 = stablehlo.iota dim = 2 : tensor<64x512x30522xi32>
    %cst = stablehlo.constant dense<0xFF800000> : tensor<f32>
    %c = stablehlo.constant dense<0> : tensor<i32>
    %1:2 = stablehlo.reduce(%arg0 init: %cst), (%0 init: %c) across dimensions = [2] : (tensor<64x512x30522xf32>, tensor<64x512x30522xi32>, tensor<f32>, tensor<i32>) -> (tensor<64x512xf32>, tensor<64x512xi32>)
     reducer(%arg1: tensor<f32>, %arg3: tensor<f32>) (%arg2: tensor<i32>, %arg4: tensor<i32>)  {
      %2 = stablehlo.compare  GT, %arg1, %arg3,  FLOAT : (tensor<f32>, tensor<f32>) -> tensor<i1>
      %3 = stablehlo.compare  NE, %arg1, %arg1,  FLOAT : (tensor<f32>, tensor<f32>) -> tensor<i1>
      %4 = stablehlo.or %2, %3 : tensor<i1>
      %5 = stablehlo.compare  EQ, %arg1, %arg3,  FLOAT : (tensor<f32>, tensor<f32>) -> tensor<i1>
      %6 = stablehlo.compare  LT, %arg2, %arg4,  SIGNED : (tensor<i32>, tensor<i32>) -> tensor<i1>
      %7 = stablehlo.and %5, %6 : tensor<i1>
      %8 = stablehlo.or %4, %7 : tensor<i1>
      %9 = stablehlo.select %4, %arg1, %arg3 : tensor<i1>, tensor<f32>
      %10 = stablehlo.select %8, %arg2, %arg4 : tensor<i1>, tensor<i32>
      stablehlo.return %9, %10 : tensor<f32>, tensor<i32>
    }
    return %1#1 : tensor<64x512xi32>
  }
  func.func private @_where_268(%arg0: tensor<64x512xi1>, %arg1: tensor<64x512xf32>) -> tensor<64x512xf32> {
    %cst = stablehlo.constant dense<0.000000e+00> : tensor<f32>
    %0 = stablehlo.broadcast_in_dim %cst, dims = [] : (tensor<f32>) -> tensor<64x512xf32>
    %1 = stablehlo.select %arg0, %arg1, %0 : tensor<64x512xi1>, tensor<64x512xf32>
    return %1 : tensor<64x512xf32>
  }
  func.func private @take_along_axis_269(%arg0: tensor<64x512x1x1xi32>, %arg1: tensor<64x512x1xf32>) -> tensor<64x512x30522xf32> {
    %cst = stablehlo.constant dense<0.000000e+00> : tensor<f32>
    %0 = stablehlo.broadcast_in_dim %cst, dims = [] : (tensor<f32>) -> tensor<64x512x30522xf32>
    %1 = "stablehlo.scatter"(%0, %arg0, %arg1) <{indices_are_sorted = false, scatter_dimension_numbers = #stablehlo.scatter<inserted_window_dims = [2], input_batching_dims = [0, 1], scatter_indices_batching_dims = [0, 1], scatter_dims_to_operand_dims = [2], index_vector_dim = 3>, unique_indices = false}> ({
    ^bb0(%arg2: tensor<f32>, %arg3: tensor<f32>):
      %2 = stablehlo.add %arg2, %arg3 : tensor<f32>
      stablehlo.return %2 : tensor<f32>
    }) : (tensor<64x512x30522xf32>, tensor<64x512x1x1xi32>, tensor<64x512x1xf32>) -> tensor<64x512x30522xf32>
    return %1 : tensor<64x512x30522xf32>
  }
  func.func private @closed_call_328(%arg0: tensor<bf16>, %arg1: tensor<64x512x12x512xi1>, %arg2: tensor<64x512x768xbf16>, %arg3: tensor<768x768xbf16>, %arg4: tensor<64x512x768xbf16>, %arg5: tensor<768x768xbf16>, %arg6: tensor<768x768xbf16>, %arg7: tensor<64x512x12x64xbf16>, %arg8: tensor<64x512x12x64xbf16>, %arg9: tensor<64x512x12x512xf32>, %arg10: tensor<64x512x12x1xf32>, %arg11: tensor<64x512x12x1xf32>, %arg12: tensor<64x512x12x512xi1>, %arg13: tensor<64x512x12x512xbf16>, %arg14: tensor<64x512x12x64xbf16>, %arg15: tensor<768x768xbf16>, %arg16: tensor<64x512x768xbf16>, %arg17: tensor<64x512x768xi1>, %arg18: tensor<64x512x768xf32>, %arg19: tensor<64x512x1xf32>, %arg20: tensor<64x512x1xf32>, %arg21: tensor<64x512x1xf32>, %arg22: tensor<64x512x1xf32>, %arg23: tensor<64x512x768xf32>, %arg24: tensor<64x512x768xf32>, %arg25: tensor<1x1x768xf32>, %arg26: tensor<768x3072xbf16>, %arg27: tensor<64x512x768xbf16>, %arg28: tensor<64x512x3072xbf16>, %arg29: tensor<64x512x3072xbf16>, %arg30: tensor<64x512x3072xbf16>, %arg31: tensor<64x512x3072xbf16>, %arg32: tensor<64x512x3072xbf16>, %arg33: tensor<3072x768xbf16>, %arg34: tensor<64x512x3072xbf16>, %arg35: tensor<64x512x768xi1>, %arg36: tensor<64x512x768xf32>, %arg37: tensor<64x512x1xf32>, %arg38: tensor<64x512x1xf32>, %arg39: tensor<64x512x1xf32>, %arg40: tensor<64x512x1xf32>, %arg41: tensor<64x512x768xf32>, %arg42: tensor<64x512x768xf32>, %arg43: tensor<1x1x768xf32>) -> (tensor<64x512x768xbf16>, tensor<768x768xbf16>, tensor<768xbf16>, tensor<768x768xbf16>, tensor<768xbf16>, tensor<768x768xbf16>, tensor<768xbf16>, tensor<768x768xbf16>, tensor<768xbf16>, tensor<768xbf16>, tensor<768xbf16>, tensor<3072x768xbf16>, tensor<3072xbf16>, tensor<768x3072xbf16>, tensor<768xbf16>, tensor<768xbf16>, tensor<768xbf16>) {
    %0 = stablehlo.convert %arg2 : (tensor<64x512x768xbf16>) -> tensor<64x512x768xf32>
    %cst = stablehlo.constant dense<0.000000e+00> : tensor<f32>
    %1 = stablehlo.reduce(%0 init: %cst) applies stablehlo.add across dimensions = [0, 1] : (tensor<64x512x768xf32>, tensor<f32>) -> tensor<768xf32>
    %2 = stablehlo.reshape %1 : (tensor<768xf32>) -> tensor<1x1x768xf32>
    %cst_0 = stablehlo.constant dense<0.000000e+00> : tensor<f32>
    %3 = stablehlo.reduce(%2 init: %cst_0) applies stablehlo.add across dimensions = [0, 1] : (tensor<1x1x768xf32>, tensor<f32>) -> tensor<768xf32>
    %4 = stablehlo.convert %3 : (tensor<768xf32>) -> tensor<768xbf16>
    %5 = stablehlo.broadcast_in_dim %arg43, dims = [0, 1, 2] : (tensor<1x1x768xf32>) -> tensor<64x512x768xf32>
    %6 = stablehlo.multiply %5, %0 : tensor<64x512x768xf32>
    %7 = stablehlo.multiply %0, %arg42 : tensor<64x512x768xf32>
    %cst_1 = stablehlo.constant dense<0.000000e+00> : tensor<f32>
    %8 = stablehlo.reduce(%7 init: %cst_1) applies stablehlo.add across dimensions = [0, 1] : (tensor<64x512x768xf32>, tensor<f32>) -> tensor<768xf32>
    %9 = stablehlo.reshape %8 : (tensor<768xf32>) -> tensor<1x1x768xf32>
    %cst_2 = stablehlo.constant dense<0.000000e+00> : tensor<f32>
    %10 = stablehlo.reduce(%9 init: %cst_2) applies stablehlo.add across dimensions = [0, 1] : (tensor<1x1x768xf32>, tensor<f32>) -> tensor<768xf32>
    %11 = stablehlo.convert %10 : (tensor<768xf32>) -> tensor<768xbf16>
    %12 = stablehlo.multiply %arg41, %6 : tensor<64x512x768xf32>
    %cst_3 = stablehlo.constant dense<0.000000e+00> : tensor<f32>
    %13 = stablehlo.reduce(%12 init: %cst_3) applies stablehlo.add across dimensions = [2] : (tensor<64x512x768xf32>, tensor<f32>) -> tensor<64x512xf32>
    %14 = stablehlo.reshape %13 : (tensor<64x512xf32>) -> tensor<64x512x1xf32>
    %15 = stablehlo.broadcast_in_dim %arg40, dims = [0, 1, 2] : (tensor<64x512x1xf32>) -> tensor<64x512x768xf32>
    %16 = stablehlo.multiply %6, %15 : tensor<64x512x768xf32>
    %17 = stablehlo.multiply %14, %arg39 : tensor<64x512x1xf32>
    %18 = stablehlo.multiply %17, %arg38 : tensor<64x512x1xf32>
    %19 = stablehlo.negate %18 : tensor<64x512x1xf32>
    %20 = stablehlo.multiply %19, %arg37 : tensor<64x512x1xf32>
    %cst_4 = stablehlo.constant dense<7.680000e+02> : tensor<f32>
    %21 = stablehlo.broadcast_in_dim %cst_4, dims = [] : (tensor<f32>) -> tensor<64x512x1xf32>
    %22 = stablehlo.divide %18, %21 : tensor<64x512x1xf32>
    %cst_5 = stablehlo.constant dense<0.000000e+00> : tensor<f32>
    %23 = stablehlo.reduce(%22 init: %cst_5) applies stablehlo.add across dimensions = [2] : (tensor<64x512x1xf32>, tensor<f32>) -> tensor<64x512xf32>
    %24 = stablehlo.broadcast_in_dim %23, dims = [0, 1] : (tensor<64x512xf32>) -> tensor<64x512x768xf32>
    %25 = stablehlo.multiply %24, %arg36 : tensor<64x512x768xf32>
    %26 = stablehlo.negate %16 : tensor<64x512x768xf32>
    %cst_6 = stablehlo.constant dense<0.000000e+00> : tensor<f32>
    %27 = stablehlo.reduce(%26 init: %cst_6) applies stablehlo.add across dimensions = [2] : (tensor<64x512x768xf32>, tensor<f32>) -> tensor<64x512xf32>
    %28 = stablehlo.reshape %27 : (tensor<64x512xf32>) -> tensor<64x512x1xf32>
    %29 = stablehlo.add %25, %16 : tensor<64x512x768xf32>
    %30 = stablehlo.add %20, %28 : tensor<64x512x1xf32>
    %cst_7 = stablehlo.constant dense<7.680000e+02> : tensor<f32>
    %31 = stablehlo.broadcast_in_dim %cst_7, dims = [] : (tensor<f32>) -> tensor<64x512x1xf32>
    %32 = stablehlo.divide %30, %31 : tensor<64x512x1xf32>
    %cst_8 = stablehlo.constant dense<0.000000e+00> : tensor<f32>
    %33 = stablehlo.reduce(%32 init: %cst_8) applies stablehlo.add across dimensions = [2] : (tensor<64x512x1xf32>, tensor<f32>) -> tensor<64x512xf32>
    %34 = stablehlo.broadcast_in_dim %33, dims = [0, 1] : (tensor<64x512xf32>) -> tensor<64x512x768xf32>
    %35 = stablehlo.add %29, %34 : tensor<64x512x768xf32>
    %36 = stablehlo.convert %35 : (tensor<64x512x768xf32>) -> tensor<64x512x768xbf16>
    %37 = call @_where_329(%arg35, %36) : (tensor<64x512x768xi1>, tensor<64x512x768xbf16>) -> tensor<64x512x768xbf16>
    %cst_9 = stablehlo.constant dense<8.984370e-01> : tensor<bf16>
    %38 = stablehlo.broadcast_in_dim %cst_9, dims = [] : (tensor<bf16>) -> tensor<64x512x768xbf16>
    %39 = stablehlo.divide %37, %38 : tensor<64x512x768xbf16>
    %cst_10 = stablehlo.constant dense<0.000000e+00> : tensor<bf16>
    %40 = stablehlo.reduce(%39 init: %cst_10) applies stablehlo.add across dimensions = [0, 1] : (tensor<64x512x768xbf16>, tensor<bf16>) -> tensor<768xbf16>
    %41 = stablehlo.reshape %40 : (tensor<768xbf16>) -> tensor<1x1x768xbf16>
    %cst_11 = stablehlo.constant dense<0.000000e+00> : tensor<bf16>
    %42 = stablehlo.reduce(%41 init: %cst_11) applies stablehlo.add across dimensions = [0, 1] : (tensor<1x1x768xbf16>, tensor<bf16>) -> tensor<768xbf16>
    %43 = stablehlo.dot_general %39, %arg34, contracting_dims = [0, 1] x [0, 1], precision = [DEFAULT, DEFAULT] : (tensor<64x512x768xbf16>, tensor<64x512x3072xbf16>) -> tensor<768x3072xbf16>
    %44 = stablehlo.transpose %43, dims = [1, 0] : (tensor<768x3072xbf16>) -> tensor<3072x768xbf16>
    %45 = stablehlo.dot_general %39, %arg33, contracting_dims = [2] x [1], precision = [DEFAULT, DEFAULT] : (tensor<64x512x768xbf16>, tensor<3072x768xbf16>) -> tensor<64x512x3072xbf16>
    %46 = stablehlo.transpose %44, dims = [1, 0] : (tensor<3072x768xbf16>) -> tensor<768x3072xbf16>
    %47 = stablehlo.multiply %arg32, %45 : tensor<64x512x3072xbf16>
    %48 = stablehlo.multiply %45, %arg31 : tensor<64x512x3072xbf16>
    %cst_12 = stablehlo.constant dense<5.000000e-01> : tensor<bf16>
    %49 = stablehlo.broadcast_in_dim %cst_12, dims = [] : (tensor<bf16>) -> tensor<64x512x3072xbf16>
    %50 = stablehlo.multiply %49, %47 : tensor<64x512x3072xbf16>
    %51 = stablehlo.multiply %50, %arg30 : tensor<64x512x3072xbf16>
    %52 = stablehlo.multiply %51, %arg29 : tensor<64x512x3072xbf16>
    %53 = stablehlo.add %51, %52 : tensor<64x512x3072xbf16>
    %cst_13 = stablehlo.constant dense<7.968750e-01> : tensor<bf16>
    %54 = stablehlo.broadcast_in_dim %cst_13, dims = [] : (tensor<bf16>) -> tensor<64x512x3072xbf16>
    %55 = stablehlo.multiply %54, %53 : tensor<64x512x3072xbf16>
    %56 = stablehlo.add %48, %55 : tensor<64x512x3072xbf16>
    %cst_14 = stablehlo.constant dense<4.467770e-02> : tensor<bf16>
    %57 = stablehlo.broadcast_in_dim %cst_14, dims = [] : (tensor<bf16>) -> tensor<64x512x3072xbf16>
    %58 = stablehlo.multiply %57, %55 : tensor<64x512x3072xbf16>
    %59 = stablehlo.multiply %58, %arg28 : tensor<64x512x3072xbf16>
    %60 = stablehlo.add %56, %59 : tensor<64x512x3072xbf16>
    %cst_15 = stablehlo.constant dense<0.000000e+00> : tensor<bf16>
    %61 = stablehlo.reduce(%60 init: %cst_15) applies stablehlo.add across dimensions = [0, 1] : (tensor<64x512x3072xbf16>, tensor<bf16>) -> tensor<3072xbf16>
    %62 = stablehlo.reshape %61 : (tensor<3072xbf16>) -> tensor<1x1x3072xbf16>
    %cst_16 = stablehlo.constant dense<0.000000e+00> : tensor<bf16>
    %63 = stablehlo.reduce(%62 init: %cst_16) applies stablehlo.add across dimensions = [0, 1] : (tensor<1x1x3072xbf16>, tensor<bf16>) -> tensor<3072xbf16>
    %64 = stablehlo.dot_general %60, %arg27, contracting_dims = [0, 1] x [0, 1], precision = [DEFAULT, DEFAULT] : (tensor<64x512x3072xbf16>, tensor<64x512x768xbf16>) -> tensor<3072x768xbf16>
    %65 = stablehlo.transpose %64, dims = [1, 0] : (tensor<3072x768xbf16>) -> tensor<768x3072xbf16>
    %66 = stablehlo.dot_general %60, %arg26, contracting_dims = [2] x [1], precision = [DEFAULT, DEFAULT] : (tensor<64x512x3072xbf16>, tensor<768x3072xbf16>) -> tensor<64x512x768xbf16>
    %67 = stablehlo.add %36, %66 : tensor<64x512x768xbf16>
    %68 = stablehlo.transpose %65, dims = [1, 0] : (tensor<768x3072xbf16>) -> tensor<3072x768xbf16>
    %69 = stablehlo.convert %67 : (tensor<64x512x768xbf16>) -> tensor<64x512x768xf32>
    %cst_17 = stablehlo.constant dense<0.000000e+00> : tensor<f32>
    %70 = stablehlo.reduce(%69 init: %cst_17) applies stablehlo.add across dimensions = [0, 1] : (tensor<64x512x768xf32>, tensor<f32>) -> tensor<768xf32>
    %71 = stablehlo.reshape %70 : (tensor<768xf32>) -> tensor<1x1x768xf32>
    %cst_18 = stablehlo.constant dense<0.000000e+00> : tensor<f32>
    %72 = stablehlo.reduce(%71 init: %cst_18) applies stablehlo.add across dimensions = [0, 1] : (tensor<1x1x768xf32>, tensor<f32>) -> tensor<768xf32>
    %73 = stablehlo.convert %72 : (tensor<768xf32>) -> tensor<768xbf16>
    %74 = stablehlo.broadcast_in_dim %arg25, dims = [0, 1, 2] : (tensor<1x1x768xf32>) -> tensor<64x512x768xf32>
    %75 = stablehlo.multiply %74, %69 : tensor<64x512x768xf32>
    %76 = stablehlo.multiply %69, %arg24 : tensor<64x512x768xf32>
    %cst_19 = stablehlo.constant dense<0.000000e+00> : tensor<f32>
    %77 = stablehlo.reduce(%76 init: %cst_19) applies stablehlo.add across dimensions = [0, 1] : (tensor<64x512x768xf32>, tensor<f32>) -> tensor<768xf32>
    %78 = stablehlo.reshape %77 : (tensor<768xf32>) -> tensor<1x1x768xf32>
    %cst_20 = stablehlo.constant dense<0.000000e+00> : tensor<f32>
    %79 = stablehlo.reduce(%78 init: %cst_20) applies stablehlo.add across dimensions = [0, 1] : (tensor<1x1x768xf32>, tensor<f32>) -> tensor<768xf32>
    %80 = stablehlo.convert %79 : (tensor<768xf32>) -> tensor<768xbf16>
    %81 = stablehlo.multiply %arg23, %75 : tensor<64x512x768xf32>
    %cst_21 = stablehlo.constant dense<0.000000e+00> : tensor<f32>
    %82 = stablehlo.reduce(%81 init: %cst_21) applies stablehlo.add across dimensions = [2] : (tensor<64x512x768xf32>, tensor<f32>) -> tensor<64x512xf32>
    %83 = stablehlo.reshape %82 : (tensor<64x512xf32>) -> tensor<64x512x1xf32>
    %84 = stablehlo.broadcast_in_dim %arg22, dims = [0, 1, 2] : (tensor<64x512x1xf32>) -> tensor<64x512x768xf32>
    %85 = stablehlo.multiply %75, %84 : tensor<64x512x768xf32>
    %86 = stablehlo.multiply %83, %arg21 : tensor<64x512x1xf32>
    %87 = stablehlo.multiply %86, %arg20 : tensor<64x512x1xf32>
    %88 = stablehlo.negate %87 : tensor<64x512x1xf32>
    %89 = stablehlo.multiply %88, %arg19 : tensor<64x512x1xf32>
    %cst_22 = stablehlo.constant dense<7.680000e+02> : tensor<f32>
    %90 = stablehlo.broadcast_in_dim %cst_22, dims = [] : (tensor<f32>) -> tensor<64x512x1xf32>
    %91 = stablehlo.divide %87, %90 : tensor<64x512x1xf32>
    %cst_23 = stablehlo.constant dense<0.000000e+00> : tensor<f32>
    %92 = stablehlo.reduce(%91 init: %cst_23) applies stablehlo.add across dimensions = [2] : (tensor<64x512x1xf32>, tensor<f32>) -> tensor<64x512xf32>
    %93 = stablehlo.broadcast_in_dim %92, dims = [0, 1] : (tensor<64x512xf32>) -> tensor<64x512x768xf32>
    %94 = stablehlo.multiply %93, %arg18 : tensor<64x512x768xf32>
    %95 = stablehlo.negate %85 : tensor<64x512x768xf32>
    %cst_24 = stablehlo.constant dense<0.000000e+00> : tensor<f32>
    %96 = stablehlo.reduce(%95 init: %cst_24) applies stablehlo.add across dimensions = [2] : (tensor<64x512x768xf32>, tensor<f32>) -> tensor<64x512xf32>
    %97 = stablehlo.reshape %96 : (tensor<64x512xf32>) -> tensor<64x512x1xf32>
    %98 = stablehlo.add %94, %85 : tensor<64x512x768xf32>
    %99 = stablehlo.add %89, %97 : tensor<64x512x1xf32>
    %cst_25 = stablehlo.constant dense<7.680000e+02> : tensor<f32>
    %100 = stablehlo.broadcast_in_dim %cst_25, dims = [] : (tensor<f32>) -> tensor<64x512x1xf32>
    %101 = stablehlo.divide %99, %100 : tensor<64x512x1xf32>
    %cst_26 = stablehlo.constant dense<0.000000e+00> : tensor<f32>
    %102 = stablehlo.reduce(%101 init: %cst_26) applies stablehlo.add across dimensions = [2] : (tensor<64x512x1xf32>, tensor<f32>) -> tensor<64x512xf32>
    %103 = stablehlo.broadcast_in_dim %102, dims = [0, 1] : (tensor<64x512xf32>) -> tensor<64x512x768xf32>
    %104 = stablehlo.add %98, %103 : tensor<64x512x768xf32>
    %105 = stablehlo.convert %104 : (tensor<64x512x768xf32>) -> tensor<64x512x768xbf16>
    %106 = call @_where_329(%arg17, %105) : (tensor<64x512x768xi1>, tensor<64x512x768xbf16>) -> tensor<64x512x768xbf16>
    %cst_27 = stablehlo.constant dense<8.984370e-01> : tensor<bf16>
    %107 = stablehlo.broadcast_in_dim %cst_27, dims = [] : (tensor<bf16>) -> tensor<64x512x768xbf16>
    %108 = stablehlo.divide %106, %107 : tensor<64x512x768xbf16>
    %cst_28 = stablehlo.constant dense<0.000000e+00> : tensor<bf16>
    %109 = stablehlo.reduce(%108 init: %cst_28) applies stablehlo.add across dimensions = [0, 1] : (tensor<64x512x768xbf16>, tensor<bf16>) -> tensor<768xbf16>
    %110 = stablehlo.reshape %109 : (tensor<768xbf16>) -> tensor<1x1x768xbf16>
    %cst_29 = stablehlo.constant dense<0.000000e+00> : tensor<bf16>
    %111 = stablehlo.reduce(%110 init: %cst_29) applies stablehlo.add across dimensions = [0, 1] : (tensor<1x1x768xbf16>, tensor<bf16>) -> tensor<768xbf16>
    %112 = stablehlo.dot_general %108, %arg16, contracting_dims = [0, 1] x [0, 1], precision = [DEFAULT, DEFAULT] : (tensor<64x512x768xbf16>, tensor<64x512x768xbf16>) -> tensor<768x768xbf16>
    %113 = stablehlo.transpose %112, dims = [1, 0] : (tensor<768x768xbf16>) -> tensor<768x768xbf16>
    %114 = stablehlo.dot_general %108, %arg15, contracting_dims = [2] x [1], precision = [DEFAULT, DEFAULT] : (tensor<64x512x768xbf16>, tensor<768x768xbf16>) -> tensor<64x512x768xbf16>
    %115 = stablehlo.transpose %113, dims = [1, 0] : (tensor<768x768xbf16>) -> tensor<768x768xbf16>
    %116 = stablehlo.reshape %114 : (tensor<64x512x768xbf16>) -> tensor<64x512x12x64xbf16>
    %117 = stablehlo.transpose %116, dims = [0, 2, 3, 1] : (tensor<64x512x12x64xbf16>) -> tensor<64x12x64x512xbf16>
    %118 = stablehlo.dot_general %117, %arg14, batching_dims = [0, 1] x [0, 2], contracting_dims = [2] x [3], precision = [DEFAULT, DEFAULT] : (tensor<64x12x64x512xbf16>, tensor<64x512x12x64xbf16>) -> tensor<64x12x512x512xbf16>
    %119 = stablehlo.transpose %118, dims = [0, 2, 1, 3] : (tensor<64x12x512x512xbf16>) -> tensor<64x512x12x512xbf16>
    %120 = stablehlo.dot_general %117, %arg13, batching_dims = [0, 1] x [0, 2], contracting_dims = [3] x [1], precision = [DEFAULT, DEFAULT] : (tensor<64x12x64x512xbf16>, tensor<64x512x12x512xbf16>) -> tensor<64x12x64x512xbf16>
    %121 = stablehlo.transpose %120, dims = [0, 3, 1, 2] : (tensor<64x12x64x512xbf16>) -> tensor<64x512x12x64xbf16>
    %122 = call @_where_344(%arg12, %119) : (tensor<64x512x12x512xi1>, tensor<64x512x12x512xbf16>) -> tensor<64x512x12x512xbf16>
    %cst_30 = stablehlo.constant dense<8.984370e-01> : tensor<bf16>
    %123 = stablehlo.broadcast_in_dim %cst_30, dims = [] : (tensor<bf16>) -> tensor<64x512x12x512xbf16>
    %124 = stablehlo.divide %122, %123 : tensor<64x512x12x512xbf16>
    %125 = stablehlo.convert %124 : (tensor<64x512x12x512xbf16>) -> tensor<64x512x12x512xf32>
    %126 = stablehlo.broadcast_in_dim %arg11, dims = [0, 1, 2, 3] : (tensor<64x512x12x1xf32>) -> tensor<64x512x12x512xf32>
    %127 = stablehlo.multiply %125, %126 : tensor<64x512x12x512xf32>
    %128 = stablehlo.multiply %127, %arg9 : tensor<64x512x12x512xf32>
    %cst_31 = stablehlo.constant dense<0.000000e+00> : tensor<f32>
    %129 = stablehlo.reduce(%128 init: %cst_31) applies stablehlo.add across dimensions = [3] : (tensor<64x512x12x512xf32>, tensor<f32>) -> tensor<64x512x12xf32>
    %130 = stablehlo.reshape %129 : (tensor<64x512x12xf32>) -> tensor<64x512x12x1xf32>
    %131 = stablehlo.negate %130 : tensor<64x512x12x1xf32>
    %132 = stablehlo.broadcast_in_dim %arg10, dims = [0, 1, 2, 3] : (tensor<64x512x12x1xf32>) -> tensor<64x512x12x512xf32>
    %133 = stablehlo.divide %125, %132 : tensor<64x512x12x512xf32>
    %cst_32 = stablehlo.constant dense<0.000000e+00> : tensor<f32>
    %134 = stablehlo.reduce(%131 init: %cst_32) applies stablehlo.add across dimensions = [3] : (tensor<64x512x12x1xf32>, tensor<f32>) -> tensor<64x512x12xf32>
    %135 = stablehlo.broadcast_in_dim %134, dims = [0, 1, 2] : (tensor<64x512x12xf32>) -> tensor<64x512x12x512xf32>
    %136 = stablehlo.add %133, %135 : tensor<64x512x12x512xf32>
    %137 = stablehlo.multiply %136, %arg9 : tensor<64x512x12x512xf32>
    %138 = stablehlo.convert %137 : (tensor<64x512x12x512xf32>) -> tensor<64x512x12x512xbf16>
    %139 = call @_where_355(%arg1, %138) : (tensor<64x512x12x512xi1>, tensor<64x512x12x512xbf16>) -> tensor<64x512x12x512xbf16>
    %140 = stablehlo.transpose %139, dims = [0, 2, 3, 1] : (tensor<64x512x12x512xbf16>) -> tensor<64x12x512x512xbf16>
    %141 = stablehlo.dot_general %140, %arg8, batching_dims = [0, 1] x [0, 2], contracting_dims = [2] x [1], precision = [DEFAULT, DEFAULT] : (tensor<64x12x512x512xbf16>, tensor<64x512x12x64xbf16>) -> tensor<64x12x512x64xbf16>
    %142 = stablehlo.transpose %141, dims = [0, 2, 1, 3] : (tensor<64x12x512x64xbf16>) -> tensor<64x512x12x64xbf16>
    %143 = stablehlo.dot_general %140, %arg7, batching_dims = [0, 1] x [0, 2], contracting_dims = [3] x [1], precision = [DEFAULT, DEFAULT] : (tensor<64x12x512x512xbf16>, tensor<64x512x12x64xbf16>) -> tensor<64x12x512x64xbf16>
    %144 = stablehlo.transpose %143, dims = [0, 2, 1, 3] : (tensor<64x12x512x64xbf16>) -> tensor<64x512x12x64xbf16>
    %145 = stablehlo.broadcast_in_dim %arg0, dims = [] : (tensor<bf16>) -> tensor<64x512x12x64xbf16>
    %146 = stablehlo.divide %142, %145 : tensor<64x512x12x64xbf16>
    %147 = stablehlo.reshape %121 : (tensor<64x512x12x64xbf16>) -> tensor<64x512x768xbf16>
    %cst_33 = stablehlo.constant dense<0.000000e+00> : tensor<bf16>
    %148 = stablehlo.reduce(%147 init: %cst_33) applies stablehlo.add across dimensions = [0, 1] : (tensor<64x512x768xbf16>, tensor<bf16>) -> tensor<768xbf16>
    %149 = stablehlo.reshape %148 : (tensor<768xbf16>) -> tensor<1x1x768xbf16>
    %cst_34 = stablehlo.constant dense<0.000000e+00> : tensor<bf16>
    %150 = stablehlo.reduce(%149 init: %cst_34) applies stablehlo.add across dimensions = [0, 1] : (tensor<1x1x768xbf16>, tensor<bf16>) -> tensor<768xbf16>
    %151 = stablehlo.dot_general %147, %arg4, contracting_dims = [0, 1] x [0, 1], precision = [DEFAULT, DEFAULT] : (tensor<64x512x768xbf16>, tensor<64x512x768xbf16>) -> tensor<768x768xbf16>
    %152 = stablehlo.transpose %151, dims = [1, 0] : (tensor<768x768xbf16>) -> tensor<768x768xbf16>
    %153 = stablehlo.dot_general %147, %arg6, contracting_dims = [2] x [1], precision = [DEFAULT, DEFAULT] : (tensor<64x512x768xbf16>, tensor<768x768xbf16>) -> tensor<64x512x768xbf16>
    %154 = stablehlo.add %105, %153 : tensor<64x512x768xbf16>
    %155 = stablehlo.transpose %152, dims = [1, 0] : (tensor<768x768xbf16>) -> tensor<768x768xbf16>
    %156 = stablehlo.reshape %144 : (tensor<64x512x12x64xbf16>) -> tensor<64x512x768xbf16>
    %cst_35 = stablehlo.constant dense<0.000000e+00> : tensor<bf16>
    %157 = stablehlo.reduce(%156 init: %cst_35) applies stablehlo.add across dimensions = [0, 1] : (tensor<64x512x768xbf16>, tensor<bf16>) -> tensor<768xbf16>
    %158 = stablehlo.reshape %157 : (tensor<768xbf16>) -> tensor<1x1x768xbf16>
    %cst_36 = stablehlo.constant dense<0.000000e+00> : tensor<bf16>
    %159 = stablehlo.reduce(%158 init: %cst_36) applies stablehlo.add across dimensions = [0, 1] : (tensor<1x1x768xbf16>, tensor<bf16>) -> tensor<768xbf16>
    %160 = stablehlo.dot_general %156, %arg4, contracting_dims = [0, 1] x [0, 1], precision = [DEFAULT, DEFAULT] : (tensor<64x512x768xbf16>, tensor<64x512x768xbf16>) -> tensor<768x768xbf16>
    %161 = stablehlo.transpose %160, dims = [1, 0] : (tensor<768x768xbf16>) -> tensor<768x768xbf16>
    %162 = stablehlo.dot_general %156, %arg5, contracting_dims = [2] x [1], precision = [DEFAULT, DEFAULT] : (tensor<64x512x768xbf16>, tensor<768x768xbf16>) -> tensor<64x512x768xbf16>
    %163 = stablehlo.add %154, %162 : tensor<64x512x768xbf16>
    %164 = stablehlo.transpose %161, dims = [1, 0] : (tensor<768x768xbf16>) -> tensor<768x768xbf16>
    %165 = stablehlo.reshape %146 : (tensor<64x512x12x64xbf16>) -> tensor<64x512x768xbf16>
    %cst_37 = stablehlo.constant dense<0.000000e+00> : tensor<bf16>
    %166 = stablehlo.reduce(%165 init: %cst_37) applies stablehlo.add across dimensions = [0, 1] : (tensor<64x512x768xbf16>, tensor<bf16>) -> tensor<768xbf16>
    %167 = stablehlo.reshape %166 : (tensor<768xbf16>) -> tensor<1x1x768xbf16>
    %cst_38 = stablehlo.constant dense<0.000000e+00> : tensor<bf16>
    %168 = stablehlo.reduce(%167 init: %cst_38) applies stablehlo.add across dimensions = [0, 1] : (tensor<1x1x768xbf16>, tensor<bf16>) -> tensor<768xbf16>
    %169 = stablehlo.dot_general %165, %arg4, contracting_dims = [0, 1] x [0, 1], precision = [DEFAULT, DEFAULT] : (tensor<64x512x768xbf16>, tensor<64x512x768xbf16>) -> tensor<768x768xbf16>
    %170 = stablehlo.transpose %169, dims = [1, 0] : (tensor<768x768xbf16>) -> tensor<768x768xbf16>
    %171 = stablehlo.dot_general %165, %arg3, contracting_dims = [2] x [1], precision = [DEFAULT, DEFAULT] : (tensor<64x512x768xbf16>, tensor<768x768xbf16>) -> tensor<64x512x768xbf16>
    %172 = stablehlo.add %163, %171 : tensor<64x512x768xbf16>
    %173 = stablehlo.transpose %170, dims = [1, 0] : (tensor<768x768xbf16>) -> tensor<768x768xbf16>
    return %172, %173, %168, %164, %159, %155, %150, %115, %111, %80, %73, %68, %63, %46, %42, %11, %4 : tensor<64x512x768xbf16>, tensor<768x768xbf16>, tensor<768xbf16>, tensor<768x768xbf16>, tensor<768xbf16>, tensor<768x768xbf16>, tensor<768xbf16>, tensor<768x768xbf16>, tensor<768xbf16>, tensor<768xbf16>, tensor<768xbf16>, tensor<3072x768xbf16>, tensor<3072xbf16>, tensor<768x3072xbf16>, tensor<768xbf16>, tensor<768xbf16>, tensor<768xbf16>
  }
  func.func private @_where_329(%arg0: tensor<64x512x768xi1>, %arg1: tensor<64x512x768xbf16>) -> tensor<64x512x768xbf16> {
    %cst = stablehlo.constant dense<0.000000e+00> : tensor<bf16>
    %0 = stablehlo.broadcast_in_dim %cst, dims = [] : (tensor<bf16>) -> tensor<64x512x768xbf16>
    %1 = stablehlo.select %arg0, %arg1, %0 : tensor<64x512x768xi1>, tensor<64x512x768xbf16>
    return %1 : tensor<64x512x768xbf16>
  }
  func.func private @_where_344(%arg0: tensor<64x512x12x512xi1>, %arg1: tensor<64x512x12x512xbf16>) -> tensor<64x512x12x512xbf16> {
    %cst = stablehlo.constant dense<0.000000e+00> : tensor<bf16>
    %0 = stablehlo.broadcast_in_dim %cst, dims = [] : (tensor<bf16>) -> tensor<64x512x12x512xbf16>
    %1 = stablehlo.select %arg0, %arg1, %0 : tensor<64x512x12x512xi1>, tensor<64x512x12x512xbf16>
    return %1 : tensor<64x512x12x512xbf16>
  }
  func.func private @_where_355(%arg0: tensor<64x512x12x512xi1>, %arg1: tensor<64x512x12x512xbf16>) -> tensor<64x512x12x512xbf16> {
    %cst = stablehlo.constant dense<0.000000e+00> : tensor<bf16>
    %0 = stablehlo.broadcast_in_dim %cst, dims = [] : (tensor<bf16>) -> tensor<64x512x12x512xbf16>
    %1 = stablehlo.select %arg0, %arg1, %0 : tensor<64x512x12x512xi1>, tensor<64x512x12x512xbf16>
    return %1 : tensor<64x512x12x512xbf16>
  }
  func.func private @_where_365(%arg0: tensor<64x512x768xi1>, %arg1: tensor<64x512x768xbf16>) -> tensor<64x512x768xbf16> {
    %cst = stablehlo.constant dense<0.000000e+00> : tensor<bf16>
    %0 = stablehlo.broadcast_in_dim %cst, dims = [] : (tensor<bf16>) -> tensor<64x512x768xbf16>
    %1 = stablehlo.select %arg0, %arg1, %0 : tensor<64x512x768xi1>, tensor<64x512x768xbf16>
    return %1 : tensor<64x512x768xbf16>
  }
  func.func private @_take_366(%arg0: tensor<64x512x1xi32>, %arg1: tensor<64x512x768xbf16>) -> tensor<2x768xbf16> {
    %cst = stablehlo.constant dense<0.000000e+00> : tensor<bf16>
    %0 = stablehlo.broadcast_in_dim %cst, dims = [] : (tensor<bf16>) -> tensor<2x768xbf16>
    %1 = "stablehlo.scatter"(%0, %arg0, %arg1) <{indices_are_sorted = false, scatter_dimension_numbers = #stablehlo.scatter<update_window_dims = [2], inserted_window_dims = [0], scatter_dims_to_operand_dims = [0], index_vector_dim = 2>, unique_indices = false}> ({
    ^bb0(%arg2: tensor<bf16>, %arg3: tensor<bf16>):
      %2 = stablehlo.add %arg2, %arg3 : tensor<bf16>
      stablehlo.return %2 : tensor<bf16>
    }) : (tensor<2x768xbf16>, tensor<64x512x1xi32>, tensor<64x512x768xbf16>) -> tensor<2x768xbf16>
    return %1 : tensor<2x768xbf16>
  }
  func.func private @_take_370(%arg0: tensor<64x512x1xi32>, %arg1: tensor<64x512x768xbf16>) -> tensor<512x768xbf16> {
    %cst = stablehlo.constant dense<0.000000e+00> : tensor<bf16>
    %0 = stablehlo.broadcast_in_dim %cst, dims = [] : (tensor<bf16>) -> tensor<512x768xbf16>
    %1 = "stablehlo.scatter"(%0, %arg0, %arg1) <{indices_are_sorted = false, scatter_dimension_numbers = #stablehlo.scatter<update_window_dims = [2], inserted_window_dims = [0], scatter_dims_to_operand_dims = [0], index_vector_dim = 2>, unique_indices = false}> ({
    ^bb0(%arg2: tensor<bf16>, %arg3: tensor<bf16>):
      %2 = stablehlo.add %arg2, %arg3 : tensor<bf16>
      stablehlo.return %2 : tensor<bf16>
    }) : (tensor<512x768xbf16>, tensor<64x512x1xi32>, tensor<64x512x768xbf16>) -> tensor<512x768xbf16>
    return %1 : tensor<512x768xbf16>
  }
  func.func private @_take_373(%arg0: tensor<64x512x1xi32>, %arg1: tensor<64x512x768xbf16>) -> tensor<30522x768xbf16> {
    %cst = stablehlo.constant dense<0.000000e+00> : tensor<bf16>
    %0 = stablehlo.broadcast_in_dim %cst, dims = [] : (tensor<bf16>) -> tensor<30522x768xbf16>
    %1 = "stablehlo.scatter"(%0, %arg0, %arg1) <{indices_are_sorted = false, scatter_dimension_numbers = #stablehlo.scatter<update_window_dims = [2], inserted_window_dims = [0], scatter_dims_to_operand_dims = [0], index_vector_dim = 2>, unique_indices = false}> ({
    ^bb0(%arg2: tensor<bf16>, %arg3: tensor<bf16>):
      %2 = stablehlo.add %arg2, %arg3 : tensor<bf16>
      stablehlo.return %2 : tensor<bf16>
    }) : (tensor<30522x768xbf16>, tensor<64x512x1xi32>, tensor<64x512x768xbf16>) -> tensor<30522x768xbf16>
    return %1 : tensor<30522x768xbf16>
  }
  func.func private @clip(%arg0: tensor<i32>, %arg1: tensor<i32>, %arg2: tensor<i32>) -> tensor<i32> {
    %0 = stablehlo.convert %arg1 : tensor<i32>
    %1 = stablehlo.maximum %0, %arg0 : tensor<i32>
    %2 = stablehlo.convert %arg2 : tensor<i32>
    %3 = stablehlo.minimum %2, %1 : tensor<i32>
    return %3 : tensor<i32>
  }
  func.func private @_where_385(%arg0: tensor<i1>, %arg1: tensor<i32>, %arg2: tensor<i32>) -> tensor<i32> {
    %0 = stablehlo.select %arg0, %arg1, %arg2 : tensor<i1>, tensor<i32>
    return %0 : tensor<i32>
  }
}
