module @jit_train_step attributes {mhlo.num_partitions = 4 : i32, mhlo.num_replicas = 1 : i32} {
  sdy.mesh @mesh = <["dp"=4]>
  func.func public @main(%arg0: tensor<30522x768xf32> {sdy.sharding = #sdy.sharding<@mesh, [{}, {}]>}, %arg1: tensor<512x768xf32> {sdy.sharding = #sdy.sharding<@mesh, [{}, {}]>}, %arg2: tensor<2x768xf32> {sdy.sharding = #sdy.sharding<@mesh, [{}, {}]>}, %arg3: tensor<768xf32> {sdy.sharding = #sdy.sharding<@mesh, [{}]>}, %arg4: tensor<768xf32> {sdy.sharding = #sdy.sharding<@mesh, [{}]>}, %arg5: tensor<12x768x768xf32> {sdy.sharding = #sdy.sharding<@mesh, [{}, {}, {}]>}, %arg6: tensor<12x768xf32> {sdy.sharding = #sdy.sharding<@mesh, [{}, {}]>}, %arg7: tensor<12x768x768xf32> {sdy.sharding = #sdy.sharding<@mesh, [{}, {}, {}]>}, %arg8: tensor<12x768xf32> {sdy.sharding = #sdy.sharding<@mesh, [{}, {}]>}, %arg9: tensor<12x768x768xf32> {sdy.sharding = #sdy.sharding<@mesh, [{}, {}, {}]>}, %arg10: tensor<12x768xf32> {sdy.sharding = #sdy.sharding<@mesh, [{}, {}]>}, %arg11: tensor<12x768x768xf32> {sdy.sharding = #sdy.sharding<@mesh, [{}, {}, {}]>}, %arg12: tensor<12x768xf32> {sdy.sharding = #sdy.sharding<@mesh, [{}, {}]>}, %arg13: tensor<12x768xf32> {sdy.sharding = #sdy.sharding<@mesh, [{}, {}]>}, %arg14: tensor<12x768xf32> {sdy.sharding = #sdy.sharding<@mesh, [{}, {}]>}, %arg15: tensor<12x3072x768xf32> {sdy.sharding = #sdy.sharding<@mesh, [{}, {}, {}]>}, %arg16: tensor<12x3072xf32> {sdy.sharding = #sdy.sharding<@mesh, [{}, {}]>}, %arg17: tensor<12x768x3072xf32> {sdy.sharding = #sdy.sharding<@mesh, [{}, {}, {}]>}, %arg18: tensor<12x768xf32> {sdy.sharding = #sdy.sharding<@mesh, [{}, {}]>}, %arg19: tensor<12x768xf32> {sdy.sharding = #sdy.sharding<@mesh, [{}, {}]>}, %arg20: tensor<12x768xf32> {sdy.sharding = #sdy.sharding<@mesh, [{}, {}]>}, %arg21: tensor<768x768xf32> {sdy.sharding = #sdy.sharding<@mesh, [{}, {}]>}, %arg22: tensor<768xf32> {sdy.sharding = #sdy.sharding<@mesh, [{}]>}, %arg23: tensor<768xf32> {sdy.sharding = #sdy.sharding<@mesh, [{}]>}, %arg24: tensor<768xf32> {sdy.sharding = #sdy.sharding<@mesh, [{}]>}, %arg25: tensor<30522x768xf32> {sdy.sharding = #sdy.sharding<@mesh, [{}, {}]>}, %arg26: tensor<30522xf32> {sdy.sharding = #sdy.sharding<@mesh, [{}]>}, %arg27: tensor<i32> {sdy.sharding = #sdy.sharding<@mesh, []>}, %arg28: tensor<i32> {sdy.sharding = #sdy.sharding<@mesh, []>}, %arg29: tensor<i32> {sdy.sharding = #sdy.sharding<@mesh, []>}, %arg30: tensor<30522x768xf32> {sdy.sharding = #sdy.sharding<@mesh, [{}, {}]>}, %arg31: tensor<512x768xf32> {sdy.sharding = #sdy.sharding<@mesh, [{}, {}]>}, %arg32: tensor<2x768xf32> {sdy.sharding = #sdy.sharding<@mesh, [{}, {}]>}, %arg33: tensor<768xf32> {sdy.sharding = #sdy.sharding<@mesh, [{}]>}, %arg34: tensor<768xf32> {sdy.sharding = #sdy.sharding<@mesh, [{}]>}, %arg35: tensor<12x768x768xf32> {sdy.sharding = #sdy.sharding<@mesh, [{}, {}, {}]>}, %arg36: tensor<12x768xf32> {sdy.sharding = #sdy.sharding<@mesh, [{}, {}]>}, %arg37: tensor<12x768x768xf32> {sdy.sharding = #sdy.sharding<@mesh, [{}, {}, {}]>}, %arg38: tensor<12x768xf32> {sdy.sharding = #sdy.sharding<@mesh, [{}, {}]>}, %arg39: tensor<12x768x768xf32> {sdy.sharding = #sdy.sharding<@mesh, [{}, {}, {}]>}, %arg40: tensor<12x768xf32> {sdy.sharding = #sdy.sharding<@mesh, [{}, {}]>}, %arg41: tensor<12x768x768xf32> {sdy.sharding = #sdy.sharding<@mesh, [{}, {}, {}]>}, %arg42: tensor<12x768xf32> {sdy.sharding = #sdy.sharding<@mesh, [{}, {}]>}, %arg43: tensor<12x768xf32> {sdy.sharding = #sdy.sharding<@mesh, [{}, {}]>}, %arg44: tensor<12x768xf32> {sdy.sharding = #sdy.sharding<@mesh, [{}, {}]>}, %arg45: tensor<12x3072x768xf32> {sdy.sharding = #sdy.sharding<@mesh, [{}, {}, {}]>}, %arg46: tensor<12x3072xf32> {sdy.sharding = #sdy.sharding<@mesh, [{}, {}]>}, %arg47: tensor<12x768x3072xf32> {sdy.sharding = #sdy.sharding<@mesh, [{}, {}, {}]>}, %arg48: tensor<12x768xf32> {sdy.sharding = #sdy.sharding<@mesh, [{}, {}]>}, %arg49: tensor<12x768xf32> {sdy.sharding = #sdy.sharding<@mesh, [{}, {}]>}, %arg50: tensor<12x768xf32> {sdy.sharding = #sdy.sharding<@mesh, [{}, {}]>}, %arg51: tensor<768x768xf32> {sdy.sharding = #sdy.sharding<@mesh, [{}, {}]>}, %arg52: tensor<768xf32> {sdy.sharding = #sdy.sharding<@mesh, [{}]>}, %arg53: tensor<768xf32> {sdy.sharding = #sdy.sharding<@mesh, [{}]>}, %arg54: tensor<768xf32> {sdy.sharding = #sdy.sharding<@mesh, [{}]>}, %arg55: tensor<30522x768xf32> {sdy.sharding = #sdy.sharding<@mesh, [{}, {}]>}, %arg56: tensor<30522xf32> {sdy.sharding = #sdy.sharding<@mesh, [{}]>}, %arg57: tensor<30522x768xf32> {sdy.sharding = #sdy.sharding<@mesh, [{}, {}]>}, %arg58: tensor<512x768xf32> {sdy.sharding = #sdy.sharding<@mesh, [{}, {}]>}, %arg59: tensor<2x768xf32> {sdy.sharding = #sdy.sharding<@mesh, [{}, {}]>}, %arg60: tensor<768xf32> {sdy.sharding = #sdy.sharding<@mesh, [{}]>}, %arg61: tensor<768xf32> {sdy.sharding = #sdy.sharding<@mesh, [{}]>}, %arg62: tensor<12x768x768xf32> {sdy.sharding = #sdy.sharding<@mesh, [{}, {}, {}]>}, %arg63: tensor<12x768xf32> {sdy.sharding = #sdy.sharding<@mesh, [{}, {}]>}, %arg64: tensor<12x768x768xf32> {sdy.sharding = #sdy.sharding<@mesh, [{}, {}, {}]>}, %arg65: tensor<12x768xf32> {sdy.sharding = #sdy.sharding<@mesh, [{}, {}]>}, %arg66: tensor<12x768x768xf32> {sdy.sharding = #sdy.sharding<@mesh, [{}, {}, {}]>}, %arg67: tensor<12x768xf32> {sdy.sharding = #sdy.sharding<@mesh, [{}, {}]>}, %arg68: tensor<12x768x768xf32> {sdy.sharding = #sdy.sharding<@mesh, [{}, {}, {}]>}, %arg69: tensor<12x768xf32> {sdy.sharding = #sdy.sharding<@mesh, [{}, {}]>}, %arg70: tensor<12x768xf32> {sdy.sharding = #sdy.sharding<@mesh, [{}, {}]>}, %arg71: tensor<12x768xf32> {sdy.sharding = #sdy.sharding<@mesh, [{}, {}]>}, %arg72: tensor<12x3072x768xf32> {sdy.sharding = #sdy.sharding<@mesh, [{}, {}, {}]>}, %arg73: tensor<12x3072xf32> {sdy.sharding = #sdy.sharding<@mesh, [{}, {}]>}, %arg74: tensor<12x768x3072xf32> {sdy.sharding = #sdy.sharding<@mesh, [{}, {}, {}]>}, %arg75: tensor<12x768xf32> {sdy.sharding = #sdy.sharding<@mesh, [{}, {}]>}, %arg76: tensor<12x768xf32> {sdy.sharding = #sdy.sharding<@mesh, [{}, {}]>}, %arg77: tensor<12x768xf32> {sdy.sharding = #sdy.sharding<@mesh, [{}, {}]>}, %arg78: tensor<768x768xf32> {sdy.sharding = #sdy.sharding<@mesh, [{}, {}]>}, %arg79: tensor<768xf32> {sdy.sharding = #sdy.sharding<@mesh, [{}]>}, %arg80: tensor<768xf32> {sdy.sharding = #sdy.sharding<@mesh, [{}]>}, %arg81: tensor<768xf32> {sdy.sharding = #sdy.sharding<@mesh, [{}]>}, %arg82: tensor<30522x768xf32> {sdy.sharding = #sdy.sharding<@mesh, [{}, {}]>}, %arg83: tensor<30522xf32> {sdy.sharding = #sdy.sharding<@mesh, [{}]>}, %arg84: tensor<64x512xi32> {sdy.sharding = #sdy.sharding<@mesh, [{"dp"}, {}]>}, %arg85: tensor<64x512xi32> {sdy.sharding = #sdy.sharding<@mesh, [{"dp"}, {}]>}, %arg86: tensor<64x512xi32> {sdy.sharding = #sdy.sharding<@mesh, [{"dp"}, {}]>}, %arg87: tensor<64x512xi32> {sdy.sharding = #sdy.sharding<@mesh, [{"dp"}, {}]>}) -> (tensor<i32> {jax.result_info = "result[0]"}, tensor<30522x768xf32> {jax.result_info = "result[1][0].model.bert.embeddings.word_embeddings.weight"}, tensor<512x768xf32> {jax.result_info = "result[1][0].model.bert.embeddings.position_embeddings.weight"}, tensor<2x768xf32> {jax.result_info = "result[1][0].model.bert.embeddings.token_type_embeddings.weight"}, tensor<768xf32> {jax.result_info = "result[1][0].model.bert.embeddings.layer_norm.weight"}, tensor<768xf32> {jax.result_info = "result[1][0].model.bert.embeddings.layer_norm.bias"}, tensor<12x768x768xf32> {jax.result_info = "result[1][0].model.bert.encoder.layers.attention.self_attention.query.weight"}, tensor<12x768xf32> {jax.result_info = "result[1][0].model.bert.encoder.layers.attention.self_attention.query.bias"}, tensor<12x768x768xf32> {jax.result_info = "result[1][0].model.bert.encoder.layers.attention.self_attention.key.weight"}, tensor<12x768xf32> {jax.result_info = "result[1][0].model.bert.encoder.layers.attention.self_attention.key.bias"}, tensor<12x768x768xf32> {jax.result_info = "result[1][0].model.bert.encoder.layers.attention.self_attention.value.weight"}, tensor<12x768xf32> {jax.result_info = "result[1][0].model.bert.encoder.layers.attention.self_attention.value.bias"}, tensor<12x768x768xf32> {jax.result_info = "result[1][0].model.bert.encoder.layers.attention.output.dense.weight"}, tensor<12x768xf32> {jax.result_info = "result[1][0].model.bert.encoder.layers.attention.output.dense.bias"}, tensor<12x768xf32> {jax.result_info = "result[1][0].model.bert.encoder.layers.attention.output.layer_norm.weight"}, tensor<12x768xf32> {jax.result_info = "result[1][0].model.bert.encoder.layers.attention.output.layer_norm.bias"}, tensor<12x3072x768xf32> {jax.result_info = "result[1][0].model.bert.encoder.layers.intermediate.dense.weight"}, tensor<12x3072xf32> {jax.result_info = "result[1][0].model.bert.encoder.layers.intermediate.dense.bias"}, tensor<12x768x3072xf32> {jax.result_info = "result[1][0].model.bert.encoder.layers.output.dense.weight"}, tensor<12x768xf32> {jax.result_info = "result[1][0].model.bert.encoder.layers.output.dense.bias"}, tensor<12x768xf32> {jax.result_info = "result[1][0].model.bert.encoder.layers.output.layer_norm.weight"}, tensor<12x768xf32> {jax.result_info = "result[1][0].model.bert.encoder.layers.output.layer_norm.bias"}, tensor<768x768xf32> {jax.result_info = "result[1][0].model.mlm_head.dense.weight"}, tensor<768xf32> {jax.result_info = "result[1][0].model.mlm_head.dense.bias"}, tensor<768xf32> {jax.result_info = "result[1][0].model.mlm_head.layer_norm.weight"}, tensor<768xf32> {jax.result_info = "result[1][0].model.mlm_head.layer_norm.bias"}, tensor<30522x768xf32> {jax.result_info = "result[1][0].model.mlm_head.lm_head.pytree[0].weight"}, tensor<30522xf32> {jax.result_info = "result[1][0].model.mlm_head.bias"}, tensor<i32> {jax.result_info = "result[1][0].opt_state.count"}, tensor<f32> {jax.result_info = "result[1][0].opt_state.hyperparams['learning_rate']"}, tensor<i32> {jax.result_info = "result[1][0].opt_state.hyperparams_states['learning_rate'].count"}, tensor<i32> {jax.result_info = "result[1][0].opt_state.inner_state[1].count"}, tensor<30522x768xf32> {jax.result_info = "result[1][0].opt_state.inner_state[1].mu.bert.embeddings.word_embeddings.weight"}, tensor<512x768xf32> {jax.result_info = "result[1][0].opt_state.inner_state[1].mu.bert.embeddings.position_embeddings.weight"}, tensor<2x768xf32> {jax.result_info = "result[1][0].opt_state.inner_state[1].mu.bert.embeddings.token_type_embeddings.weight"}, tensor<768xf32> {jax.result_info = "result[1][0].opt_state.inner_state[1].mu.bert.embeddings.layer_norm.weight"}, tensor<768xf32> {jax.result_info = "result[1][0].opt_state.inner_state[1].mu.bert.embeddings.layer_norm.bias"}, tensor<12x768x768xf32> {jax.result_info = "result[1][0].opt_state.inner_state[1].mu.bert.encoder.layers.attention.self_attention.query.weight"}, tensor<12x768xf32> {jax.result_info = "result[1][0].opt_state.inner_state[1].mu.bert.encoder.layers.attention.self_attention.query.bias"}, tensor<12x768x768xf32> {jax.result_info = "result[1][0].opt_state.inner_state[1].mu.bert.encoder.layers.attention.self_attention.key.weight"}, tensor<12x768xf32> {jax.result_info = "result[1][0].opt_state.inner_state[1].mu.bert.encoder.layers.attention.self_attention.key.bias"}, tensor<12x768x768xf32> {jax.result_info = "result[1][0].opt_state.inner_state[1].mu.bert.encoder.layers.attention.self_attention.value.weight"}, tensor<12x768xf32> {jax.result_info = "result[1][0].opt_state.inner_state[1].mu.bert.encoder.layers.attention.self_attention.value.bias"}, tensor<12x768x768xf32> {jax.result_info = "result[1][0].opt_state.inner_state[1].mu.bert.encoder.layers.attention.output.dense.weight"}, tensor<12x768xf32> {jax.result_info = "result[1][0].opt_state.inner_state[1].mu.bert.encoder.layers.attention.output.dense.bias"}, tensor<12x768xf32> {jax.result_info = "result[1][0].opt_state.inner_state[1].mu.bert.encoder.layers.attention.output.layer_norm.weight"}, tensor<12x768xf32> {jax.result_info = "result[1][0].opt_state.inner_state[1].mu.bert.encoder.layers.attention.output.layer_norm.bias"}, tensor<12x3072x768xf32> {jax.result_info = "result[1][0].opt_state.inner_state[1].mu.bert.encoder.layers.intermediate.dense.weight"}, tensor<12x3072xf32> {jax.result_info = "result[1][0].opt_state.inner_state[1].mu.bert.encoder.layers.intermediate.dense.bias"}, tensor<12x768x3072xf32> {jax.result_info = "result[1][0].opt_state.inner_state[1].mu.bert.encoder.layers.output.dense.weight"}, tensor<12x768xf32> {jax.result_info = "result[1][0].opt_state.inner_state[1].mu.bert.encoder.layers.output.dense.bias"}, tensor<12x768xf32> {jax.result_info = "result[1][0].opt_state.inner_state[1].mu.bert.encoder.layers.output.layer_norm.weight"}, tensor<12x768xf32> {jax.result_info = "result[1][0].opt_state.inner_state[1].mu.bert.encoder.layers.output.layer_norm.bias"}, tensor<768x768xf32> {jax.result_info = "result[1][0].opt_state.inner_state[1].mu.mlm_head.dense.weight"}, tensor<768xf32> {jax.result_info = "result[1][0].opt_state.inner_state[1].mu.mlm_head.dense.bias"}, tensor<768xf32> {jax.result_info = "result[1][0].opt_state.inner_state[1].mu.mlm_head.layer_norm.weight"}, tensor<768xf32> {jax.result_info = "result[1][0].opt_state.inner_state[1].mu.mlm_head.layer_norm.bias"}, tensor<30522x768xf32> {jax.result_info = "result[1][0].opt_state.inner_state[1].mu.mlm_head.lm_head.pytree[0].weight"}, tensor<30522xf32> {jax.result_info = "result[1][0].opt_state.inner_state[1].mu.mlm_head.bias"}, tensor<30522x768xf32> {jax.result_info = "result[1][0].opt_state.inner_state[1].nu.bert.embeddings.word_embeddings.weight"}, tensor<512x768xf32> {jax.result_info = "result[1][0].opt_state.inner_state[1].nu.bert.embeddings.position_embeddings.weight"}, tensor<2x768xf32> {jax.result_info = "result[1][0].opt_state.inner_state[1].nu.bert.embeddings.token_type_embeddings.weight"}, tensor<768xf32> {jax.result_info = "result[1][0].opt_state.inner_state[1].nu.bert.embeddings.layer_norm.weight"}, tensor<768xf32> {jax.result_info = "result[1][0].opt_state.inner_state[1].nu.bert.embeddings.layer_norm.bias"}, tensor<12x768x768xf32> {jax.result_info = "result[1][0].opt_state.inner_state[1].nu.bert.encoder.layers.attention.self_attention.query.weight"}, tensor<12x768xf32> {jax.result_info = "result[1][0].opt_state.inner_state[1].nu.bert.encoder.layers.attention.self_attention.query.bias"}, tensor<12x768x768xf32> {jax.result_info = "result[1][0].opt_state.inner_state[1].nu.bert.encoder.layers.attention.self_attention.key.weight"}, tensor<12x768xf32> {jax.result_info = "result[1][0].opt_state.inner_state[1].nu.bert.encoder.layers.attention.self_attention.key.bias"}, tensor<12x768x768xf32> {jax.result_info = "result[1][0].opt_state.inner_state[1].nu.bert.encoder.layers.attention.self_attention.value.weight"}, tensor<12x768xf32> {jax.result_info = "result[1][0].opt_state.inner_state[1].nu.bert.encoder.layers.attention.self_attention.value.bias"}, tensor<12x768x768xf32> {jax.result_info = "result[1][0].opt_state.inner_state[1].nu.bert.encoder.layers.attention.output.dense.weight"}, tensor<12x768xf32> {jax.result_info = "result[1][0].opt_state.inner_state[1].nu.bert.encoder.layers.attention.output.dense.bias"}, tensor<12x768xf32> {jax.result_info = "result[1][0].opt_state.inner_state[1].nu.bert.encoder.layers.attention.output.layer_norm.weight"}, tensor<12x768xf32> {jax.result_info = "result[1][0].opt_state.inner_state[1].nu.bert.encoder.layers.attention.output.layer_norm.bias"}, tensor<12x3072x768xf32> {jax.result_info = "result[1][0].opt_state.inner_state[1].nu.bert.encoder.layers.intermediate.dense.weight"}, tensor<12x3072xf32> {jax.result_info = "result[1][0].opt_state.inner_state[1].nu.bert.encoder.layers.intermediate.dense.bias"}, tensor<12x768x3072xf32> {jax.result_info = "result[1][0].opt_state.inner_state[1].nu.bert.encoder.layers.output.dense.weight"}, tensor<12x768xf32> {jax.result_info = "result[1][0].opt_state.inner_state[1].nu.bert.encoder.layers.output.dense.bias"}, tensor<12x768xf32> {jax.result_info = "result[1][0].opt_state.inner_state[1].nu.bert.encoder.layers.output.layer_norm.weight"}, tensor<12x768xf32> {jax.result_info = "result[1][0].opt_state.inner_state[1].nu.bert.encoder.layers.output.layer_norm.bias"}, tensor<768x768xf32> {jax.result_info = "result[1][0].opt_state.inner_state[1].nu.mlm_head.dense.weight"}, tensor<768xf32> {jax.result_info = "result[1][0].opt_state.inner_state[1].nu.mlm_head.dense.bias"}, tensor<768xf32> {jax.result_info = "result[1][0].opt_state.inner_state[1].nu.mlm_head.layer_norm.weight"}, tensor<768xf32> {jax.result_info = "result[1][0].opt_state.inner_state[1].nu.mlm_head.layer_norm.bias"}, tensor<30522x768xf32> {jax.result_info = "result[1][0].opt_state.inner_state[1].nu.mlm_head.lm_head.pytree[0].weight"}, tensor<30522xf32> {jax.result_info = "result[1][0].opt_state.inner_state[1].nu.mlm_head.bias"}, tensor<i32> {jax.result_info = "result[1][1]['acc'][0]"}, tensor<i32> {jax.result_info = "result[1][1]['acc'][1]"}, tensor<f32> {jax.result_info = "result[1][1]['loss'][0]"}, tensor<i32> {jax.result_info = "result[1][1]['loss'][1]"}, tensor<i32> {jax.result_info = "result[1][1]['total_token']"}) {
    %0:2 = call @_take(%arg0, %arg84) : (tensor<30522x768xf32>, tensor<64x512xi32>) -> (tensor<64x512x768xf32>, tensor<64x512x1xi32>)
    %1:2 = call @_take_5(%arg1, %arg87) : (tensor<512x768xf32>, tensor<64x512xi32>) -> (tensor<64x512x768xf32>, tensor<64x512x1xi32>)
    %2 = stablehlo.add %0#0, %1#0 : tensor<64x512x768xf32>
    %3:2 = call @_take_9(%arg2, %arg85) : (tensor<2x768xf32>, tensor<64x512xi32>) -> (tensor<64x512x768xf32>, tensor<64x512x1xi32>)
    %4 = stablehlo.add %2, %3#0 : tensor<64x512x768xf32>
    %cst = stablehlo.constant dense<0.000000e+00> : tensor<f32>
    %5 = stablehlo.reduce(%4 init: %cst) applies stablehlo.add across dimensions = [2] : (tensor<64x512x768xf32>, tensor<f32>) -> tensor<64x512xf32>
    %6 = stablehlo.broadcast_in_dim %5, dims = [0, 1] : (tensor<64x512xf32>) -> tensor<64x512x1xf32>
    %cst_0 = stablehlo.constant dense<7.680000e+02> : tensor<f32>
    %7 = stablehlo.broadcast_in_dim %cst_0, dims = [] : (tensor<f32>) -> tensor<64x512x1xf32>
    %8 = stablehlo.divide %6, %7 : tensor<64x512x1xf32>
    %9 = stablehlo.broadcast_in_dim %8, dims = [0, 1, 2] : (tensor<64x512x1xf32>) -> tensor<64x512x768xf32>
    %10 = stablehlo.subtract %4, %9 : tensor<64x512x768xf32>
    %11 = stablehlo.multiply %10, %10 : tensor<64x512x768xf32>
    %cst_1 = stablehlo.constant dense<2.000000e+00> : tensor<f32>
    %12 = stablehlo.broadcast_in_dim %cst_1, dims = [] : (tensor<f32>) -> tensor<64x512x768xf32>
    %13 = stablehlo.multiply %12, %10 : tensor<64x512x768xf32>
    %cst_2 = stablehlo.constant dense<0.000000e+00> : tensor<f32>
    %14 = stablehlo.reduce(%11 init: %cst_2) applies stablehlo.add across dimensions = [2] : (tensor<64x512x768xf32>, tensor<f32>) -> tensor<64x512xf32>
    %15 = stablehlo.broadcast_in_dim %14, dims = [0, 1] : (tensor<64x512xf32>) -> tensor<64x512x1xf32>
    %cst_3 = stablehlo.constant dense<7.680000e+02> : tensor<f32>
    %16 = stablehlo.broadcast_in_dim %cst_3, dims = [] : (tensor<f32>) -> tensor<64x512x1xf32>
    %17 = stablehlo.divide %15, %16 : tensor<64x512x1xf32>
    %cst_4 = stablehlo.constant dense<9.99999996E-13> : tensor<f32>
    %18 = stablehlo.broadcast_in_dim %cst_4, dims = [] : (tensor<f32>) -> tensor<64x512x1xf32>
    %19 = stablehlo.add %17, %18 : tensor<64x512x1xf32>
    %20 = stablehlo.rsqrt %19 : tensor<64x512x1xf32>
    %21 = stablehlo.divide %20, %19 : tensor<64x512x1xf32>
    %cst_5 = stablehlo.constant dense<-5.000000e-01> : tensor<f32>
    %22 = stablehlo.broadcast_in_dim %cst_5, dims = [] : (tensor<f32>) -> tensor<64x512x1xf32>
    %23 = stablehlo.multiply %22, %21 : tensor<64x512x1xf32>
    %24 = stablehlo.broadcast_in_dim %20, dims = [0, 1, 2] : (tensor<64x512x1xf32>) -> tensor<64x512x768xf32>
    %25 = stablehlo.multiply %10, %24 : tensor<64x512x768xf32>
    %26 = stablehlo.broadcast_in_dim %arg3, dims = [2] : (tensor<768xf32>) -> tensor<1x1x768xf32>
    %27 = stablehlo.broadcast_in_dim %26, dims = [0, 1, 2] : (tensor<1x1x768xf32>) -> tensor<64x512x768xf32>
    %28 = stablehlo.multiply %27, %25 : tensor<64x512x768xf32>
    %29 = stablehlo.broadcast_in_dim %arg4, dims = [2] : (tensor<768xf32>) -> tensor<1x1x768xf32>
    %30 = stablehlo.broadcast_in_dim %29, dims = [0, 1, 2] : (tensor<1x1x768xf32>) -> tensor<64x512x768xf32>
    %31 = stablehlo.add %28, %30 : tensor<64x512x768xf32>
    %cst_6 = stablehlo.constant dense<0.000000e+00> : tensor<f32>
    %32 = stablehlo.broadcast_in_dim %cst_6, dims = [] : (tensor<f32>) -> tensor<64x512x12x512xf32>
    %cst_7 = stablehlo.constant dense<0.000000e+00> : tensor<f32>
    %33 = stablehlo.broadcast_in_dim %cst_7, dims = [] : (tensor<f32>) -> tensor<12x64x512x768xf32>
    %cst_8 = stablehlo.constant dense<0.000000e+00> : tensor<f32>
    %34 = stablehlo.broadcast_in_dim %cst_8, dims = [] : (tensor<f32>) -> tensor<12x768x768xf32>
    %cst_9 = stablehlo.constant dense<0.000000e+00> : tensor<f32>
    %35 = stablehlo.broadcast_in_dim %cst_9, dims = [] : (tensor<f32>) -> tensor<12x768x768xf32>
    %cst_10 = stablehlo.constant dense<0.000000e+00> : tensor<f32>
    %36 = stablehlo.broadcast_in_dim %cst_10, dims = [] : (tensor<f32>) -> tensor<12x64x512x768xf32>
    %cst_11 = stablehlo.constant dense<0.000000e+00> : tensor<f32>
    %37 = stablehlo.broadcast_in_dim %cst_11, dims = [] : (tensor<f32>) -> tensor<12x64x512x768xf32>
    %cst_12 = stablehlo.constant dense<0.000000e+00> : tensor<f32>
    %38 = stablehlo.broadcast_in_dim %cst_12, dims = [] : (tensor<f32>) -> tensor<12x64x512x1xf32>
    %cst_13 = stablehlo.constant dense<0.000000e+00> : tensor<f32>
    %39 = stablehlo.broadcast_in_dim %cst_13, dims = [] : (tensor<f32>) -> tensor<12x64x512x1xf32>
    %cst_14 = stablehlo.constant dense<0.000000e+00> : tensor<f32>
    %40 = stablehlo.broadcast_in_dim %cst_14, dims = [] : (tensor<f32>) -> tensor<12x64x512x768xf32>
    %cst_15 = stablehlo.constant dense<0.000000e+00> : tensor<f32>
    %41 = stablehlo.broadcast_in_dim %cst_15, dims = [] : (tensor<f32>) -> tensor<12x64x512x768xf32>
    %cst_16 = stablehlo.constant dense<0.000000e+00> : tensor<f32>
    %42 = stablehlo.broadcast_in_dim %cst_16, dims = [] : (tensor<f32>) -> tensor<12x1x1x768xf32>
    %cst_17 = stablehlo.constant dense<0.000000e+00> : tensor<f32>
    %43 = stablehlo.broadcast_in_dim %cst_17, dims = [] : (tensor<f32>) -> tensor<12x768x3072xf32>
    %cst_18 = stablehlo.constant dense<0.000000e+00> : tensor<f32>
    %44 = stablehlo.broadcast_in_dim %cst_18, dims = [] : (tensor<f32>) -> tensor<12x64x512x768xf32>
    %cst_19 = stablehlo.constant dense<0.000000e+00> : tensor<f32>
    %45 = stablehlo.broadcast_in_dim %cst_19, dims = [] : (tensor<f32>) -> tensor<12x64x512x3072xf32>
    %cst_20 = stablehlo.constant dense<0.000000e+00> : tensor<f32>
    %46 = stablehlo.broadcast_in_dim %cst_20, dims = [] : (tensor<f32>) -> tensor<12x64x512x3072xf32>
    %cst_21 = stablehlo.constant dense<0.000000e+00> : tensor<f32>
    %47 = stablehlo.broadcast_in_dim %cst_21, dims = [] : (tensor<f32>) -> tensor<12x64x512x3072xf32>
    %cst_22 = stablehlo.constant dense<0.000000e+00> : tensor<f32>
    %48 = stablehlo.broadcast_in_dim %cst_22, dims = [] : (tensor<f32>) -> tensor<12x64x512x3072xf32>
    %cst_23 = stablehlo.constant dense<0.000000e+00> : tensor<f32>
    %49 = stablehlo.broadcast_in_dim %cst_23, dims = [] : (tensor<f32>) -> tensor<12x64x512x3072xf32>
    %cst_24 = stablehlo.constant dense<0.000000e+00> : tensor<f32>
    %50 = stablehlo.broadcast_in_dim %cst_24, dims = [] : (tensor<f32>) -> tensor<12x3072x768xf32>
    %cst_25 = stablehlo.constant dense<0.000000e+00> : tensor<f32>
    %51 = stablehlo.broadcast_in_dim %cst_25, dims = [] : (tensor<f32>) -> tensor<12x64x512x3072xf32>
    %cst_26 = stablehlo.constant dense<0.000000e+00> : tensor<f32>
    %52 = stablehlo.broadcast_in_dim %cst_26, dims = [] : (tensor<f32>) -> tensor<12x64x512x768xf32>
    %cst_27 = stablehlo.constant dense<0.000000e+00> : tensor<f32>
    %53 = stablehlo.broadcast_in_dim %cst_27, dims = [] : (tensor<f32>) -> tensor<12x64x512x1xf32>
    %cst_28 = stablehlo.constant dense<0.000000e+00> : tensor<f32>
    %54 = stablehlo.broadcast_in_dim %cst_28, dims = [] : (tensor<f32>) -> tensor<12x64x512x1xf32>
    %cst_29 = stablehlo.constant dense<0.000000e+00> : tensor<f32>
    %55 = stablehlo.broadcast_in_dim %cst_29, dims = [] : (tensor<f32>) -> tensor<12x64x512x768xf32>
    %cst_30 = stablehlo.constant dense<0.000000e+00> : tensor<f32>
    %56 = stablehlo.broadcast_in_dim %cst_30, dims = [] : (tensor<f32>) -> tensor<12x64x512x768xf32>
    %cst_31 = stablehlo.constant dense<0.000000e+00> : tensor<f32>
    %57 = stablehlo.broadcast_in_dim %cst_31, dims = [] : (tensor<f32>) -> tensor<12x1x1x768xf32>
    %c = stablehlo.constant dense<0> : tensor<i32>
    %58:40 = stablehlo.while(%iterArg = %arg9, %iterArg_366 = %arg10, %iterArg_367 = %arg11, %iterArg_368 = %arg12, %iterArg_369 = %arg13, %iterArg_370 = %arg14, %iterArg_371 = %arg15, %iterArg_372 = %arg16, %iterArg_373 = %arg17, %iterArg_374 = %arg18, %iterArg_375 = %arg19, %iterArg_376 = %arg20, %iterArg_377 = %32, %iterArg_378 = %c, %iterArg_379 = %31, %iterArg_380 = %33, %iterArg_381 = %34, %iterArg_382 = %35, %iterArg_383 = %36, %iterArg_384 = %37, %iterArg_385 = %38, %iterArg_386 = %39, %iterArg_387 = %40, %iterArg_388 = %41, %iterArg_389 = %42, %iterArg_390 = %43, %iterArg_391 = %44, %iterArg_392 = %45, %iterArg_393 = %46, %iterArg_394 = %47, %iterArg_395 = %48, %iterArg_396 = %49, %iterArg_397 = %50, %iterArg_398 = %51, %iterArg_399 = %52, %iterArg_400 = %53, %iterArg_401 = %54, %iterArg_402 = %55, %iterArg_403 = %56, %iterArg_404 = %57) : tensor<12x768x768xf32>, tensor<12x768xf32>, tensor<12x768x768xf32>, tensor<12x768xf32>, tensor<12x768xf32>, tensor<12x768xf32>, tensor<12x3072x768xf32>, tensor<12x3072xf32>, tensor<12x768x3072xf32>, tensor<12x768xf32>, tensor<12x768xf32>, tensor<12x768xf32>, tensor<64x512x12x512xf32>, tensor<i32>, tensor<64x512x768xf32>, tensor<12x64x512x768xf32>, tensor<12x768x768xf32>, tensor<12x768x768xf32>, tensor<12x64x512x768xf32>, tensor<12x64x512x768xf32>, tensor<12x64x512x1xf32>, tensor<12x64x512x1xf32>, tensor<12x64x512x768xf32>, tensor<12x64x512x768xf32>, tensor<12x1x1x768xf32>, tensor<12x768x3072xf32>, tensor<12x64x512x768xf32>, tensor<12x64x512x3072xf32>, tensor<12x64x512x3072xf32>, tensor<12x64x512x3072xf32>, tensor<12x64x512x3072xf32>, tensor<12x64x512x3072xf32>, tensor<12x3072x768xf32>, tensor<12x64x512x3072xf32>, tensor<12x64x512x768xf32>, tensor<12x64x512x1xf32>, tensor<12x64x512x1xf32>, tensor<12x64x512x768xf32>, tensor<12x64x512x768xf32>, tensor<12x1x1x768xf32>
    cond {
      %c_405 = stablehlo.constant dense<12> : tensor<i32>
      %1225 = stablehlo.compare  LT, %iterArg_378, %c_405,  SIGNED : (tensor<i32>, tensor<i32>) -> tensor<i1>
      stablehlo.return %1225 : tensor<i1>
    } do {
      %c_405 = stablehlo.constant dense<0> : tensor<i32>
      %c_406 = stablehlo.constant dense<0> : tensor<i32>
      %1225 = stablehlo.dynamic_slice %iterArg, %iterArg_378, %c_405, %c_406, sizes = [1, 768, 768] : (tensor<12x768x768xf32>, tensor<i32>, tensor<i32>, tensor<i32>) -> tensor<1x768x768xf32>
      %1226 = stablehlo.reshape %1225 : (tensor<1x768x768xf32>) -> tensor<768x768xf32>
      %c_407 = stablehlo.constant dense<0> : tensor<i32>
      %1227 = stablehlo.dynamic_slice %iterArg_366, %iterArg_378, %c_407, sizes = [1, 768] : (tensor<12x768xf32>, tensor<i32>, tensor<i32>) -> tensor<1x768xf32>
      %1228 = stablehlo.reshape %1227 : (tensor<1x768xf32>) -> tensor<768xf32>
      %c_408 = stablehlo.constant dense<0> : tensor<i32>
      %c_409 = stablehlo.constant dense<0> : tensor<i32>
      %1229 = stablehlo.dynamic_slice %iterArg_367, %iterArg_378, %c_408, %c_409, sizes = [1, 768, 768] : (tensor<12x768x768xf32>, tensor<i32>, tensor<i32>, tensor<i32>) -> tensor<1x768x768xf32>
      %1230 = stablehlo.reshape %1229 : (tensor<1x768x768xf32>) -> tensor<768x768xf32>
      %c_410 = stablehlo.constant dense<0> : tensor<i32>
      %1231 = stablehlo.dynamic_slice %iterArg_368, %iterArg_378, %c_410, sizes = [1, 768] : (tensor<12x768xf32>, tensor<i32>, tensor<i32>) -> tensor<1x768xf32>
      %1232 = stablehlo.reshape %1231 : (tensor<1x768xf32>) -> tensor<768xf32>
      %c_411 = stablehlo.constant dense<0> : tensor<i32>
      %1233 = stablehlo.dynamic_slice %iterArg_369, %iterArg_378, %c_411, sizes = [1, 768] : (tensor<12x768xf32>, tensor<i32>, tensor<i32>) -> tensor<1x768xf32>
      %1234 = stablehlo.reshape %1233 : (tensor<1x768xf32>) -> tensor<768xf32>
      %c_412 = stablehlo.constant dense<0> : tensor<i32>
      %1235 = stablehlo.dynamic_slice %iterArg_370, %iterArg_378, %c_412, sizes = [1, 768] : (tensor<12x768xf32>, tensor<i32>, tensor<i32>) -> tensor<1x768xf32>
      %1236 = stablehlo.reshape %1235 : (tensor<1x768xf32>) -> tensor<768xf32>
      %c_413 = stablehlo.constant dense<0> : tensor<i32>
      %c_414 = stablehlo.constant dense<0> : tensor<i32>
      %1237 = stablehlo.dynamic_slice %iterArg_371, %iterArg_378, %c_413, %c_414, sizes = [1, 3072, 768] : (tensor<12x3072x768xf32>, tensor<i32>, tensor<i32>, tensor<i32>) -> tensor<1x3072x768xf32>
      %1238 = stablehlo.reshape %1237 : (tensor<1x3072x768xf32>) -> tensor<3072x768xf32>
      %c_415 = stablehlo.constant dense<0> : tensor<i32>
      %1239 = stablehlo.dynamic_slice %iterArg_372, %iterArg_378, %c_415, sizes = [1, 3072] : (tensor<12x3072xf32>, tensor<i32>, tensor<i32>) -> tensor<1x3072xf32>
      %1240 = stablehlo.reshape %1239 : (tensor<1x3072xf32>) -> tensor<3072xf32>
      %c_416 = stablehlo.constant dense<0> : tensor<i32>
      %c_417 = stablehlo.constant dense<0> : tensor<i32>
      %1241 = stablehlo.dynamic_slice %iterArg_373, %iterArg_378, %c_416, %c_417, sizes = [1, 768, 3072] : (tensor<12x768x3072xf32>, tensor<i32>, tensor<i32>, tensor<i32>) -> tensor<1x768x3072xf32>
      %1242 = stablehlo.reshape %1241 : (tensor<1x768x3072xf32>) -> tensor<768x3072xf32>
      %c_418 = stablehlo.constant dense<0> : tensor<i32>
      %1243 = stablehlo.dynamic_slice %iterArg_374, %iterArg_378, %c_418, sizes = [1, 768] : (tensor<12x768xf32>, tensor<i32>, tensor<i32>) -> tensor<1x768xf32>
      %1244 = stablehlo.reshape %1243 : (tensor<1x768xf32>) -> tensor<768xf32>
      %c_419 = stablehlo.constant dense<0> : tensor<i32>
      %1245 = stablehlo.dynamic_slice %iterArg_375, %iterArg_378, %c_419, sizes = [1, 768] : (tensor<12x768xf32>, tensor<i32>, tensor<i32>) -> tensor<1x768xf32>
      %1246 = stablehlo.reshape %1245 : (tensor<1x768xf32>) -> tensor<768xf32>
      %c_420 = stablehlo.constant dense<0> : tensor<i32>
      %1247 = stablehlo.dynamic_slice %iterArg_376, %iterArg_378, %c_420, sizes = [1, 768] : (tensor<12x768xf32>, tensor<i32>, tensor<i32>) -> tensor<1x768xf32>
      %1248 = stablehlo.reshape %1247 : (tensor<1x768xf32>) -> tensor<768xf32>
      %1249:26 = func.call @closed_call(%iterArg_377, %iterArg_379, %1226, %1228, %1230, %1232, %1234, %1236, %1238, %1240, %1242, %1244, %1246, %1248) : (tensor<64x512x12x512xf32>, tensor<64x512x768xf32>, tensor<768x768xf32>, tensor<768xf32>, tensor<768x768xf32>, tensor<768xf32>, tensor<768xf32>, tensor<768xf32>, tensor<3072x768xf32>, tensor<3072xf32>, tensor<768x3072xf32>, tensor<768xf32>, tensor<768xf32>, tensor<768xf32>) -> (tensor<64x512x768xf32>, tensor<64x512x768xf32>, tensor<768x768xf32>, tensor<768x768xf32>, tensor<64x512x768xf32>, tensor<64x512x768xf32>, tensor<64x512x1xf32>, tensor<64x512x1xf32>, tensor<64x512x768xf32>, tensor<64x512x768xf32>, tensor<1x1x768xf32>, tensor<768x3072xf32>, tensor<64x512x768xf32>, tensor<64x512x3072xf32>, tensor<64x512x3072xf32>, tensor<64x512x3072xf32>, tensor<64x512x3072xf32>, tensor<64x512x3072xf32>, tensor<3072x768xf32>, tensor<64x512x3072xf32>, tensor<64x512x768xf32>, tensor<64x512x1xf32>, tensor<64x512x1xf32>, tensor<64x512x768xf32>, tensor<64x512x768xf32>, tensor<1x1x768xf32>)
      %1250 = stablehlo.broadcast_in_dim %1249#1, dims = [1, 2, 3] : (tensor<64x512x768xf32>) -> tensor<1x64x512x768xf32>
      %c_421 = stablehlo.constant dense<0> : tensor<i32>
      %c_422 = stablehlo.constant dense<0> : tensor<i32>
      %c_423 = stablehlo.constant dense<0> : tensor<i32>
      %1251 = stablehlo.dynamic_update_slice %iterArg_380, %1250, %iterArg_378, %c_421, %c_422, %c_423 : (tensor<12x64x512x768xf32>, tensor<1x64x512x768xf32>, tensor<i32>, tensor<i32>, tensor<i32>, tensor<i32>) -> tensor<12x64x512x768xf32>
      %1252 = stablehlo.broadcast_in_dim %1249#2, dims = [1, 2] : (tensor<768x768xf32>) -> tensor<1x768x768xf32>
      %c_424 = stablehlo.constant dense<0> : tensor<i32>
      %c_425 = stablehlo.constant dense<0> : tensor<i32>
      %1253 = stablehlo.dynamic_update_slice %iterArg_381, %1252, %iterArg_378, %c_424, %c_425 : (tensor<12x768x768xf32>, tensor<1x768x768xf32>, tensor<i32>, tensor<i32>, tensor<i32>) -> tensor<12x768x768xf32>
      %1254 = stablehlo.broadcast_in_dim %1249#3, dims = [1, 2] : (tensor<768x768xf32>) -> tensor<1x768x768xf32>
      %c_426 = stablehlo.constant dense<0> : tensor<i32>
      %c_427 = stablehlo.constant dense<0> : tensor<i32>
      %1255 = stablehlo.dynamic_update_slice %iterArg_382, %1254, %iterArg_378, %c_426, %c_427 : (tensor<12x768x768xf32>, tensor<1x768x768xf32>, tensor<i32>, tensor<i32>, tensor<i32>) -> tensor<12x768x768xf32>
      %1256 = stablehlo.broadcast_in_dim %1249#4, dims = [1, 2, 3] : (tensor<64x512x768xf32>) -> tensor<1x64x512x768xf32>
      %c_428 = stablehlo.constant dense<0> : tensor<i32>
      %c_429 = stablehlo.constant dense<0> : tensor<i32>
      %c_430 = stablehlo.constant dense<0> : tensor<i32>
      %1257 = stablehlo.dynamic_update_slice %iterArg_383, %1256, %iterArg_378, %c_428, %c_429, %c_430 : (tensor<12x64x512x768xf32>, tensor<1x64x512x768xf32>, tensor<i32>, tensor<i32>, tensor<i32>, tensor<i32>) -> tensor<12x64x512x768xf32>
      %1258 = stablehlo.broadcast_in_dim %1249#5, dims = [1, 2, 3] : (tensor<64x512x768xf32>) -> tensor<1x64x512x768xf32>
      %c_431 = stablehlo.constant dense<0> : tensor<i32>
      %c_432 = stablehlo.constant dense<0> : tensor<i32>
      %c_433 = stablehlo.constant dense<0> : tensor<i32>
      %1259 = stablehlo.dynamic_update_slice %iterArg_384, %1258, %iterArg_378, %c_431, %c_432, %c_433 : (tensor<12x64x512x768xf32>, tensor<1x64x512x768xf32>, tensor<i32>, tensor<i32>, tensor<i32>, tensor<i32>) -> tensor<12x64x512x768xf32>
      %1260 = stablehlo.broadcast_in_dim %1249#6, dims = [1, 2, 3] : (tensor<64x512x1xf32>) -> tensor<1x64x512x1xf32>
      %c_434 = stablehlo.constant dense<0> : tensor<i32>
      %c_435 = stablehlo.constant dense<0> : tensor<i32>
      %c_436 = stablehlo.constant dense<0> : tensor<i32>
      %1261 = stablehlo.dynamic_update_slice %iterArg_385, %1260, %iterArg_378, %c_434, %c_435, %c_436 : (tensor<12x64x512x1xf32>, tensor<1x64x512x1xf32>, tensor<i32>, tensor<i32>, tensor<i32>, tensor<i32>) -> tensor<12x64x512x1xf32>
      %1262 = stablehlo.broadcast_in_dim %1249#7, dims = [1, 2, 3] : (tensor<64x512x1xf32>) -> tensor<1x64x512x1xf32>
      %c_437 = stablehlo.constant dense<0> : tensor<i32>
      %c_438 = stablehlo.constant dense<0> : tensor<i32>
      %c_439 = stablehlo.constant dense<0> : tensor<i32>
      %1263 = stablehlo.dynamic_update_slice %iterArg_386, %1262, %iterArg_378, %c_437, %c_438, %c_439 : (tensor<12x64x512x1xf32>, tensor<1x64x512x1xf32>, tensor<i32>, tensor<i32>, tensor<i32>, tensor<i32>) -> tensor<12x64x512x1xf32>
      %1264 = stablehlo.broadcast_in_dim %1249#8, dims = [1, 2, 3] : (tensor<64x512x768xf32>) -> tensor<1x64x512x768xf32>
      %c_440 = stablehlo.constant dense<0> : tensor<i32>
      %c_441 = stablehlo.constant dense<0> : tensor<i32>
      %c_442 = stablehlo.constant dense<0> : tensor<i32>
      %1265 = stablehlo.dynamic_update_slice %iterArg_387, %1264, %iterArg_378, %c_440, %c_441, %c_442 : (tensor<12x64x512x768xf32>, tensor<1x64x512x768xf32>, tensor<i32>, tensor<i32>, tensor<i32>, tensor<i32>) -> tensor<12x64x512x768xf32>
      %1266 = stablehlo.broadcast_in_dim %1249#9, dims = [1, 2, 3] : (tensor<64x512x768xf32>) -> tensor<1x64x512x768xf32>
      %c_443 = stablehlo.constant dense<0> : tensor<i32>
      %c_444 = stablehlo.constant dense<0> : tensor<i32>
      %c_445 = stablehlo.constant dense<0> : tensor<i32>
      %1267 = stablehlo.dynamic_update_slice %iterArg_388, %1266, %iterArg_378, %c_443, %c_444, %c_445 : (tensor<12x64x512x768xf32>, tensor<1x64x512x768xf32>, tensor<i32>, tensor<i32>, tensor<i32>, tensor<i32>) -> tensor<12x64x512x768xf32>
      %1268 = stablehlo.broadcast_in_dim %1249#10, dims = [1, 2, 3] : (tensor<1x1x768xf32>) -> tensor<1x1x1x768xf32>
      %c_446 = stablehlo.constant dense<0> : tensor<i32>
      %c_447 = stablehlo.constant dense<0> : tensor<i32>
      %c_448 = stablehlo.constant dense<0> : tensor<i32>
      %1269 = stablehlo.dynamic_update_slice %iterArg_389, %1268, %iterArg_378, %c_446, %c_447, %c_448 : (tensor<12x1x1x768xf32>, tensor<1x1x1x768xf32>, tensor<i32>, tensor<i32>, tensor<i32>, tensor<i32>) -> tensor<12x1x1x768xf32>
      %1270 = stablehlo.broadcast_in_dim %1249#11, dims = [1, 2] : (tensor<768x3072xf32>) -> tensor<1x768x3072xf32>
      %c_449 = stablehlo.constant dense<0> : tensor<i32>
      %c_450 = stablehlo.constant dense<0> : tensor<i32>
      %1271 = stablehlo.dynamic_update_slice %iterArg_390, %1270, %iterArg_378, %c_449, %c_450 : (tensor<12x768x3072xf32>, tensor<1x768x3072xf32>, tensor<i32>, tensor<i32>, tensor<i32>) -> tensor<12x768x3072xf32>
      %1272 = stablehlo.broadcast_in_dim %1249#12, dims = [1, 2, 3] : (tensor<64x512x768xf32>) -> tensor<1x64x512x768xf32>
      %c_451 = stablehlo.constant dense<0> : tensor<i32>
      %c_452 = stablehlo.constant dense<0> : tensor<i32>
      %c_453 = stablehlo.constant dense<0> : tensor<i32>
      %1273 = stablehlo.dynamic_update_slice %iterArg_391, %1272, %iterArg_378, %c_451, %c_452, %c_453 : (tensor<12x64x512x768xf32>, tensor<1x64x512x768xf32>, tensor<i32>, tensor<i32>, tensor<i32>, tensor<i32>) -> tensor<12x64x512x768xf32>
      %1274 = stablehlo.broadcast_in_dim %1249#13, dims = [1, 2, 3] : (tensor<64x512x3072xf32>) -> tensor<1x64x512x3072xf32>
      %c_454 = stablehlo.constant dense<0> : tensor<i32>
      %c_455 = stablehlo.constant dense<0> : tensor<i32>
      %c_456 = stablehlo.constant dense<0> : tensor<i32>
      %1275 = stablehlo.dynamic_update_slice %iterArg_392, %1274, %iterArg_378, %c_454, %c_455, %c_456 : (tensor<12x64x512x3072xf32>, tensor<1x64x512x3072xf32>, tensor<i32>, tensor<i32>, tensor<i32>, tensor<i32>) -> tensor<12x64x512x3072xf32>
      %1276 = stablehlo.broadcast_in_dim %1249#14, dims = [1, 2, 3] : (tensor<64x512x3072xf32>) -> tensor<1x64x512x3072xf32>
      %c_457 = stablehlo.constant dense<0> : tensor<i32>
      %c_458 = stablehlo.constant dense<0> : tensor<i32>
      %c_459 = stablehlo.constant dense<0> : tensor<i32>
      %1277 = stablehlo.dynamic_update_slice %iterArg_393, %1276, %iterArg_378, %c_457, %c_458, %c_459 : (tensor<12x64x512x3072xf32>, tensor<1x64x512x3072xf32>, tensor<i32>, tensor<i32>, tensor<i32>, tensor<i32>) -> tensor<12x64x512x3072xf32>
      %1278 = stablehlo.broadcast_in_dim %1249#15, dims = [1, 2, 3] : (tensor<64x512x3072xf32>) -> tensor<1x64x512x3072xf32>
      %c_460 = stablehlo.constant dense<0> : tensor<i32>
      %c_461 = stablehlo.constant dense<0> : tensor<i32>
      %c_462 = stablehlo.constant dense<0> : tensor<i32>
      %1279 = stablehlo.dynamic_update_slice %iterArg_394, %1278, %iterArg_378, %c_460, %c_461, %c_462 : (tensor<12x64x512x3072xf32>, tensor<1x64x512x3072xf32>, tensor<i32>, tensor<i32>, tensor<i32>, tensor<i32>) -> tensor<12x64x512x3072xf32>
      %1280 = stablehlo.broadcast_in_dim %1249#16, dims = [1, 2, 3] : (tensor<64x512x3072xf32>) -> tensor<1x64x512x3072xf32>
      %c_463 = stablehlo.constant dense<0> : tensor<i32>
      %c_464 = stablehlo.constant dense<0> : tensor<i32>
      %c_465 = stablehlo.constant dense<0> : tensor<i32>
      %1281 = stablehlo.dynamic_update_slice %iterArg_395, %1280, %iterArg_378, %c_463, %c_464, %c_465 : (tensor<12x64x512x3072xf32>, tensor<1x64x512x3072xf32>, tensor<i32>, tensor<i32>, tensor<i32>, tensor<i32>) -> tensor<12x64x512x3072xf32>
      %1282 = stablehlo.broadcast_in_dim %1249#17, dims = [1, 2, 3] : (tensor<64x512x3072xf32>) -> tensor<1x64x512x3072xf32>
      %c_466 = stablehlo.constant dense<0> : tensor<i32>
      %c_467 = stablehlo.constant dense<0> : tensor<i32>
      %c_468 = stablehlo.constant dense<0> : tensor<i32>
      %1283 = stablehlo.dynamic_update_slice %iterArg_396, %1282, %iterArg_378, %c_466, %c_467, %c_468 : (tensor<12x64x512x3072xf32>, tensor<1x64x512x3072xf32>, tensor<i32>, tensor<i32>, tensor<i32>, tensor<i32>) -> tensor<12x64x512x3072xf32>
      %1284 = stablehlo.broadcast_in_dim %1249#18, dims = [1, 2] : (tensor<3072x768xf32>) -> tensor<1x3072x768xf32>
      %c_469 = stablehlo.constant dense<0> : tensor<i32>
      %c_470 = stablehlo.constant dense<0> : tensor<i32>
      %1285 = stablehlo.dynamic_update_slice %iterArg_397, %1284, %iterArg_378, %c_469, %c_470 : (tensor<12x3072x768xf32>, tensor<1x3072x768xf32>, tensor<i32>, tensor<i32>, tensor<i32>) -> tensor<12x3072x768xf32>
      %1286 = stablehlo.broadcast_in_dim %1249#19, dims = [1, 2, 3] : (tensor<64x512x3072xf32>) -> tensor<1x64x512x3072xf32>
      %c_471 = stablehlo.constant dense<0> : tensor<i32>
      %c_472 = stablehlo.constant dense<0> : tensor<i32>
      %c_473 = stablehlo.constant dense<0> : tensor<i32>
      %1287 = stablehlo.dynamic_update_slice %iterArg_398, %1286, %iterArg_378, %c_471, %c_472, %c_473 : (tensor<12x64x512x3072xf32>, tensor<1x64x512x3072xf32>, tensor<i32>, tensor<i32>, tensor<i32>, tensor<i32>) -> tensor<12x64x512x3072xf32>
      %1288 = stablehlo.broadcast_in_dim %1249#20, dims = [1, 2, 3] : (tensor<64x512x768xf32>) -> tensor<1x64x512x768xf32>
      %c_474 = stablehlo.constant dense<0> : tensor<i32>
      %c_475 = stablehlo.constant dense<0> : tensor<i32>
      %c_476 = stablehlo.constant dense<0> : tensor<i32>
      %1289 = stablehlo.dynamic_update_slice %iterArg_399, %1288, %iterArg_378, %c_474, %c_475, %c_476 : (tensor<12x64x512x768xf32>, tensor<1x64x512x768xf32>, tensor<i32>, tensor<i32>, tensor<i32>, tensor<i32>) -> tensor<12x64x512x768xf32>
      %1290 = stablehlo.broadcast_in_dim %1249#21, dims = [1, 2, 3] : (tensor<64x512x1xf32>) -> tensor<1x64x512x1xf32>
      %c_477 = stablehlo.constant dense<0> : tensor<i32>
      %c_478 = stablehlo.constant dense<0> : tensor<i32>
      %c_479 = stablehlo.constant dense<0> : tensor<i32>
      %1291 = stablehlo.dynamic_update_slice %iterArg_400, %1290, %iterArg_378, %c_477, %c_478, %c_479 : (tensor<12x64x512x1xf32>, tensor<1x64x512x1xf32>, tensor<i32>, tensor<i32>, tensor<i32>, tensor<i32>) -> tensor<12x64x512x1xf32>
      %1292 = stablehlo.broadcast_in_dim %1249#22, dims = [1, 2, 3] : (tensor<64x512x1xf32>) -> tensor<1x64x512x1xf32>
      %c_480 = stablehlo.constant dense<0> : tensor<i32>
      %c_481 = stablehlo.constant dense<0> : tensor<i32>
      %c_482 = stablehlo.constant dense<0> : tensor<i32>
      %1293 = stablehlo.dynamic_update_slice %iterArg_401, %1292, %iterArg_378, %c_480, %c_481, %c_482 : (tensor<12x64x512x1xf32>, tensor<1x64x512x1xf32>, tensor<i32>, tensor<i32>, tensor<i32>, tensor<i32>) -> tensor<12x64x512x1xf32>
      %1294 = stablehlo.broadcast_in_dim %1249#23, dims = [1, 2, 3] : (tensor<64x512x768xf32>) -> tensor<1x64x512x768xf32>
      %c_483 = stablehlo.constant dense<0> : tensor<i32>
      %c_484 = stablehlo.constant dense<0> : tensor<i32>
      %c_485 = stablehlo.constant dense<0> : tensor<i32>
      %1295 = stablehlo.dynamic_update_slice %iterArg_402, %1294, %iterArg_378, %c_483, %c_484, %c_485 : (tensor<12x64x512x768xf32>, tensor<1x64x512x768xf32>, tensor<i32>, tensor<i32>, tensor<i32>, tensor<i32>) -> tensor<12x64x512x768xf32>
      %1296 = stablehlo.broadcast_in_dim %1249#24, dims = [1, 2, 3] : (tensor<64x512x768xf32>) -> tensor<1x64x512x768xf32>
      %c_486 = stablehlo.constant dense<0> : tensor<i32>
      %c_487 = stablehlo.constant dense<0> : tensor<i32>
      %c_488 = stablehlo.constant dense<0> : tensor<i32>
      %1297 = stablehlo.dynamic_update_slice %iterArg_403, %1296, %iterArg_378, %c_486, %c_487, %c_488 : (tensor<12x64x512x768xf32>, tensor<1x64x512x768xf32>, tensor<i32>, tensor<i32>, tensor<i32>, tensor<i32>) -> tensor<12x64x512x768xf32>
      %1298 = stablehlo.broadcast_in_dim %1249#25, dims = [1, 2, 3] : (tensor<1x1x768xf32>) -> tensor<1x1x1x768xf32>
      %c_489 = stablehlo.constant dense<0> : tensor<i32>
      %c_490 = stablehlo.constant dense<0> : tensor<i32>
      %c_491 = stablehlo.constant dense<0> : tensor<i32>
      %1299 = stablehlo.dynamic_update_slice %iterArg_404, %1298, %iterArg_378, %c_489, %c_490, %c_491 : (tensor<12x1x1x768xf32>, tensor<1x1x1x768xf32>, tensor<i32>, tensor<i32>, tensor<i32>, tensor<i32>) -> tensor<12x1x1x768xf32>
      %c_492 = stablehlo.constant dense<1> : tensor<i32>
      %1300 = stablehlo.add %iterArg_378, %c_492 : tensor<i32>
      stablehlo.return %iterArg, %iterArg_366, %iterArg_367, %iterArg_368, %iterArg_369, %iterArg_370, %iterArg_371, %iterArg_372, %iterArg_373, %iterArg_374, %iterArg_375, %iterArg_376, %iterArg_377, %1300, %1249#0, %1251, %1253, %1255, %1257, %1259, %1261, %1263, %1265, %1267, %1269, %1271, %1273, %1275, %1277, %1279, %1281, %1283, %1285, %1287, %1289, %1291, %1293, %1295, %1297, %1299 : tensor<12x768x768xf32>, tensor<12x768xf32>, tensor<12x768x768xf32>, tensor<12x768xf32>, tensor<12x768xf32>, tensor<12x768xf32>, tensor<12x3072x768xf32>, tensor<12x3072xf32>, tensor<12x768x3072xf32>, tensor<12x768xf32>, tensor<12x768xf32>, tensor<12x768xf32>, tensor<64x512x12x512xf32>, tensor<i32>, tensor<64x512x768xf32>, tensor<12x64x512x768xf32>, tensor<12x768x768xf32>, tensor<12x768x768xf32>, tensor<12x64x512x768xf32>, tensor<12x64x512x768xf32>, tensor<12x64x512x1xf32>, tensor<12x64x512x1xf32>, tensor<12x64x512x768xf32>, tensor<12x64x512x768xf32>, tensor<12x1x1x768xf32>, tensor<12x768x3072xf32>, tensor<12x64x512x768xf32>, tensor<12x64x512x3072xf32>, tensor<12x64x512x3072xf32>, tensor<12x64x512x3072xf32>, tensor<12x64x512x3072xf32>, tensor<12x64x512x3072xf32>, tensor<12x3072x768xf32>, tensor<12x64x512x3072xf32>, tensor<12x64x512x768xf32>, tensor<12x64x512x1xf32>, tensor<12x64x512x1xf32>, tensor<12x64x512x768xf32>, tensor<12x64x512x768xf32>, tensor<12x1x1x768xf32>
    }
    %59 = stablehlo.transpose %arg21, dims = [1, 0] : (tensor<768x768xf32>) -> tensor<768x768xf32>
    %60 = stablehlo.dot_general %58#14, %59, contracting_dims = [2] x [0], precision = [DEFAULT, DEFAULT] : (tensor<64x512x768xf32>, tensor<768x768xf32>) -> tensor<64x512x768xf32>
    %61 = stablehlo.broadcast_in_dim %arg22, dims = [2] : (tensor<768xf32>) -> tensor<1x1x768xf32>
    %62 = stablehlo.broadcast_in_dim %61, dims = [0, 1, 2] : (tensor<1x1x768xf32>) -> tensor<64x512x768xf32>
    %63 = stablehlo.add %60, %62 : tensor<64x512x768xf32>
    %64 = stablehlo.multiply %63, %63 : tensor<64x512x768xf32>
    %65 = stablehlo.multiply %64, %63 : tensor<64x512x768xf32>
    %66 = stablehlo.multiply %63, %63 : tensor<64x512x768xf32>
    %cst_32 = stablehlo.constant dense<3.000000e+00> : tensor<f32>
    %67 = stablehlo.broadcast_in_dim %cst_32, dims = [] : (tensor<f32>) -> tensor<64x512x768xf32>
    %68 = stablehlo.multiply %67, %66 : tensor<64x512x768xf32>
    %cst_33 = stablehlo.constant dense<4.471500e-02> : tensor<f32>
    %69 = stablehlo.broadcast_in_dim %cst_33, dims = [] : (tensor<f32>) -> tensor<64x512x768xf32>
    %70 = stablehlo.multiply %69, %65 : tensor<64x512x768xf32>
    %71 = stablehlo.add %63, %70 : tensor<64x512x768xf32>
    %cst_34 = stablehlo.constant dense<0.797884583> : tensor<f32>
    %72 = stablehlo.broadcast_in_dim %cst_34, dims = [] : (tensor<f32>) -> tensor<64x512x768xf32>
    %73 = stablehlo.multiply %72, %71 : tensor<64x512x768xf32>
    %74 = stablehlo.tanh %73 : tensor<64x512x768xf32>
    %cst_35 = stablehlo.constant dense<1.000000e+00> : tensor<f32>
    %75 = stablehlo.broadcast_in_dim %cst_35, dims = [] : (tensor<f32>) -> tensor<64x512x768xf32>
    %76 = stablehlo.subtract %75, %74 : tensor<64x512x768xf32>
    %cst_36 = stablehlo.constant dense<1.000000e+00> : tensor<f32>
    %77 = stablehlo.broadcast_in_dim %cst_36, dims = [] : (tensor<f32>) -> tensor<64x512x768xf32>
    %78 = stablehlo.add %77, %74 : tensor<64x512x768xf32>
    %cst_37 = stablehlo.constant dense<5.000000e-01> : tensor<f32>
    %79 = stablehlo.broadcast_in_dim %cst_37, dims = [] : (tensor<f32>) -> tensor<64x512x768xf32>
    %80 = stablehlo.multiply %79, %78 : tensor<64x512x768xf32>
    %81 = stablehlo.multiply %63, %80 : tensor<64x512x768xf32>
    %cst_38 = stablehlo.constant dense<0.000000e+00> : tensor<f32>
    %82 = stablehlo.reduce(%81 init: %cst_38) applies stablehlo.add across dimensions = [2] : (tensor<64x512x768xf32>, tensor<f32>) -> tensor<64x512xf32>
    %83 = stablehlo.broadcast_in_dim %82, dims = [0, 1] : (tensor<64x512xf32>) -> tensor<64x512x1xf32>
    %cst_39 = stablehlo.constant dense<7.680000e+02> : tensor<f32>
    %84 = stablehlo.broadcast_in_dim %cst_39, dims = [] : (tensor<f32>) -> tensor<64x512x1xf32>
    %85 = stablehlo.divide %83, %84 : tensor<64x512x1xf32>
    %86 = stablehlo.broadcast_in_dim %85, dims = [0, 1, 2] : (tensor<64x512x1xf32>) -> tensor<64x512x768xf32>
    %87 = stablehlo.subtract %81, %86 : tensor<64x512x768xf32>
    %88 = stablehlo.multiply %87, %87 : tensor<64x512x768xf32>
    %cst_40 = stablehlo.constant dense<2.000000e+00> : tensor<f32>
    %89 = stablehlo.broadcast_in_dim %cst_40, dims = [] : (tensor<f32>) -> tensor<64x512x768xf32>
    %90 = stablehlo.multiply %89, %87 : tensor<64x512x768xf32>
    %cst_41 = stablehlo.constant dense<0.000000e+00> : tensor<f32>
    %91 = stablehlo.reduce(%88 init: %cst_41) applies stablehlo.add across dimensions = [2] : (tensor<64x512x768xf32>, tensor<f32>) -> tensor<64x512xf32>
    %92 = stablehlo.broadcast_in_dim %91, dims = [0, 1] : (tensor<64x512xf32>) -> tensor<64x512x1xf32>
    %cst_42 = stablehlo.constant dense<7.680000e+02> : tensor<f32>
    %93 = stablehlo.broadcast_in_dim %cst_42, dims = [] : (tensor<f32>) -> tensor<64x512x1xf32>
    %94 = stablehlo.divide %92, %93 : tensor<64x512x1xf32>
    %cst_43 = stablehlo.constant dense<9.99999996E-13> : tensor<f32>
    %95 = stablehlo.broadcast_in_dim %cst_43, dims = [] : (tensor<f32>) -> tensor<64x512x1xf32>
    %96 = stablehlo.add %94, %95 : tensor<64x512x1xf32>
    %97 = stablehlo.rsqrt %96 : tensor<64x512x1xf32>
    %98 = stablehlo.divide %97, %96 : tensor<64x512x1xf32>
    %cst_44 = stablehlo.constant dense<-5.000000e-01> : tensor<f32>
    %99 = stablehlo.broadcast_in_dim %cst_44, dims = [] : (tensor<f32>) -> tensor<64x512x1xf32>
    %100 = stablehlo.multiply %99, %98 : tensor<64x512x1xf32>
    %101 = stablehlo.broadcast_in_dim %97, dims = [0, 1, 2] : (tensor<64x512x1xf32>) -> tensor<64x512x768xf32>
    %102 = stablehlo.multiply %87, %101 : tensor<64x512x768xf32>
    %103 = stablehlo.broadcast_in_dim %arg23, dims = [2] : (tensor<768xf32>) -> tensor<1x1x768xf32>
    %104 = stablehlo.broadcast_in_dim %103, dims = [0, 1, 2] : (tensor<1x1x768xf32>) -> tensor<64x512x768xf32>
    %105 = stablehlo.multiply %104, %102 : tensor<64x512x768xf32>
    %106 = stablehlo.broadcast_in_dim %arg24, dims = [2] : (tensor<768xf32>) -> tensor<1x1x768xf32>
    %107 = stablehlo.broadcast_in_dim %106, dims = [0, 1, 2] : (tensor<1x1x768xf32>) -> tensor<64x512x768xf32>
    %108 = stablehlo.add %105, %107 : tensor<64x512x768xf32>
    %109 = stablehlo.transpose %arg25, dims = [1, 0] : (tensor<30522x768xf32>) -> tensor<768x30522xf32>
    %110 = stablehlo.dot_general %108, %109, contracting_dims = [2] x [0], precision = [DEFAULT, DEFAULT] : (tensor<64x512x768xf32>, tensor<768x30522xf32>) -> tensor<64x512x30522xf32>
    %111 = stablehlo.broadcast_in_dim %arg26, dims = [2] : (tensor<30522xf32>) -> tensor<1x1x30522xf32>
    %112 = stablehlo.broadcast_in_dim %111, dims = [0, 1, 2] : (tensor<1x1x30522xf32>) -> tensor<64x512x30522xf32>
    %113 = stablehlo.add %110, %112 : tensor<64x512x30522xf32>
    %c_45 = stablehlo.constant dense<-100> : tensor<i32>
    %114 = stablehlo.broadcast_in_dim %c_45, dims = [] : (tensor<i32>) -> tensor<64x512xi32>
    %115 = stablehlo.compare  NE, %arg86, %114,  SIGNED : (tensor<64x512xi32>, tensor<64x512xi32>) -> tensor<64x512xi1>
    %c_46 = stablehlo.constant dense<0> : tensor<i32>
    %116 = call @_where_78(%115, %arg86, %c_46) : (tensor<64x512xi1>, tensor<64x512xi32>, tensor<i32>) -> tensor<64x512xi32>
    %c_47 = stablehlo.constant dense<0> : tensor<i32>
    %117 = call @_where_78(%115, %116, %c_47) : (tensor<64x512xi1>, tensor<64x512xi32>, tensor<i32>) -> tensor<64x512xi32>
    %cst_48 = stablehlo.constant dense<0xFF800000> : tensor<f32>
    %118 = stablehlo.reduce(%113 init: %cst_48) applies stablehlo.maximum across dimensions = [2] : (tensor<64x512x30522xf32>, tensor<f32>) -> tensor<64x512xf32>
    %119 = stablehlo.broadcast_in_dim %118, dims = [0, 1] : (tensor<64x512xf32>) -> tensor<64x512x1xf32>
    %120 = stablehlo.broadcast_in_dim %119, dims = [0, 1, 2] : (tensor<64x512x1xf32>) -> tensor<64x512x30522xf32>
    %121 = stablehlo.subtract %113, %120 : tensor<64x512x30522xf32>
    %122 = stablehlo.exponential %121 : tensor<64x512x30522xf32>
    %cst_49 = stablehlo.constant dense<0.000000e+00> : tensor<f32>
    %123 = stablehlo.reduce(%122 init: %cst_49) applies stablehlo.add across dimensions = [2] : (tensor<64x512x30522xf32>, tensor<f32>) -> tensor<64x512xf32>
    %124 = stablehlo.log %123 : tensor<64x512xf32>
    %125 = stablehlo.broadcast_in_dim %117, dims = [0, 1] : (tensor<64x512xi32>) -> tensor<64x512x1xi32>
    %126:2 = call @take_along_axis(%121, %125) : (tensor<64x512x30522xf32>, tensor<64x512x1xi32>) -> (tensor<64x512x1xf32>, tensor<64x512x1x1xi32>)
    %127 = stablehlo.slice %126#0 [0:64, 0:512, 0:1] : (tensor<64x512x1xf32>) -> tensor<64x512x1xf32>
    %128 = stablehlo.reshape %127 : (tensor<64x512x1xf32>) -> tensor<64x512xf32>
    %129 = stablehlo.subtract %124, %128 : tensor<64x512xf32>
    %cst_50 = stablehlo.constant dense<0.000000e+00> : tensor<f32>
    %130 = call @_where_97(%115, %129, %cst_50) : (tensor<64x512xi1>, tensor<64x512xf32>, tensor<f32>) -> tensor<64x512xf32>
    %cst_51 = stablehlo.constant dense<0.000000e+00> : tensor<f32>
    %131 = stablehlo.reduce(%130 init: %cst_51) applies stablehlo.add across dimensions = [0, 1] : (tensor<64x512xf32>, tensor<f32>) -> tensor<f32>
    %132 = stablehlo.convert %115 : (tensor<64x512xi1>) -> tensor<64x512xi32>
    %c_52 = stablehlo.constant dense<0> : tensor<i32>
    %133 = stablehlo.reduce(%132 init: %c_52) applies stablehlo.add across dimensions = [0, 1] : (tensor<64x512xi32>, tensor<i32>) -> tensor<i32>
    %134 = call @argmax(%113) : (tensor<64x512x30522xf32>) -> tensor<64x512xi32>
    %135 = stablehlo.compare  EQ, %134, %arg86,  SIGNED : (tensor<64x512xi32>, tensor<64x512xi32>) -> tensor<64x512xi1>
    %136 = stablehlo.and %135, %115 : tensor<64x512xi1>
    %137 = stablehlo.convert %136 : (tensor<64x512xi1>) -> tensor<64x512xi32>
    %c_53 = stablehlo.constant dense<0> : tensor<i32>
    %138 = stablehlo.reduce(%137 init: %c_53) applies stablehlo.add across dimensions = [0, 1] : (tensor<64x512xi32>, tensor<i32>) -> tensor<i32>
    %cst_54 = stablehlo.constant dense<1.000000e+00> : tensor<f32>
    %139 = stablehlo.broadcast_in_dim %cst_54, dims = [] : (tensor<f32>) -> tensor<64x512xf32>
    %140 = call @_where_111(%115, %139) : (tensor<64x512xi1>, tensor<64x512xf32>) -> tensor<64x512xf32>
    %141 = stablehlo.negate %140 : tensor<64x512xf32>
    %142 = stablehlo.broadcast_in_dim %141, dims = [0, 1] : (tensor<64x512xf32>) -> tensor<64x512x1xf32>
    %cst_55 = stablehlo.constant dense<0.000000e+00> : tensor<f32>
    %143 = stablehlo.pad %142, %cst_55, low = [0, 0, 0], high = [0, 0, 0], interior = [0, 0, 0] : (tensor<64x512x1xf32>, tensor<f32>) -> tensor<64x512x1xf32>
    %144 = call @take_along_axis_112(%126#1, %143) : (tensor<64x512x1x1xi32>, tensor<64x512x1xf32>) -> tensor<64x512x30522xf32>
    %145 = stablehlo.divide %140, %123 : tensor<64x512xf32>
    %146 = stablehlo.broadcast_in_dim %145, dims = [0, 1] : (tensor<64x512xf32>) -> tensor<64x512x30522xf32>
    %147 = stablehlo.multiply %146, %122 : tensor<64x512x30522xf32>
    %148 = stablehlo.add %144, %147 : tensor<64x512x30522xf32>
    %cst_56 = stablehlo.constant dense<0.000000e+00> : tensor<f32>
    %149 = stablehlo.reduce(%148 init: %cst_56) applies stablehlo.add across dimensions = [0, 1] : (tensor<64x512x30522xf32>, tensor<f32>) -> tensor<30522xf32>
    %150 = stablehlo.reshape %149 : (tensor<30522xf32>) -> tensor<1x1x30522xf32>
    %cst_57 = stablehlo.constant dense<0.000000e+00> : tensor<f32>
    %151 = stablehlo.reduce(%150 init: %cst_57) applies stablehlo.add across dimensions = [0, 1] : (tensor<1x1x30522xf32>, tensor<f32>) -> tensor<30522xf32>
    %152 = stablehlo.dot_general %148, %108, contracting_dims = [0, 1] x [0, 1], precision = [DEFAULT, DEFAULT] : (tensor<64x512x30522xf32>, tensor<64x512x768xf32>) -> tensor<30522x768xf32>
    %153 = stablehlo.transpose %152, dims = [1, 0] : (tensor<30522x768xf32>) -> tensor<768x30522xf32>
    %154 = stablehlo.dot_general %148, %109, contracting_dims = [2] x [1], precision = [DEFAULT, DEFAULT] : (tensor<64x512x30522xf32>, tensor<768x30522xf32>) -> tensor<64x512x768xf32>
    %155 = stablehlo.transpose %153, dims = [1, 0] : (tensor<768x30522xf32>) -> tensor<30522x768xf32>
    %cst_58 = stablehlo.constant dense<0.000000e+00> : tensor<f32>
    %156 = stablehlo.reduce(%154 init: %cst_58) applies stablehlo.add across dimensions = [0, 1] : (tensor<64x512x768xf32>, tensor<f32>) -> tensor<768xf32>
    %157 = stablehlo.reshape %156 : (tensor<768xf32>) -> tensor<1x1x768xf32>
    %cst_59 = stablehlo.constant dense<0.000000e+00> : tensor<f32>
    %158 = stablehlo.reduce(%157 init: %cst_59) applies stablehlo.add across dimensions = [0, 1] : (tensor<1x1x768xf32>, tensor<f32>) -> tensor<768xf32>
    %159 = stablehlo.broadcast_in_dim %103, dims = [0, 1, 2] : (tensor<1x1x768xf32>) -> tensor<64x512x768xf32>
    %160 = stablehlo.multiply %159, %154 : tensor<64x512x768xf32>
    %161 = stablehlo.multiply %154, %102 : tensor<64x512x768xf32>
    %cst_60 = stablehlo.constant dense<0.000000e+00> : tensor<f32>
    %162 = stablehlo.reduce(%161 init: %cst_60) applies stablehlo.add across dimensions = [0, 1] : (tensor<64x512x768xf32>, tensor<f32>) -> tensor<768xf32>
    %163 = stablehlo.reshape %162 : (tensor<768xf32>) -> tensor<1x1x768xf32>
    %cst_61 = stablehlo.constant dense<0.000000e+00> : tensor<f32>
    %164 = stablehlo.reduce(%163 init: %cst_61) applies stablehlo.add across dimensions = [0, 1] : (tensor<1x1x768xf32>, tensor<f32>) -> tensor<768xf32>
    %165 = stablehlo.multiply %87, %160 : tensor<64x512x768xf32>
    %cst_62 = stablehlo.constant dense<0.000000e+00> : tensor<f32>
    %166 = stablehlo.reduce(%165 init: %cst_62) applies stablehlo.add across dimensions = [2] : (tensor<64x512x768xf32>, tensor<f32>) -> tensor<64x512xf32>
    %167 = stablehlo.reshape %166 : (tensor<64x512xf32>) -> tensor<64x512x1xf32>
    %168 = stablehlo.broadcast_in_dim %97, dims = [0, 1, 2] : (tensor<64x512x1xf32>) -> tensor<64x512x768xf32>
    %169 = stablehlo.multiply %160, %168 : tensor<64x512x768xf32>
    %170 = stablehlo.multiply %167, %100 : tensor<64x512x1xf32>
    %cst_63 = stablehlo.constant dense<7.680000e+02> : tensor<f32>
    %171 = stablehlo.broadcast_in_dim %cst_63, dims = [] : (tensor<f32>) -> tensor<64x512x1xf32>
    %172 = stablehlo.divide %170, %171 : tensor<64x512x1xf32>
    %cst_64 = stablehlo.constant dense<0.000000e+00> : tensor<f32>
    %173 = stablehlo.reduce(%172 init: %cst_64) applies stablehlo.add across dimensions = [2] : (tensor<64x512x1xf32>, tensor<f32>) -> tensor<64x512xf32>
    %174 = stablehlo.broadcast_in_dim %173, dims = [0, 1] : (tensor<64x512xf32>) -> tensor<64x512x768xf32>
    %175 = stablehlo.multiply %174, %90 : tensor<64x512x768xf32>
    %176 = stablehlo.add %169, %175 : tensor<64x512x768xf32>
    %177 = stablehlo.negate %176 : tensor<64x512x768xf32>
    %cst_65 = stablehlo.constant dense<0.000000e+00> : tensor<f32>
    %178 = stablehlo.reduce(%177 init: %cst_65) applies stablehlo.add across dimensions = [2] : (tensor<64x512x768xf32>, tensor<f32>) -> tensor<64x512xf32>
    %179 = stablehlo.reshape %178 : (tensor<64x512xf32>) -> tensor<64x512x1xf32>
    %cst_66 = stablehlo.constant dense<7.680000e+02> : tensor<f32>
    %180 = stablehlo.broadcast_in_dim %cst_66, dims = [] : (tensor<f32>) -> tensor<64x512x1xf32>
    %181 = stablehlo.divide %179, %180 : tensor<64x512x1xf32>
    %cst_67 = stablehlo.constant dense<0.000000e+00> : tensor<f32>
    %182 = stablehlo.reduce(%181 init: %cst_67) applies stablehlo.add across dimensions = [2] : (tensor<64x512x1xf32>, tensor<f32>) -> tensor<64x512xf32>
    %183 = stablehlo.broadcast_in_dim %182, dims = [0, 1] : (tensor<64x512xf32>) -> tensor<64x512x768xf32>
    %184 = stablehlo.add %176, %183 : tensor<64x512x768xf32>
    %185 = stablehlo.multiply %63, %184 : tensor<64x512x768xf32>
    %186 = stablehlo.multiply %184, %80 : tensor<64x512x768xf32>
    %cst_68 = stablehlo.constant dense<5.000000e-01> : tensor<f32>
    %187 = stablehlo.broadcast_in_dim %cst_68, dims = [] : (tensor<f32>) -> tensor<64x512x768xf32>
    %188 = stablehlo.multiply %187, %185 : tensor<64x512x768xf32>
    %189 = stablehlo.multiply %188, %76 : tensor<64x512x768xf32>
    %190 = stablehlo.multiply %189, %74 : tensor<64x512x768xf32>
    %191 = stablehlo.add %189, %190 : tensor<64x512x768xf32>
    %cst_69 = stablehlo.constant dense<0.797884583> : tensor<f32>
    %192 = stablehlo.broadcast_in_dim %cst_69, dims = [] : (tensor<f32>) -> tensor<64x512x768xf32>
    %193 = stablehlo.multiply %192, %191 : tensor<64x512x768xf32>
    %194 = stablehlo.add %186, %193 : tensor<64x512x768xf32>
    %cst_70 = stablehlo.constant dense<4.471500e-02> : tensor<f32>
    %195 = stablehlo.broadcast_in_dim %cst_70, dims = [] : (tensor<f32>) -> tensor<64x512x768xf32>
    %196 = stablehlo.multiply %195, %193 : tensor<64x512x768xf32>
    %197 = stablehlo.multiply %196, %68 : tensor<64x512x768xf32>
    %198 = stablehlo.add %194, %197 : tensor<64x512x768xf32>
    %cst_71 = stablehlo.constant dense<0.000000e+00> : tensor<f32>
    %199 = stablehlo.reduce(%198 init: %cst_71) applies stablehlo.add across dimensions = [0, 1] : (tensor<64x512x768xf32>, tensor<f32>) -> tensor<768xf32>
    %200 = stablehlo.reshape %199 : (tensor<768xf32>) -> tensor<1x1x768xf32>
    %cst_72 = stablehlo.constant dense<0.000000e+00> : tensor<f32>
    %201 = stablehlo.reduce(%200 init: %cst_72) applies stablehlo.add across dimensions = [0, 1] : (tensor<1x1x768xf32>, tensor<f32>) -> tensor<768xf32>
    %202 = stablehlo.dot_general %198, %58#14, contracting_dims = [0, 1] x [0, 1], precision = [DEFAULT, DEFAULT] : (tensor<64x512x768xf32>, tensor<64x512x768xf32>) -> tensor<768x768xf32>
    %203 = stablehlo.transpose %202, dims = [1, 0] : (tensor<768x768xf32>) -> tensor<768x768xf32>
    %204 = stablehlo.dot_general %198, %59, contracting_dims = [2] x [1], precision = [DEFAULT, DEFAULT] : (tensor<64x512x768xf32>, tensor<768x768xf32>) -> tensor<64x512x768xf32>
    %205 = stablehlo.transpose %203, dims = [1, 0] : (tensor<768x768xf32>) -> tensor<768x768xf32>
    %cst_73 = stablehlo.constant dense<0.000000e+00> : tensor<f32>
    %206 = stablehlo.broadcast_in_dim %cst_73, dims = [] : (tensor<f32>) -> tensor<12x768x768xf32>
    %cst_74 = stablehlo.constant dense<0.000000e+00> : tensor<f32>
    %207 = stablehlo.broadcast_in_dim %cst_74, dims = [] : (tensor<f32>) -> tensor<12x768xf32>
    %cst_75 = stablehlo.constant dense<0.000000e+00> : tensor<f32>
    %208 = stablehlo.broadcast_in_dim %cst_75, dims = [] : (tensor<f32>) -> tensor<12x768x768xf32>
    %cst_76 = stablehlo.constant dense<0.000000e+00> : tensor<f32>
    %209 = stablehlo.broadcast_in_dim %cst_76, dims = [] : (tensor<f32>) -> tensor<12x768xf32>
    %cst_77 = stablehlo.constant dense<0.000000e+00> : tensor<f32>
    %210 = stablehlo.broadcast_in_dim %cst_77, dims = [] : (tensor<f32>) -> tensor<12x768xf32>
    %cst_78 = stablehlo.constant dense<0.000000e+00> : tensor<f32>
    %211 = stablehlo.broadcast_in_dim %cst_78, dims = [] : (tensor<f32>) -> tensor<12x768xf32>
    %cst_79 = stablehlo.constant dense<0.000000e+00> : tensor<f32>
    %212 = stablehlo.broadcast_in_dim %cst_79, dims = [] : (tensor<f32>) -> tensor<12x3072x768xf32>
    %cst_80 = stablehlo.constant dense<0.000000e+00> : tensor<f32>
    %213 = stablehlo.broadcast_in_dim %cst_80, dims = [] : (tensor<f32>) -> tensor<12x3072xf32>
    %cst_81 = stablehlo.constant dense<0.000000e+00> : tensor<f32>
    %214 = stablehlo.broadcast_in_dim %cst_81, dims = [] : (tensor<f32>) -> tensor<12x768x3072xf32>
    %cst_82 = stablehlo.constant dense<0.000000e+00> : tensor<f32>
    %215 = stablehlo.broadcast_in_dim %cst_82, dims = [] : (tensor<f32>) -> tensor<12x768xf32>
    %cst_83 = stablehlo.constant dense<0.000000e+00> : tensor<f32>
    %216 = stablehlo.broadcast_in_dim %cst_83, dims = [] : (tensor<f32>) -> tensor<12x768xf32>
    %cst_84 = stablehlo.constant dense<0.000000e+00> : tensor<f32>
    %217 = stablehlo.broadcast_in_dim %cst_84, dims = [] : (tensor<f32>) -> tensor<12x768xf32>
    %c_85 = stablehlo.constant dense<0> : tensor<i32>
    %218:40 = stablehlo.while(%iterArg = %58#15, %iterArg_366 = %58#16, %iterArg_367 = %58#17, %iterArg_368 = %58#18, %iterArg_369 = %58#19, %iterArg_370 = %58#20, %iterArg_371 = %58#21, %iterArg_372 = %58#22, %iterArg_373 = %58#23, %iterArg_374 = %58#24, %iterArg_375 = %58#25, %iterArg_376 = %58#26, %iterArg_377 = %58#27, %iterArg_378 = %58#28, %iterArg_379 = %58#29, %iterArg_380 = %58#30, %iterArg_381 = %58#31, %iterArg_382 = %58#32, %iterArg_383 = %58#33, %iterArg_384 = %58#34, %iterArg_385 = %58#35, %iterArg_386 = %58#36, %iterArg_387 = %58#37, %iterArg_388 = %58#38, %iterArg_389 = %58#39, %iterArg_390 = %32, %iterArg_391 = %c_85, %iterArg_392 = %204, %iterArg_393 = %206, %iterArg_394 = %207, %iterArg_395 = %208, %iterArg_396 = %209, %iterArg_397 = %210, %iterArg_398 = %211, %iterArg_399 = %212, %iterArg_400 = %213, %iterArg_401 = %214, %iterArg_402 = %215, %iterArg_403 = %216, %iterArg_404 = %217) : tensor<12x64x512x768xf32>, tensor<12x768x768xf32>, tensor<12x768x768xf32>, tensor<12x64x512x768xf32>, tensor<12x64x512x768xf32>, tensor<12x64x512x1xf32>, tensor<12x64x512x1xf32>, tensor<12x64x512x768xf32>, tensor<12x64x512x768xf32>, tensor<12x1x1x768xf32>, tensor<12x768x3072xf32>, tensor<12x64x512x768xf32>, tensor<12x64x512x3072xf32>, tensor<12x64x512x3072xf32>, tensor<12x64x512x3072xf32>, tensor<12x64x512x3072xf32>, tensor<12x64x512x3072xf32>, tensor<12x3072x768xf32>, tensor<12x64x512x3072xf32>, tensor<12x64x512x768xf32>, tensor<12x64x512x1xf32>, tensor<12x64x512x1xf32>, tensor<12x64x512x768xf32>, tensor<12x64x512x768xf32>, tensor<12x1x1x768xf32>, tensor<64x512x12x512xf32>, tensor<i32>, tensor<64x512x768xf32>, tensor<12x768x768xf32>, tensor<12x768xf32>, tensor<12x768x768xf32>, tensor<12x768xf32>, tensor<12x768xf32>, tensor<12x768xf32>, tensor<12x3072x768xf32>, tensor<12x3072xf32>, tensor<12x768x3072xf32>, tensor<12x768xf32>, tensor<12x768xf32>, tensor<12x768xf32>
    cond {
      %c_405 = stablehlo.constant dense<12> : tensor<i32>
      %1225 = stablehlo.compare  LT, %iterArg_391, %c_405,  SIGNED : (tensor<i32>, tensor<i32>) -> tensor<i1>
      stablehlo.return %1225 : tensor<i1>
    } do {
      %c_405 = stablehlo.constant dense<12> : tensor<i32>
      %1225 = stablehlo.subtract %c_405, %iterArg_391 : tensor<i32>
      %c_406 = stablehlo.constant dense<1> : tensor<i32>
      %1226 = stablehlo.subtract %1225, %c_406 : tensor<i32>
      %c_407 = stablehlo.constant dense<0> : tensor<i32>
      %c_408 = stablehlo.constant dense<0> : tensor<i32>
      %c_409 = stablehlo.constant dense<0> : tensor<i32>
      %1227 = stablehlo.dynamic_slice %iterArg, %1226, %c_407, %c_408, %c_409, sizes = [1, 64, 512, 768] : (tensor<12x64x512x768xf32>, tensor<i32>, tensor<i32>, tensor<i32>, tensor<i32>) -> tensor<1x64x512x768xf32>
      %1228 = stablehlo.reshape %1227 : (tensor<1x64x512x768xf32>) -> tensor<64x512x768xf32>
      %c_410 = stablehlo.constant dense<0> : tensor<i32>
      %c_411 = stablehlo.constant dense<0> : tensor<i32>
      %1229 = stablehlo.dynamic_slice %iterArg_366, %1226, %c_410, %c_411, sizes = [1, 768, 768] : (tensor<12x768x768xf32>, tensor<i32>, tensor<i32>, tensor<i32>) -> tensor<1x768x768xf32>
      %1230 = stablehlo.reshape %1229 : (tensor<1x768x768xf32>) -> tensor<768x768xf32>
      %c_412 = stablehlo.constant dense<0> : tensor<i32>
      %c_413 = stablehlo.constant dense<0> : tensor<i32>
      %1231 = stablehlo.dynamic_slice %iterArg_367, %1226, %c_412, %c_413, sizes = [1, 768, 768] : (tensor<12x768x768xf32>, tensor<i32>, tensor<i32>, tensor<i32>) -> tensor<1x768x768xf32>
      %1232 = stablehlo.reshape %1231 : (tensor<1x768x768xf32>) -> tensor<768x768xf32>
      %c_414 = stablehlo.constant dense<0> : tensor<i32>
      %c_415 = stablehlo.constant dense<0> : tensor<i32>
      %c_416 = stablehlo.constant dense<0> : tensor<i32>
      %1233 = stablehlo.dynamic_slice %iterArg_368, %1226, %c_414, %c_415, %c_416, sizes = [1, 64, 512, 768] : (tensor<12x64x512x768xf32>, tensor<i32>, tensor<i32>, tensor<i32>, tensor<i32>) -> tensor<1x64x512x768xf32>
      %1234 = stablehlo.reshape %1233 : (tensor<1x64x512x768xf32>) -> tensor<64x512x768xf32>
      %c_417 = stablehlo.constant dense<0> : tensor<i32>
      %c_418 = stablehlo.constant dense<0> : tensor<i32>
      %c_419 = stablehlo.constant dense<0> : tensor<i32>
      %1235 = stablehlo.dynamic_slice %iterArg_369, %1226, %c_417, %c_418, %c_419, sizes = [1, 64, 512, 768] : (tensor<12x64x512x768xf32>, tensor<i32>, tensor<i32>, tensor<i32>, tensor<i32>) -> tensor<1x64x512x768xf32>
      %1236 = stablehlo.reshape %1235 : (tensor<1x64x512x768xf32>) -> tensor<64x512x768xf32>
      %c_420 = stablehlo.constant dense<0> : tensor<i32>
      %c_421 = stablehlo.constant dense<0> : tensor<i32>
      %c_422 = stablehlo.constant dense<0> : tensor<i32>
      %1237 = stablehlo.dynamic_slice %iterArg_370, %1226, %c_420, %c_421, %c_422, sizes = [1, 64, 512, 1] : (tensor<12x64x512x1xf32>, tensor<i32>, tensor<i32>, tensor<i32>, tensor<i32>) -> tensor<1x64x512x1xf32>
      %1238 = stablehlo.reshape %1237 : (tensor<1x64x512x1xf32>) -> tensor<64x512x1xf32>
      %c_423 = stablehlo.constant dense<0> : tensor<i32>
      %c_424 = stablehlo.constant dense<0> : tensor<i32>
      %c_425 = stablehlo.constant dense<0> : tensor<i32>
      %1239 = stablehlo.dynamic_slice %iterArg_371, %1226, %c_423, %c_424, %c_425, sizes = [1, 64, 512, 1] : (tensor<12x64x512x1xf32>, tensor<i32>, tensor<i32>, tensor<i32>, tensor<i32>) -> tensor<1x64x512x1xf32>
      %1240 = stablehlo.reshape %1239 : (tensor<1x64x512x1xf32>) -> tensor<64x512x1xf32>
      %c_426 = stablehlo.constant dense<0> : tensor<i32>
      %c_427 = stablehlo.constant dense<0> : tensor<i32>
      %c_428 = stablehlo.constant dense<0> : tensor<i32>
      %1241 = stablehlo.dynamic_slice %iterArg_372, %1226, %c_426, %c_427, %c_428, sizes = [1, 64, 512, 768] : (tensor<12x64x512x768xf32>, tensor<i32>, tensor<i32>, tensor<i32>, tensor<i32>) -> tensor<1x64x512x768xf32>
      %1242 = stablehlo.reshape %1241 : (tensor<1x64x512x768xf32>) -> tensor<64x512x768xf32>
      %c_429 = stablehlo.constant dense<0> : tensor<i32>
      %c_430 = stablehlo.constant dense<0> : tensor<i32>
      %c_431 = stablehlo.constant dense<0> : tensor<i32>
      %1243 = stablehlo.dynamic_slice %iterArg_373, %1226, %c_429, %c_430, %c_431, sizes = [1, 64, 512, 768] : (tensor<12x64x512x768xf32>, tensor<i32>, tensor<i32>, tensor<i32>, tensor<i32>) -> tensor<1x64x512x768xf32>
      %1244 = stablehlo.reshape %1243 : (tensor<1x64x512x768xf32>) -> tensor<64x512x768xf32>
      %c_432 = stablehlo.constant dense<0> : tensor<i32>
      %c_433 = stablehlo.constant dense<0> : tensor<i32>
      %c_434 = stablehlo.constant dense<0> : tensor<i32>
      %1245 = stablehlo.dynamic_slice %iterArg_374, %1226, %c_432, %c_433, %c_434, sizes = [1, 1, 1, 768] : (tensor<12x1x1x768xf32>, tensor<i32>, tensor<i32>, tensor<i32>, tensor<i32>) -> tensor<1x1x1x768xf32>
      %1246 = stablehlo.reshape %1245 : (tensor<1x1x1x768xf32>) -> tensor<1x1x768xf32>
      %c_435 = stablehlo.constant dense<0> : tensor<i32>
      %c_436 = stablehlo.constant dense<0> : tensor<i32>
      %1247 = stablehlo.dynamic_slice %iterArg_375, %1226, %c_435, %c_436, sizes = [1, 768, 3072] : (tensor<12x768x3072xf32>, tensor<i32>, tensor<i32>, tensor<i32>) -> tensor<1x768x3072xf32>
      %1248 = stablehlo.reshape %1247 : (tensor<1x768x3072xf32>) -> tensor<768x3072xf32>
      %c_437 = stablehlo.constant dense<0> : tensor<i32>
      %c_438 = stablehlo.constant dense<0> : tensor<i32>
      %c_439 = stablehlo.constant dense<0> : tensor<i32>
      %1249 = stablehlo.dynamic_slice %iterArg_376, %1226, %c_437, %c_438, %c_439, sizes = [1, 64, 512, 768] : (tensor<12x64x512x768xf32>, tensor<i32>, tensor<i32>, tensor<i32>, tensor<i32>) -> tensor<1x64x512x768xf32>
      %1250 = stablehlo.reshape %1249 : (tensor<1x64x512x768xf32>) -> tensor<64x512x768xf32>
      %c_440 = stablehlo.constant dense<0> : tensor<i32>
      %c_441 = stablehlo.constant dense<0> : tensor<i32>
      %c_442 = stablehlo.constant dense<0> : tensor<i32>
      %1251 = stablehlo.dynamic_slice %iterArg_377, %1226, %c_440, %c_441, %c_442, sizes = [1, 64, 512, 3072] : (tensor<12x64x512x3072xf32>, tensor<i32>, tensor<i32>, tensor<i32>, tensor<i32>) -> tensor<1x64x512x3072xf32>
      %1252 = stablehlo.reshape %1251 : (tensor<1x64x512x3072xf32>) -> tensor<64x512x3072xf32>
      %c_443 = stablehlo.constant dense<0> : tensor<i32>
      %c_444 = stablehlo.constant dense<0> : tensor<i32>
      %c_445 = stablehlo.constant dense<0> : tensor<i32>
      %1253 = stablehlo.dynamic_slice %iterArg_378, %1226, %c_443, %c_444, %c_445, sizes = [1, 64, 512, 3072] : (tensor<12x64x512x3072xf32>, tensor<i32>, tensor<i32>, tensor<i32>, tensor<i32>) -> tensor<1x64x512x3072xf32>
      %1254 = stablehlo.reshape %1253 : (tensor<1x64x512x3072xf32>) -> tensor<64x512x3072xf32>
      %c_446 = stablehlo.constant dense<0> : tensor<i32>
      %c_447 = stablehlo.constant dense<0> : tensor<i32>
      %c_448 = stablehlo.constant dense<0> : tensor<i32>
      %1255 = stablehlo.dynamic_slice %iterArg_379, %1226, %c_446, %c_447, %c_448, sizes = [1, 64, 512, 3072] : (tensor<12x64x512x3072xf32>, tensor<i32>, tensor<i32>, tensor<i32>, tensor<i32>) -> tensor<1x64x512x3072xf32>
      %1256 = stablehlo.reshape %1255 : (tensor<1x64x512x3072xf32>) -> tensor<64x512x3072xf32>
      %c_449 = stablehlo.constant dense<0> : tensor<i32>
      %c_450 = stablehlo.constant dense<0> : tensor<i32>
      %c_451 = stablehlo.constant dense<0> : tensor<i32>
      %1257 = stablehlo.dynamic_slice %iterArg_380, %1226, %c_449, %c_450, %c_451, sizes = [1, 64, 512, 3072] : (tensor<12x64x512x3072xf32>, tensor<i32>, tensor<i32>, tensor<i32>, tensor<i32>) -> tensor<1x64x512x3072xf32>
      %1258 = stablehlo.reshape %1257 : (tensor<1x64x512x3072xf32>) -> tensor<64x512x3072xf32>
      %c_452 = stablehlo.constant dense<0> : tensor<i32>
      %c_453 = stablehlo.constant dense<0> : tensor<i32>
      %c_454 = stablehlo.constant dense<0> : tensor<i32>
      %1259 = stablehlo.dynamic_slice %iterArg_381, %1226, %c_452, %c_453, %c_454, sizes = [1, 64, 512, 3072] : (tensor<12x64x512x3072xf32>, tensor<i32>, tensor<i32>, tensor<i32>, tensor<i32>) -> tensor<1x64x512x3072xf32>
      %1260 = stablehlo.reshape %1259 : (tensor<1x64x512x3072xf32>) -> tensor<64x512x3072xf32>
      %c_455 = stablehlo.constant dense<0> : tensor<i32>
      %c_456 = stablehlo.constant dense<0> : tensor<i32>
      %1261 = stablehlo.dynamic_slice %iterArg_382, %1226, %c_455, %c_456, sizes = [1, 3072, 768] : (tensor<12x3072x768xf32>, tensor<i32>, tensor<i32>, tensor<i32>) -> tensor<1x3072x768xf32>
      %1262 = stablehlo.reshape %1261 : (tensor<1x3072x768xf32>) -> tensor<3072x768xf32>
      %c_457 = stablehlo.constant dense<0> : tensor<i32>
      %c_458 = stablehlo.constant dense<0> : tensor<i32>
      %c_459 = stablehlo.constant dense<0> : tensor<i32>
      %1263 = stablehlo.dynamic_slice %iterArg_383, %1226, %c_457, %c_458, %c_459, sizes = [1, 64, 512, 3072] : (tensor<12x64x512x3072xf32>, tensor<i32>, tensor<i32>, tensor<i32>, tensor<i32>) -> tensor<1x64x512x3072xf32>
      %1264 = stablehlo.reshape %1263 : (tensor<1x64x512x3072xf32>) -> tensor<64x512x3072xf32>
      %c_460 = stablehlo.constant dense<0> : tensor<i32>
      %c_461 = stablehlo.constant dense<0> : tensor<i32>
      %c_462 = stablehlo.constant dense<0> : tensor<i32>
      %1265 = stablehlo.dynamic_slice %iterArg_384, %1226, %c_460, %c_461, %c_462, sizes = [1, 64, 512, 768] : (tensor<12x64x512x768xf32>, tensor<i32>, tensor<i32>, tensor<i32>, tensor<i32>) -> tensor<1x64x512x768xf32>
      %1266 = stablehlo.reshape %1265 : (tensor<1x64x512x768xf32>) -> tensor<64x512x768xf32>
      %c_463 = stablehlo.constant dense<0> : tensor<i32>
      %c_464 = stablehlo.constant dense<0> : tensor<i32>
      %c_465 = stablehlo.constant dense<0> : tensor<i32>
      %1267 = stablehlo.dynamic_slice %iterArg_385, %1226, %c_463, %c_464, %c_465, sizes = [1, 64, 512, 1] : (tensor<12x64x512x1xf32>, tensor<i32>, tensor<i32>, tensor<i32>, tensor<i32>) -> tensor<1x64x512x1xf32>
      %1268 = stablehlo.reshape %1267 : (tensor<1x64x512x1xf32>) -> tensor<64x512x1xf32>
      %c_466 = stablehlo.constant dense<0> : tensor<i32>
      %c_467 = stablehlo.constant dense<0> : tensor<i32>
      %c_468 = stablehlo.constant dense<0> : tensor<i32>
      %1269 = stablehlo.dynamic_slice %iterArg_386, %1226, %c_466, %c_467, %c_468, sizes = [1, 64, 512, 1] : (tensor<12x64x512x1xf32>, tensor<i32>, tensor<i32>, tensor<i32>, tensor<i32>) -> tensor<1x64x512x1xf32>
      %1270 = stablehlo.reshape %1269 : (tensor<1x64x512x1xf32>) -> tensor<64x512x1xf32>
      %c_469 = stablehlo.constant dense<0> : tensor<i32>
      %c_470 = stablehlo.constant dense<0> : tensor<i32>
      %c_471 = stablehlo.constant dense<0> : tensor<i32>
      %1271 = stablehlo.dynamic_slice %iterArg_387, %1226, %c_469, %c_470, %c_471, sizes = [1, 64, 512, 768] : (tensor<12x64x512x768xf32>, tensor<i32>, tensor<i32>, tensor<i32>, tensor<i32>) -> tensor<1x64x512x768xf32>
      %1272 = stablehlo.reshape %1271 : (tensor<1x64x512x768xf32>) -> tensor<64x512x768xf32>
      %c_472 = stablehlo.constant dense<0> : tensor<i32>
      %c_473 = stablehlo.constant dense<0> : tensor<i32>
      %c_474 = stablehlo.constant dense<0> : tensor<i32>
      %1273 = stablehlo.dynamic_slice %iterArg_388, %1226, %c_472, %c_473, %c_474, sizes = [1, 64, 512, 768] : (tensor<12x64x512x768xf32>, tensor<i32>, tensor<i32>, tensor<i32>, tensor<i32>) -> tensor<1x64x512x768xf32>
      %1274 = stablehlo.reshape %1273 : (tensor<1x64x512x768xf32>) -> tensor<64x512x768xf32>
      %c_475 = stablehlo.constant dense<0> : tensor<i32>
      %c_476 = stablehlo.constant dense<0> : tensor<i32>
      %c_477 = stablehlo.constant dense<0> : tensor<i32>
      %1275 = stablehlo.dynamic_slice %iterArg_389, %1226, %c_475, %c_476, %c_477, sizes = [1, 1, 1, 768] : (tensor<12x1x1x768xf32>, tensor<i32>, tensor<i32>, tensor<i32>, tensor<i32>) -> tensor<1x1x1x768xf32>
      %1276 = stablehlo.reshape %1275 : (tensor<1x1x1x768xf32>) -> tensor<1x1x768xf32>
      %1277:13 = func.call @closed_call_152(%iterArg_390, %iterArg_392, %1228, %1230, %1232, %1234, %1236, %1238, %1240, %1242, %1244, %1246, %1248, %1250, %1252, %1254, %1256, %1258, %1260, %1262, %1264, %1266, %1268, %1270, %1272, %1274, %1276) : (tensor<64x512x12x512xf32>, tensor<64x512x768xf32>, tensor<64x512x768xf32>, tensor<768x768xf32>, tensor<768x768xf32>, tensor<64x512x768xf32>, tensor<64x512x768xf32>, tensor<64x512x1xf32>, tensor<64x512x1xf32>, tensor<64x512x768xf32>, tensor<64x512x768xf32>, tensor<1x1x768xf32>, tensor<768x3072xf32>, tensor<64x512x768xf32>, tensor<64x512x3072xf32>, tensor<64x512x3072xf32>, tensor<64x512x3072xf32>, tensor<64x512x3072xf32>, tensor<64x512x3072xf32>, tensor<3072x768xf32>, tensor<64x512x3072xf32>, tensor<64x512x768xf32>, tensor<64x512x1xf32>, tensor<64x512x1xf32>, tensor<64x512x768xf32>, tensor<64x512x768xf32>, tensor<1x1x768xf32>) -> (tensor<64x512x768xf32>, tensor<768x768xf32>, tensor<768xf32>, tensor<768x768xf32>, tensor<768xf32>, tensor<768xf32>, tensor<768xf32>, tensor<3072x768xf32>, tensor<3072xf32>, tensor<768x3072xf32>, tensor<768xf32>, tensor<768xf32>, tensor<768xf32>)
      %1278 = stablehlo.broadcast_in_dim %1277#1, dims = [1, 2] : (tensor<768x768xf32>) -> tensor<1x768x768xf32>
      %c_478 = stablehlo.constant dense<0> : tensor<i32>
      %c_479 = stablehlo.constant dense<0> : tensor<i32>
      %1279 = stablehlo.dynamic_update_slice %iterArg_393, %1278, %1226, %c_478, %c_479 : (tensor<12x768x768xf32>, tensor<1x768x768xf32>, tensor<i32>, tensor<i32>, tensor<i32>) -> tensor<12x768x768xf32>
      %1280 = stablehlo.broadcast_in_dim %1277#2, dims = [1] : (tensor<768xf32>) -> tensor<1x768xf32>
      %c_480 = stablehlo.constant dense<0> : tensor<i32>
      %1281 = stablehlo.dynamic_update_slice %iterArg_394, %1280, %1226, %c_480 : (tensor<12x768xf32>, tensor<1x768xf32>, tensor<i32>, tensor<i32>) -> tensor<12x768xf32>
      %1282 = stablehlo.broadcast_in_dim %1277#3, dims = [1, 2] : (tensor<768x768xf32>) -> tensor<1x768x768xf32>
      %c_481 = stablehlo.constant dense<0> : tensor<i32>
      %c_482 = stablehlo.constant dense<0> : tensor<i32>
      %1283 = stablehlo.dynamic_update_slice %iterArg_395, %1282, %1226, %c_481, %c_482 : (tensor<12x768x768xf32>, tensor<1x768x768xf32>, tensor<i32>, tensor<i32>, tensor<i32>) -> tensor<12x768x768xf32>
      %1284 = stablehlo.broadcast_in_dim %1277#4, dims = [1] : (tensor<768xf32>) -> tensor<1x768xf32>
      %c_483 = stablehlo.constant dense<0> : tensor<i32>
      %1285 = stablehlo.dynamic_update_slice %iterArg_396, %1284, %1226, %c_483 : (tensor<12x768xf32>, tensor<1x768xf32>, tensor<i32>, tensor<i32>) -> tensor<12x768xf32>
      %1286 = stablehlo.broadcast_in_dim %1277#5, dims = [1] : (tensor<768xf32>) -> tensor<1x768xf32>
      %c_484 = stablehlo.constant dense<0> : tensor<i32>
      %1287 = stablehlo.dynamic_update_slice %iterArg_397, %1286, %1226, %c_484 : (tensor<12x768xf32>, tensor<1x768xf32>, tensor<i32>, tensor<i32>) -> tensor<12x768xf32>
      %1288 = stablehlo.broadcast_in_dim %1277#6, dims = [1] : (tensor<768xf32>) -> tensor<1x768xf32>
      %c_485 = stablehlo.constant dense<0> : tensor<i32>
      %1289 = stablehlo.dynamic_update_slice %iterArg_398, %1288, %1226, %c_485 : (tensor<12x768xf32>, tensor<1x768xf32>, tensor<i32>, tensor<i32>) -> tensor<12x768xf32>
      %1290 = stablehlo.broadcast_in_dim %1277#7, dims = [1, 2] : (tensor<3072x768xf32>) -> tensor<1x3072x768xf32>
      %c_486 = stablehlo.constant dense<0> : tensor<i32>
      %c_487 = stablehlo.constant dense<0> : tensor<i32>
      %1291 = stablehlo.dynamic_update_slice %iterArg_399, %1290, %1226, %c_486, %c_487 : (tensor<12x3072x768xf32>, tensor<1x3072x768xf32>, tensor<i32>, tensor<i32>, tensor<i32>) -> tensor<12x3072x768xf32>
      %1292 = stablehlo.broadcast_in_dim %1277#8, dims = [1] : (tensor<3072xf32>) -> tensor<1x3072xf32>
      %c_488 = stablehlo.constant dense<0> : tensor<i32>
      %1293 = stablehlo.dynamic_update_slice %iterArg_400, %1292, %1226, %c_488 : (tensor<12x3072xf32>, tensor<1x3072xf32>, tensor<i32>, tensor<i32>) -> tensor<12x3072xf32>
      %1294 = stablehlo.broadcast_in_dim %1277#9, dims = [1, 2] : (tensor<768x3072xf32>) -> tensor<1x768x3072xf32>
      %c_489 = stablehlo.constant dense<0> : tensor<i32>
      %c_490 = stablehlo.constant dense<0> : tensor<i32>
      %1295 = stablehlo.dynamic_update_slice %iterArg_401, %1294, %1226, %c_489, %c_490 : (tensor<12x768x3072xf32>, tensor<1x768x3072xf32>, tensor<i32>, tensor<i32>, tensor<i32>) -> tensor<12x768x3072xf32>
      %1296 = stablehlo.broadcast_in_dim %1277#10, dims = [1] : (tensor<768xf32>) -> tensor<1x768xf32>
      %c_491 = stablehlo.constant dense<0> : tensor<i32>
      %1297 = stablehlo.dynamic_update_slice %iterArg_402, %1296, %1226, %c_491 : (tensor<12x768xf32>, tensor<1x768xf32>, tensor<i32>, tensor<i32>) -> tensor<12x768xf32>
      %1298 = stablehlo.broadcast_in_dim %1277#11, dims = [1] : (tensor<768xf32>) -> tensor<1x768xf32>
      %c_492 = stablehlo.constant dense<0> : tensor<i32>
      %1299 = stablehlo.dynamic_update_slice %iterArg_403, %1298, %1226, %c_492 : (tensor<12x768xf32>, tensor<1x768xf32>, tensor<i32>, tensor<i32>) -> tensor<12x768xf32>
      %1300 = stablehlo.broadcast_in_dim %1277#12, dims = [1] : (tensor<768xf32>) -> tensor<1x768xf32>
      %c_493 = stablehlo.constant dense<0> : tensor<i32>
      %1301 = stablehlo.dynamic_update_slice %iterArg_404, %1300, %1226, %c_493 : (tensor<12x768xf32>, tensor<1x768xf32>, tensor<i32>, tensor<i32>) -> tensor<12x768xf32>
      %c_494 = stablehlo.constant dense<1> : tensor<i32>
      %1302 = stablehlo.add %iterArg_391, %c_494 : tensor<i32>
      stablehlo.return %iterArg, %iterArg_366, %iterArg_367, %iterArg_368, %iterArg_369, %iterArg_370, %iterArg_371, %iterArg_372, %iterArg_373, %iterArg_374, %iterArg_375, %iterArg_376, %iterArg_377, %iterArg_378, %iterArg_379, %iterArg_380, %iterArg_381, %iterArg_382, %iterArg_383, %iterArg_384, %iterArg_385, %iterArg_386, %iterArg_387, %iterArg_388, %iterArg_389, %iterArg_390, %1302, %1277#0, %1279, %1281, %1283, %1285, %1287, %1289, %1291, %1293, %1295, %1297, %1299, %1301 : tensor<12x64x512x768xf32>, tensor<12x768x768xf32>, tensor<12x768x768xf32>, tensor<12x64x512x768xf32>, tensor<12x64x512x768xf32>, tensor<12x64x512x1xf32>, tensor<12x64x512x1xf32>, tensor<12x64x512x768xf32>, tensor<12x64x512x768xf32>, tensor<12x1x1x768xf32>, tensor<12x768x3072xf32>, tensor<12x64x512x768xf32>, tensor<12x64x512x3072xf32>, tensor<12x64x512x3072xf32>, tensor<12x64x512x3072xf32>, tensor<12x64x512x3072xf32>, tensor<12x64x512x3072xf32>, tensor<12x3072x768xf32>, tensor<12x64x512x3072xf32>, tensor<12x64x512x768xf32>, tensor<12x64x512x1xf32>, tensor<12x64x512x1xf32>, tensor<12x64x512x768xf32>, tensor<12x64x512x768xf32>, tensor<12x1x1x768xf32>, tensor<64x512x12x512xf32>, tensor<i32>, tensor<64x512x768xf32>, tensor<12x768x768xf32>, tensor<12x768xf32>, tensor<12x768x768xf32>, tensor<12x768xf32>, tensor<12x768xf32>, tensor<12x768xf32>, tensor<12x3072x768xf32>, tensor<12x3072xf32>, tensor<12x768x3072xf32>, tensor<12x768xf32>, tensor<12x768xf32>, tensor<12x768xf32>
    }
    %cst_86 = stablehlo.constant dense<0.000000e+00> : tensor<f32>
    %219 = stablehlo.reduce(%218#27 init: %cst_86) applies stablehlo.add across dimensions = [0, 1] : (tensor<64x512x768xf32>, tensor<f32>) -> tensor<768xf32>
    %220 = stablehlo.reshape %219 : (tensor<768xf32>) -> tensor<1x1x768xf32>
    %cst_87 = stablehlo.constant dense<0.000000e+00> : tensor<f32>
    %221 = stablehlo.reduce(%220 init: %cst_87) applies stablehlo.add across dimensions = [0, 1] : (tensor<1x1x768xf32>, tensor<f32>) -> tensor<768xf32>
    %222 = stablehlo.broadcast_in_dim %26, dims = [0, 1, 2] : (tensor<1x1x768xf32>) -> tensor<64x512x768xf32>
    %223 = stablehlo.multiply %222, %218#27 : tensor<64x512x768xf32>
    %224 = stablehlo.multiply %218#27, %25 : tensor<64x512x768xf32>
    %cst_88 = stablehlo.constant dense<0.000000e+00> : tensor<f32>
    %225 = stablehlo.reduce(%224 init: %cst_88) applies stablehlo.add across dimensions = [0, 1] : (tensor<64x512x768xf32>, tensor<f32>) -> tensor<768xf32>
    %226 = stablehlo.reshape %225 : (tensor<768xf32>) -> tensor<1x1x768xf32>
    %cst_89 = stablehlo.constant dense<0.000000e+00> : tensor<f32>
    %227 = stablehlo.reduce(%226 init: %cst_89) applies stablehlo.add across dimensions = [0, 1] : (tensor<1x1x768xf32>, tensor<f32>) -> tensor<768xf32>
    %228 = stablehlo.multiply %10, %223 : tensor<64x512x768xf32>
    %cst_90 = stablehlo.constant dense<0.000000e+00> : tensor<f32>
    %229 = stablehlo.reduce(%228 init: %cst_90) applies stablehlo.add across dimensions = [2] : (tensor<64x512x768xf32>, tensor<f32>) -> tensor<64x512xf32>
    %230 = stablehlo.reshape %229 : (tensor<64x512xf32>) -> tensor<64x512x1xf32>
    %231 = stablehlo.broadcast_in_dim %20, dims = [0, 1, 2] : (tensor<64x512x1xf32>) -> tensor<64x512x768xf32>
    %232 = stablehlo.multiply %223, %231 : tensor<64x512x768xf32>
    %233 = stablehlo.multiply %230, %23 : tensor<64x512x1xf32>
    %cst_91 = stablehlo.constant dense<7.680000e+02> : tensor<f32>
    %234 = stablehlo.broadcast_in_dim %cst_91, dims = [] : (tensor<f32>) -> tensor<64x512x1xf32>
    %235 = stablehlo.divide %233, %234 : tensor<64x512x1xf32>
    %cst_92 = stablehlo.constant dense<0.000000e+00> : tensor<f32>
    %236 = stablehlo.reduce(%235 init: %cst_92) applies stablehlo.add across dimensions = [2] : (tensor<64x512x1xf32>, tensor<f32>) -> tensor<64x512xf32>
    %237 = stablehlo.broadcast_in_dim %236, dims = [0, 1] : (tensor<64x512xf32>) -> tensor<64x512x768xf32>
    %238 = stablehlo.multiply %237, %13 : tensor<64x512x768xf32>
    %239 = stablehlo.add %232, %238 : tensor<64x512x768xf32>
    %240 = stablehlo.negate %239 : tensor<64x512x768xf32>
    %cst_93 = stablehlo.constant dense<0.000000e+00> : tensor<f32>
    %241 = stablehlo.reduce(%240 init: %cst_93) applies stablehlo.add across dimensions = [2] : (tensor<64x512x768xf32>, tensor<f32>) -> tensor<64x512xf32>
    %242 = stablehlo.reshape %241 : (tensor<64x512xf32>) -> tensor<64x512x1xf32>
    %cst_94 = stablehlo.constant dense<7.680000e+02> : tensor<f32>
    %243 = stablehlo.broadcast_in_dim %cst_94, dims = [] : (tensor<f32>) -> tensor<64x512x1xf32>
    %244 = stablehlo.divide %242, %243 : tensor<64x512x1xf32>
    %cst_95 = stablehlo.constant dense<0.000000e+00> : tensor<f32>
    %245 = stablehlo.reduce(%244 init: %cst_95) applies stablehlo.add across dimensions = [2] : (tensor<64x512x1xf32>, tensor<f32>) -> tensor<64x512xf32>
    %246 = stablehlo.broadcast_in_dim %245, dims = [0, 1] : (tensor<64x512xf32>) -> tensor<64x512x768xf32>
    %247 = stablehlo.add %239, %246 : tensor<64x512x768xf32>
    %248 = call @_take_172(%3#1, %247) : (tensor<64x512x1xi32>, tensor<64x512x768xf32>) -> tensor<2x768xf32>
    %249 = call @_take_175(%1#1, %247) : (tensor<64x512x1xi32>, tensor<64x512x768xf32>) -> tensor<512x768xf32>
    %250 = call @_take_178(%0#1, %247) : (tensor<64x512x1xi32>, tensor<64x512x768xf32>) -> tensor<30522x768xf32>
    %cst_96 = stablehlo.constant dense<0.000000e+00> : tensor<f32>
    %251 = stablehlo.broadcast_in_dim %cst_96, dims = [] : (tensor<f32>) -> tensor<12x768x768xf32>
    %cst_97 = stablehlo.constant dense<0.000000e+00> : tensor<f32>
    %252 = stablehlo.broadcast_in_dim %cst_97, dims = [] : (tensor<f32>) -> tensor<12x768xf32>
    %cst_98 = stablehlo.constant dense<0.000000e+00> : tensor<f32>
    %253 = stablehlo.broadcast_in_dim %cst_98, dims = [] : (tensor<f32>) -> tensor<12x768x768xf32>
    %cst_99 = stablehlo.constant dense<0.000000e+00> : tensor<f32>
    %254 = stablehlo.broadcast_in_dim %cst_99, dims = [] : (tensor<f32>) -> tensor<12x768xf32>
    %c_100 = stablehlo.constant dense<0> : tensor<i32>
    %255 = stablehlo.subtract %arg28, %c_100 : tensor<i32>
    %c_101 = stablehlo.constant dense<0> : tensor<i32>
    %c_102 = stablehlo.constant dense<40> : tensor<i32>
    %256 = call @clip(%255, %c_101, %c_102) : (tensor<i32>, tensor<i32>, tensor<i32>) -> tensor<i32>
    %257 = stablehlo.convert %256 : (tensor<i32>) -> tensor<f32>
    %cst_103 = stablehlo.constant dense<4.000000e+01> : tensor<f32>
    %258 = stablehlo.divide %257, %cst_103 : tensor<f32>
    %cst_104 = stablehlo.constant dense<1.000000e+00> : tensor<f32>
    %259 = stablehlo.subtract %cst_104, %258 : tensor<f32>
    %cst_105 = stablehlo.constant dense<-5.000000e-05> : tensor<f32>
    %260 = stablehlo.multiply %cst_105, %259 : tensor<f32>
    %cst_106 = stablehlo.constant dense<5.000000e-05> : tensor<f32>
    %261 = stablehlo.add %260, %cst_106 : tensor<f32>
    %c_107 = stablehlo.constant dense<2147483647> : tensor<i32>
    %262 = stablehlo.compare  LT, %arg28, %c_107,  SIGNED : (tensor<i32>, tensor<i32>) -> tensor<i1>
    %c_108 = stablehlo.constant dense<1> : tensor<i32>
    %263 = stablehlo.add %arg28, %c_108 : tensor<i32>
    %c_109 = stablehlo.constant dense<2147483647> : tensor<i32>
    %264 = call @_where_192(%262, %263, %c_109) : (tensor<i1>, tensor<i32>, tensor<i32>) -> tensor<i32>
    %265 = stablehlo.negate %261 : tensor<f32>
    %266 = stablehlo.multiply %250, %250 : tensor<30522x768xf32>
    %cst_110 = stablehlo.constant dense<0.000000e+00> : tensor<f32>
    %267 = stablehlo.reduce(%266 init: %cst_110) applies stablehlo.add across dimensions = [0, 1] : (tensor<30522x768xf32>, tensor<f32>) -> tensor<f32>
    %cst_111 = stablehlo.constant dense<0.000000e+00> : tensor<f32>
    %268 = stablehlo.add %cst_111, %267 : tensor<f32>
    %269 = stablehlo.multiply %249, %249 : tensor<512x768xf32>
    %cst_112 = stablehlo.constant dense<0.000000e+00> : tensor<f32>
    %270 = stablehlo.reduce(%269 init: %cst_112) applies stablehlo.add across dimensions = [0, 1] : (tensor<512x768xf32>, tensor<f32>) -> tensor<f32>
    %271 = stablehlo.add %268, %270 : tensor<f32>
    %272 = stablehlo.multiply %248, %248 : tensor<2x768xf32>
    %cst_113 = stablehlo.constant dense<0.000000e+00> : tensor<f32>
    %273 = stablehlo.reduce(%272 init: %cst_113) applies stablehlo.add across dimensions = [0, 1] : (tensor<2x768xf32>, tensor<f32>) -> tensor<f32>
    %274 = stablehlo.add %271, %273 : tensor<f32>
    %275 = stablehlo.multiply %227, %227 : tensor<768xf32>
    %cst_114 = stablehlo.constant dense<0.000000e+00> : tensor<f32>
    %276 = stablehlo.reduce(%275 init: %cst_114) applies stablehlo.add across dimensions = [0] : (tensor<768xf32>, tensor<f32>) -> tensor<f32>
    %277 = stablehlo.add %274, %276 : tensor<f32>
    %278 = stablehlo.multiply %221, %221 : tensor<768xf32>
    %cst_115 = stablehlo.constant dense<0.000000e+00> : tensor<f32>
    %279 = stablehlo.reduce(%278 init: %cst_115) applies stablehlo.add across dimensions = [0] : (tensor<768xf32>, tensor<f32>) -> tensor<f32>
    %280 = stablehlo.add %277, %279 : tensor<f32>
    %281 = stablehlo.multiply %251, %251 : tensor<12x768x768xf32>
    %cst_116 = stablehlo.constant dense<0.000000e+00> : tensor<f32>
    %282 = stablehlo.reduce(%281 init: %cst_116) applies stablehlo.add across dimensions = [0, 1, 2] : (tensor<12x768x768xf32>, tensor<f32>) -> tensor<f32>
    %283 = stablehlo.add %280, %282 : tensor<f32>
    %284 = stablehlo.multiply %252, %252 : tensor<12x768xf32>
    %cst_117 = stablehlo.constant dense<0.000000e+00> : tensor<f32>
    %285 = stablehlo.reduce(%284 init: %cst_117) applies stablehlo.add across dimensions = [0, 1] : (tensor<12x768xf32>, tensor<f32>) -> tensor<f32>
    %286 = stablehlo.add %283, %285 : tensor<f32>
    %287 = stablehlo.multiply %253, %253 : tensor<12x768x768xf32>
    %cst_118 = stablehlo.constant dense<0.000000e+00> : tensor<f32>
    %288 = stablehlo.reduce(%287 init: %cst_118) applies stablehlo.add across dimensions = [0, 1, 2] : (tensor<12x768x768xf32>, tensor<f32>) -> tensor<f32>
    %289 = stablehlo.add %286, %288 : tensor<f32>
    %290 = stablehlo.multiply %254, %254 : tensor<12x768xf32>
    %cst_119 = stablehlo.constant dense<0.000000e+00> : tensor<f32>
    %291 = stablehlo.reduce(%290 init: %cst_119) applies stablehlo.add across dimensions = [0, 1] : (tensor<12x768xf32>, tensor<f32>) -> tensor<f32>
    %292 = stablehlo.add %289, %291 : tensor<f32>
    %293 = stablehlo.multiply %218#28, %218#28 : tensor<12x768x768xf32>
    %cst_120 = stablehlo.constant dense<0.000000e+00> : tensor<f32>
    %294 = stablehlo.reduce(%293 init: %cst_120) applies stablehlo.add across dimensions = [0, 1, 2] : (tensor<12x768x768xf32>, tensor<f32>) -> tensor<f32>
    %295 = stablehlo.add %292, %294 : tensor<f32>
    %296 = stablehlo.multiply %218#29, %218#29 : tensor<12x768xf32>
    %cst_121 = stablehlo.constant dense<0.000000e+00> : tensor<f32>
    %297 = stablehlo.reduce(%296 init: %cst_121) applies stablehlo.add across dimensions = [0, 1] : (tensor<12x768xf32>, tensor<f32>) -> tensor<f32>
    %298 = stablehlo.add %295, %297 : tensor<f32>
    %299 = stablehlo.multiply %218#30, %218#30 : tensor<12x768x768xf32>
    %cst_122 = stablehlo.constant dense<0.000000e+00> : tensor<f32>
    %300 = stablehlo.reduce(%299 init: %cst_122) applies stablehlo.add across dimensions = [0, 1, 2] : (tensor<12x768x768xf32>, tensor<f32>) -> tensor<f32>
    %301 = stablehlo.add %298, %300 : tensor<f32>
    %302 = stablehlo.multiply %218#31, %218#31 : tensor<12x768xf32>
    %cst_123 = stablehlo.constant dense<0.000000e+00> : tensor<f32>
    %303 = stablehlo.reduce(%302 init: %cst_123) applies stablehlo.add across dimensions = [0, 1] : (tensor<12x768xf32>, tensor<f32>) -> tensor<f32>
    %304 = stablehlo.add %301, %303 : tensor<f32>
    %305 = stablehlo.multiply %218#32, %218#32 : tensor<12x768xf32>
    %cst_124 = stablehlo.constant dense<0.000000e+00> : tensor<f32>
    %306 = stablehlo.reduce(%305 init: %cst_124) applies stablehlo.add across dimensions = [0, 1] : (tensor<12x768xf32>, tensor<f32>) -> tensor<f32>
    %307 = stablehlo.add %304, %306 : tensor<f32>
    %308 = stablehlo.multiply %218#33, %218#33 : tensor<12x768xf32>
    %cst_125 = stablehlo.constant dense<0.000000e+00> : tensor<f32>
    %309 = stablehlo.reduce(%308 init: %cst_125) applies stablehlo.add across dimensions = [0, 1] : (tensor<12x768xf32>, tensor<f32>) -> tensor<f32>
    %310 = stablehlo.add %307, %309 : tensor<f32>
    %311 = stablehlo.multiply %218#34, %218#34 : tensor<12x3072x768xf32>
    %cst_126 = stablehlo.constant dense<0.000000e+00> : tensor<f32>
    %312 = stablehlo.reduce(%311 init: %cst_126) applies stablehlo.add across dimensions = [0, 1, 2] : (tensor<12x3072x768xf32>, tensor<f32>) -> tensor<f32>
    %313 = stablehlo.add %310, %312 : tensor<f32>
    %314 = stablehlo.multiply %218#35, %218#35 : tensor<12x3072xf32>
    %cst_127 = stablehlo.constant dense<0.000000e+00> : tensor<f32>
    %315 = stablehlo.reduce(%314 init: %cst_127) applies stablehlo.add across dimensions = [0, 1] : (tensor<12x3072xf32>, tensor<f32>) -> tensor<f32>
    %316 = stablehlo.add %313, %315 : tensor<f32>
    %317 = stablehlo.multiply %218#36, %218#36 : tensor<12x768x3072xf32>
    %cst_128 = stablehlo.constant dense<0.000000e+00> : tensor<f32>
    %318 = stablehlo.reduce(%317 init: %cst_128) applies stablehlo.add across dimensions = [0, 1, 2] : (tensor<12x768x3072xf32>, tensor<f32>) -> tensor<f32>
    %319 = stablehlo.add %316, %318 : tensor<f32>
    %320 = stablehlo.multiply %218#37, %218#37 : tensor<12x768xf32>
    %cst_129 = stablehlo.constant dense<0.000000e+00> : tensor<f32>
    %321 = stablehlo.reduce(%320 init: %cst_129) applies stablehlo.add across dimensions = [0, 1] : (tensor<12x768xf32>, tensor<f32>) -> tensor<f32>
    %322 = stablehlo.add %319, %321 : tensor<f32>
    %323 = stablehlo.multiply %218#38, %218#38 : tensor<12x768xf32>
    %cst_130 = stablehlo.constant dense<0.000000e+00> : tensor<f32>
    %324 = stablehlo.reduce(%323 init: %cst_130) applies stablehlo.add across dimensions = [0, 1] : (tensor<12x768xf32>, tensor<f32>) -> tensor<f32>
    %325 = stablehlo.add %322, %324 : tensor<f32>
    %326 = stablehlo.multiply %218#39, %218#39 : tensor<12x768xf32>
    %cst_131 = stablehlo.constant dense<0.000000e+00> : tensor<f32>
    %327 = stablehlo.reduce(%326 init: %cst_131) applies stablehlo.add across dimensions = [0, 1] : (tensor<12x768xf32>, tensor<f32>) -> tensor<f32>
    %328 = stablehlo.add %325, %327 : tensor<f32>
    %329 = stablehlo.multiply %205, %205 : tensor<768x768xf32>
    %cst_132 = stablehlo.constant dense<0.000000e+00> : tensor<f32>
    %330 = stablehlo.reduce(%329 init: %cst_132) applies stablehlo.add across dimensions = [0, 1] : (tensor<768x768xf32>, tensor<f32>) -> tensor<f32>
    %331 = stablehlo.add %328, %330 : tensor<f32>
    %332 = stablehlo.multiply %201, %201 : tensor<768xf32>
    %cst_133 = stablehlo.constant dense<0.000000e+00> : tensor<f32>
    %333 = stablehlo.reduce(%332 init: %cst_133) applies stablehlo.add across dimensions = [0] : (tensor<768xf32>, tensor<f32>) -> tensor<f32>
    %334 = stablehlo.add %331, %333 : tensor<f32>
    %335 = stablehlo.multiply %164, %164 : tensor<768xf32>
    %cst_134 = stablehlo.constant dense<0.000000e+00> : tensor<f32>
    %336 = stablehlo.reduce(%335 init: %cst_134) applies stablehlo.add across dimensions = [0] : (tensor<768xf32>, tensor<f32>) -> tensor<f32>
    %337 = stablehlo.add %334, %336 : tensor<f32>
    %338 = stablehlo.multiply %158, %158 : tensor<768xf32>
    %cst_135 = stablehlo.constant dense<0.000000e+00> : tensor<f32>
    %339 = stablehlo.reduce(%338 init: %cst_135) applies stablehlo.add across dimensions = [0] : (tensor<768xf32>, tensor<f32>) -> tensor<f32>
    %340 = stablehlo.add %337, %339 : tensor<f32>
    %341 = stablehlo.multiply %155, %155 : tensor<30522x768xf32>
    %cst_136 = stablehlo.constant dense<0.000000e+00> : tensor<f32>
    %342 = stablehlo.reduce(%341 init: %cst_136) applies stablehlo.add across dimensions = [0, 1] : (tensor<30522x768xf32>, tensor<f32>) -> tensor<f32>
    %343 = stablehlo.add %340, %342 : tensor<f32>
    %344 = stablehlo.multiply %151, %151 : tensor<30522xf32>
    %cst_137 = stablehlo.constant dense<0.000000e+00> : tensor<f32>
    %345 = stablehlo.reduce(%344 init: %cst_137) applies stablehlo.add across dimensions = [0] : (tensor<30522xf32>, tensor<f32>) -> tensor<f32>
    %346 = stablehlo.add %343, %345 : tensor<f32>
    %347 = stablehlo.sqrt %346 : tensor<f32>
    %cst_138 = stablehlo.constant dense<1.000000e+00> : tensor<f32>
    %348 = stablehlo.compare  LT, %347, %cst_138,  FLOAT : (tensor<f32>, tensor<f32>) -> tensor<i1>
    %349 = stablehlo.broadcast_in_dim %347, dims = [] : (tensor<f32>) -> tensor<30522x768xf32>
    %350 = stablehlo.divide %250, %349 : tensor<30522x768xf32>
    %cst_139 = stablehlo.constant dense<1.000000e+00> : tensor<f32>
    %351 = stablehlo.broadcast_in_dim %cst_139, dims = [] : (tensor<f32>) -> tensor<30522x768xf32>
    %352 = stablehlo.multiply %350, %351 : tensor<30522x768xf32>
    %353 = stablehlo.select %348, %250, %352 : tensor<i1>, tensor<30522x768xf32>
    %354 = stablehlo.broadcast_in_dim %347, dims = [] : (tensor<f32>) -> tensor<512x768xf32>
    %355 = stablehlo.divide %249, %354 : tensor<512x768xf32>
    %cst_140 = stablehlo.constant dense<1.000000e+00> : tensor<f32>
    %356 = stablehlo.broadcast_in_dim %cst_140, dims = [] : (tensor<f32>) -> tensor<512x768xf32>
    %357 = stablehlo.multiply %355, %356 : tensor<512x768xf32>
    %358 = stablehlo.select %348, %249, %357 : tensor<i1>, tensor<512x768xf32>
    %359 = stablehlo.broadcast_in_dim %347, dims = [] : (tensor<f32>) -> tensor<2x768xf32>
    %360 = stablehlo.divide %248, %359 : tensor<2x768xf32>
    %cst_141 = stablehlo.constant dense<1.000000e+00> : tensor<f32>
    %361 = stablehlo.broadcast_in_dim %cst_141, dims = [] : (tensor<f32>) -> tensor<2x768xf32>
    %362 = stablehlo.multiply %360, %361 : tensor<2x768xf32>
    %363 = stablehlo.select %348, %248, %362 : tensor<i1>, tensor<2x768xf32>
    %364 = stablehlo.broadcast_in_dim %347, dims = [] : (tensor<f32>) -> tensor<768xf32>
    %365 = stablehlo.divide %227, %364 : tensor<768xf32>
    %cst_142 = stablehlo.constant dense<1.000000e+00> : tensor<f32>
    %366 = stablehlo.broadcast_in_dim %cst_142, dims = [] : (tensor<f32>) -> tensor<768xf32>
    %367 = stablehlo.multiply %365, %366 : tensor<768xf32>
    %368 = stablehlo.select %348, %227, %367 : tensor<i1>, tensor<768xf32>
    %369 = stablehlo.broadcast_in_dim %347, dims = [] : (tensor<f32>) -> tensor<768xf32>
    %370 = stablehlo.divide %221, %369 : tensor<768xf32>
    %cst_143 = stablehlo.constant dense<1.000000e+00> : tensor<f32>
    %371 = stablehlo.broadcast_in_dim %cst_143, dims = [] : (tensor<f32>) -> tensor<768xf32>
    %372 = stablehlo.multiply %370, %371 : tensor<768xf32>
    %373 = stablehlo.select %348, %221, %372 : tensor<i1>, tensor<768xf32>
    %374 = stablehlo.broadcast_in_dim %347, dims = [] : (tensor<f32>) -> tensor<12x768x768xf32>
    %375 = stablehlo.divide %251, %374 : tensor<12x768x768xf32>
    %cst_144 = stablehlo.constant dense<1.000000e+00> : tensor<f32>
    %376 = stablehlo.broadcast_in_dim %cst_144, dims = [] : (tensor<f32>) -> tensor<12x768x768xf32>
    %377 = stablehlo.multiply %375, %376 : tensor<12x768x768xf32>
    %378 = stablehlo.select %348, %251, %377 : tensor<i1>, tensor<12x768x768xf32>
    %379 = stablehlo.broadcast_in_dim %347, dims = [] : (tensor<f32>) -> tensor<12x768xf32>
    %380 = stablehlo.divide %252, %379 : tensor<12x768xf32>
    %cst_145 = stablehlo.constant dense<1.000000e+00> : tensor<f32>
    %381 = stablehlo.broadcast_in_dim %cst_145, dims = [] : (tensor<f32>) -> tensor<12x768xf32>
    %382 = stablehlo.multiply %380, %381 : tensor<12x768xf32>
    %383 = stablehlo.select %348, %252, %382 : tensor<i1>, tensor<12x768xf32>
    %384 = stablehlo.broadcast_in_dim %347, dims = [] : (tensor<f32>) -> tensor<12x768x768xf32>
    %385 = stablehlo.divide %253, %384 : tensor<12x768x768xf32>
    %cst_146 = stablehlo.constant dense<1.000000e+00> : tensor<f32>
    %386 = stablehlo.broadcast_in_dim %cst_146, dims = [] : (tensor<f32>) -> tensor<12x768x768xf32>
    %387 = stablehlo.multiply %385, %386 : tensor<12x768x768xf32>
    %388 = stablehlo.select %348, %253, %387 : tensor<i1>, tensor<12x768x768xf32>
    %389 = stablehlo.broadcast_in_dim %347, dims = [] : (tensor<f32>) -> tensor<12x768xf32>
    %390 = stablehlo.divide %254, %389 : tensor<12x768xf32>
    %cst_147 = stablehlo.constant dense<1.000000e+00> : tensor<f32>
    %391 = stablehlo.broadcast_in_dim %cst_147, dims = [] : (tensor<f32>) -> tensor<12x768xf32>
    %392 = stablehlo.multiply %390, %391 : tensor<12x768xf32>
    %393 = stablehlo.select %348, %254, %392 : tensor<i1>, tensor<12x768xf32>
    %394 = stablehlo.broadcast_in_dim %347, dims = [] : (tensor<f32>) -> tensor<12x768x768xf32>
    %395 = stablehlo.divide %218#28, %394 : tensor<12x768x768xf32>
    %cst_148 = stablehlo.constant dense<1.000000e+00> : tensor<f32>
    %396 = stablehlo.broadcast_in_dim %cst_148, dims = [] : (tensor<f32>) -> tensor<12x768x768xf32>
    %397 = stablehlo.multiply %395, %396 : tensor<12x768x768xf32>
    %398 = stablehlo.select %348, %218#28, %397 : tensor<i1>, tensor<12x768x768xf32>
    %399 = stablehlo.broadcast_in_dim %347, dims = [] : (tensor<f32>) -> tensor<12x768xf32>
    %400 = stablehlo.divide %218#29, %399 : tensor<12x768xf32>
    %cst_149 = stablehlo.constant dense<1.000000e+00> : tensor<f32>
    %401 = stablehlo.broadcast_in_dim %cst_149, dims = [] : (tensor<f32>) -> tensor<12x768xf32>
    %402 = stablehlo.multiply %400, %401 : tensor<12x768xf32>
    %403 = stablehlo.select %348, %218#29, %402 : tensor<i1>, tensor<12x768xf32>
    %404 = stablehlo.broadcast_in_dim %347, dims = [] : (tensor<f32>) -> tensor<12x768x768xf32>
    %405 = stablehlo.divide %218#30, %404 : tensor<12x768x768xf32>
    %cst_150 = stablehlo.constant dense<1.000000e+00> : tensor<f32>
    %406 = stablehlo.broadcast_in_dim %cst_150, dims = [] : (tensor<f32>) -> tensor<12x768x768xf32>
    %407 = stablehlo.multiply %405, %406 : tensor<12x768x768xf32>
    %408 = stablehlo.select %348, %218#30, %407 : tensor<i1>, tensor<12x768x768xf32>
    %409 = stablehlo.broadcast_in_dim %347, dims = [] : (tensor<f32>) -> tensor<12x768xf32>
    %410 = stablehlo.divide %218#31, %409 : tensor<12x768xf32>
    %cst_151 = stablehlo.constant dense<1.000000e+00> : tensor<f32>
    %411 = stablehlo.broadcast_in_dim %cst_151, dims = [] : (tensor<f32>) -> tensor<12x768xf32>
    %412 = stablehlo.multiply %410, %411 : tensor<12x768xf32>
    %413 = stablehlo.select %348, %218#31, %412 : tensor<i1>, tensor<12x768xf32>
    %414 = stablehlo.broadcast_in_dim %347, dims = [] : (tensor<f32>) -> tensor<12x768xf32>
    %415 = stablehlo.divide %218#32, %414 : tensor<12x768xf32>
    %cst_152 = stablehlo.constant dense<1.000000e+00> : tensor<f32>
    %416 = stablehlo.broadcast_in_dim %cst_152, dims = [] : (tensor<f32>) -> tensor<12x768xf32>
    %417 = stablehlo.multiply %415, %416 : tensor<12x768xf32>
    %418 = stablehlo.select %348, %218#32, %417 : tensor<i1>, tensor<12x768xf32>
    %419 = stablehlo.broadcast_in_dim %347, dims = [] : (tensor<f32>) -> tensor<12x768xf32>
    %420 = stablehlo.divide %218#33, %419 : tensor<12x768xf32>
    %cst_153 = stablehlo.constant dense<1.000000e+00> : tensor<f32>
    %421 = stablehlo.broadcast_in_dim %cst_153, dims = [] : (tensor<f32>) -> tensor<12x768xf32>
    %422 = stablehlo.multiply %420, %421 : tensor<12x768xf32>
    %423 = stablehlo.select %348, %218#33, %422 : tensor<i1>, tensor<12x768xf32>
    %424 = stablehlo.broadcast_in_dim %347, dims = [] : (tensor<f32>) -> tensor<12x3072x768xf32>
    %425 = stablehlo.divide %218#34, %424 : tensor<12x3072x768xf32>
    %cst_154 = stablehlo.constant dense<1.000000e+00> : tensor<f32>
    %426 = stablehlo.broadcast_in_dim %cst_154, dims = [] : (tensor<f32>) -> tensor<12x3072x768xf32>
    %427 = stablehlo.multiply %425, %426 : tensor<12x3072x768xf32>
    %428 = stablehlo.select %348, %218#34, %427 : tensor<i1>, tensor<12x3072x768xf32>
    %429 = stablehlo.broadcast_in_dim %347, dims = [] : (tensor<f32>) -> tensor<12x3072xf32>
    %430 = stablehlo.divide %218#35, %429 : tensor<12x3072xf32>
    %cst_155 = stablehlo.constant dense<1.000000e+00> : tensor<f32>
    %431 = stablehlo.broadcast_in_dim %cst_155, dims = [] : (tensor<f32>) -> tensor<12x3072xf32>
    %432 = stablehlo.multiply %430, %431 : tensor<12x3072xf32>
    %433 = stablehlo.select %348, %218#35, %432 : tensor<i1>, tensor<12x3072xf32>
    %434 = stablehlo.broadcast_in_dim %347, dims = [] : (tensor<f32>) -> tensor<12x768x3072xf32>
    %435 = stablehlo.divide %218#36, %434 : tensor<12x768x3072xf32>
    %cst_156 = stablehlo.constant dense<1.000000e+00> : tensor<f32>
    %436 = stablehlo.broadcast_in_dim %cst_156, dims = [] : (tensor<f32>) -> tensor<12x768x3072xf32>
    %437 = stablehlo.multiply %435, %436 : tensor<12x768x3072xf32>
    %438 = stablehlo.select %348, %218#36, %437 : tensor<i1>, tensor<12x768x3072xf32>
    %439 = stablehlo.broadcast_in_dim %347, dims = [] : (tensor<f32>) -> tensor<12x768xf32>
    %440 = stablehlo.divide %218#37, %439 : tensor<12x768xf32>
    %cst_157 = stablehlo.constant dense<1.000000e+00> : tensor<f32>
    %441 = stablehlo.broadcast_in_dim %cst_157, dims = [] : (tensor<f32>) -> tensor<12x768xf32>
    %442 = stablehlo.multiply %440, %441 : tensor<12x768xf32>
    %443 = stablehlo.select %348, %218#37, %442 : tensor<i1>, tensor<12x768xf32>
    %444 = stablehlo.broadcast_in_dim %347, dims = [] : (tensor<f32>) -> tensor<12x768xf32>
    %445 = stablehlo.divide %218#38, %444 : tensor<12x768xf32>
    %cst_158 = stablehlo.constant dense<1.000000e+00> : tensor<f32>
    %446 = stablehlo.broadcast_in_dim %cst_158, dims = [] : (tensor<f32>) -> tensor<12x768xf32>
    %447 = stablehlo.multiply %445, %446 : tensor<12x768xf32>
    %448 = stablehlo.select %348, %218#38, %447 : tensor<i1>, tensor<12x768xf32>
    %449 = stablehlo.broadcast_in_dim %347, dims = [] : (tensor<f32>) -> tensor<12x768xf32>
    %450 = stablehlo.divide %218#39, %449 : tensor<12x768xf32>
    %cst_159 = stablehlo.constant dense<1.000000e+00> : tensor<f32>
    %451 = stablehlo.broadcast_in_dim %cst_159, dims = [] : (tensor<f32>) -> tensor<12x768xf32>
    %452 = stablehlo.multiply %450, %451 : tensor<12x768xf32>
    %453 = stablehlo.select %348, %218#39, %452 : tensor<i1>, tensor<12x768xf32>
    %454 = stablehlo.broadcast_in_dim %347, dims = [] : (tensor<f32>) -> tensor<768x768xf32>
    %455 = stablehlo.divide %205, %454 : tensor<768x768xf32>
    %cst_160 = stablehlo.constant dense<1.000000e+00> : tensor<f32>
    %456 = stablehlo.broadcast_in_dim %cst_160, dims = [] : (tensor<f32>) -> tensor<768x768xf32>
    %457 = stablehlo.multiply %455, %456 : tensor<768x768xf32>
    %458 = stablehlo.select %348, %205, %457 : tensor<i1>, tensor<768x768xf32>
    %459 = stablehlo.broadcast_in_dim %347, dims = [] : (tensor<f32>) -> tensor<768xf32>
    %460 = stablehlo.divide %201, %459 : tensor<768xf32>
    %cst_161 = stablehlo.constant dense<1.000000e+00> : tensor<f32>
    %461 = stablehlo.broadcast_in_dim %cst_161, dims = [] : (tensor<f32>) -> tensor<768xf32>
    %462 = stablehlo.multiply %460, %461 : tensor<768xf32>
    %463 = stablehlo.select %348, %201, %462 : tensor<i1>, tensor<768xf32>
    %464 = stablehlo.broadcast_in_dim %347, dims = [] : (tensor<f32>) -> tensor<768xf32>
    %465 = stablehlo.divide %164, %464 : tensor<768xf32>
    %cst_162 = stablehlo.constant dense<1.000000e+00> : tensor<f32>
    %466 = stablehlo.broadcast_in_dim %cst_162, dims = [] : (tensor<f32>) -> tensor<768xf32>
    %467 = stablehlo.multiply %465, %466 : tensor<768xf32>
    %468 = stablehlo.select %348, %164, %467 : tensor<i1>, tensor<768xf32>
    %469 = stablehlo.broadcast_in_dim %347, dims = [] : (tensor<f32>) -> tensor<768xf32>
    %470 = stablehlo.divide %158, %469 : tensor<768xf32>
    %cst_163 = stablehlo.constant dense<1.000000e+00> : tensor<f32>
    %471 = stablehlo.broadcast_in_dim %cst_163, dims = [] : (tensor<f32>) -> tensor<768xf32>
    %472 = stablehlo.multiply %470, %471 : tensor<768xf32>
    %473 = stablehlo.select %348, %158, %472 : tensor<i1>, tensor<768xf32>
    %474 = stablehlo.broadcast_in_dim %347, dims = [] : (tensor<f32>) -> tensor<30522x768xf32>
    %475 = stablehlo.divide %155, %474 : tensor<30522x768xf32>
    %cst_164 = stablehlo.constant dense<1.000000e+00> : tensor<f32>
    %476 = stablehlo.broadcast_in_dim %cst_164, dims = [] : (tensor<f32>) -> tensor<30522x768xf32>
    %477 = stablehlo.multiply %475, %476 : tensor<30522x768xf32>
    %478 = stablehlo.select %348, %155, %477 : tensor<i1>, tensor<30522x768xf32>
    %479 = stablehlo.broadcast_in_dim %347, dims = [] : (tensor<f32>) -> tensor<30522xf32>
    %480 = stablehlo.divide %151, %479 : tensor<30522xf32>
    %cst_165 = stablehlo.constant dense<1.000000e+00> : tensor<f32>
    %481 = stablehlo.broadcast_in_dim %cst_165, dims = [] : (tensor<f32>) -> tensor<30522xf32>
    %482 = stablehlo.multiply %480, %481 : tensor<30522xf32>
    %483 = stablehlo.select %348, %151, %482 : tensor<i1>, tensor<30522xf32>
    %cst_166 = stablehlo.constant dense<1.000000e-01> : tensor<f32>
    %484 = stablehlo.broadcast_in_dim %cst_166, dims = [] : (tensor<f32>) -> tensor<30522x768xf32>
    %485 = stablehlo.multiply %484, %353 : tensor<30522x768xf32>
    %cst_167 = stablehlo.constant dense<0.899999976> : tensor<f32>
    %486 = stablehlo.broadcast_in_dim %cst_167, dims = [] : (tensor<f32>) -> tensor<30522x768xf32>
    %487 = stablehlo.multiply %486, %arg30 : tensor<30522x768xf32>
    %488 = stablehlo.add %485, %487 : tensor<30522x768xf32>
    %cst_168 = stablehlo.constant dense<1.000000e-01> : tensor<f32>
    %489 = stablehlo.broadcast_in_dim %cst_168, dims = [] : (tensor<f32>) -> tensor<512x768xf32>
    %490 = stablehlo.multiply %489, %358 : tensor<512x768xf32>
    %cst_169 = stablehlo.constant dense<0.899999976> : tensor<f32>
    %491 = stablehlo.broadcast_in_dim %cst_169, dims = [] : (tensor<f32>) -> tensor<512x768xf32>
    %492 = stablehlo.multiply %491, %arg31 : tensor<512x768xf32>
    %493 = stablehlo.add %490, %492 : tensor<512x768xf32>
    %cst_170 = stablehlo.constant dense<1.000000e-01> : tensor<f32>
    %494 = stablehlo.broadcast_in_dim %cst_170, dims = [] : (tensor<f32>) -> tensor<2x768xf32>
    %495 = stablehlo.multiply %494, %363 : tensor<2x768xf32>
    %cst_171 = stablehlo.constant dense<0.899999976> : tensor<f32>
    %496 = stablehlo.broadcast_in_dim %cst_171, dims = [] : (tensor<f32>) -> tensor<2x768xf32>
    %497 = stablehlo.multiply %496, %arg32 : tensor<2x768xf32>
    %498 = stablehlo.add %495, %497 : tensor<2x768xf32>
    %cst_172 = stablehlo.constant dense<1.000000e-01> : tensor<f32>
    %499 = stablehlo.broadcast_in_dim %cst_172, dims = [] : (tensor<f32>) -> tensor<768xf32>
    %500 = stablehlo.multiply %499, %368 : tensor<768xf32>
    %cst_173 = stablehlo.constant dense<0.899999976> : tensor<f32>
    %501 = stablehlo.broadcast_in_dim %cst_173, dims = [] : (tensor<f32>) -> tensor<768xf32>
    %502 = stablehlo.multiply %501, %arg33 : tensor<768xf32>
    %503 = stablehlo.add %500, %502 : tensor<768xf32>
    %cst_174 = stablehlo.constant dense<1.000000e-01> : tensor<f32>
    %504 = stablehlo.broadcast_in_dim %cst_174, dims = [] : (tensor<f32>) -> tensor<768xf32>
    %505 = stablehlo.multiply %504, %373 : tensor<768xf32>
    %cst_175 = stablehlo.constant dense<0.899999976> : tensor<f32>
    %506 = stablehlo.broadcast_in_dim %cst_175, dims = [] : (tensor<f32>) -> tensor<768xf32>
    %507 = stablehlo.multiply %506, %arg34 : tensor<768xf32>
    %508 = stablehlo.add %505, %507 : tensor<768xf32>
    %cst_176 = stablehlo.constant dense<1.000000e-01> : tensor<f32>
    %509 = stablehlo.broadcast_in_dim %cst_176, dims = [] : (tensor<f32>) -> tensor<12x768x768xf32>
    %510 = stablehlo.multiply %509, %378 : tensor<12x768x768xf32>
    %cst_177 = stablehlo.constant dense<0.899999976> : tensor<f32>
    %511 = stablehlo.broadcast_in_dim %cst_177, dims = [] : (tensor<f32>) -> tensor<12x768x768xf32>
    %512 = stablehlo.multiply %511, %arg35 : tensor<12x768x768xf32>
    %513 = stablehlo.add %510, %512 : tensor<12x768x768xf32>
    %cst_178 = stablehlo.constant dense<1.000000e-01> : tensor<f32>
    %514 = stablehlo.broadcast_in_dim %cst_178, dims = [] : (tensor<f32>) -> tensor<12x768xf32>
    %515 = stablehlo.multiply %514, %383 : tensor<12x768xf32>
    %cst_179 = stablehlo.constant dense<0.899999976> : tensor<f32>
    %516 = stablehlo.broadcast_in_dim %cst_179, dims = [] : (tensor<f32>) -> tensor<12x768xf32>
    %517 = stablehlo.multiply %516, %arg36 : tensor<12x768xf32>
    %518 = stablehlo.add %515, %517 : tensor<12x768xf32>
    %cst_180 = stablehlo.constant dense<1.000000e-01> : tensor<f32>
    %519 = stablehlo.broadcast_in_dim %cst_180, dims = [] : (tensor<f32>) -> tensor<12x768x768xf32>
    %520 = stablehlo.multiply %519, %388 : tensor<12x768x768xf32>
    %cst_181 = stablehlo.constant dense<0.899999976> : tensor<f32>
    %521 = stablehlo.broadcast_in_dim %cst_181, dims = [] : (tensor<f32>) -> tensor<12x768x768xf32>
    %522 = stablehlo.multiply %521, %arg37 : tensor<12x768x768xf32>
    %523 = stablehlo.add %520, %522 : tensor<12x768x768xf32>
    %cst_182 = stablehlo.constant dense<1.000000e-01> : tensor<f32>
    %524 = stablehlo.broadcast_in_dim %cst_182, dims = [] : (tensor<f32>) -> tensor<12x768xf32>
    %525 = stablehlo.multiply %524, %393 : tensor<12x768xf32>
    %cst_183 = stablehlo.constant dense<0.899999976> : tensor<f32>
    %526 = stablehlo.broadcast_in_dim %cst_183, dims = [] : (tensor<f32>) -> tensor<12x768xf32>
    %527 = stablehlo.multiply %526, %arg38 : tensor<12x768xf32>
    %528 = stablehlo.add %525, %527 : tensor<12x768xf32>
    %cst_184 = stablehlo.constant dense<1.000000e-01> : tensor<f32>
    %529 = stablehlo.broadcast_in_dim %cst_184, dims = [] : (tensor<f32>) -> tensor<12x768x768xf32>
    %530 = stablehlo.multiply %529, %398 : tensor<12x768x768xf32>
    %cst_185 = stablehlo.constant dense<0.899999976> : tensor<f32>
    %531 = stablehlo.broadcast_in_dim %cst_185, dims = [] : (tensor<f32>) -> tensor<12x768x768xf32>
    %532 = stablehlo.multiply %531, %arg39 : tensor<12x768x768xf32>
    %533 = stablehlo.add %530, %532 : tensor<12x768x768xf32>
    %cst_186 = stablehlo.constant dense<1.000000e-01> : tensor<f32>
    %534 = stablehlo.broadcast_in_dim %cst_186, dims = [] : (tensor<f32>) -> tensor<12x768xf32>
    %535 = stablehlo.multiply %534, %403 : tensor<12x768xf32>
    %cst_187 = stablehlo.constant dense<0.899999976> : tensor<f32>
    %536 = stablehlo.broadcast_in_dim %cst_187, dims = [] : (tensor<f32>) -> tensor<12x768xf32>
    %537 = stablehlo.multiply %536, %arg40 : tensor<12x768xf32>
    %538 = stablehlo.add %535, %537 : tensor<12x768xf32>
    %cst_188 = stablehlo.constant dense<1.000000e-01> : tensor<f32>
    %539 = stablehlo.broadcast_in_dim %cst_188, dims = [] : (tensor<f32>) -> tensor<12x768x768xf32>
    %540 = stablehlo.multiply %539, %408 : tensor<12x768x768xf32>
    %cst_189 = stablehlo.constant dense<0.899999976> : tensor<f32>
    %541 = stablehlo.broadcast_in_dim %cst_189, dims = [] : (tensor<f32>) -> tensor<12x768x768xf32>
    %542 = stablehlo.multiply %541, %arg41 : tensor<12x768x768xf32>
    %543 = stablehlo.add %540, %542 : tensor<12x768x768xf32>
    %cst_190 = stablehlo.constant dense<1.000000e-01> : tensor<f32>
    %544 = stablehlo.broadcast_in_dim %cst_190, dims = [] : (tensor<f32>) -> tensor<12x768xf32>
    %545 = stablehlo.multiply %544, %413 : tensor<12x768xf32>
    %cst_191 = stablehlo.constant dense<0.899999976> : tensor<f32>
    %546 = stablehlo.broadcast_in_dim %cst_191, dims = [] : (tensor<f32>) -> tensor<12x768xf32>
    %547 = stablehlo.multiply %546, %arg42 : tensor<12x768xf32>
    %548 = stablehlo.add %545, %547 : tensor<12x768xf32>
    %cst_192 = stablehlo.constant dense<1.000000e-01> : tensor<f32>
    %549 = stablehlo.broadcast_in_dim %cst_192, dims = [] : (tensor<f32>) -> tensor<12x768xf32>
    %550 = stablehlo.multiply %549, %418 : tensor<12x768xf32>
    %cst_193 = stablehlo.constant dense<0.899999976> : tensor<f32>
    %551 = stablehlo.broadcast_in_dim %cst_193, dims = [] : (tensor<f32>) -> tensor<12x768xf32>
    %552 = stablehlo.multiply %551, %arg43 : tensor<12x768xf32>
    %553 = stablehlo.add %550, %552 : tensor<12x768xf32>
    %cst_194 = stablehlo.constant dense<1.000000e-01> : tensor<f32>
    %554 = stablehlo.broadcast_in_dim %cst_194, dims = [] : (tensor<f32>) -> tensor<12x768xf32>
    %555 = stablehlo.multiply %554, %423 : tensor<12x768xf32>
    %cst_195 = stablehlo.constant dense<0.899999976> : tensor<f32>
    %556 = stablehlo.broadcast_in_dim %cst_195, dims = [] : (tensor<f32>) -> tensor<12x768xf32>
    %557 = stablehlo.multiply %556, %arg44 : tensor<12x768xf32>
    %558 = stablehlo.add %555, %557 : tensor<12x768xf32>
    %cst_196 = stablehlo.constant dense<1.000000e-01> : tensor<f32>
    %559 = stablehlo.broadcast_in_dim %cst_196, dims = [] : (tensor<f32>) -> tensor<12x3072x768xf32>
    %560 = stablehlo.multiply %559, %428 : tensor<12x3072x768xf32>
    %cst_197 = stablehlo.constant dense<0.899999976> : tensor<f32>
    %561 = stablehlo.broadcast_in_dim %cst_197, dims = [] : (tensor<f32>) -> tensor<12x3072x768xf32>
    %562 = stablehlo.multiply %561, %arg45 : tensor<12x3072x768xf32>
    %563 = stablehlo.add %560, %562 : tensor<12x3072x768xf32>
    %cst_198 = stablehlo.constant dense<1.000000e-01> : tensor<f32>
    %564 = stablehlo.broadcast_in_dim %cst_198, dims = [] : (tensor<f32>) -> tensor<12x3072xf32>
    %565 = stablehlo.multiply %564, %433 : tensor<12x3072xf32>
    %cst_199 = stablehlo.constant dense<0.899999976> : tensor<f32>
    %566 = stablehlo.broadcast_in_dim %cst_199, dims = [] : (tensor<f32>) -> tensor<12x3072xf32>
    %567 = stablehlo.multiply %566, %arg46 : tensor<12x3072xf32>
    %568 = stablehlo.add %565, %567 : tensor<12x3072xf32>
    %cst_200 = stablehlo.constant dense<1.000000e-01> : tensor<f32>
    %569 = stablehlo.broadcast_in_dim %cst_200, dims = [] : (tensor<f32>) -> tensor<12x768x3072xf32>
    %570 = stablehlo.multiply %569, %438 : tensor<12x768x3072xf32>
    %cst_201 = stablehlo.constant dense<0.899999976> : tensor<f32>
    %571 = stablehlo.broadcast_in_dim %cst_201, dims = [] : (tensor<f32>) -> tensor<12x768x3072xf32>
    %572 = stablehlo.multiply %571, %arg47 : tensor<12x768x3072xf32>
    %573 = stablehlo.add %570, %572 : tensor<12x768x3072xf32>
    %cst_202 = stablehlo.constant dense<1.000000e-01> : tensor<f32>
    %574 = stablehlo.broadcast_in_dim %cst_202, dims = [] : (tensor<f32>) -> tensor<12x768xf32>
    %575 = stablehlo.multiply %574, %443 : tensor<12x768xf32>
    %cst_203 = stablehlo.constant dense<0.899999976> : tensor<f32>
    %576 = stablehlo.broadcast_in_dim %cst_203, dims = [] : (tensor<f32>) -> tensor<12x768xf32>
    %577 = stablehlo.multiply %576, %arg48 : tensor<12x768xf32>
    %578 = stablehlo.add %575, %577 : tensor<12x768xf32>
    %cst_204 = stablehlo.constant dense<1.000000e-01> : tensor<f32>
    %579 = stablehlo.broadcast_in_dim %cst_204, dims = [] : (tensor<f32>) -> tensor<12x768xf32>
    %580 = stablehlo.multiply %579, %448 : tensor<12x768xf32>
    %cst_205 = stablehlo.constant dense<0.899999976> : tensor<f32>
    %581 = stablehlo.broadcast_in_dim %cst_205, dims = [] : (tensor<f32>) -> tensor<12x768xf32>
    %582 = stablehlo.multiply %581, %arg49 : tensor<12x768xf32>
    %583 = stablehlo.add %580, %582 : tensor<12x768xf32>
    %cst_206 = stablehlo.constant dense<1.000000e-01> : tensor<f32>
    %584 = stablehlo.broadcast_in_dim %cst_206, dims = [] : (tensor<f32>) -> tensor<12x768xf32>
    %585 = stablehlo.multiply %584, %453 : tensor<12x768xf32>
    %cst_207 = stablehlo.constant dense<0.899999976> : tensor<f32>
    %586 = stablehlo.broadcast_in_dim %cst_207, dims = [] : (tensor<f32>) -> tensor<12x768xf32>
    %587 = stablehlo.multiply %586, %arg50 : tensor<12x768xf32>
    %588 = stablehlo.add %585, %587 : tensor<12x768xf32>
    %cst_208 = stablehlo.constant dense<1.000000e-01> : tensor<f32>
    %589 = stablehlo.broadcast_in_dim %cst_208, dims = [] : (tensor<f32>) -> tensor<768x768xf32>
    %590 = stablehlo.multiply %589, %458 : tensor<768x768xf32>
    %cst_209 = stablehlo.constant dense<0.899999976> : tensor<f32>
    %591 = stablehlo.broadcast_in_dim %cst_209, dims = [] : (tensor<f32>) -> tensor<768x768xf32>
    %592 = stablehlo.multiply %591, %arg51 : tensor<768x768xf32>
    %593 = stablehlo.add %590, %592 : tensor<768x768xf32>
    %cst_210 = stablehlo.constant dense<1.000000e-01> : tensor<f32>
    %594 = stablehlo.broadcast_in_dim %cst_210, dims = [] : (tensor<f32>) -> tensor<768xf32>
    %595 = stablehlo.multiply %594, %463 : tensor<768xf32>
    %cst_211 = stablehlo.constant dense<0.899999976> : tensor<f32>
    %596 = stablehlo.broadcast_in_dim %cst_211, dims = [] : (tensor<f32>) -> tensor<768xf32>
    %597 = stablehlo.multiply %596, %arg52 : tensor<768xf32>
    %598 = stablehlo.add %595, %597 : tensor<768xf32>
    %cst_212 = stablehlo.constant dense<1.000000e-01> : tensor<f32>
    %599 = stablehlo.broadcast_in_dim %cst_212, dims = [] : (tensor<f32>) -> tensor<768xf32>
    %600 = stablehlo.multiply %599, %468 : tensor<768xf32>
    %cst_213 = stablehlo.constant dense<0.899999976> : tensor<f32>
    %601 = stablehlo.broadcast_in_dim %cst_213, dims = [] : (tensor<f32>) -> tensor<768xf32>
    %602 = stablehlo.multiply %601, %arg53 : tensor<768xf32>
    %603 = stablehlo.add %600, %602 : tensor<768xf32>
    %cst_214 = stablehlo.constant dense<1.000000e-01> : tensor<f32>
    %604 = stablehlo.broadcast_in_dim %cst_214, dims = [] : (tensor<f32>) -> tensor<768xf32>
    %605 = stablehlo.multiply %604, %473 : tensor<768xf32>
    %cst_215 = stablehlo.constant dense<0.899999976> : tensor<f32>
    %606 = stablehlo.broadcast_in_dim %cst_215, dims = [] : (tensor<f32>) -> tensor<768xf32>
    %607 = stablehlo.multiply %606, %arg54 : tensor<768xf32>
    %608 = stablehlo.add %605, %607 : tensor<768xf32>
    %cst_216 = stablehlo.constant dense<1.000000e-01> : tensor<f32>
    %609 = stablehlo.broadcast_in_dim %cst_216, dims = [] : (tensor<f32>) -> tensor<30522x768xf32>
    %610 = stablehlo.multiply %609, %478 : tensor<30522x768xf32>
    %cst_217 = stablehlo.constant dense<0.899999976> : tensor<f32>
    %611 = stablehlo.broadcast_in_dim %cst_217, dims = [] : (tensor<f32>) -> tensor<30522x768xf32>
    %612 = stablehlo.multiply %611, %arg55 : tensor<30522x768xf32>
    %613 = stablehlo.add %610, %612 : tensor<30522x768xf32>
    %cst_218 = stablehlo.constant dense<1.000000e-01> : tensor<f32>
    %614 = stablehlo.broadcast_in_dim %cst_218, dims = [] : (tensor<f32>) -> tensor<30522xf32>
    %615 = stablehlo.multiply %614, %483 : tensor<30522xf32>
    %cst_219 = stablehlo.constant dense<0.899999976> : tensor<f32>
    %616 = stablehlo.broadcast_in_dim %cst_219, dims = [] : (tensor<f32>) -> tensor<30522xf32>
    %617 = stablehlo.multiply %616, %arg56 : tensor<30522xf32>
    %618 = stablehlo.add %615, %617 : tensor<30522xf32>
    %619 = stablehlo.multiply %353, %353 : tensor<30522x768xf32>
    %cst_220 = stablehlo.constant dense<5.000000e-02> : tensor<f32>
    %620 = stablehlo.broadcast_in_dim %cst_220, dims = [] : (tensor<f32>) -> tensor<30522x768xf32>
    %621 = stablehlo.multiply %620, %619 : tensor<30522x768xf32>
    %cst_221 = stablehlo.constant dense<0.949999988> : tensor<f32>
    %622 = stablehlo.broadcast_in_dim %cst_221, dims = [] : (tensor<f32>) -> tensor<30522x768xf32>
    %623 = stablehlo.multiply %622, %arg57 : tensor<30522x768xf32>
    %624 = stablehlo.add %621, %623 : tensor<30522x768xf32>
    %625 = stablehlo.multiply %358, %358 : tensor<512x768xf32>
    %cst_222 = stablehlo.constant dense<5.000000e-02> : tensor<f32>
    %626 = stablehlo.broadcast_in_dim %cst_222, dims = [] : (tensor<f32>) -> tensor<512x768xf32>
    %627 = stablehlo.multiply %626, %625 : tensor<512x768xf32>
    %cst_223 = stablehlo.constant dense<0.949999988> : tensor<f32>
    %628 = stablehlo.broadcast_in_dim %cst_223, dims = [] : (tensor<f32>) -> tensor<512x768xf32>
    %629 = stablehlo.multiply %628, %arg58 : tensor<512x768xf32>
    %630 = stablehlo.add %627, %629 : tensor<512x768xf32>
    %631 = stablehlo.multiply %363, %363 : tensor<2x768xf32>
    %cst_224 = stablehlo.constant dense<5.000000e-02> : tensor<f32>
    %632 = stablehlo.broadcast_in_dim %cst_224, dims = [] : (tensor<f32>) -> tensor<2x768xf32>
    %633 = stablehlo.multiply %632, %631 : tensor<2x768xf32>
    %cst_225 = stablehlo.constant dense<0.949999988> : tensor<f32>
    %634 = stablehlo.broadcast_in_dim %cst_225, dims = [] : (tensor<f32>) -> tensor<2x768xf32>
    %635 = stablehlo.multiply %634, %arg59 : tensor<2x768xf32>
    %636 = stablehlo.add %633, %635 : tensor<2x768xf32>
    %637 = stablehlo.multiply %368, %368 : tensor<768xf32>
    %cst_226 = stablehlo.constant dense<5.000000e-02> : tensor<f32>
    %638 = stablehlo.broadcast_in_dim %cst_226, dims = [] : (tensor<f32>) -> tensor<768xf32>
    %639 = stablehlo.multiply %638, %637 : tensor<768xf32>
    %cst_227 = stablehlo.constant dense<0.949999988> : tensor<f32>
    %640 = stablehlo.broadcast_in_dim %cst_227, dims = [] : (tensor<f32>) -> tensor<768xf32>
    %641 = stablehlo.multiply %640, %arg60 : tensor<768xf32>
    %642 = stablehlo.add %639, %641 : tensor<768xf32>
    %643 = stablehlo.multiply %373, %373 : tensor<768xf32>
    %cst_228 = stablehlo.constant dense<5.000000e-02> : tensor<f32>
    %644 = stablehlo.broadcast_in_dim %cst_228, dims = [] : (tensor<f32>) -> tensor<768xf32>
    %645 = stablehlo.multiply %644, %643 : tensor<768xf32>
    %cst_229 = stablehlo.constant dense<0.949999988> : tensor<f32>
    %646 = stablehlo.broadcast_in_dim %cst_229, dims = [] : (tensor<f32>) -> tensor<768xf32>
    %647 = stablehlo.multiply %646, %arg61 : tensor<768xf32>
    %648 = stablehlo.add %645, %647 : tensor<768xf32>
    %649 = stablehlo.multiply %378, %378 : tensor<12x768x768xf32>
    %cst_230 = stablehlo.constant dense<5.000000e-02> : tensor<f32>
    %650 = stablehlo.broadcast_in_dim %cst_230, dims = [] : (tensor<f32>) -> tensor<12x768x768xf32>
    %651 = stablehlo.multiply %650, %649 : tensor<12x768x768xf32>
    %cst_231 = stablehlo.constant dense<0.949999988> : tensor<f32>
    %652 = stablehlo.broadcast_in_dim %cst_231, dims = [] : (tensor<f32>) -> tensor<12x768x768xf32>
    %653 = stablehlo.multiply %652, %arg62 : tensor<12x768x768xf32>
    %654 = stablehlo.add %651, %653 : tensor<12x768x768xf32>
    %655 = stablehlo.multiply %383, %383 : tensor<12x768xf32>
    %cst_232 = stablehlo.constant dense<5.000000e-02> : tensor<f32>
    %656 = stablehlo.broadcast_in_dim %cst_232, dims = [] : (tensor<f32>) -> tensor<12x768xf32>
    %657 = stablehlo.multiply %656, %655 : tensor<12x768xf32>
    %cst_233 = stablehlo.constant dense<0.949999988> : tensor<f32>
    %658 = stablehlo.broadcast_in_dim %cst_233, dims = [] : (tensor<f32>) -> tensor<12x768xf32>
    %659 = stablehlo.multiply %658, %arg63 : tensor<12x768xf32>
    %660 = stablehlo.add %657, %659 : tensor<12x768xf32>
    %661 = stablehlo.multiply %388, %388 : tensor<12x768x768xf32>
    %cst_234 = stablehlo.constant dense<5.000000e-02> : tensor<f32>
    %662 = stablehlo.broadcast_in_dim %cst_234, dims = [] : (tensor<f32>) -> tensor<12x768x768xf32>
    %663 = stablehlo.multiply %662, %661 : tensor<12x768x768xf32>
    %cst_235 = stablehlo.constant dense<0.949999988> : tensor<f32>
    %664 = stablehlo.broadcast_in_dim %cst_235, dims = [] : (tensor<f32>) -> tensor<12x768x768xf32>
    %665 = stablehlo.multiply %664, %arg64 : tensor<12x768x768xf32>
    %666 = stablehlo.add %663, %665 : tensor<12x768x768xf32>
    %667 = stablehlo.multiply %393, %393 : tensor<12x768xf32>
    %cst_236 = stablehlo.constant dense<5.000000e-02> : tensor<f32>
    %668 = stablehlo.broadcast_in_dim %cst_236, dims = [] : (tensor<f32>) -> tensor<12x768xf32>
    %669 = stablehlo.multiply %668, %667 : tensor<12x768xf32>
    %cst_237 = stablehlo.constant dense<0.949999988> : tensor<f32>
    %670 = stablehlo.broadcast_in_dim %cst_237, dims = [] : (tensor<f32>) -> tensor<12x768xf32>
    %671 = stablehlo.multiply %670, %arg65 : tensor<12x768xf32>
    %672 = stablehlo.add %669, %671 : tensor<12x768xf32>
    %673 = stablehlo.multiply %398, %398 : tensor<12x768x768xf32>
    %cst_238 = stablehlo.constant dense<5.000000e-02> : tensor<f32>
    %674 = stablehlo.broadcast_in_dim %cst_238, dims = [] : (tensor<f32>) -> tensor<12x768x768xf32>
    %675 = stablehlo.multiply %674, %673 : tensor<12x768x768xf32>
    %cst_239 = stablehlo.constant dense<0.949999988> : tensor<f32>
    %676 = stablehlo.broadcast_in_dim %cst_239, dims = [] : (tensor<f32>) -> tensor<12x768x768xf32>
    %677 = stablehlo.multiply %676, %arg66 : tensor<12x768x768xf32>
    %678 = stablehlo.add %675, %677 : tensor<12x768x768xf32>
    %679 = stablehlo.multiply %403, %403 : tensor<12x768xf32>
    %cst_240 = stablehlo.constant dense<5.000000e-02> : tensor<f32>
    %680 = stablehlo.broadcast_in_dim %cst_240, dims = [] : (tensor<f32>) -> tensor<12x768xf32>
    %681 = stablehlo.multiply %680, %679 : tensor<12x768xf32>
    %cst_241 = stablehlo.constant dense<0.949999988> : tensor<f32>
    %682 = stablehlo.broadcast_in_dim %cst_241, dims = [] : (tensor<f32>) -> tensor<12x768xf32>
    %683 = stablehlo.multiply %682, %arg67 : tensor<12x768xf32>
    %684 = stablehlo.add %681, %683 : tensor<12x768xf32>
    %685 = stablehlo.multiply %408, %408 : tensor<12x768x768xf32>
    %cst_242 = stablehlo.constant dense<5.000000e-02> : tensor<f32>
    %686 = stablehlo.broadcast_in_dim %cst_242, dims = [] : (tensor<f32>) -> tensor<12x768x768xf32>
    %687 = stablehlo.multiply %686, %685 : tensor<12x768x768xf32>
    %cst_243 = stablehlo.constant dense<0.949999988> : tensor<f32>
    %688 = stablehlo.broadcast_in_dim %cst_243, dims = [] : (tensor<f32>) -> tensor<12x768x768xf32>
    %689 = stablehlo.multiply %688, %arg68 : tensor<12x768x768xf32>
    %690 = stablehlo.add %687, %689 : tensor<12x768x768xf32>
    %691 = stablehlo.multiply %413, %413 : tensor<12x768xf32>
    %cst_244 = stablehlo.constant dense<5.000000e-02> : tensor<f32>
    %692 = stablehlo.broadcast_in_dim %cst_244, dims = [] : (tensor<f32>) -> tensor<12x768xf32>
    %693 = stablehlo.multiply %692, %691 : tensor<12x768xf32>
    %cst_245 = stablehlo.constant dense<0.949999988> : tensor<f32>
    %694 = stablehlo.broadcast_in_dim %cst_245, dims = [] : (tensor<f32>) -> tensor<12x768xf32>
    %695 = stablehlo.multiply %694, %arg69 : tensor<12x768xf32>
    %696 = stablehlo.add %693, %695 : tensor<12x768xf32>
    %697 = stablehlo.multiply %418, %418 : tensor<12x768xf32>
    %cst_246 = stablehlo.constant dense<5.000000e-02> : tensor<f32>
    %698 = stablehlo.broadcast_in_dim %cst_246, dims = [] : (tensor<f32>) -> tensor<12x768xf32>
    %699 = stablehlo.multiply %698, %697 : tensor<12x768xf32>
    %cst_247 = stablehlo.constant dense<0.949999988> : tensor<f32>
    %700 = stablehlo.broadcast_in_dim %cst_247, dims = [] : (tensor<f32>) -> tensor<12x768xf32>
    %701 = stablehlo.multiply %700, %arg70 : tensor<12x768xf32>
    %702 = stablehlo.add %699, %701 : tensor<12x768xf32>
    %703 = stablehlo.multiply %423, %423 : tensor<12x768xf32>
    %cst_248 = stablehlo.constant dense<5.000000e-02> : tensor<f32>
    %704 = stablehlo.broadcast_in_dim %cst_248, dims = [] : (tensor<f32>) -> tensor<12x768xf32>
    %705 = stablehlo.multiply %704, %703 : tensor<12x768xf32>
    %cst_249 = stablehlo.constant dense<0.949999988> : tensor<f32>
    %706 = stablehlo.broadcast_in_dim %cst_249, dims = [] : (tensor<f32>) -> tensor<12x768xf32>
    %707 = stablehlo.multiply %706, %arg71 : tensor<12x768xf32>
    %708 = stablehlo.add %705, %707 : tensor<12x768xf32>
    %709 = stablehlo.multiply %428, %428 : tensor<12x3072x768xf32>
    %cst_250 = stablehlo.constant dense<5.000000e-02> : tensor<f32>
    %710 = stablehlo.broadcast_in_dim %cst_250, dims = [] : (tensor<f32>) -> tensor<12x3072x768xf32>
    %711 = stablehlo.multiply %710, %709 : tensor<12x3072x768xf32>
    %cst_251 = stablehlo.constant dense<0.949999988> : tensor<f32>
    %712 = stablehlo.broadcast_in_dim %cst_251, dims = [] : (tensor<f32>) -> tensor<12x3072x768xf32>
    %713 = stablehlo.multiply %712, %arg72 : tensor<12x3072x768xf32>
    %714 = stablehlo.add %711, %713 : tensor<12x3072x768xf32>
    %715 = stablehlo.multiply %433, %433 : tensor<12x3072xf32>
    %cst_252 = stablehlo.constant dense<5.000000e-02> : tensor<f32>
    %716 = stablehlo.broadcast_in_dim %cst_252, dims = [] : (tensor<f32>) -> tensor<12x3072xf32>
    %717 = stablehlo.multiply %716, %715 : tensor<12x3072xf32>
    %cst_253 = stablehlo.constant dense<0.949999988> : tensor<f32>
    %718 = stablehlo.broadcast_in_dim %cst_253, dims = [] : (tensor<f32>) -> tensor<12x3072xf32>
    %719 = stablehlo.multiply %718, %arg73 : tensor<12x3072xf32>
    %720 = stablehlo.add %717, %719 : tensor<12x3072xf32>
    %721 = stablehlo.multiply %438, %438 : tensor<12x768x3072xf32>
    %cst_254 = stablehlo.constant dense<5.000000e-02> : tensor<f32>
    %722 = stablehlo.broadcast_in_dim %cst_254, dims = [] : (tensor<f32>) -> tensor<12x768x3072xf32>
    %723 = stablehlo.multiply %722, %721 : tensor<12x768x3072xf32>
    %cst_255 = stablehlo.constant dense<0.949999988> : tensor<f32>
    %724 = stablehlo.broadcast_in_dim %cst_255, dims = [] : (tensor<f32>) -> tensor<12x768x3072xf32>
    %725 = stablehlo.multiply %724, %arg74 : tensor<12x768x3072xf32>
    %726 = stablehlo.add %723, %725 : tensor<12x768x3072xf32>
    %727 = stablehlo.multiply %443, %443 : tensor<12x768xf32>
    %cst_256 = stablehlo.constant dense<5.000000e-02> : tensor<f32>
    %728 = stablehlo.broadcast_in_dim %cst_256, dims = [] : (tensor<f32>) -> tensor<12x768xf32>
    %729 = stablehlo.multiply %728, %727 : tensor<12x768xf32>
    %cst_257 = stablehlo.constant dense<0.949999988> : tensor<f32>
    %730 = stablehlo.broadcast_in_dim %cst_257, dims = [] : (tensor<f32>) -> tensor<12x768xf32>
    %731 = stablehlo.multiply %730, %arg75 : tensor<12x768xf32>
    %732 = stablehlo.add %729, %731 : tensor<12x768xf32>
    %733 = stablehlo.multiply %448, %448 : tensor<12x768xf32>
    %cst_258 = stablehlo.constant dense<5.000000e-02> : tensor<f32>
    %734 = stablehlo.broadcast_in_dim %cst_258, dims = [] : (tensor<f32>) -> tensor<12x768xf32>
    %735 = stablehlo.multiply %734, %733 : tensor<12x768xf32>
    %cst_259 = stablehlo.constant dense<0.949999988> : tensor<f32>
    %736 = stablehlo.broadcast_in_dim %cst_259, dims = [] : (tensor<f32>) -> tensor<12x768xf32>
    %737 = stablehlo.multiply %736, %arg76 : tensor<12x768xf32>
    %738 = stablehlo.add %735, %737 : tensor<12x768xf32>
    %739 = stablehlo.multiply %453, %453 : tensor<12x768xf32>
    %cst_260 = stablehlo.constant dense<5.000000e-02> : tensor<f32>
    %740 = stablehlo.broadcast_in_dim %cst_260, dims = [] : (tensor<f32>) -> tensor<12x768xf32>
    %741 = stablehlo.multiply %740, %739 : tensor<12x768xf32>
    %cst_261 = stablehlo.constant dense<0.949999988> : tensor<f32>
    %742 = stablehlo.broadcast_in_dim %cst_261, dims = [] : (tensor<f32>) -> tensor<12x768xf32>
    %743 = stablehlo.multiply %742, %arg77 : tensor<12x768xf32>
    %744 = stablehlo.add %741, %743 : tensor<12x768xf32>
    %745 = stablehlo.multiply %458, %458 : tensor<768x768xf32>
    %cst_262 = stablehlo.constant dense<5.000000e-02> : tensor<f32>
    %746 = stablehlo.broadcast_in_dim %cst_262, dims = [] : (tensor<f32>) -> tensor<768x768xf32>
    %747 = stablehlo.multiply %746, %745 : tensor<768x768xf32>
    %cst_263 = stablehlo.constant dense<0.949999988> : tensor<f32>
    %748 = stablehlo.broadcast_in_dim %cst_263, dims = [] : (tensor<f32>) -> tensor<768x768xf32>
    %749 = stablehlo.multiply %748, %arg78 : tensor<768x768xf32>
    %750 = stablehlo.add %747, %749 : tensor<768x768xf32>
    %751 = stablehlo.multiply %463, %463 : tensor<768xf32>
    %cst_264 = stablehlo.constant dense<5.000000e-02> : tensor<f32>
    %752 = stablehlo.broadcast_in_dim %cst_264, dims = [] : (tensor<f32>) -> tensor<768xf32>
    %753 = stablehlo.multiply %752, %751 : tensor<768xf32>
    %cst_265 = stablehlo.constant dense<0.949999988> : tensor<f32>
    %754 = stablehlo.broadcast_in_dim %cst_265, dims = [] : (tensor<f32>) -> tensor<768xf32>
    %755 = stablehlo.multiply %754, %arg79 : tensor<768xf32>
    %756 = stablehlo.add %753, %755 : tensor<768xf32>
    %757 = stablehlo.multiply %468, %468 : tensor<768xf32>
    %cst_266 = stablehlo.constant dense<5.000000e-02> : tensor<f32>
    %758 = stablehlo.broadcast_in_dim %cst_266, dims = [] : (tensor<f32>) -> tensor<768xf32>
    %759 = stablehlo.multiply %758, %757 : tensor<768xf32>
    %cst_267 = stablehlo.constant dense<0.949999988> : tensor<f32>
    %760 = stablehlo.broadcast_in_dim %cst_267, dims = [] : (tensor<f32>) -> tensor<768xf32>
    %761 = stablehlo.multiply %760, %arg80 : tensor<768xf32>
    %762 = stablehlo.add %759, %761 : tensor<768xf32>
    %763 = stablehlo.multiply %473, %473 : tensor<768xf32>
    %cst_268 = stablehlo.constant dense<5.000000e-02> : tensor<f32>
    %764 = stablehlo.broadcast_in_dim %cst_268, dims = [] : (tensor<f32>) -> tensor<768xf32>
    %765 = stablehlo.multiply %764, %763 : tensor<768xf32>
    %cst_269 = stablehlo.constant dense<0.949999988> : tensor<f32>
    %766 = stablehlo.broadcast_in_dim %cst_269, dims = [] : (tensor<f32>) -> tensor<768xf32>
    %767 = stablehlo.multiply %766, %arg81 : tensor<768xf32>
    %768 = stablehlo.add %765, %767 : tensor<768xf32>
    %769 = stablehlo.multiply %478, %478 : tensor<30522x768xf32>
    %cst_270 = stablehlo.constant dense<5.000000e-02> : tensor<f32>
    %770 = stablehlo.broadcast_in_dim %cst_270, dims = [] : (tensor<f32>) -> tensor<30522x768xf32>
    %771 = stablehlo.multiply %770, %769 : tensor<30522x768xf32>
    %cst_271 = stablehlo.constant dense<0.949999988> : tensor<f32>
    %772 = stablehlo.broadcast_in_dim %cst_271, dims = [] : (tensor<f32>) -> tensor<30522x768xf32>
    %773 = stablehlo.multiply %772, %arg82 : tensor<30522x768xf32>
    %774 = stablehlo.add %771, %773 : tensor<30522x768xf32>
    %775 = stablehlo.multiply %483, %483 : tensor<30522xf32>
    %cst_272 = stablehlo.constant dense<5.000000e-02> : tensor<f32>
    %776 = stablehlo.broadcast_in_dim %cst_272, dims = [] : (tensor<f32>) -> tensor<30522xf32>
    %777 = stablehlo.multiply %776, %775 : tensor<30522xf32>
    %cst_273 = stablehlo.constant dense<0.949999988> : tensor<f32>
    %778 = stablehlo.broadcast_in_dim %cst_273, dims = [] : (tensor<f32>) -> tensor<30522xf32>
    %779 = stablehlo.multiply %778, %arg83 : tensor<30522xf32>
    %780 = stablehlo.add %777, %779 : tensor<30522xf32>
    %c_274 = stablehlo.constant dense<2147483647> : tensor<i32>
    %781 = stablehlo.compare  LT, %arg29, %c_274,  SIGNED : (tensor<i32>, tensor<i32>) -> tensor<i1>
    %c_275 = stablehlo.constant dense<1> : tensor<i32>
    %782 = stablehlo.add %arg29, %c_275 : tensor<i32>
    %c_276 = stablehlo.constant dense<2147483647> : tensor<i32>
    %783 = call @_where_192(%781, %782, %c_276) : (tensor<i1>, tensor<i32>, tensor<i32>) -> tensor<i32>
    %cst_277 = stablehlo.constant dense<0.899999976> : tensor<f32>
    %784 = stablehlo.convert %783 : (tensor<i32>) -> tensor<f32>
    %785 = stablehlo.power %cst_277, %784 : tensor<f32>
    %cst_278 = stablehlo.constant dense<1.000000e+00> : tensor<f32>
    %786 = stablehlo.subtract %cst_278, %785 : tensor<f32>
    %787 = stablehlo.broadcast_in_dim %786, dims = [] : (tensor<f32>) -> tensor<30522x768xf32>
    %788 = stablehlo.divide %488, %787 : tensor<30522x768xf32>
    %789 = stablehlo.broadcast_in_dim %786, dims = [] : (tensor<f32>) -> tensor<512x768xf32>
    %790 = stablehlo.divide %493, %789 : tensor<512x768xf32>
    %791 = stablehlo.broadcast_in_dim %786, dims = [] : (tensor<f32>) -> tensor<2x768xf32>
    %792 = stablehlo.divide %498, %791 : tensor<2x768xf32>
    %793 = stablehlo.broadcast_in_dim %786, dims = [] : (tensor<f32>) -> tensor<768xf32>
    %794 = stablehlo.divide %503, %793 : tensor<768xf32>
    %795 = stablehlo.broadcast_in_dim %786, dims = [] : (tensor<f32>) -> tensor<768xf32>
    %796 = stablehlo.divide %508, %795 : tensor<768xf32>
    %797 = stablehlo.broadcast_in_dim %786, dims = [] : (tensor<f32>) -> tensor<12x768x768xf32>
    %798 = stablehlo.divide %513, %797 : tensor<12x768x768xf32>
    %799 = stablehlo.broadcast_in_dim %786, dims = [] : (tensor<f32>) -> tensor<12x768xf32>
    %800 = stablehlo.divide %518, %799 : tensor<12x768xf32>
    %801 = stablehlo.broadcast_in_dim %786, dims = [] : (tensor<f32>) -> tensor<12x768x768xf32>
    %802 = stablehlo.divide %523, %801 : tensor<12x768x768xf32>
    %803 = stablehlo.broadcast_in_dim %786, dims = [] : (tensor<f32>) -> tensor<12x768xf32>
    %804 = stablehlo.divide %528, %803 : tensor<12x768xf32>
    %805 = stablehlo.broadcast_in_dim %786, dims = [] : (tensor<f32>) -> tensor<12x768x768xf32>
    %806 = stablehlo.divide %533, %805 : tensor<12x768x768xf32>
    %807 = stablehlo.broadcast_in_dim %786, dims = [] : (tensor<f32>) -> tensor<12x768xf32>
    %808 = stablehlo.divide %538, %807 : tensor<12x768xf32>
    %809 = stablehlo.broadcast_in_dim %786, dims = [] : (tensor<f32>) -> tensor<12x768x768xf32>
    %810 = stablehlo.divide %543, %809 : tensor<12x768x768xf32>
    %811 = stablehlo.broadcast_in_dim %786, dims = [] : (tensor<f32>) -> tensor<12x768xf32>
    %812 = stablehlo.divide %548, %811 : tensor<12x768xf32>
    %813 = stablehlo.broadcast_in_dim %786, dims = [] : (tensor<f32>) -> tensor<12x768xf32>
    %814 = stablehlo.divide %553, %813 : tensor<12x768xf32>
    %815 = stablehlo.broadcast_in_dim %786, dims = [] : (tensor<f32>) -> tensor<12x768xf32>
    %816 = stablehlo.divide %558, %815 : tensor<12x768xf32>
    %817 = stablehlo.broadcast_in_dim %786, dims = [] : (tensor<f32>) -> tensor<12x3072x768xf32>
    %818 = stablehlo.divide %563, %817 : tensor<12x3072x768xf32>
    %819 = stablehlo.broadcast_in_dim %786, dims = [] : (tensor<f32>) -> tensor<12x3072xf32>
    %820 = stablehlo.divide %568, %819 : tensor<12x3072xf32>
    %821 = stablehlo.broadcast_in_dim %786, dims = [] : (tensor<f32>) -> tensor<12x768x3072xf32>
    %822 = stablehlo.divide %573, %821 : tensor<12x768x3072xf32>
    %823 = stablehlo.broadcast_in_dim %786, dims = [] : (tensor<f32>) -> tensor<12x768xf32>
    %824 = stablehlo.divide %578, %823 : tensor<12x768xf32>
    %825 = stablehlo.broadcast_in_dim %786, dims = [] : (tensor<f32>) -> tensor<12x768xf32>
    %826 = stablehlo.divide %583, %825 : tensor<12x768xf32>
    %827 = stablehlo.broadcast_in_dim %786, dims = [] : (tensor<f32>) -> tensor<12x768xf32>
    %828 = stablehlo.divide %588, %827 : tensor<12x768xf32>
    %829 = stablehlo.broadcast_in_dim %786, dims = [] : (tensor<f32>) -> tensor<768x768xf32>
    %830 = stablehlo.divide %593, %829 : tensor<768x768xf32>
    %831 = stablehlo.broadcast_in_dim %786, dims = [] : (tensor<f32>) -> tensor<768xf32>
    %832 = stablehlo.divide %598, %831 : tensor<768xf32>
    %833 = stablehlo.broadcast_in_dim %786, dims = [] : (tensor<f32>) -> tensor<768xf32>
    %834 = stablehlo.divide %603, %833 : tensor<768xf32>
    %835 = stablehlo.broadcast_in_dim %786, dims = [] : (tensor<f32>) -> tensor<768xf32>
    %836 = stablehlo.divide %608, %835 : tensor<768xf32>
    %837 = stablehlo.broadcast_in_dim %786, dims = [] : (tensor<f32>) -> tensor<30522x768xf32>
    %838 = stablehlo.divide %613, %837 : tensor<30522x768xf32>
    %839 = stablehlo.broadcast_in_dim %786, dims = [] : (tensor<f32>) -> tensor<30522xf32>
    %840 = stablehlo.divide %618, %839 : tensor<30522xf32>
    %cst_279 = stablehlo.constant dense<0.949999988> : tensor<f32>
    %841 = stablehlo.convert %783 : (tensor<i32>) -> tensor<f32>
    %842 = stablehlo.power %cst_279, %841 : tensor<f32>
    %cst_280 = stablehlo.constant dense<1.000000e+00> : tensor<f32>
    %843 = stablehlo.subtract %cst_280, %842 : tensor<f32>
    %844 = stablehlo.broadcast_in_dim %843, dims = [] : (tensor<f32>) -> tensor<30522x768xf32>
    %845 = stablehlo.divide %624, %844 : tensor<30522x768xf32>
    %846 = stablehlo.broadcast_in_dim %843, dims = [] : (tensor<f32>) -> tensor<512x768xf32>
    %847 = stablehlo.divide %630, %846 : tensor<512x768xf32>
    %848 = stablehlo.broadcast_in_dim %843, dims = [] : (tensor<f32>) -> tensor<2x768xf32>
    %849 = stablehlo.divide %636, %848 : tensor<2x768xf32>
    %850 = stablehlo.broadcast_in_dim %843, dims = [] : (tensor<f32>) -> tensor<768xf32>
    %851 = stablehlo.divide %642, %850 : tensor<768xf32>
    %852 = stablehlo.broadcast_in_dim %843, dims = [] : (tensor<f32>) -> tensor<768xf32>
    %853 = stablehlo.divide %648, %852 : tensor<768xf32>
    %854 = stablehlo.broadcast_in_dim %843, dims = [] : (tensor<f32>) -> tensor<12x768x768xf32>
    %855 = stablehlo.divide %654, %854 : tensor<12x768x768xf32>
    %856 = stablehlo.broadcast_in_dim %843, dims = [] : (tensor<f32>) -> tensor<12x768xf32>
    %857 = stablehlo.divide %660, %856 : tensor<12x768xf32>
    %858 = stablehlo.broadcast_in_dim %843, dims = [] : (tensor<f32>) -> tensor<12x768x768xf32>
    %859 = stablehlo.divide %666, %858 : tensor<12x768x768xf32>
…
    %1162 = stablehlo.multiply %1161, %1092 : tensor<12x768xf32>
    %1163 = stablehlo.broadcast_in_dim %265, dims = [] : (tensor<f32>) -> tensor<12x768x768xf32>
    %1164 = stablehlo.multiply %1163, %1095 : tensor<12x768x768xf32>
    %1165 = stablehlo.broadcast_in_dim %265, dims = [] : (tensor<f32>) -> tensor<12x768xf32>
    %1166 = stablehlo.multiply %1165, %1098 : tensor<12x768xf32>
    %1167 = stablehlo.broadcast_in_dim %265, dims = [] : (tensor<f32>) -> tensor<12x768xf32>
    %1168 = stablehlo.multiply %1167, %1101 : tensor<12x768xf32>
    %1169 = stablehlo.broadcast_in_dim %265, dims = [] : (tensor<f32>) -> tensor<12x768xf32>
    %1170 = stablehlo.multiply %1169, %1104 : tensor<12x768xf32>
    %1171 = stablehlo.broadcast_in_dim %265, dims = [] : (tensor<f32>) -> tensor<12x3072x768xf32>
    %1172 = stablehlo.multiply %1171, %1107 : tensor<12x3072x768xf32>
    %1173 = stablehlo.broadcast_in_dim %265, dims = [] : (tensor<f32>) -> tensor<12x3072xf32>
    %1174 = stablehlo.multiply %1173, %1110 : tensor<12x3072xf32>
    %1175 = stablehlo.broadcast_in_dim %265, dims = [] : (tensor<f32>) -> tensor<12x768x3072xf32>
    %1176 = stablehlo.multiply %1175, %1113 : tensor<12x768x3072xf32>
    %1177 = stablehlo.broadcast_in_dim %265, dims = [] : (tensor<f32>) -> tensor<12x768xf32>
    %1178 = stablehlo.multiply %1177, %1116 : tensor<12x768xf32>
    %1179 = stablehlo.broadcast_in_dim %265, dims = [] : (tensor<f32>) -> tensor<12x768xf32>
    %1180 = stablehlo.multiply %1179, %1119 : tensor<12x768xf32>
    %1181 = stablehlo.broadcast_in_dim %265, dims = [] : (tensor<f32>) -> tensor<12x768xf32>
    %1182 = stablehlo.multiply %1181, %1122 : tensor<12x768xf32>
    %1183 = stablehlo.broadcast_in_dim %265, dims = [] : (tensor<f32>) -> tensor<768x768xf32>
    %1184 = stablehlo.multiply %1183, %1125 : tensor<768x768xf32>
    %1185 = stablehlo.broadcast_in_dim %265, dims = [] : (tensor<f32>) -> tensor<768xf32>
    %1186 = stablehlo.multiply %1185, %1128 : tensor<768xf32>
    %1187 = stablehlo.broadcast_in_dim %265, dims = [] : (tensor<f32>) -> tensor<768xf32>
    %1188 = stablehlo.multiply %1187, %1131 : tensor<768xf32>
    %1189 = stablehlo.broadcast_in_dim %265, dims = [] : (tensor<f32>) -> tensor<768xf32>
    %1190 = stablehlo.multiply %1189, %1134 : tensor<768xf32>
    %1191 = stablehlo.broadcast_in_dim %265, dims = [] : (tensor<f32>) -> tensor<30522x768xf32>
    %1192 = stablehlo.multiply %1191, %1137 : tensor<30522x768xf32>
    %1193 = stablehlo.broadcast_in_dim %265, dims = [] : (tensor<f32>) -> tensor<30522xf32>
    %1194 = stablehlo.multiply %1193, %1140 : tensor<30522xf32>
    %c_362 = stablehlo.constant dense<2147483647> : tensor<i32>
    %1195 = stablehlo.compare  LT, %arg27, %c_362,  SIGNED : (tensor<i32>, tensor<i32>) -> tensor<i1>
    %c_363 = stablehlo.constant dense<1> : tensor<i32>
    %1196 = stablehlo.add %arg27, %c_363 : tensor<i32>
    %c_364 = stablehlo.constant dense<2147483647> : tensor<i32>
    %1197 = call @_where_192(%1195, %1196, %c_364) : (tensor<i1>, tensor<i32>, tensor<i32>) -> tensor<i32>
    %1198 = stablehlo.add %arg0, %1142 : tensor<30522x768xf32>
    %1199 = stablehlo.add %arg1, %1144 : tensor<512x768xf32>
    %1200 = stablehlo.add %arg2, %1146 : tensor<2x768xf32>
    %1201 = stablehlo.add %arg3, %1148 : tensor<768xf32>
    %1202 = stablehlo.add %arg4, %1150 : tensor<768xf32>
    %1203 = stablehlo.add %arg5, %1152 : tensor<12x768x768xf32>
    %1204 = stablehlo.add %arg6, %1154 : tensor<12x768xf32>
    %1205 = stablehlo.add %arg7, %1156 : tensor<12x768x768xf32>
    %1206 = stablehlo.add %arg8, %1158 : tensor<12x768xf32>
    %1207 = stablehlo.add %arg9, %1160 : tensor<12x768x768xf32>
    %1208 = stablehlo.add %arg10, %1162 : tensor<12x768xf32>
    %1209 = stablehlo.add %arg11, %1164 : tensor<12x768x768xf32>
    %1210 = stablehlo.add %arg12, %1166 : tensor<12x768xf32>
    %1211 = stablehlo.add %arg13, %1168 : tensor<12x768xf32>
    %1212 = stablehlo.add %arg14, %1170 : tensor<12x768xf32>
    %1213 = stablehlo.add %arg15, %1172 : tensor<12x3072x768xf32>
    %1214 = stablehlo.add %arg16, %1174 : tensor<12x3072xf32>
    %1215 = stablehlo.add %arg17, %1176 : tensor<12x768x3072xf32>
    %1216 = stablehlo.add %arg18, %1178 : tensor<12x768xf32>
    %1217 = stablehlo.add %arg19, %1180 : tensor<12x768xf32>
    %1218 = stablehlo.add %arg20, %1182 : tensor<12x768xf32>
    %1219 = stablehlo.add %arg21, %1184 : tensor<768x768xf32>
    %1220 = stablehlo.add %arg22, %1186 : tensor<768xf32>
    %1221 = stablehlo.add %arg23, %1188 : tensor<768xf32>
    %1222 = stablehlo.add %arg24, %1190 : tensor<768xf32>
    %1223 = stablehlo.add %arg25, %1192 : tensor<30522x768xf32>
    %1224 = stablehlo.add %arg26, %1194 : tensor<30522xf32>
    %c_365 = stablehlo.constant dense<0> : tensor<i32>
    return %c_365, %1198, %1199, %1200, %1201, %1202, %1203, %1204, %1205, %1206, %1207, %1208, %1209, %1210, %1211, %1212, %1213, %1214, %1215, %1216, %1217, %1218, %1219, %1220, %1221, %1222, %1223, %1224, %1197, %261, %264, %783, %488, %493, %498, %503, %508, %513, %518, %523, %528, %533, %538, %543, %548, %553, %558, %563, %568, %573, %578, %583, %588, %593, %598, %603, %608, %613, %618, %624, %630, %636, %642, %648, %654, %660, %666, %672, %678, %684, %690, %696, %702, %708, %714, %720, %726, %732, %738, %744, %750, %756, %762, %768, %774, %780, %138, %133, %131, %133, %133 : tensor<i32>, tensor<30522x768xf32>, tensor<512x768xf32>, tensor<2x768xf32>, tensor<768xf32>, tensor<768xf32>, tensor<12x768x768xf32>, tensor<12x768xf32>, tensor<12x768x768xf32>, tensor<12x768xf32>, tensor<12x768x768xf32>, tensor<12x768xf32>, tensor<12x768x768xf32>, tensor<12x768xf32>, tensor<12x768xf32>, tensor<12x768xf32>, tensor<12x3072x768xf32>, tensor<12x3072xf32>, tensor<12x768x3072xf32>, tensor<12x768xf32>, tensor<12x768xf32>, tensor<12x768xf32>, tensor<768x768xf32>, tensor<768xf32>, tensor<768xf32>, tensor<768xf32>, tensor<30522x768xf32>, tensor<30522xf32>, tensor<i32>, tensor<f32>, tensor<i32>, tensor<i32>, tensor<30522x768xf32>, tensor<512x768xf32>, tensor<2x768xf32>, tensor<768xf32>, tensor<768xf32>, tensor<12x768x768xf32>, tensor<12x768xf32>, tensor<12x768x768xf32>, tensor<12x768xf32>, tensor<12x768x768xf32>, tensor<12x768xf32>, tensor<12x768x768xf32>, tensor<12x768xf32>, tensor<12x768xf32>, tensor<12x768xf32>, tensor<12x3072x768xf32>, tensor<12x3072xf32>, tensor<12x768x3072xf32>, tensor<12x768xf32>, tensor<12x768xf32>, tensor<12x768xf32>, tensor<768x768xf32>, tensor<768xf32>, tensor<768xf32>, tensor<768xf32>, tensor<30522x768xf32>, tensor<30522xf32>, tensor<30522x768xf32>, tensor<512x768xf32>, tensor<2x768xf32>, tensor<768xf32>, tensor<768xf32>, tensor<12x768x768xf32>, tensor<12x768xf32>, tensor<12x768x768xf32>, tensor<12x768xf32>, tensor<12x768x768xf32>, tensor<12x768xf32>, tensor<12x768x768xf32>, tensor<12x768xf32>, tensor<12x768xf32>, tensor<12x768xf32>, tensor<12x3072x768xf32>, tensor<12x3072xf32>, tensor<12x768x3072xf32>, tensor<12x768xf32>, tensor<12x768xf32>, tensor<12x768xf32>, tensor<768x768xf32>, tensor<768xf32>, tensor<768xf32>, tensor<768xf32>, tensor<30522x768xf32>, tensor<30522xf32>, tensor<i32>, tensor<i32>, tensor<f32>, tensor<i32>, tensor<i32>
  }
  func.func private @_take(%arg0: tensor<30522x768xf32>, %arg1: tensor<64x512xi32>) -> (tensor<64x512x768xf32>, tensor<64x512x1xi32>) {
    %c = stablehlo.constant dense<0> : tensor<i32>
    %0 = stablehlo.broadcast_in_dim %c, dims = [] : (tensor<i32>) -> tensor<64x512xi32>
    %1 = stablehlo.compare  LT, %arg1, %0,  SIGNED : (tensor<64x512xi32>, tensor<64x512xi32>) -> tensor<64x512xi1>
    %c_0 = stablehlo.constant dense<30522> : tensor<i32>
    %2 = stablehlo.broadcast_in_dim %c_0, dims = [] : (tensor<i32>) -> tensor<64x512xi32>
    %3 = stablehlo.add %arg1, %2 : tensor<64x512xi32>
    %4 = call @_where(%1, %3, %arg1) : (tensor<64x512xi1>, tensor<64x512xi32>, tensor<64x512xi32>) -> tensor<64x512xi32>
    %5 = stablehlo.broadcast_in_dim %4, dims = [0, 1] : (tensor<64x512xi32>) -> tensor<64x512x1xi32>
    %c_1 = stablehlo.constant dense<30521> : tensor<1xi32>
    %c_2 = stablehlo.constant dense<0> : tensor<i32>
    %6 = stablehlo.broadcast_in_dim %c_2, dims = [] : (tensor<i32>) -> tensor<64x512x1xi32>
    %7 = stablehlo.compare  GE, %5, %6,  SIGNED : (tensor<64x512x1xi32>, tensor<64x512x1xi32>) -> tensor<64x512x1xi1>
    %8 = stablehlo.broadcast_in_dim %c_1, dims = [2] : (tensor<1xi32>) -> tensor<1x1x1xi32>
    %9 = stablehlo.broadcast_in_dim %8, dims = [0, 1, 2] : (tensor<1x1x1xi32>) -> tensor<64x512x1xi32>
    %10 = stablehlo.compare  LE, %5, %9,  SIGNED : (tensor<64x512x1xi32>, tensor<64x512x1xi32>) -> tensor<64x512x1xi1>
    %11 = stablehlo.and %7, %10 : tensor<64x512x1xi1>
    %c_3 = stablehlo.constant dense<true> : tensor<i1>
    %12 = stablehlo.reduce(%11 init: %c_3) applies stablehlo.and across dimensions = [2] : (tensor<64x512x1xi1>, tensor<i1>) -> tensor<64x512xi1>
    %13 = "stablehlo.gather"(%arg0, %5) <{dimension_numbers = #stablehlo.gather<offset_dims = [2], collapsed_slice_dims = [0], start_index_map = [0], index_vector_dim = 2>, indices_are_sorted = false, slice_sizes = array<i64: 1, 768>}> : (tensor<30522x768xf32>, tensor<64x512x1xi32>) -> tensor<64x512x768xf32>
    %14 = stablehlo.broadcast_in_dim %12, dims = [0, 1] : (tensor<64x512xi1>) -> tensor<64x512x768xi1>
    %cst = stablehlo.constant dense<0x7FC00000> : tensor<f32>
    %15 = stablehlo.broadcast_in_dim %cst, dims = [] : (tensor<f32>) -> tensor<64x512x768xf32>
    %16 = stablehlo.select %14, %13, %15 : tensor<64x512x768xi1>, tensor<64x512x768xf32>
    return %16, %5 : tensor<64x512x768xf32>, tensor<64x512x1xi32>
  }
  func.func private @_where(%arg0: tensor<64x512xi1>, %arg1: tensor<64x512xi32>, %arg2: tensor<64x512xi32>) -> tensor<64x512xi32> {
    %0 = stablehlo.select %arg0, %arg1, %arg2 : tensor<64x512xi1>, tensor<64x512xi32>
    return %0 : tensor<64x512xi32>
  }
  func.func private @_take_5(%arg0: tensor<512x768xf32>, %arg1: tensor<64x512xi32>) -> (tensor<64x512x768xf32>, tensor<64x512x1xi32>) {
    %c = stablehlo.constant dense<0> : tensor<i32>
    %0 = stablehlo.broadcast_in_dim %c, dims = [] : (tensor<i32>) -> tensor<64x512xi32>
    %1 = stablehlo.compare  LT, %arg1, %0,  SIGNED : (tensor<64x512xi32>, tensor<64x512xi32>) -> tensor<64x512xi1>
    %c_0 = stablehlo.constant dense<512> : tensor<i32>
    %2 = stablehlo.broadcast_in_dim %c_0, dims = [] : (tensor<i32>) -> tensor<64x512xi32>
    %3 = stablehlo.add %arg1, %2 : tensor<64x512xi32>
    %4 = call @_where(%1, %3, %arg1) : (tensor<64x512xi1>, tensor<64x512xi32>, tensor<64x512xi32>) -> tensor<64x512xi32>
    %5 = stablehlo.broadcast_in_dim %4, dims = [0, 1] : (tensor<64x512xi32>) -> tensor<64x512x1xi32>
    %c_1 = stablehlo.constant dense<511> : tensor<1xi32>
    %c_2 = stablehlo.constant dense<0> : tensor<i32>
    %6 = stablehlo.broadcast_in_dim %c_2, dims = [] : (tensor<i32>) -> tensor<64x512x1xi32>
    %7 = stablehlo.compare  GE, %5, %6,  SIGNED : (tensor<64x512x1xi32>, tensor<64x512x1xi32>) -> tensor<64x512x1xi1>
    %8 = stablehlo.broadcast_in_dim %c_1, dims = [2] : (tensor<1xi32>) -> tensor<1x1x1xi32>
    %9 = stablehlo.broadcast_in_dim %8, dims = [0, 1, 2] : (tensor<1x1x1xi32>) -> tensor<64x512x1xi32>
    %10 = stablehlo.compare  LE, %5, %9,  SIGNED : (tensor<64x512x1xi32>, tensor<64x512x1xi32>) -> tensor<64x512x1xi1>
    %11 = stablehlo.and %7, %10 : tensor<64x512x1xi1>
    %c_3 = stablehlo.constant dense<true> : tensor<i1>
    %12 = stablehlo.reduce(%11 init: %c_3) applies stablehlo.and across dimensions = [2] : (tensor<64x512x1xi1>, tensor<i1>) -> tensor<64x512xi1>
    %13 = "stablehlo.gather"(%arg0, %5) <{dimension_numbers = #stablehlo.gather<offset_dims = [2], collapsed_slice_dims = [0], start_index_map = [0], index_vector_dim = 2>, indices_are_sorted = false, slice_sizes = array<i64: 1, 768>}> : (tensor<512x768xf32>, tensor<64x512x1xi32>) -> tensor<64x512x768xf32>
    %14 = stablehlo.broadcast_in_dim %12, dims = [0, 1] : (tensor<64x512xi1>) -> tensor<64x512x768xi1>
    %cst = stablehlo.constant dense<0x7FC00000> : tensor<f32>
    %15 = stablehlo.broadcast_in_dim %cst, dims = [] : (tensor<f32>) -> tensor<64x512x768xf32>
    %16 = stablehlo.select %14, %13, %15 : tensor<64x512x768xi1>, tensor<64x512x768xf32>
    return %16, %5 : tensor<64x512x768xf32>, tensor<64x512x1xi32>
  }
  func.func private @_take_9(%arg0: tensor<2x768xf32>, %arg1: tensor<64x512xi32>) -> (tensor<64x512x768xf32>, tensor<64x512x1xi32>) {
    %c = stablehlo.constant dense<0> : tensor<i32>
    %0 = stablehlo.broadcast_in_dim %c, dims = [] : (tensor<i32>) -> tensor<64x512xi32>
    %1 = stablehlo.compare  LT, %arg1, %0,  SIGNED : (tensor<64x512xi32>, tensor<64x512xi32>) -> tensor<64x512xi1>
    %c_0 = stablehlo.constant dense<2> : tensor<i32>
    %2 = stablehlo.broadcast_in_dim %c_0, dims = [] : (tensor<i32>) -> tensor<64x512xi32>
    %3 = stablehlo.add %arg1, %2 : tensor<64x512xi32>
    %4 = call @_where(%1, %3, %arg1) : (tensor<64x512xi1>, tensor<64x512xi32>, tensor<64x512xi32>) -> tensor<64x512xi32>
    %5 = stablehlo.broadcast_in_dim %4, dims = [0, 1] : (tensor<64x512xi32>) -> tensor<64x512x1xi32>
    %c_1 = stablehlo.constant dense<1> : tensor<1xi32>
    %c_2 = stablehlo.constant dense<0> : tensor<i32>
    %6 = stablehlo.broadcast_in_dim %c_2, dims = [] : (tensor<i32>) -> tensor<64x512x1xi32>
    %7 = stablehlo.compare  GE, %5, %6,  SIGNED : (tensor<64x512x1xi32>, tensor<64x512x1xi32>) -> tensor<64x512x1xi1>
    %8 = stablehlo.broadcast_in_dim %c_1, dims = [2] : (tensor<1xi32>) -> tensor<1x1x1xi32>
    %9 = stablehlo.broadcast_in_dim %8, dims = [0, 1, 2] : (tensor<1x1x1xi32>) -> tensor<64x512x1xi32>
    %10 = stablehlo.compare  LE, %5, %9,  SIGNED : (tensor<64x512x1xi32>, tensor<64x512x1xi32>) -> tensor<64x512x1xi1>
    %11 = stablehlo.and %7, %10 : tensor<64x512x1xi1>
    %c_3 = stablehlo.constant dense<true> : tensor<i1>
    %12 = stablehlo.reduce(%11 init: %c_3) applies stablehlo.and across dimensions = [2] : (tensor<64x512x1xi1>, tensor<i1>) -> tensor<64x512xi1>
    %13 = "stablehlo.gather"(%arg0, %5) <{dimension_numbers = #stablehlo.gather<offset_dims = [2], collapsed_slice_dims = [0], start_index_map = [0], index_vector_dim = 2>, indices_are_sorted = false, slice_sizes = array<i64: 1, 768>}> : (tensor<2x768xf32>, tensor<64x512x1xi32>) -> tensor<64x512x768xf32>
    %14 = stablehlo.broadcast_in_dim %12, dims = [0, 1] : (tensor<64x512xi1>) -> tensor<64x512x768xi1>
    %cst = stablehlo.constant dense<0x7FC00000> : tensor<f32>
    %15 = stablehlo.broadcast_in_dim %cst, dims = [] : (tensor<f32>) -> tensor<64x512x768xf32>
    %16 = stablehlo.select %14, %13, %15 : tensor<64x512x768xi1>, tensor<64x512x768xf32>
    return %16, %5 : tensor<64x512x768xf32>, tensor<64x512x1xi32>
  }
  func.func private @closed_call(%arg0: tensor<64x512x12x512xf32>, %arg1: tensor<64x512x768xf32>, %arg2: tensor<768x768xf32>, %arg3: tensor<768xf32>, %arg4: tensor<768x768xf32>, %arg5: tensor<768xf32>, %arg6: tensor<768xf32>, %arg7: tensor<768xf32>, %arg8: tensor<3072x768xf32>, %arg9: tensor<3072xf32>, %arg10: tensor<768x3072xf32>, %arg11: tensor<768xf32>, %arg12: tensor<768xf32>, %arg13: tensor<768xf32>) -> (tensor<64x512x768xf32>, tensor<64x512x768xf32>, tensor<768x768xf32>, tensor<768x768xf32>, tensor<64x512x768xf32>, tensor<64x512x768xf32>, tensor<64x512x1xf32>, tensor<64x512x1xf32>, tensor<64x512x768xf32>, tensor<64x512x768xf32>, tensor<1x1x768xf32>, tensor<768x3072xf32>, tensor<64x512x768xf32>, tensor<64x512x3072xf32>, tensor<64x512x3072xf32>, tensor<64x512x3072xf32>, tensor<64x512x3072xf32>, tensor<64x512x3072xf32>, tensor<3072x768xf32>, tensor<64x512x3072xf32>, tensor<64x512x768xf32>, tensor<64x512x1xf32>, tensor<64x512x1xf32>, tensor<64x512x768xf32>, tensor<64x512x768xf32>, tensor<1x1x768xf32>) {
    %0 = stablehlo.transpose %arg2, dims = [1, 0] : (tensor<768x768xf32>) -> tensor<768x768xf32>
    %1 = stablehlo.dot_general %arg1, %0, contracting_dims = [2] x [0], precision = [DEFAULT, DEFAULT] : (tensor<64x512x768xf32>, tensor<768x768xf32>) -> tensor<64x512x768xf32>
    %2 = stablehlo.broadcast_in_dim %arg3, dims = [2] : (tensor<768xf32>) -> tensor<1x1x768xf32>
    %3 = stablehlo.broadcast_in_dim %2, dims = [0, 1, 2] : (tensor<1x1x768xf32>) -> tensor<64x512x768xf32>
    %4 = stablehlo.add %1, %3 : tensor<64x512x768xf32>
    %5 = stablehlo.reshape %4 : (tensor<64x512x768xf32>) -> tensor<64x512x12x64xf32>
    %6 = stablehlo.dot_general %5, %arg0, batching_dims = [0, 2] x [0, 2], contracting_dims = [1] x [3], precision = [DEFAULT, DEFAULT] : (tensor<64x512x12x64xf32>, tensor<64x512x12x512xf32>) -> tensor<64x12x64x512xf32>
    %7 = stablehlo.transpose %6, dims = [0, 3, 1, 2] : (tensor<64x12x64x512xf32>) -> tensor<64x512x12x64xf32>
    %8 = stablehlo.reshape %7 : (tensor<64x512x12x64xf32>) -> tensor<64x512x768xf32>
    %9 = stablehlo.transpose %arg4, dims = [1, 0] : (tensor<768x768xf32>) -> tensor<768x768xf32>
    %10 = stablehlo.dot_general %8, %9, contracting_dims = [2] x [0], precision = [DEFAULT, DEFAULT] : (tensor<64x512x768xf32>, tensor<768x768xf32>) -> tensor<64x512x768xf32>
    %11 = stablehlo.broadcast_in_dim %arg5, dims = [2] : (tensor<768xf32>) -> tensor<1x1x768xf32>
    %12 = stablehlo.broadcast_in_dim %11, dims = [0, 1, 2] : (tensor<1x1x768xf32>) -> tensor<64x512x768xf32>
    %13 = stablehlo.add %10, %12 : tensor<64x512x768xf32>
    %14 = stablehlo.add %13, %arg1 : tensor<64x512x768xf32>
    %cst = stablehlo.constant dense<0.000000e+00> : tensor<f32>
    %15 = stablehlo.reduce(%14 init: %cst) applies stablehlo.add across dimensions = [2] : (tensor<64x512x768xf32>, tensor<f32>) -> tensor<64x512xf32>
    %16 = stablehlo.broadcast_in_dim %15, dims = [0, 1] : (tensor<64x512xf32>) -> tensor<64x512x1xf32>
    %cst_0 = stablehlo.constant dense<7.680000e+02> : tensor<f32>
    %17 = stablehlo.broadcast_in_dim %cst_0, dims = [] : (tensor<f32>) -> tensor<64x512x1xf32>
    %18 = stablehlo.divide %16, %17 : tensor<64x512x1xf32>
    %19 = stablehlo.broadcast_in_dim %18, dims = [0, 1, 2] : (tensor<64x512x1xf32>) -> tensor<64x512x768xf32>
    %20 = stablehlo.subtract %14, %19 : tensor<64x512x768xf32>
    %21 = stablehlo.multiply %20, %20 : tensor<64x512x768xf32>
    %cst_1 = stablehlo.constant dense<2.000000e+00> : tensor<f32>
    %22 = stablehlo.broadcast_in_dim %cst_1, dims = [] : (tensor<f32>) -> tensor<64x512x768xf32>
    %23 = stablehlo.multiply %22, %20 : tensor<64x512x768xf32>
    %cst_2 = stablehlo.constant dense<0.000000e+00> : tensor<f32>
    %24 = stablehlo.reduce(%21 init: %cst_2) applies stablehlo.add across dimensions = [2] : (tensor<64x512x768xf32>, tensor<f32>) -> tensor<64x512xf32>
    %25 = stablehlo.broadcast_in_dim %24, dims = [0, 1] : (tensor<64x512xf32>) -> tensor<64x512x1xf32>
    %cst_3 = stablehlo.constant dense<7.680000e+02> : tensor<f32>
    %26 = stablehlo.broadcast_in_dim %cst_3, dims = [] : (tensor<f32>) -> tensor<64x512x1xf32>
    %27 = stablehlo.divide %25, %26 : tensor<64x512x1xf32>
    %cst_4 = stablehlo.constant dense<9.99999996E-13> : tensor<f32>
    %28 = stablehlo.broadcast_in_dim %cst_4, dims = [] : (tensor<f32>) -> tensor<64x512x1xf32>
    %29 = stablehlo.add %27, %28 : tensor<64x512x1xf32>
    %30 = stablehlo.rsqrt %29 : tensor<64x512x1xf32>
    %31 = stablehlo.divide %30, %29 : tensor<64x512x1xf32>
    %cst_5 = stablehlo.constant dense<-5.000000e-01> : tensor<f32>
    %32 = stablehlo.broadcast_in_dim %cst_5, dims = [] : (tensor<f32>) -> tensor<64x512x1xf32>
    %33 = stablehlo.multiply %32, %31 : tensor<64x512x1xf32>
    %34 = stablehlo.broadcast_in_dim %30, dims = [0, 1, 2] : (tensor<64x512x1xf32>) -> tensor<64x512x768xf32>
    %35 = stablehlo.multiply %20, %34 : tensor<64x512x768xf32>
    %36 = stablehlo.broadcast_in_dim %arg6, dims = [2] : (tensor<768xf32>) -> tensor<1x1x768xf32>
    %37 = stablehlo.broadcast_in_dim %36, dims = [0, 1, 2] : (tensor<1x1x768xf32>) -> tensor<64x512x768xf32>
    %38 = stablehlo.multiply %37, %35 : tensor<64x512x768xf32>
    %39 = stablehlo.broadcast_in_dim %arg7, dims = [2] : (tensor<768xf32>) -> tensor<1x1x768xf32>
    %40 = stablehlo.broadcast_in_dim %39, dims = [0, 1, 2] : (tensor<1x1x768xf32>) -> tensor<64x512x768xf32>
    %41 = stablehlo.add %38, %40 : tensor<64x512x768xf32>
    %42 = stablehlo.transpose %arg8, dims = [1, 0] : (tensor<3072x768xf32>) -> tensor<768x3072xf32>
    %43 = stablehlo.dot_general %41, %42, contracting_dims = [2] x [0], precision = [DEFAULT, DEFAULT] : (tensor<64x512x768xf32>, tensor<768x3072xf32>) -> tensor<64x512x3072xf32>
    %44 = stablehlo.broadcast_in_dim %arg9, dims = [2] : (tensor<3072xf32>) -> tensor<1x1x3072xf32>
    %45 = stablehlo.broadcast_in_dim %44, dims = [0, 1, 2] : (tensor<1x1x3072xf32>) -> tensor<64x512x3072xf32>
    %46 = stablehlo.add %43, %45 : tensor<64x512x3072xf32>
    %47 = stablehlo.multiply %46, %46 : tensor<64x512x3072xf32>
    %48 = stablehlo.multiply %47, %46 : tensor<64x512x3072xf32>
    %49 = stablehlo.multiply %46, %46 : tensor<64x512x3072xf32>
    %cst_6 = stablehlo.constant dense<3.000000e+00> : tensor<f32>
    %50 = stablehlo.broadcast_in_dim %cst_6, dims = [] : (tensor<f32>) -> tensor<64x512x3072xf32>
    %51 = stablehlo.multiply %50, %49 : tensor<64x512x3072xf32>
    %cst_7 = stablehlo.constant dense<4.471500e-02> : tensor<f32>
    %52 = stablehlo.broadcast_in_dim %cst_7, dims = [] : (tensor<f32>) -> tensor<64x512x3072xf32>
    %53 = stablehlo.multiply %52, %48 : tensor<64x512x3072xf32>
    %54 = stablehlo.add %46, %53 : tensor<64x512x3072xf32>
    %cst_8 = stablehlo.constant dense<0.797884583> : tensor<f32>
    %55 = stablehlo.broadcast_in_dim %cst_8, dims = [] : (tensor<f32>) -> tensor<64x512x3072xf32>
    %56 = stablehlo.multiply %55, %54 : tensor<64x512x3072xf32>
    %57 = stablehlo.tanh %56 : tensor<64x512x3072xf32>
    %cst_9 = stablehlo.constant dense<1.000000e+00> : tensor<f32>
    %58 = stablehlo.broadcast_in_dim %cst_9, dims = [] : (tensor<f32>) -> tensor<64x512x3072xf32>
    %59 = stablehlo.subtract %58, %57 : tensor<64x512x3072xf32>
    %cst_10 = stablehlo.constant dense<1.000000e+00> : tensor<f32>
    %60 = stablehlo.broadcast_in_dim %cst_10, dims = [] : (tensor<f32>) -> tensor<64x512x3072xf32>
    %61 = stablehlo.add %60, %57 : tensor<64x512x3072xf32>
    %cst_11 = stablehlo.constant dense<5.000000e-01> : tensor<f32>
    %62 = stablehlo.broadcast_in_dim %cst_11, dims = [] : (tensor<f32>) -> tensor<64x512x3072xf32>
    %63 = stablehlo.multiply %62, %61 : tensor<64x512x3072xf32>
    %64 = stablehlo.multiply %46, %63 : tensor<64x512x3072xf32>
    %65 = stablehlo.transpose %arg10, dims = [1, 0] : (tensor<768x3072xf32>) -> tensor<3072x768xf32>
    %66 = stablehlo.dot_general %64, %65, contracting_dims = [2] x [0], precision = [DEFAULT, DEFAULT] : (tensor<64x512x3072xf32>, tensor<3072x768xf32>) -> tensor<64x512x768xf32>
    %67 = stablehlo.broadcast_in_dim %arg11, dims = [2] : (tensor<768xf32>) -> tensor<1x1x768xf32>
    %68 = stablehlo.broadcast_in_dim %67, dims = [0, 1, 2] : (tensor<1x1x768xf32>) -> tensor<64x512x768xf32>
    %69 = stablehlo.add %66, %68 : tensor<64x512x768xf32>
    %70 = stablehlo.add %69, %41 : tensor<64x512x768xf32>
    %cst_12 = stablehlo.constant dense<0.000000e+00> : tensor<f32>
    %71 = stablehlo.reduce(%70 init: %cst_12) applies stablehlo.add across dimensions = [2] : (tensor<64x512x768xf32>, tensor<f32>) -> tensor<64x512xf32>
    %72 = stablehlo.broadcast_in_dim %71, dims = [0, 1] : (tensor<64x512xf32>) -> tensor<64x512x1xf32>
    %cst_13 = stablehlo.constant dense<7.680000e+02> : tensor<f32>
    %73 = stablehlo.broadcast_in_dim %cst_13, dims = [] : (tensor<f32>) -> tensor<64x512x1xf32>
    %74 = stablehlo.divide %72, %73 : tensor<64x512x1xf32>
    %75 = stablehlo.broadcast_in_dim %74, dims = [0, 1, 2] : (tensor<64x512x1xf32>) -> tensor<64x512x768xf32>
    %76 = stablehlo.subtract %70, %75 : tensor<64x512x768xf32>
    %77 = stablehlo.multiply %76, %76 : tensor<64x512x768xf32>
    %cst_14 = stablehlo.constant dense<2.000000e+00> : tensor<f32>
    %78 = stablehlo.broadcast_in_dim %cst_14, dims = [] : (tensor<f32>) -> tensor<64x512x768xf32>
    %79 = stablehlo.multiply %78, %76 : tensor<64x512x768xf32>
    %cst_15 = stablehlo.constant dense<0.000000e+00> : tensor<f32>
    %80 = stablehlo.reduce(%77 init: %cst_15) applies stablehlo.add across dimensions = [2] : (tensor<64x512x768xf32>, tensor<f32>) -> tensor<64x512xf32>
    %81 = stablehlo.broadcast_in_dim %80, dims = [0, 1] : (tensor<64x512xf32>) -> tensor<64x512x1xf32>
    %cst_16 = stablehlo.constant dense<7.680000e+02> : tensor<f32>
    %82 = stablehlo.broadcast_in_dim %cst_16, dims = [] : (tensor<f32>) -> tensor<64x512x1xf32>
    %83 = stablehlo.divide %81, %82 : tensor<64x512x1xf32>
    %cst_17 = stablehlo.constant dense<9.99999996E-13> : tensor<f32>
    %84 = stablehlo.broadcast_in_dim %cst_17, dims = [] : (tensor<f32>) -> tensor<64x512x1xf32>
    %85 = stablehlo.add %83, %84 : tensor<64x512x1xf32>
    %86 = stablehlo.rsqrt %85 : tensor<64x512x1xf32>
    %87 = stablehlo.divide %86, %85 : tensor<64x512x1xf32>
    %cst_18 = stablehlo.constant dense<-5.000000e-01> : tensor<f32>
    %88 = stablehlo.broadcast_in_dim %cst_18, dims = [] : (tensor<f32>) -> tensor<64x512x1xf32>
    %89 = stablehlo.multiply %88, %87 : tensor<64x512x1xf32>
    %90 = stablehlo.broadcast_in_dim %86, dims = [0, 1, 2] : (tensor<64x512x1xf32>) -> tensor<64x512x768xf32>
    %91 = stablehlo.multiply %76, %90 : tensor<64x512x768xf32>
    %92 = stablehlo.broadcast_in_dim %arg12, dims = [2] : (tensor<768xf32>) -> tensor<1x1x768xf32>
    %93 = stablehlo.broadcast_in_dim %92, dims = [0, 1, 2] : (tensor<1x1x768xf32>) -> tensor<64x512x768xf32>
    %94 = stablehlo.multiply %93, %91 : tensor<64x512x768xf32>
    %95 = stablehlo.broadcast_in_dim %arg13, dims = [2] : (tensor<768xf32>) -> tensor<1x1x768xf32>
    %96 = stablehlo.broadcast_in_dim %95, dims = [0, 1, 2] : (tensor<1x1x768xf32>) -> tensor<64x512x768xf32>
    %97 = stablehlo.add %94, %96 : tensor<64x512x768xf32>
    return %97, %arg1, %0, %9, %8, %23, %33, %30, %20, %35, %36, %42, %41, %51, %57, %59, %63, %46, %65, %64, %79, %89, %86, %76, %91, %92 : tensor<64x512x768xf32>, tensor<64x512x768xf32>, tensor<768x768xf32>, tensor<768x768xf32>, tensor<64x512x768xf32>, tensor<64x512x768xf32>, tensor<64x512x1xf32>, tensor<64x512x1xf32>, tensor<64x512x768xf32>, tensor<64x512x768xf32>, tensor<1x1x768xf32>, tensor<768x3072xf32>, tensor<64x512x768xf32>, tensor<64x512x3072xf32>, tensor<64x512x3072xf32>, tensor<64x512x3072xf32>, tensor<64x512x3072xf32>, tensor<64x512x3072xf32>, tensor<3072x768xf32>, tensor<64x512x3072xf32>, tensor<64x512x768xf32>, tensor<64x512x1xf32>, tensor<64x512x1xf32>, tensor<64x512x768xf32>, tensor<64x512x768xf32>, tensor<1x1x768xf32>
  }
  func.func private @_where_78(%arg0: tensor<64x512xi1>, %arg1: tensor<64x512xi32>, %arg2: tensor<i32>) -> tensor<64x512xi32> {
    %0 = stablehlo.convert %arg2 : tensor<i32>
    %1 = stablehlo.broadcast_in_dim %0, dims = [] : (tensor<i32>) -> tensor<64x512xi32>
    %2 = stablehlo.select %arg0, %arg1, %1 : tensor<64x512xi1>, tensor<64x512xi32>
    return %2 : tensor<64x512xi32>
  }
  func.func private @take_along_axis(%arg0: tensor<64x512x30522xf32>, %arg1: tensor<64x512x1xi32>) -> (tensor<64x512x1xf32>, tensor<64x512x1x1xi32>) {
    %c = stablehlo.constant dense<0> : tensor<i32>
    %0 = stablehlo.broadcast_in_dim %c, dims = [] : (tensor<i32>) -> tensor<64x512x1xi32>
    %1 = stablehlo.compare  LT, %arg1, %0,  SIGNED : (tensor<64x512x1xi32>, tensor<64x512x1xi32>) -> tensor<64x512x1xi1>
    %c_0 = stablehlo.constant dense<30522> : tensor<i32>
    %2 = stablehlo.broadcast_in_dim %c_0, dims = [] : (tensor<i32>) -> tensor<64x512x1xi32>
    %3 = stablehlo.add %arg1, %2 : tensor<64x512x1xi32>
    %4 = stablehlo.select %1, %3, %arg1 : tensor<64x512x1xi1>, tensor<64x512x1xi32>
    %5 = stablehlo.reshape %4 : (tensor<64x512x1xi32>) -> tensor<64x512x1x1xi32>
    %c_1 = stablehlo.constant dense<30521> : tensor<1xi32>
    %c_2 = stablehlo.constant dense<0> : tensor<i32>
    %6 = stablehlo.broadcast_in_dim %c_2, dims = [] : (tensor<i32>) -> tensor<64x512x1x1xi32>
    %7 = stablehlo.compare  GE, %5, %6,  SIGNED : (tensor<64x512x1x1xi32>, tensor<64x512x1x1xi32>) -> tensor<64x512x1x1xi1>
    %8 = stablehlo.broadcast_in_dim %c_1, dims = [3] : (tensor<1xi32>) -> tensor<1x1x1x1xi32>
    %9 = stablehlo.broadcast_in_dim %8, dims = [0, 1, 2, 3] : (tensor<1x1x1x1xi32>) -> tensor<64x512x1x1xi32>
    %10 = stablehlo.compare  LE, %5, %9,  SIGNED : (tensor<64x512x1x1xi32>, tensor<64x512x1x1xi32>) -> tensor<64x512x1x1xi1>
    %11 = stablehlo.and %7, %10 : tensor<64x512x1x1xi1>
    %c_3 = stablehlo.constant dense<true> : tensor<i1>
    %12 = stablehlo.reduce(%11 init: %c_3) applies stablehlo.and across dimensions = [3] : (tensor<64x512x1x1xi1>, tensor<i1>) -> tensor<64x512x1xi1>
    %13 = "stablehlo.gather"(%arg0, %5) <{dimension_numbers = #stablehlo.gather<collapsed_slice_dims = [2], operand_batching_dims = [0, 1], start_indices_batching_dims = [0, 1], start_index_map = [2], index_vector_dim = 3>, indices_are_sorted = false, slice_sizes = array<i64: 1, 1, 1>}> : (tensor<64x512x30522xf32>, tensor<64x512x1x1xi32>) -> tensor<64x512x1xf32>
    %cst = stablehlo.constant dense<0x7FC00000> : tensor<f32>
    %14 = stablehlo.broadcast_in_dim %cst, dims = [] : (tensor<f32>) -> tensor<64x512x1xf32>
    %15 = stablehlo.select %12, %13, %14 : tensor<64x512x1xi1>, tensor<64x512x1xf32>
    return %15, %5 : tensor<64x512x1xf32>, tensor<64x512x1x1xi32>
  }
  func.func private @_where_97(%arg0: tensor<64x512xi1>, %arg1: tensor<64x512xf32>, %arg2: tensor<f32>) -> tensor<64x512xf32> {
    %0 = stablehlo.convert %arg2 : tensor<f32>
    %1 = stablehlo.broadcast_in_dim %0, dims = [] : (tensor<f32>) -> tensor<64x512xf32>
    %2 = stablehlo.select %arg0, %arg1, %1 : tensor<64x512xi1>, tensor<64x512xf32>
    return %2 : tensor<64x512xf32>
  }
  func.func private @argmax(%arg0: tensor<64x512x30522xf32>) -> tensor<64x512xi32> {
    %0 = stablehlo.iota dim = 2 : tensor<64x512x30522xi32>
    %cst = stablehlo.constant dense<0xFF800000> : tensor<f32>
    %c = stablehlo.constant dense<0> : tensor<i32>
    %1:2 = stablehlo.reduce(%arg0 init: %cst), (%0 init: %c) across dimensions = [2] : (tensor<64x512x30522xf32>, tensor<64x512x30522xi32>, tensor<f32>, tensor<i32>) -> (tensor<64x512xf32>, tensor<64x512xi32>)
     reducer(%arg1: tensor<f32>, %arg3: tensor<f32>) (%arg2: tensor<i32>, %arg4: tensor<i32>)  {
      %2 = stablehlo.compare  GT, %arg1, %arg3,  FLOAT : (tensor<f32>, tensor<f32>) -> tensor<i1>
      %3 = stablehlo.compare  NE, %arg1, %arg1,  FLOAT : (tensor<f32>, tensor<f32>) -> tensor<i1>
      %4 = stablehlo.or %2, %3 : tensor<i1>
      %5 = stablehlo.compare  EQ, %arg1, %arg3,  FLOAT : (tensor<f32>, tensor<f32>) -> tensor<i1>
      %6 = stablehlo.compare  LT, %arg2, %arg4,  SIGNED : (tensor<i32>, tensor<i32>) -> tensor<i1>
      %7 = stablehlo.and %5, %6 : tensor<i1>
      %8 = stablehlo.or %4, %7 : tensor<i1>
      %9 = stablehlo.select %4, %arg1, %arg3 : tensor<i1>, tensor<f32>
      %10 = stablehlo.select %8, %arg2, %arg4 : tensor<i1>, tensor<i32>
      stablehlo.return %9, %10 : tensor<f32>, tensor<i32>
    }
    return %1#1 : tensor<64x512xi32>
  }
  func.func private @_where_111(%arg0: tensor<64x512xi1>, %arg1: tensor<64x512xf32>) -> tensor<64x512xf32> {
    %cst = stablehlo.constant dense<0.000000e+00> : tensor<f32>
    %0 = stablehlo.broadcast_in_dim %cst, dims = [] : (tensor<f32>) -> tensor<64x512xf32>
    %1 = stablehlo.select %arg0, %arg1, %0 : tensor<64x512xi1>, tensor<64x512xf32>
    return %1 : tensor<64x512xf32>
  }
  func.func private @take_along_axis_112(%arg0: tensor<64x512x1x1xi32>, %arg1: tensor<64x512x1xf32>) -> tensor<64x512x30522xf32> {
    %cst = stablehlo.constant dense<0.000000e+00> : tensor<f32>
    %0 = stablehlo.broadcast_in_dim %cst, dims = [] : (tensor<f32>) -> tensor<64x512x30522xf32>
    %1 = "stablehlo.scatter"(%0, %arg0, %arg1) <{indices_are_sorted = false, scatter_dimension_numbers = #stablehlo.scatter<inserted_window_dims = [2], input_batching_dims = [0, 1], scatter_indices_batching_dims = [0, 1], scatter_dims_to_operand_dims = [2], index_vector_dim = 3>, unique_indices = false}> ({
    ^bb0(%arg2: tensor<f32>, %arg3: tensor<f32>):
      %2 = stablehlo.add %arg2, %arg3 : tensor<f32>
      stablehlo.return %2 : tensor<f32>
    }) : (tensor<64x512x30522xf32>, tensor<64x512x1x1xi32>, tensor<64x512x1xf32>) -> tensor<64x512x30522xf32>
    return %1 : tensor<64x512x30522xf32>
  }
  func.func private @closed_call_152(%arg0: tensor<64x512x12x512xf32>, %arg1: tensor<64x512x768xf32>, %arg2: tensor<64x512x768xf32>, %arg3: tensor<768x768xf32>, %arg4: tensor<768x768xf32>, %arg5: tensor<64x512x768xf32>, %arg6: tensor<64x512x768xf32>, %arg7: tensor<64x512x1xf32>, %arg8: tensor<64x512x1xf32>, %arg9: tensor<64x512x768xf32>, %arg10: tensor<64x512x768xf32>, %arg11: tensor<1x1x768xf32>, %arg12: tensor<768x3072xf32>, %arg13: tensor<64x512x768xf32>, %arg14: tensor<64x512x3072xf32>, %arg15: tensor<64x512x3072xf32>, %arg16: tensor<64x512x3072xf32>, %arg17: tensor<64x512x3072xf32>, %arg18: tensor<64x512x3072xf32>, %arg19: tensor<3072x768xf32>, %arg20: tensor<64x512x3072xf32>, %arg21: tensor<64x512x768xf32>, %arg22: tensor<64x512x1xf32>, %arg23: tensor<64x512x1xf32>, %arg24: tensor<64x512x768xf32>, %arg25: tensor<64x512x768xf32>, %arg26: tensor<1x1x768xf32>) -> (tensor<64x512x768xf32>, tensor<768x768xf32>, tensor<768xf32>, tensor<768x768xf32>, tensor<768xf32>, tensor<768xf32>, tensor<768xf32>, tensor<3072x768xf32>, tensor<3072xf32>, tensor<768x3072xf32>, tensor<768xf32>, tensor<768xf32>, tensor<768xf32>) {
    %cst = stablehlo.constant dense<0.000000e+00> : tensor<f32>
    %0 = stablehlo.reduce(%arg1 init: %cst) applies stablehlo.add across dimensions = [0, 1] : (tensor<64x512x768xf32>, tensor<f32>) -> tensor<768xf32>
    %1 = stablehlo.reshape %0 : (tensor<768xf32>) -> tensor<1x1x768xf32>
    %cst_0 = stablehlo.constant dense<0.000000e+00> : tensor<f32>
    %2 = stablehlo.reduce(%1 init: %cst_0) applies stablehlo.add across dimensions = [0, 1] : (tensor<1x1x768xf32>, tensor<f32>) -> tensor<768xf32>
    %3 = stablehlo.broadcast_in_dim %arg26, dims = [0, 1, 2] : (tensor<1x1x768xf32>) -> tensor<64x512x768xf32>
    %4 = stablehlo.multiply %3, %arg1 : tensor<64x512x768xf32>
    %5 = stablehlo.multiply %arg1, %arg25 : tensor<64x512x768xf32>
    %cst_1 = stablehlo.constant dense<0.000000e+00> : tensor<f32>
    %6 = stablehlo.reduce(%5 init: %cst_1) applies stablehlo.add across dimensions = [0, 1] : (tensor<64x512x768xf32>, tensor<f32>) -> tensor<768xf32>
    %7 = stablehlo.reshape %6 : (tensor<768xf32>) -> tensor<1x1x768xf32>
    %cst_2 = stablehlo.constant dense<0.000000e+00> : tensor<f32>
    %8 = stablehlo.reduce(%7 init: %cst_2) applies stablehlo.add across dimensions = [0, 1] : (tensor<1x1x768xf32>, tensor<f32>) -> tensor<768xf32>
    %9 = stablehlo.multiply %arg24, %4 : tensor<64x512x768xf32>
    %cst_3 = stablehlo.constant dense<0.000000e+00> : tensor<f32>
    %10 = stablehlo.reduce(%9 init: %cst_3) applies stablehlo.add across dimensions = [2] : (tensor<64x512x768xf32>, tensor<f32>) -> tensor<64x512xf32>
    %11 = stablehlo.reshape %10 : (tensor<64x512xf32>) -> tensor<64x512x1xf32>
    %12 = stablehlo.broadcast_in_dim %arg23, dims = [0, 1, 2] : (tensor<64x512x1xf32>) -> tensor<64x512x768xf32>
    %13 = stablehlo.multiply %4, %12 : tensor<64x512x768xf32>
    %14 = stablehlo.multiply %11, %arg22 : tensor<64x512x1xf32>
    %cst_4 = stablehlo.constant dense<7.680000e+02> : tensor<f32>
    %15 = stablehlo.broadcast_in_dim %cst_4, dims = [] : (tensor<f32>) -> tensor<64x512x1xf32>
    %16 = stablehlo.divide %14, %15 : tensor<64x512x1xf32>
    %cst_5 = stablehlo.constant dense<0.000000e+00> : tensor<f32>
    %17 = stablehlo.reduce(%16 init: %cst_5) applies stablehlo.add across dimensions = [2] : (tensor<64x512x1xf32>, tensor<f32>) -> tensor<64x512xf32>
    %18 = stablehlo.broadcast_in_dim %17, dims = [0, 1] : (tensor<64x512xf32>) -> tensor<64x512x768xf32>
    %19 = stablehlo.multiply %18, %arg21 : tensor<64x512x768xf32>
    %20 = stablehlo.add %13, %19 : tensor<64x512x768xf32>
    %21 = stablehlo.negate %20 : tensor<64x512x768xf32>
    %cst_6 = stablehlo.constant dense<0.000000e+00> : tensor<f32>
    %22 = stablehlo.reduce(%21 init: %cst_6) applies stablehlo.add across dimensions = [2] : (tensor<64x512x768xf32>, tensor<f32>) -> tensor<64x512xf32>
    %23 = stablehlo.reshape %22 : (tensor<64x512xf32>) -> tensor<64x512x1xf32>
    %cst_7 = stablehlo.constant dense<7.680000e+02> : tensor<f32>
    %24 = stablehlo.broadcast_in_dim %cst_7, dims = [] : (tensor<f32>) -> tensor<64x512x1xf32>
    %25 = stablehlo.divide %23, %24 : tensor<64x512x1xf32>
    %cst_8 = stablehlo.constant dense<0.000000e+00> : tensor<f32>
    %26 = stablehlo.reduce(%25 init: %cst_8) applies stablehlo.add across dimensions = [2] : (tensor<64x512x1xf32>, tensor<f32>) -> tensor<64x512xf32>
    %27 = stablehlo.broadcast_in_dim %26, dims = [0, 1] : (tensor<64x512xf32>) -> tensor<64x512x768xf32>
    %28 = stablehlo.add %20, %27 : tensor<64x512x768xf32>
    %cst_9 = stablehlo.constant dense<0.000000e+00> : tensor<f32>
    %29 = stablehlo.reduce(%28 init: %cst_9) applies stablehlo.add across dimensions = [0, 1] : (tensor<64x512x768xf32>, tensor<f32>) -> tensor<768xf32>
    %30 = stablehlo.reshape %29 : (tensor<768xf32>) -> tensor<1x1x768xf32>
    %cst_10 = stablehlo.constant dense<0.000000e+00> : tensor<f32>
    %31 = stablehlo.reduce(%30 init: %cst_10) applies stablehlo.add across dimensions = [0, 1] : (tensor<1x1x768xf32>, tensor<f32>) -> tensor<768xf32>
    %32 = stablehlo.dot_general %28, %arg20, contracting_dims = [0, 1] x [0, 1], precision = [DEFAULT, DEFAULT] : (tensor<64x512x768xf32>, tensor<64x512x3072xf32>) -> tensor<768x3072xf32>
    %33 = stablehlo.transpose %32, dims = [1, 0] : (tensor<768x3072xf32>) -> tensor<3072x768xf32>
    %34 = stablehlo.dot_general %28, %arg19, contracting_dims = [2] x [1], precision = [DEFAULT, DEFAULT] : (tensor<64x512x768xf32>, tensor<3072x768xf32>) -> tensor<64x512x3072xf32>
    %35 = stablehlo.transpose %33, dims = [1, 0] : (tensor<3072x768xf32>) -> tensor<768x3072xf32>
    %36 = stablehlo.multiply %arg18, %34 : tensor<64x512x3072xf32>
    %37 = stablehlo.multiply %34, %arg17 : tensor<64x512x3072xf32>
    %cst_11 = stablehlo.constant dense<5.000000e-01> : tensor<f32>
    %38 = stablehlo.broadcast_in_dim %cst_11, dims = [] : (tensor<f32>) -> tensor<64x512x3072xf32>
    %39 = stablehlo.multiply %38, %36 : tensor<64x512x3072xf32>
    %40 = stablehlo.multiply %39, %arg16 : tensor<64x512x3072xf32>
    %41 = stablehlo.multiply %40, %arg15 : tensor<64x512x3072xf32>
    %42 = stablehlo.add %40, %41 : tensor<64x512x3072xf32>
    %cst_12 = stablehlo.constant dense<0.797884583> : tensor<f32>
    %43 = stablehlo.broadcast_in_dim %cst_12, dims = [] : (tensor<f32>) -> tensor<64x512x3072xf32>
    %44 = stablehlo.multiply %43, %42 : tensor<64x512x3072xf32>
    %45 = stablehlo.add %37, %44 : tensor<64x512x3072xf32>
    %cst_13 = stablehlo.constant dense<4.471500e-02> : tensor<f32>
    %46 = stablehlo.broadcast_in_dim %cst_13, dims = [] : (tensor<f32>) -> tensor<64x512x3072xf32>
    %47 = stablehlo.multiply %46, %44 : tensor<64x512x3072xf32>
    %48 = stablehlo.multiply %47, %arg14 : tensor<64x512x3072xf32>
    %49 = stablehlo.add %45, %48 : tensor<64x512x3072xf32>
    %cst_14 = stablehlo.constant dense<0.000000e+00> : tensor<f32>
    %50 = stablehlo.reduce(%49 init: %cst_14) applies stablehlo.add across dimensions = [0, 1] : (tensor<64x512x3072xf32>, tensor<f32>) -> tensor<3072xf32>
    %51 = stablehlo.reshape %50 : (tensor<3072xf32>) -> tensor<1x1x3072xf32>
    %cst_15 = stablehlo.constant dense<0.000000e+00> : tensor<f32>
    %52 = stablehlo.reduce(%51 init: %cst_15) applies stablehlo.add across dimensions = [0, 1] : (tensor<1x1x3072xf32>, tensor<f32>) -> tensor<3072xf32>
    %53 = stablehlo.dot_general %49, %arg13, contracting_dims = [0, 1] x [0, 1], precision = [DEFAULT, DEFAULT] : (tensor<64x512x3072xf32>, tensor<64x512x768xf32>) -> tensor<3072x768xf32>
    %54 = stablehlo.transpose %53, dims = [1, 0] : (tensor<3072x768xf32>) -> tensor<768x3072xf32>
    %55 = stablehlo.dot_general %49, %arg12, contracting_dims = [2] x [1], precision = [DEFAULT, DEFAULT] : (tensor<64x512x3072xf32>, tensor<768x3072xf32>) -> tensor<64x512x768xf32>
    %56 = stablehlo.add %28, %55 : tensor<64x512x768xf32>
    %57 = stablehlo.transpose %54, dims = [1, 0] : (tensor<768x3072xf32>) -> tensor<3072x768xf32>
    %cst_16 = stablehlo.constant dense<0.000000e+00> : tensor<f32>
    %58 = stablehlo.reduce(%56 init: %cst_16) applies stablehlo.add across dimensions = [0, 1] : (tensor<64x512x768xf32>, tensor<f32>) -> tensor<768xf32>
    %59 = stablehlo.reshape %58 : (tensor<768xf32>) -> tensor<1x1x768xf32>
    %cst_17 = stablehlo.constant dense<0.000000e+00> : tensor<f32>
    %60 = stablehlo.reduce(%59 init: %cst_17) applies stablehlo.add across dimensions = [0, 1] : (tensor<1x1x768xf32>, tensor<f32>) -> tensor<768xf32>
    %61 = stablehlo.broadcast_in_dim %arg11, dims = [0, 1, 2] : (tensor<1x1x768xf32>) -> tensor<64x512x768xf32>
    %62 = stablehlo.multiply %61, %56 : tensor<64x512x768xf32>
    %63 = stablehlo.multiply %56, %arg10 : tensor<64x512x768xf32>
    %cst_18 = stablehlo.constant dense<0.000000e+00> : tensor<f32>
    %64 = stablehlo.reduce(%63 init: %cst_18) applies stablehlo.add across dimensions = [0, 1] : (tensor<64x512x768xf32>, tensor<f32>) -> tensor<768xf32>
    %65 = stablehlo.reshape %64 : (tensor<768xf32>) -> tensor<1x1x768xf32>
    %cst_19 = stablehlo.constant dense<0.000000e+00> : tensor<f32>
    %66 = stablehlo.reduce(%65 init: %cst_19) applies stablehlo.add across dimensions = [0, 1] : (tensor<1x1x768xf32>, tensor<f32>) -> tensor<768xf32>
    %67 = stablehlo.multiply %arg9, %62 : tensor<64x512x768xf32>
    %cst_20 = stablehlo.constant dense<0.000000e+00> : tensor<f32>
    %68 = stablehlo.reduce(%67 init: %cst_20) applies stablehlo.add across dimensions = [2] : (tensor<64x512x768xf32>, tensor<f32>) -> tensor<64x512xf32>
    %69 = stablehlo.reshape %68 : (tensor<64x512xf32>) -> tensor<64x512x1xf32>
    %70 = stablehlo.broadcast_in_dim %arg8, dims = [0, 1, 2] : (tensor<64x512x1xf32>) -> tensor<64x512x768xf32>
    %71 = stablehlo.multiply %62, %70 : tensor<64x512x768xf32>
    %72 = stablehlo.multiply %69, %arg7 : tensor<64x512x1xf32>
    %cst_21 = stablehlo.constant dense<7.680000e+02> : tensor<f32>
    %73 = stablehlo.broadcast_in_dim %cst_21, dims = [] : (tensor<f32>) -> tensor<64x512x1xf32>
    %74 = stablehlo.divide %72, %73 : tensor<64x512x1xf32>
    %cst_22 = stablehlo.constant dense<0.000000e+00> : tensor<f32>
    %75 = stablehlo.reduce(%74 init: %cst_22) applies stablehlo.add across dimensions = [2] : (tensor<64x512x1xf32>, tensor<f32>) -> tensor<64x512xf32>
    %76 = stablehlo.broadcast_in_dim %75, dims = [0, 1] : (tensor<64x512xf32>) -> tensor<64x512x768xf32>
    %77 = stablehlo.multiply %76, %arg6 : tensor<64x512x768xf32>
    %78 = stablehlo.add %71, %77 : tensor<64x512x768xf32>
    %79 = stablehlo.negate %78 : tensor<64x512x768xf32>
    %cst_23 = stablehlo.constant dense<0.000000e+00> : tensor<f32>
    %80 = stablehlo.reduce(%79 init: %cst_23) applies stablehlo.add across dimensions = [2] : (tensor<64x512x768xf32>, tensor<f32>) -> tensor<64x512xf32>
    %81 = stablehlo.reshape %80 : (tensor<64x512xf32>) -> tensor<64x512x1xf32>
    %cst_24 = stablehlo.constant dense<7.680000e+02> : tensor<f32>
    %82 = stablehlo.broadcast_in_dim %cst_24, dims = [] : (tensor<f32>) -> tensor<64x512x1xf32>
    %83 = stablehlo.divide %81, %82 : tensor<64x512x1xf32>
    %cst_25 = stablehlo.constant dense<0.000000e+00> : tensor<f32>
    %84 = stablehlo.reduce(%83 init: %cst_25) applies stablehlo.add across dimensions = [2] : (tensor<64x512x1xf32>, tensor<f32>) -> tensor<64x512xf32>
    %85 = stablehlo.broadcast_in_dim %84, dims = [0, 1] : (tensor<64x512xf32>) -> tensor<64x512x768xf32>
    %86 = stablehlo.add %78, %85 : tensor<64x512x768xf32>
    %cst_26 = stablehlo.constant dense<0.000000e+00> : tensor<f32>
    %87 = stablehlo.reduce(%86 init: %cst_26) applies stablehlo.add across dimensions = [0, 1] : (tensor<64x512x768xf32>, tensor<f32>) -> tensor<768xf32>
    %88 = stablehlo.reshape %87 : (tensor<768xf32>) -> tensor<1x1x768xf32>
    %cst_27 = stablehlo.constant dense<0.000000e+00> : tensor<f32>
    %89 = stablehlo.reduce(%88 init: %cst_27) applies stablehlo.add across dimensions = [0, 1] : (tensor<1x1x768xf32>, tensor<f32>) -> tensor<768xf32>
    %90 = stablehlo.dot_general %86, %arg5, contracting_dims = [0, 1] x [0, 1], precision = [DEFAULT, DEFAULT] : (tensor<64x512x768xf32>, tensor<64x512x768xf32>) -> tensor<768x768xf32>
    %91 = stablehlo.transpose %90, dims = [1, 0] : (tensor<768x768xf32>) -> tensor<768x768xf32>
    %92 = stablehlo.dot_general %86, %arg4, contracting_dims = [2] x [1], precision = [DEFAULT, DEFAULT] : (tensor<64x512x768xf32>, tensor<768x768xf32>) -> tensor<64x512x768xf32>
    %93 = stablehlo.transpose %91, dims = [1, 0] : (tensor<768x768xf32>) -> tensor<768x768xf32>
    %94 = stablehlo.reshape %92 : (tensor<64x512x768xf32>) -> tensor<64x512x12x64xf32>
    %95 = stablehlo.transpose %94, dims = [0, 2, 3, 1] : (tensor<64x512x12x64xf32>) -> tensor<64x12x64x512xf32>
    %96 = stablehlo.dot_general %95, %arg0, batching_dims = [0, 1] x [0, 2], contracting_dims = [3] x [1], precision = [DEFAULT, DEFAULT] : (tensor<64x12x64x512xf32>, tensor<64x512x12x512xf32>) -> tensor<64x12x64x512xf32>
    %97 = stablehlo.transpose %96, dims = [0, 3, 1, 2] : (tensor<64x12x64x512xf32>) -> tensor<64x512x12x64xf32>
    %98 = stablehlo.reshape %97 : (tensor<64x512x12x64xf32>) -> tensor<64x512x768xf32>
    %cst_28 = stablehlo.constant dense<0.000000e+00> : tensor<f32>
    %99 = stablehlo.reduce(%98 init: %cst_28) applies stablehlo.add across dimensions = [0, 1] : (tensor<64x512x768xf32>, tensor<f32>) -> tensor<768xf32>
    %100 = stablehlo.reshape %99 : (tensor<768xf32>) -> tensor<1x1x768xf32>
    %cst_29 = stablehlo.constant dense<0.000000e+00> : tensor<f32>
    %101 = stablehlo.reduce(%100 init: %cst_29) applies stablehlo.add across dimensions = [0, 1] : (tensor<1x1x768xf32>, tensor<f32>) -> tensor<768xf32>
    %102 = stablehlo.dot_general %98, %arg2, contracting_dims = [0, 1] x [0, 1], precision = [DEFAULT, DEFAULT] : (tensor<64x512x768xf32>, tensor<64x512x768xf32>) -> tensor<768x768xf32>
    %103 = stablehlo.transpose %102, dims = [1, 0] : (tensor<768x768xf32>) -> tensor<768x768xf32>
    %104 = stablehlo.dot_general %98, %arg3, contracting_dims = [2] x [1], precision = [DEFAULT, DEFAULT] : (tensor<64x512x768xf32>, tensor<768x768xf32>) -> tensor<64x512x768xf32>
    %105 = stablehlo.add %86, %104 : tensor<64x512x768xf32>
    %106 = stablehlo.transpose %103, dims = [1, 0] : (tensor<768x768xf32>) -> tensor<768x768xf32>
    return %105, %106, %101, %93, %89, %66, %60, %57, %52, %35, %31, %8, %2 : tensor<64x512x768xf32>, tensor<768x768xf32>, tensor<768xf32>, tensor<768x768xf32>, tensor<768xf32>, tensor<768xf32>, tensor<768xf32>, tensor<3072x768xf32>, tensor<3072xf32>, tensor<768x3072xf32>, tensor<768xf32>, tensor<768xf32>, tensor<768xf32>
  }
  func.func private @_take_172(%arg0: tensor<64x512x1xi32>, %arg1: tensor<64x512x768xf32>) -> tensor<2x768xf32> {
    %cst = stablehlo.constant dense<0.000000e+00> : tensor<f32>
    %0 = stablehlo.broadcast_in_dim %cst, dims = [] : (tensor<f32>) -> tensor<2x768xf32>
    %1 = "stablehlo.scatter"(%0, %arg0, %arg1) <{indices_are_sorted = false, scatter_dimension_numbers = #stablehlo.scatter<update_window_dims = [2], inserted_window_dims = [0], scatter_dims_to_operand_dims = [0], index_vector_dim = 2>, unique_indices = false}> ({
    ^bb0(%arg2: tensor<f32>, %arg3: tensor<f32>):
      %2 = stablehlo.add %arg2, %arg3 : tensor<f32>
      stablehlo.return %2 : tensor<f32>
    }) : (tensor<2x768xf32>, tensor<64x512x1xi32>, tensor<64x512x768xf32>) -> tensor<2x768xf32>
    return %1 : tensor<2x768xf32>
  }
  func.func private @_take_175(%arg0: tensor<64x512x1xi32>, %arg1: tensor<64x512x768xf32>) -> tensor<512x768xf32> {
    %cst = stablehlo.constant dense<0.000000e+00> : tensor<f32>
    %0 = stablehlo.broadcast_in_dim %cst, dims = [] : (tensor<f32>) -> tensor<512x768xf32>
    %1 = "stablehlo.scatter"(%0, %arg0, %arg1) <{indices_are_sorted = false, scatter_dimension_numbers = #stablehlo.scatter<update_window_dims = [2], inserted_window_dims = [0], scatter_dims_to_operand_dims = [0], index_vector_dim = 2>, unique_indices = false}> ({
    ^bb0(%arg2: tensor<f32>, %arg3: tensor<f32>):
      %2 = stablehlo.add %arg2, %arg3 : tensor<f32>
      stablehlo.return %2 : tensor<f32>
    }) : (tensor<512x768xf32>, tensor<64x512x1xi32>, tensor<64x512x768xf32>) -> tensor<512x768xf32>
    return %1 : tensor<512x768xf32>
  }
  func.func private @_take_178(%arg0: tensor<64x512x1xi32>, %arg1: tensor<64x512x768xf32>) -> tensor<30522x768xf32> {
    %cst = stablehlo.constant dense<0.000000e+00> : tensor<f32>
    %0 = stablehlo.broadcast_in_dim %cst, dims = [] : (tensor<f32>) -> tensor<30522x768xf32>
    %1 = "stablehlo.scatter"(%0, %arg0, %arg1) <{indices_are_sorted = false, scatter_dimension_numbers = #stablehlo.scatter<update_window_dims = [2], inserted_window_dims = [0], scatter_dims_to_operand_dims = [0], index_vector_dim = 2>, unique_indices = false}> ({
    ^bb0(%arg2: tensor<f32>, %arg3: tensor<f32>):
      %2 = stablehlo.add %arg2, %arg3 : tensor<f32>
      stablehlo.return %2 : tensor<f32>
    }) : (tensor<30522x768xf32>, tensor<64x512x1xi32>, tensor<64x512x768xf32>) -> tensor<30522x768xf32>
    return %1 : tensor<30522x768xf32>
  }
  func.func private @clip(%arg0: tensor<i32>, %arg1: tensor<i32>, %arg2: tensor<i32>) -> tensor<i32> {
    %0 = stablehlo.convert %arg1 : tensor<i32>
    %1 = stablehlo.maximum %0, %arg0 : tensor<i32>
    %2 = stablehlo.convert %arg2 : tensor<i32>
    %3 = stablehlo.minimum %2, %1 : tensor<i32>
    return %3 : tensor<i32>
  }
  func.func private @_where_192(%arg0: tensor<i1>, %arg1: tensor<i32>, %arg2: tensor<i32>) -> tensor<i32> {
    %0 = stablehlo.select %arg0, %arg1, %arg2 : tensor<i1>, tensor<i32>
    return %0 : tensor<i32>
  }
}
