module @jit_init_module attributes {mhlo.num_partitions = 1 : i32, mhlo.num_replicas = 1 : i32} {
  sdy.mesh @empty_mesh = <[]>
  func.func public @main(%arg0: tensor<2xui32>) -> (tensor<i32> {jax.result_info = "result[0]"}, tensor<30522x2560xf32> {jax.result_info = "result[1].bert.embeddings.word_embeddings.weight"}, tensor<512x2560xf32> {jax.result_info = "result[1].bert.embeddings.position_embeddings.weight"}, tensor<2x2560xf32> {jax.result_info = "result[1].bert.embeddings.token_type_embeddings.weight"}, tensor<2560xf32> {jax.result_info = "result[1].bert.embeddings.layer_norm.weight"}, tensor<2560xf32> {jax.result_info = "result[1].bert.embeddings.layer_norm.bias"}, tensor<32x2560x2560xf32> {jax.result_info = "result[1].bert.encoder.layers.attention.self_attention.query.weight"}, tensor<32x2560xf32> {jax.result_info = "result[1].bert.encoder.layers.attention.self_attention.query.bias"}, tensor<32x2560x2560xf32> {jax.result_info = "result[1].bert.encoder.layers.attention.self_attention.key.weight"}, tensor<32x2560xf32> {jax.result_info = "result[1].bert.encoder.layers.attention.self_attention.key.bias"}, tensor<32x2560x2560xf32> {jax.result_info = "result[1].bert.encoder.layers.attention.self_attention.value.weight"}, tensor<32x2560xf32> {jax.result_info = "result[1].bert.encoder.layers.attention.self_attention.value.bias"}, tensor<32x2560x2560xf32> {jax.result_info = "result[1].bert.encoder.layers.attention.output.dense.weight"}, tensor<32x2560xf32> {jax.result_info = "result[1].bert.encoder.layers.attention.output.dense.bias"}, tensor<32x2560xf32> {jax.result_info = "result[1].bert.encoder.layers.attention.output.layer_norm.weight"}, tensor<32x2560xf32> {jax.result_info = "result[1].bert.encoder.layers.attention.output.layer_norm.bias"}, tensor<32x10240x2560xf32> {jax.result_info = "result[1].bert.encoder.layers.intermediate.dense.weight"}, tensor<32x10240xf32> {jax.result_info = "result[1].bert.encoder.layers.intermediate.dense.bias"}, tensor<32x2560x10240xf32> {jax.result_info = "result[1].bert.encoder.layers.output.dense.weight"}, tensor<32x2560xf32> {jax.result_info = "result[1].bert.encoder.layers.output.dense.bias"}, tensor<32x2560xf32> {jax.result_info = "result[1].bert.encoder.layers.output.layer_norm.weight"}, tensor<32x2560xf32> {jax.result_info = "result[1].bert.encoder.layers.output.layer_norm.bias"}, tensor<2560x2560xf32> {jax.result_info = "result[1].mlm_head.dense.weight"}, tensor<2560xf32> {jax.result_info = "result[1].mlm_head.dense.bias"}, tensor<2560xf32> {jax.result_info = "result[1].mlm_head.layer_norm.weight"}, tensor<2560xf32> {jax.result_info = "result[1].mlm_head.layer_norm.bias"}, tensor<30522x2560xf32> {jax.result_info = "result[1].mlm_head.lm_head.pytree[0].weight"}, tensor<30522xf32> {jax.result_info = "result[1].mlm_head.bias"}) {
    %0 = sdy.sharding_constraint %arg0 <@empty_mesh, [{}]> : tensor<2xui32>
    %1 = call @_threefry_split(%0) : (tensor<2xui32>) -> tensor<2x2xui32>
    %2 = stablehlo.slice %1 [0:1, 0:2] : (tensor<2x2xui32>) -> tensor<1x2xui32>
    %3 = stablehlo.reshape %2 : (tensor<1x2xui32>) -> tensor<2xui32>
    %4 = stablehlo.slice %1 [1:2, 0:2] : (tensor<2x2xui32>) -> tensor<1x2xui32>
    %5 = stablehlo.reshape %4 : (tensor<1x2xui32>) -> tensor<2xui32>
    %6 = call @_threefry_split(%3) : (tensor<2xui32>) -> tensor<2x2xui32>
    %7 = stablehlo.slice %6 [0:1, 0:2] : (tensor<2x2xui32>) -> tensor<1x2xui32>
    %8 = stablehlo.reshape %7 : (tensor<1x2xui32>) -> tensor<2xui32>
    %9 = stablehlo.slice %6 [1:2, 0:2] : (tensor<2x2xui32>) -> tensor<1x2xui32>
    %10 = stablehlo.reshape %9 : (tensor<1x2xui32>) -> tensor<2xui32>
    %11 = call @_threefry_split_7(%8) : (tensor<2xui32>) -> tensor<4x2xui32>
    %12 = stablehlo.slice %11 [0:1, 0:2] : (tensor<4x2xui32>) -> tensor<1x2xui32>
    %13 = stablehlo.reshape %12 : (tensor<1x2xui32>) -> tensor<2xui32>
    %14 = stablehlo.slice %11 [1:2, 0:2] : (tensor<4x2xui32>) -> tensor<1x2xui32>
    %15 = stablehlo.reshape %14 : (tensor<1x2xui32>) -> tensor<2xui32>
    %16 = stablehlo.slice %11 [2:3, 0:2] : (tensor<4x2xui32>) -> tensor<1x2xui32>
    %17 = stablehlo.reshape %16 : (tensor<1x2xui32>) -> tensor<2xui32>
    %18 = call @_normal(%13) : (tensor<2xui32>) -> tensor<30522x2560xf32>
    %cst = stablehlo.constant dense<0.00999999977> : tensor<f32>
    %19 = stablehlo.broadcast_in_dim %cst, dims = [] : (tensor<f32>) -> tensor<30522x2560xf32>
    %20 = stablehlo.multiply %18, %19 : tensor<30522x2560xf32>
    %21 = call @_normal_35(%15) : (tensor<2xui32>) -> tensor<512x2560xf32>
    %cst_0 = stablehlo.constant dense<0.00999999977> : tensor<f32>
    %22 = stablehlo.broadcast_in_dim %cst_0, dims = [] : (tensor<f32>) -> tensor<512x2560xf32>
    %23 = stablehlo.multiply %21, %22 : tensor<512x2560xf32>
    %24 = call @_normal_56(%17) : (tensor<2xui32>) -> tensor<2x2560xf32>
    %cst_1 = stablehlo.constant dense<0.00999999977> : tensor<f32>
    %25 = stablehlo.broadcast_in_dim %cst_1, dims = [] : (tensor<f32>) -> tensor<2x2560xf32>
    %26 = stablehlo.multiply %24, %25 : tensor<2x2560xf32>
    %cst_2 = stablehlo.constant dense<1.000000e+00> : tensor<f32>
    %27 = stablehlo.broadcast_in_dim %cst_2, dims = [] : (tensor<f32>) -> tensor<2560xf32>
    %cst_3 = stablehlo.constant dense<0.000000e+00> : tensor<f32>
    %28 = stablehlo.broadcast_in_dim %cst_3, dims = [] : (tensor<f32>) -> tensor<2560xf32>
    %29 = call @_threefry_split_79(%10) : (tensor<2xui32>) -> tensor<32x2xui32>
    %30 = call @_threefry_split_91(%29) : (tensor<32x2xui32>) -> tensor<32x3x2xui32>
    %31 = stablehlo.slice %30 [0:32, 0:1, 0:2] : (tensor<32x3x2xui32>) -> tensor<32x1x2xui32>
    %32 = stablehlo.reshape %31 : (tensor<32x1x2xui32>) -> tensor<32x2xui32>
    %33 = stablehlo.slice %30 [0:32, 1:2, 0:2] : (tensor<32x3x2xui32>) -> tensor<32x1x2xui32>
    %34 = stablehlo.reshape %33 : (tensor<32x1x2xui32>) -> tensor<32x2xui32>
    %35 = stablehlo.slice %30 [0:32, 2:3, 0:2] : (tensor<32x3x2xui32>) -> tensor<32x1x2xui32>
    %36 = stablehlo.reshape %35 : (tensor<32x1x2xui32>) -> tensor<32x2xui32>
    %37 = call @_threefry_split_115(%32) : (tensor<32x2xui32>) -> tensor<32x2x2xui32>
    %38 = stablehlo.slice %37 [0:32, 0:1, 0:2] : (tensor<32x2x2xui32>) -> tensor<32x1x2xui32>
    %39 = stablehlo.reshape %38 : (tensor<32x1x2xui32>) -> tensor<32x2xui32>
    %40 = stablehlo.slice %37 [0:32, 1:2, 0:2] : (tensor<32x2x2xui32>) -> tensor<32x1x2xui32>
    %41 = stablehlo.reshape %40 : (tensor<32x1x2xui32>) -> tensor<32x2xui32>
    %42 = call @_threefry_split_91(%39) : (tensor<32x2xui32>) -> tensor<32x3x2xui32>
    %43 = stablehlo.slice %42 [0:32, 0:1, 0:2] : (tensor<32x3x2xui32>) -> tensor<32x1x2xui32>
    %44 = stablehlo.reshape %43 : (tensor<32x1x2xui32>) -> tensor<32x2xui32>
    %45 = stablehlo.slice %42 [0:32, 1:2, 0:2] : (tensor<32x3x2xui32>) -> tensor<32x1x2xui32>
    %46 = stablehlo.reshape %45 : (tensor<32x1x2xui32>) -> tensor<32x2xui32>
    %47 = stablehlo.slice %42 [0:32, 2:3, 0:2] : (tensor<32x3x2xui32>) -> tensor<32x1x2xui32>
    %48 = stablehlo.reshape %47 : (tensor<32x1x2xui32>) -> tensor<32x2xui32>
    %49 = call @_threefry_split_115(%44) : (tensor<32x2xui32>) -> tensor<32x2x2xui32>
    %50 = stablehlo.slice %49 [0:32, 0:1, 0:2] : (tensor<32x2x2xui32>) -> tensor<32x1x2xui32>
    %51 = stablehlo.reshape %50 : (tensor<32x1x2xui32>) -> tensor<32x2xui32>
    %52 = call @_normal_130(%51) : (tensor<32x2xui32>) -> tensor<32x2560x2560xf32>
    %cst_4 = stablehlo.constant dense<0.00999999977> : tensor<f32>
    %53 = stablehlo.broadcast_in_dim %cst_4, dims = [] : (tensor<f32>) -> tensor<32x2560x2560xf32>
    %54 = stablehlo.multiply %52, %53 : tensor<32x2560x2560xf32>
    %cst_5 = stablehlo.constant dense<0.000000e+00> : tensor<f32>
    %55 = stablehlo.broadcast_in_dim %cst_5, dims = [] : (tensor<f32>) -> tensor<2560xf32>
    %56 = call @_threefry_split_115(%46) : (tensor<32x2xui32>) -> tensor<32x2x2xui32>
    %57 = stablehlo.slice %56 [0:32, 0:1, 0:2] : (tensor<32x2x2xui32>) -> tensor<32x1x2xui32>
    %58 = stablehlo.reshape %57 : (tensor<32x1x2xui32>) -> tensor<32x2xui32>
    %59 = call @_normal_130(%58) : (tensor<32x2xui32>) -> tensor<32x2560x2560xf32>
    %cst_6 = stablehlo.constant dense<0.00999999977> : tensor<f32>
    %60 = stablehlo.broadcast_in_dim %cst_6, dims = [] : (tensor<f32>) -> tensor<32x2560x2560xf32>
    %61 = stablehlo.multiply %59, %60 : tensor<32x2560x2560xf32>
    %cst_7 = stablehlo.constant dense<0.000000e+00> : tensor<f32>
    %62 = stablehlo.broadcast_in_dim %cst_7, dims = [] : (tensor<f32>) -> tensor<2560xf32>
    %63 = call @_threefry_split_115(%48) : (tensor<32x2xui32>) -> tensor<32x2x2xui32>
    %64 = stablehlo.slice %63 [0:32, 0:1, 0:2] : (tensor<32x2x2xui32>) -> tensor<32x1x2xui32>
    %65 = stablehlo.reshape %64 : (tensor<32x1x2xui32>) -> tensor<32x2xui32>
    %66 = call @_normal_130(%65) : (tensor<32x2xui32>) -> tensor<32x2560x2560xf32>
    %cst_8 = stablehlo.constant dense<0.00999999977> : tensor<f32>
    %67 = stablehlo.broadcast_in_dim %cst_8, dims = [] : (tensor<f32>) -> tensor<32x2560x2560xf32>
    %68 = stablehlo.multiply %66, %67 : tensor<32x2560x2560xf32>
    %cst_9 = stablehlo.constant dense<0.000000e+00> : tensor<f32>
    %69 = stablehlo.broadcast_in_dim %cst_9, dims = [] : (tensor<f32>) -> tensor<2560xf32>
    %70 = call @_threefry_split_115(%41) : (tensor<32x2xui32>) -> tensor<32x2x2xui32>
    %71 = stablehlo.slice %70 [0:32, 0:1, 0:2] : (tensor<32x2x2xui32>) -> tensor<32x1x2xui32>
    %72 = stablehlo.reshape %71 : (tensor<32x1x2xui32>) -> tensor<32x2xui32>
    %73 = call @_threefry_split_115(%72) : (tensor<32x2xui32>) -> tensor<32x2x2xui32>
    %74 = stablehlo.slice %73 [0:32, 0:1, 0:2] : (tensor<32x2x2xui32>) -> tensor<32x1x2xui32>
    %75 = stablehlo.reshape %74 : (tensor<32x1x2xui32>) -> tensor<32x2xui32>
    %76 = call @_normal_130(%75) : (tensor<32x2xui32>) -> tensor<32x2560x2560xf32>
    %cst_10 = stablehlo.constant dense<0.00999999977> : tensor<f32>
    %77 = stablehlo.broadcast_in_dim %cst_10, dims = [] : (tensor<f32>) -> tensor<32x2560x2560xf32>
    %78 = stablehlo.multiply %76, %77 : tensor<32x2560x2560xf32>
    %cst_11 = stablehlo.constant dense<0.000000e+00> : tensor<f32>
    %79 = stablehlo.broadcast_in_dim %cst_11, dims = [] : (tensor<f32>) -> tensor<2560xf32>
    %cst_12 = stablehlo.constant dense<1.000000e+00> : tensor<f32>
    %80 = stablehlo.broadcast_in_dim %cst_12, dims = [] : (tensor<f32>) -> tensor<2560xf32>
    %cst_13 = stablehlo.constant dense<0.000000e+00> : tensor<f32>
    %81 = stablehlo.broadcast_in_dim %cst_13, dims = [] : (tensor<f32>) -> tensor<2560xf32>
    %82 = call @_threefry_split_115(%34) : (tensor<32x2xui32>) -> tensor<32x2x2xui32>
    %83 = stablehlo.slice %82 [0:32, 0:1, 0:2] : (tensor<32x2x2xui32>) -> tensor<32x1x2xui32>
    %84 = stablehlo.reshape %83 : (tensor<32x1x2xui32>) -> tensor<32x2xui32>
    %85 = call @_normal_158(%84) : (tensor<32x2xui32>) -> tensor<32x10240x2560xf32>
    %cst_14 = stablehlo.constant dense<0.00999999977> : tensor<f32>
    %86 = stablehlo.broadcast_in_dim %cst_14, dims = [] : (tensor<f32>) -> tensor<32x10240x2560xf32>
    %87 = stablehlo.multiply %85, %86 : tensor<32x10240x2560xf32>
    %cst_15 = stablehlo.constant dense<0.000000e+00> : tensor<f32>
    %88 = stablehlo.broadcast_in_dim %cst_15, dims = [] : (tensor<f32>) -> tensor<10240xf32>
    %89 = call @_threefry_split_115(%36) : (tensor<32x2xui32>) -> tensor<32x2x2xui32>
    %90 = stablehlo.slice %89 [0:32, 0:1, 0:2] : (tensor<32x2x2xui32>) -> tensor<32x1x2xui32>
    %91 = stablehlo.reshape %90 : (tensor<32x1x2xui32>) -> tensor<32x2xui32>
    %92 = call @_threefry_split_115(%91) : (tensor<32x2xui32>) -> tensor<32x2x2xui32>
    %93 = stablehlo.slice %92 [0:32, 0:1, 0:2] : (tensor<32x2x2xui32>) -> tensor<32x1x2xui32>
    %94 = stablehlo.reshape %93 : (tensor<32x1x2xui32>) -> tensor<32x2xui32>
    %95 = call @_normal_183(%94) : (tensor<32x2xui32>) -> tensor<32x2560x10240xf32>
    %cst_16 = stablehlo.constant dense<0.00999999977> : tensor<f32>
    %96 = stablehlo.broadcast_in_dim %cst_16, dims = [] : (tensor<f32>) -> tensor<32x2560x10240xf32>
    %97 = stablehlo.multiply %95, %96 : tensor<32x2560x10240xf32>
    %cst_17 = stablehlo.constant dense<0.000000e+00> : tensor<f32>
    %98 = stablehlo.broadcast_in_dim %cst_17, dims = [] : (tensor<f32>) -> tensor<2560xf32>
    %cst_18 = stablehlo.constant dense<1.000000e+00> : tensor<f32>
    %99 = stablehlo.broadcast_in_dim %cst_18, dims = [] : (tensor<f32>) -> tensor<2560xf32>
    %cst_19 = stablehlo.constant dense<0.000000e+00> : tensor<f32>
    %100 = stablehlo.broadcast_in_dim %cst_19, dims = [] : (tensor<f32>) -> tensor<2560xf32>
    %101 = stablehlo.broadcast_in_dim %55, dims = [1] : (tensor<2560xf32>) -> tensor<32x2560xf32>
    %102 = stablehlo.broadcast_in_dim %62, dims = [1] : (tensor<2560xf32>) -> tensor<32x2560xf32>
    %103 = stablehlo.broadcast_in_dim %69, dims = [1] : (tensor<2560xf32>) -> tensor<32x2560xf32>
    %104 = stablehlo.broadcast_in_dim %79, dims = [1] : (tensor<2560xf32>) -> tensor<32x2560xf32>
    %105 = stablehlo.broadcast_in_dim %80, dims = [1] : (tensor<2560xf32>) -> tensor<32x2560xf32>
    %106 = stablehlo.broadcast_in_dim %81, dims = [1] : (tensor<2560xf32>) -> tensor<32x2560xf32>
    %107 = stablehlo.broadcast_in_dim %88, dims = [1] : (tensor<10240xf32>) -> tensor<32x10240xf32>
    %108 = stablehlo.broadcast_in_dim %98, dims = [1] : (tensor<2560xf32>) -> tensor<32x2560xf32>
    %109 = stablehlo.broadcast_in_dim %99, dims = [1] : (tensor<2560xf32>) -> tensor<32x2560xf32>
    %110 = stablehlo.broadcast_in_dim %100, dims = [1] : (tensor<2560xf32>) -> tensor<32x2560xf32>
    %111 = call @_threefry_split_210(%5) : (tensor<2xui32>) -> tensor<3x2xui32>
    %112 = stablehlo.slice %111 [0:1, 0:2] : (tensor<3x2xui32>) -> tensor<1x2xui32>
    %113 = stablehlo.reshape %112 : (tensor<1x2xui32>) -> tensor<2xui32>
    %114 = call @_threefry_split(%113) : (tensor<2xui32>) -> tensor<2x2xui32>
    %115 = stablehlo.slice %114 [0:1, 0:2] : (tensor<2x2xui32>) -> tensor<1x2xui32>
    %116 = stablehlo.reshape %115 : (tensor<1x2xui32>) -> tensor<2xui32>
    %117 = call @_normal_221(%116) : (tensor<2xui32>) -> tensor<2560x2560xf32>
    %cst_20 = stablehlo.constant dense<0.00999999977> : tensor<f32>
    %118 = stablehlo.broadcast_in_dim %cst_20, dims = [] : (tensor<f32>) -> tensor<2560x2560xf32>
    %119 = stablehlo.multiply %117, %118 : tensor<2560x2560xf32>
    %cst_21 = stablehlo.constant dense<0.000000e+00> : tensor<f32>
    %120 = stablehlo.broadcast_in_dim %cst_21, dims = [] : (tensor<f32>) -> tensor<2560xf32>
    %cst_22 = stablehlo.constant dense<1.000000e+00> : tensor<f32>
    %121 = stablehlo.broadcast_in_dim %cst_22, dims = [] : (tensor<f32>) -> tensor<2560xf32>
    %cst_23 = stablehlo.constant dense<0.000000e+00> : tensor<f32>
    %122 = stablehlo.broadcast_in_dim %cst_23, dims = [] : (tensor<f32>) -> tensor<2560xf32>
    %cst_24 = stablehlo.constant dense<0.000000e+00> : tensor<f32>
    %123 = stablehlo.broadcast_in_dim %cst_24, dims = [] : (tensor<f32>) -> tensor<30522xf32>
    %c = stablehlo.constant dense<0> : tensor<i32>
    return %c, %20, %23, %26, %27, %28, %54, %101, %61, %102, %68, %103, %78, %104, %105, %106, %87, %107, %97, %108, %109, %110, %119, %120, %121, %122, %20, %123 : tensor<i32>, tensor<30522x2560xf32>, tensor<512x2560xf32>, tensor<2x2560xf32>, tensor<2560xf32>, tensor<2560xf32>, tensor<32x2560x2560xf32>, tensor<32x2560xf32>, tensor<32x2560x2560xf32>, tensor<32x2560xf32>, tensor<32x2560x2560xf32>, tensor<32x2560xf32>, tensor<32x2560x2560xf32>, tensor<32x2560xf32>, tensor<32x2560xf32>, tensor<32x2560xf32>, tensor<32x10240x2560xf32>, tensor<32x10240xf32>, tensor<32x2560x10240xf32>, tensor<32x2560xf32>, tensor<32x2560xf32>, tensor<32x2560xf32>, tensor<2560x2560xf32>, tensor<2560xf32>, tensor<2560xf32>, tensor<2560xf32>, tensor<30522x2560xf32>, tensor<30522xf32>
  }
  func.func private @_threefry_split(%arg0: tensor<2xui32>) -> tensor<2x2xui32> {
    %0 = stablehlo.slice %arg0 [0:1] : (tensor<2xui32>) -> tensor<1xui32>
    %1 = stablehlo.reshape %0 : (tensor<1xui32>) -> tensor<ui32>
    %2 = stablehlo.slice %arg0 [1:2] : (tensor<2xui32>) -> tensor<1xui32>
    %3 = stablehlo.reshape %2 : (tensor<1xui32>) -> tensor<ui32>
    %4 = stablehlo.iota dim = 0 : tensor<2xui64>
    %c = stablehlo.constant dense<1> : tensor<ui64>
    %5 = stablehlo.broadcast_in_dim %c, dims = [] : (tensor<ui64>) -> tensor<2xui64>
    %6 = stablehlo.multiply %5, %4 : tensor<2xui64>
    %c_0 = stablehlo.constant dense<32> : tensor<ui64>
    %7 = stablehlo.broadcast_in_dim %c_0, dims = [] : (tensor<ui64>) -> tensor<2xui64>
    %8 = stablehlo.shift_right_logical %6, %7 : tensor<2xui64>
    %9 = stablehlo.convert %6 : (tensor<2xui64>) -> tensor<2xui32>
    %10 = stablehlo.convert %8 : (tensor<2xui64>) -> tensor<2xui32>
    %11:2 = call @threefry2x32(%1, %3, %10, %9) : (tensor<ui32>, tensor<ui32>, tensor<2xui32>, tensor<2xui32>) -> (tensor<2xui32>, tensor<2xui32>)
    %12 = stablehlo.broadcast_in_dim %11#0, dims = [0] : (tensor<2xui32>) -> tensor<2x1xui32>
    %13 = stablehlo.broadcast_in_dim %11#1, dims = [0] : (tensor<2xui32>) -> tensor<2x1xui32>
    %14 = stablehlo.concatenate %12, %13, dim = 1 : (tensor<2x1xui32>, tensor<2x1xui32>) -> tensor<2x2xui32>
    return %14 : tensor<2x2xui32>
  }
  func.func private @threefry2x32(%arg0: tensor<ui32>, %arg1: tensor<ui32>, %arg2: tensor<2xui32>, %arg3: tensor<2xui32>) -> (tensor<2xui32>, tensor<2xui32>) {
    %0 = stablehlo.xor %arg0, %arg1 : tensor<ui32>
    %c = stablehlo.constant dense<466688986> : tensor<ui32>
    %1 = stablehlo.xor %0, %c : tensor<ui32>
    %2 = stablehlo.broadcast_in_dim %arg0, dims = [] : (tensor<ui32>) -> tensor<2xui32>
    %3 = stablehlo.add %arg2, %2 : tensor<2xui32>
    %4 = stablehlo.broadcast_in_dim %arg1, dims = [] : (tensor<ui32>) -> tensor<2xui32>
    %5 = stablehlo.add %arg3, %4 : tensor<2xui32>
    %6 = stablehlo.add %3, %5 : tensor<2xui32>
    %c_0 = stablehlo.constant dense<13> : tensor<ui32>
    %7 = stablehlo.broadcast_in_dim %c_0, dims = [] : (tensor<ui32>) -> tensor<2xui32>
    %8 = stablehlo.shift_left %5, %7 : tensor<2xui32>
    %c_1 = stablehlo.constant dense<19> : tensor<ui32>
    %9 = stablehlo.broadcast_in_dim %c_1, dims = [] : (tensor<ui32>) -> tensor<2xui32>
    %10 = stablehlo.shift_right_logical %5, %9 : tensor<2xui32>
    %11 = stablehlo.or %8, %10 : tensor<2xui32>
    %12 = stablehlo.xor %6, %11 : tensor<2xui32>
    %13 = stablehlo.add %6, %12 : tensor<2xui32>
    %c_2 = stablehlo.constant dense<15> : tensor<ui32>
    %14 = stablehlo.broadcast_in_dim %c_2, dims = [] : (tensor<ui32>) -> tensor<2xui32>
    %15 = stablehlo.shift_left %12, %14 : tensor<2xui32>
    %c_3 = stablehlo.constant dense<17> : tensor<ui32>
    %16 = stablehlo.broadcast_in_dim %c_3, dims = [] : (tensor<ui32>) -> tensor<2xui32>
    %17 = stablehlo.shift_right_logical %12, %16 : tensor<2xui32>
    %18 = stablehlo.or %15, %17 : tensor<2xui32>
    %19 = stablehlo.xor %13, %18 : tensor<2xui32>
    %20 = stablehlo.add %13, %19 : tensor<2xui32>
    %c_4 = stablehlo.constant dense<26> : tensor<ui32>
    %21 = stablehlo.broadcast_in_dim %c_4, dims = [] : (tensor<ui32>) -> tensor<2xui32>
    %22 = stablehlo.shift_left %19, %21 : tensor<2xui32>
    %c_5 = stablehlo.constant dense<6> : tensor<ui32>
    %23 = stablehlo.broadcast_in_dim %c_5, dims = [] : (tensor<ui32>) -> tensor<2xui32>
    %24 = stablehlo.shift_right_logical %19, %23 : tensor<2xui32>
    %25 = stablehlo.or %22, %24 : tensor<2xui32>
    %26 = stablehlo.xor %20, %25 : tensor<2xui32>
    %27 = stablehlo.add %20, %26 : tensor<2xui32>
    %c_6 = stablehlo.constant dense<6> : tensor<ui32>
    %28 = stablehlo.broadcast_in_dim %c_6, dims = [] : (tensor<ui32>) -> tensor<2xui32>
    %29 = stablehlo.shift_left %26, %28 : tensor<2xui32>
    %c_7 = stablehlo.constant dense<26> : tensor<ui32>
    %30 = stablehlo.broadcast_in_dim %c_7, dims = [] : (tensor<ui32>) -> tensor<2xui32>
    %31 = stablehlo.shift_right_logical %26, %30 : tensor<2xui32>
    %32 = stablehlo.or %29, %31 : tensor<2xui32>
    %33 = stablehlo.xor %27, %32 : tensor<2xui32>
    %34 = stablehlo.broadcast_in_dim %arg1, dims = [] : (tensor<ui32>) -> tensor<2xui32>
    %35 = stablehlo.add %27, %34 : tensor<2xui32>
    %36 = stablehlo.broadcast_in_dim %1, dims = [] : (tensor<ui32>) -> tensor<2xui32>
    %37 = stablehlo.add %33, %36 : tensor<2xui32>
    %c_8 = stablehlo.constant dense<1> : tensor<ui32>
    %38 = stablehlo.broadcast_in_dim %c_8, dims = [] : (tensor<ui32>) -> tensor<2xui32>
    %39 = stablehlo.add %37, %38 : tensor<2xui32>
    %40 = stablehlo.add %35, %39 : tensor<2xui32>
    %c_9 = stablehlo.constant dense<17> : tensor<ui32>
    %41 = stablehlo.broadcast_in_dim %c_9, dims = [] : (tensor<ui32>) -> tensor<2xui32>
    %42 = stablehlo.shift_left %39, %41 : tensor<2xui32>
    %c_10 = stablehlo.constant dense<15> : tensor<ui32>
    %43 = stablehlo.broadcast_in_dim %c_10, dims = [] : (tensor<ui32>) -> tensor<2xui32>
    %44 = stablehlo.shift_right_logical %39, %43 : tensor<2xui32>
    %45 = stablehlo.or %42, %44 : tensor<2xui32>
    %46 = stablehlo.xor %40, %45 : tensor<2xui32>
    %47 = stablehlo.add %40, %46 : tensor<2xui32>
    %c_11 = stablehlo.constant dense<29> : tensor<ui32>
    %48 = stablehlo.broadcast_in_dim %c_11, dims = [] : (tensor<ui32>) -> tensor<2xui32>
    %49 = stablehlo.shift_left %46, %48 : tensor<2xui32>
    %c_12 = stablehlo.constant dense<3> : tensor<ui32>
    %50 = stablehlo.broadcast_in_dim %c_12, dims = [] : (tensor<ui32>) -> tensor<2xui32>
    %51 = stablehlo.shift_right_logical %46, %50 : tensor<2xui32>
    %52 = stablehlo.or %49, %51 : tensor<2xui32>
    %53 = stablehlo.xor %47, %52 : tensor<2xui32>
    %54 = stablehlo.add %47, %53 : tensor<2xui32>
    %c_13 = stablehlo.constant dense<16> : tensor<ui32>
    %55 = stablehlo.broadcast_in_dim %c_13, dims = [] : (tensor<ui32>) -> tensor<2xui32>
    %56 = stablehlo.shift_left %53, %55 : tensor<2xui32>
    %c_14 = stablehlo.constant dense<16> : tensor<ui32>
    %57 = stablehlo.broadcast_in_dim %c_14, dims = [] : (tensor<ui32>) -> tensor<2xui32>
    %58 = stablehlo.shift_right_logical %53, %57 : tensor<2xui32>
    %59 = stablehlo.or %56, %58 : tensor<2xui32>
    %60 = stablehlo.xor %54, %59 : tensor<2xui32>
    %61 = stablehlo.add %54, %60 : tensor<2xui32>
    %c_15 = stablehlo.constant dense<24> : tensor<ui32>
    %62 = stablehlo.broadcast_in_dim %c_15, dims = [] : (tensor<ui32>) -> tensor<2xui32>
    %63 = stablehlo.shift_left %60, %62 : tensor<2xui32>
    %c_16 = stablehlo.constant dense<8> : tensor<ui32>
    %64 = stablehlo.broadcast_in_dim %c_16, dims = [] : (tensor<ui32>) -> tensor<2xui32>
    %65 = stablehlo.shift_right_logical %60, %64 : tensor<2xui32>
    %66 = stablehlo.or %63, %65 : tensor<2xui32>
    %67 = stablehlo.xor %61, %66 : tensor<2xui32>
    %68 = stablehlo.broadcast_in_dim %1, dims = [] : (tensor<ui32>) -> tensor<2xui32>
    %69 = stablehlo.add %61, %68 : tensor<2xui32>
    %70 = stablehlo.broadcast_in_dim %arg0, dims = [] : (tensor<ui32>) -> tensor<2xui32>
    %71 = stablehlo.add %67, %70 : tensor<2xui32>
    %c_17 = stablehlo.constant dense<2> : tensor<ui32>
    %72 = stablehlo.broadcast_in_dim %c_17, dims = [] : (tensor<ui32>) -> tensor<2xui32>
    %73 = stablehlo.add %71, %72 : tensor<2xui32>
    %74 = stablehlo.add %69, %73 : tensor<2xui32>
    %c_18 = stablehlo.constant dense<13> : tensor<ui32>
    %75 = stablehlo.broadcast_in_dim %c_18, dims = [] : (tensor<ui32>) -> tensor<2xui32>
    %76 = stablehlo.shift_left %73, %75 : tensor<2xui32>
    %c_19 = stablehlo.constant dense<19> : tensor<ui32>
    %77 = stablehlo.broadcast_in_dim %c_19, dims = [] : (tensor<ui32>) -> tensor<2xui32>
    %78 = stablehlo.shift_right_logical %73, %77 : tensor<2xui32>
    %79 = stablehlo.or %76, %78 : tensor<2xui32>
    %80 = stablehlo.xor %74, %79 : tensor<2xui32>
    %81 = stablehlo.add %74, %80 : tensor<2xui32>
    %c_20 = stablehlo.constant dense<15> : tensor<ui32>
    %82 = stablehlo.broadcast_in_dim %c_20, dims = [] : (tensor<ui32>) -> tensor<2xui32>
    %83 = stablehlo.shift_left %80, %82 : tensor<2xui32>
    %c_21 = stablehlo.constant dense<17> : tensor<ui32>
    %84 = stablehlo.broadcast_in_dim %c_21, dims = [] : (tensor<ui32>) -> tensor<2xui32>
    %85 = stablehlo.shift_right_logical %80, %84 : tensor<2xui32>
    %86 = stablehlo.or %83, %85 : tensor<2xui32>
    %87 = stablehlo.xor %81, %86 : tensor<2xui32>
    %88 = stablehlo.add %81, %87 : tensor<2xui32>
    %c_22 = stablehlo.constant dense<26> : tensor<ui32>
    %89 = stablehlo.broadcast_in_dim %c_22, dims = [] : (tensor<ui32>) -> tensor<2xui32>
    %90 = stablehlo.shift_left %87, %89 : tensor<2xui32>
    %c_23 = stablehlo.constant dense<6> : tensor<ui32>
    %91 = stablehlo.broadcast_in_dim %c_23, dims = [] : (tensor<ui32>) -> tensor<2xui32>
    %92 = stablehlo.shift_right_logical %87, %91 : tensor<2xui32>
    %93 = stablehlo.or %90, %92 : tensor<2xui32>
    %94 = stablehlo.xor %88, %93 : tensor<2xui32>
    %95 = stablehlo.add %88, %94 : tensor<2xui32>
    %c_24 = stablehlo.constant dense<6> : tensor<ui32>
    %96 = stablehlo.broadcast_in_dim %c_24, dims = [] : (tensor<ui32>) -> tensor<2xui32>
    %97 = stablehlo.shift_left %94, %96 : tensor<2xui32>
    %c_25 = stablehlo.constant dense<26> : tensor<ui32>
    %98 = stablehlo.broadcast_in_dim %c_25, dims = [] : (tensor<ui32>) -> tensor<2xui32>
    %99 = stablehlo.shift_right_logical %94, %98 : tensor<2xui32>
    %100 = stablehlo.or %97, %99 : tensor<2xui32>
    %101 = stablehlo.xor %95, %100 : tensor<2xui32>
    %102 = stablehlo.broadcast_in_dim %arg0, dims = [] : (tensor<ui32>) -> tensor<2xui32>
    %103 = stablehlo.add %95, %102 : tensor<2xui32>
    %104 = stablehlo.broadcast_in_dim %arg1, dims = [] : (tensor<ui32>) -> tensor<2xui32>
    %105 = stablehlo.add %101, %104 : tensor<2xui32>
    %c_26 = stablehlo.constant dense<3> : tensor<ui32>
    %106 = stablehlo.broadcast_in_dim %c_26, dims = [] : (tensor<ui32>) -> tensor<2xui32>
    %107 = stablehlo.add %105, %106 : tensor<2xui32>
    %108 = stablehlo.add %103, %107 : tensor<2xui32>
    %c_27 = stablehlo.constant dense<17> : tensor<ui32>
    %109 = stablehlo.broadcast_in_dim %c_27, dims = [] : (tensor<ui32>) -> tensor<2xui32>
    %110 = stablehlo.shift_left %107, %109 : tensor<2xui32>
    %c_28 = stablehlo.constant dense<15> : tensor<ui32>
    %111 = stablehlo.broadcast_in_dim %c_28, dims = [] : (tensor<ui32>) -> tensor<2xui32>
    %112 = stablehlo.shift_right_logical %107, %111 : tensor<2xui32>
    %113 = stablehlo.or %110, %112 : tensor<2xui32>
    %114 = stablehlo.xor %108, %113 : tensor<2xui32>
    %115 = stablehlo.add %108, %114 : tensor<2xui32>
    %c_29 = stablehlo.constant dense<29> : tensor<ui32>
    %116 = stablehlo.broadcast_in_dim %c_29, dims = [] : (tensor<ui32>) -> tensor<2xui32>
    %117 = stablehlo.shift_left %114, %116 : tensor<2xui32>
    %c_30 = stablehlo.constant dense<3> : tensor<ui32>
    %118 = stablehlo.broadcast_in_dim %c_30, dims = [] : (tensor<ui32>) -> tensor<2xui32>
    %119 = stablehlo.shift_right_logical %114, %118 : tensor<2xui32>
    %120 = stablehlo.or %117, %119 : tensor<2xui32>
    %121 = stablehlo.xor %115, %120 : tensor<2xui32>
    %122 = stablehlo.add %115, %121 : tensor<2xui32>
    %c_31 = stablehlo.constant dense<16> : tensor<ui32>
    %123 = stablehlo.broadcast_in_dim %c_31, dims = [] : (tensor<ui32>) -> tensor<2xui32>
    %124 = stablehlo.shift_left %121, %123 : tensor<2xui32>
    %c_32 = stablehlo.constant dense<16> : tensor<ui32>
    %125 = stablehlo.broadcast_in_dim %c_32, dims = [] : (tensor<ui32>) -> tensor<2xui32>
    %126 = stablehlo.shift_right_logical %121, %125 : tensor<2xui32>
    %127 = stablehlo.or %124, %126 : tensor<2xui32>
    %128 = stablehlo.xor %122, %127 : tensor<2xui32>
    %129 = stablehlo.add %122, %128 : tensor<2xui32>
    %c_33 = stablehlo.constant dense<24> : tensor<ui32>
    %130 = stablehlo.broadcast_in_dim %c_33, dims = [] : (tensor<ui32>) -> tensor<2xui32>
    %131 = stablehlo.shift_left %128, %130 : tensor<2xui32>
    %c_34 = stablehlo.constant dense<8> : tensor<ui32>
    %132 = stablehlo.broadcast_in_dim %c_34, dims = [] : (tensor<ui32>) -> tensor<2xui32>
    %133 = stablehlo.shift_right_logical %128, %132 : tensor<2xui32>
    %134 = stablehlo.or %131, %133 : tensor<2xui32>
    %135 = stablehlo.xor %129, %134 : tensor<2xui32>
    %136 = stablehlo.broadcast_in_dim %arg1, dims = [] : (tensor<ui32>) -> tensor<2xui32>
    %137 = stablehlo.add %129, %136 : tensor<2xui32>
    %138 = stablehlo.broadcast_in_dim %1, dims = [] : (tensor<ui32>) -> tensor<2xui32>
    %139 = stablehlo.add %135, %138 : tensor<2xui32>
    %c_35 = stablehlo.constant dense<4> : tensor<ui32>
    %140 = stablehlo.broadcast_in_dim %c_35, dims = [] : (tensor<ui32>) -> tensor<2xui32>
    %141 = stablehlo.add %139, %140 : tensor<2xui32>
    %142 = stablehlo.add %137, %141 : tensor<2xui32>
    %c_36 = stablehlo.constant dense<13> : tensor<ui32>
    %143 = stablehlo.broadcast_in_dim %c_36, dims = [] : (tensor<ui32>) -> tensor<2xui32>
    %144 = stablehlo.shift_left %141, %143 : tensor<2xui32>
    %c_37 = stablehlo.constant dense<19> : tensor<ui32>
    %145 = stablehlo.broadcast_in_dim %c_37, dims = [] : (tensor<ui32>) -> tensor<2xui32>
    %146 = stablehlo.shift_right_logical %141, %145 : tensor<2xui32>
    %147 = stablehlo.or %144, %146 : tensor<2xui32>
    %148 = stablehlo.xor %142, %147 : tensor<2xui32>
    %149 = stablehlo.add %142, %148 : tensor<2xui32>
    %c_38 = stablehlo.constant dense<15> : tensor<ui32>
    %150 = stablehlo.broadcast_in_dim %c_38, dims = [] : (tensor<ui32>) -> tensor<2xui32>
    %151 = stablehlo.shift_left %148, %150 : tensor<2xui32>
    %c_39 = stablehlo.constant dense<17> : tensor<ui32>
    %152 = stablehlo.broadcast_in_dim %c_39, dims = [] : (tensor<ui32>) -> tensor<2xui32>
    %153 = stablehlo.shift_right_logical %148, %152 : tensor<2xui32>
    %154 = stablehlo.or %151, %153 : tensor<2xui32>
    %155 = stablehlo.xor %149, %154 : tensor<2xui32>
    %156 = stablehlo.add %149, %155 : tensor<2xui32>
    %c_40 = stablehlo.constant dense<26> : tensor<ui32>
    %157 = stablehlo.broadcast_in_dim %c_40, dims = [] : (tensor<ui32>) -> tensor<2xui32>
    %158 = stablehlo.shift_left %155, %157 : tensor<2xui32>
    %c_41 = stablehlo.constant dense<6> : tensor<ui32>
    %159 = stablehlo.broadcast_in_dim %c_41, dims = [] : (tensor<ui32>) -> tensor<2xui32>
    %160 = stablehlo.shift_right_logical %155, %159 : tensor<2xui32>
    %161 = stablehlo.or %158, %160 : tensor<2xui32>
    %162 = stablehlo.xor %156, %161 : tensor<2xui32>
    %163 = stablehlo.add %156, %162 : tensor<2xui32>
    %c_42 = stablehlo.constant dense<6> : tensor<ui32>
    %164 = stablehlo.broadcast_in_dim %c_42, dims = [] : (tensor<ui32>) -> tensor<2xui32>
    %165 = stablehlo.shift_left %162, %164 : tensor<2xui32>
    %c_43 = stablehlo.constant dense<26> : tensor<ui32>
    %166 = stablehlo.broadcast_in_dim %c_43, dims = [] : (tensor<ui32>) -> tensor<2xui32>
    %167 = stablehlo.shift_right_logical %162, %166 : tensor<2xui32>
    %168 = stablehlo.or %165, %167 : tensor<2xui32>
    %169 = stablehlo.xor %163, %168 : tensor<2xui32>
    %170 = stablehlo.broadcast_in_dim %1, dims = [] : (tensor<ui32>) -> tensor<2xui32>
    %171 = stablehlo.add %163, %170 : tensor<2xui32>
    %172 = stablehlo.broadcast_in_dim %arg0, dims = [] : (tensor<ui32>) -> tensor<2xui32>
    %173 = stablehlo.add %169, %172 : tensor<2xui32>
    %c_44 = stablehlo.constant dense<5> : tensor<ui32>
    %174 = stablehlo.broadcast_in_dim %c_44, dims = [] : (tensor<ui32>) -> tensor<2xui32>
    %175 = stablehlo.add %173, %174 : tensor<2xui32>
    return %171, %175 : tensor<2xui32>, tensor<2xui32>
  }
  func.func private @_threefry_split_7(%arg0: tensor<2xui32>) -> tensor<4x2xui32> {
    %0 = stablehlo.slice %arg0 [0:1] : (tensor<2xui32>) -> tensor<1xui32>
    %1 = stablehlo.reshape %0 : (tensor<1xui32>) -> tensor<ui32>
    %2 = stablehlo.slice %arg0 [1:2] : (tensor<2xui32>) -> tensor<1xui32>
    %3 = stablehlo.reshape %2 : (tensor<1xui32>) -> tensor<ui32>
    %4 = stablehlo.iota dim = 0 : tensor<4xui64>
    %c = stablehlo.constant dense<1> : tensor<ui64>
    %5 = stablehlo.broadcast_in_dim %c, dims = [] : (tensor<ui64>) -> tensor<4xui64>
    %6 = stablehlo.multiply %5, %4 : tensor<4xui64>
    %c_0 = stablehlo.constant dense<32> : tensor<ui64>
    %7 = stablehlo.broadcast_in_dim %c_0, dims = [] : (tensor<ui64>) -> tensor<4xui64>
    %8 = stablehlo.shift_right_logical %6, %7 : tensor<4xui64>
    %9 = stablehlo.convert %6 : (tensor<4xui64>) -> tensor<4xui32>
    %10 = stablehlo.convert %8 : (tensor<4xui64>) -> tensor<4xui32>
    %11:2 = call @threefry2x32_9(%1, %3, %10, %9) : (tensor<ui32>, tensor<ui32>, tensor<4xui32>, tensor<4xui32>) -> (tensor<4xui32>, tensor<4xui32>)
    %12 = stablehlo.broadcast_in_dim %11#0, dims = [0] : (tensor<4xui32>) -> tensor<4x1xui32>
    %13 = stablehlo.broadcast_in_dim %11#1, dims = [0] : (tensor<4xui32>) -> tensor<4x1xui32>
    %14 = stablehlo.concatenate %12, %13, dim = 1 : (tensor<4x1xui32>, tensor<4x1xui32>) -> tensor<4x2xui32>
    return %14 : tensor<4x2xui32>
  }
  func.func private @threefry2x32_9(%arg0: tensor<ui32>, %arg1: tensor<ui32>, %arg2: tensor<4xui32>, %arg3: tensor<4xui32>) -> (tensor<4xui32>, tensor<4xui32>) {
    %0 = stablehlo.xor %arg0, %arg1 : tensor<ui32>
    %c = stablehlo.constant dense<466688986> : tensor<ui32>
    %1 = stablehlo.xor %0, %c : tensor<ui32>
    %2 = stablehlo.broadcast_in_dim %arg0, dims = [] : (tensor<ui32>) -> tensor<4xui32>
    %3 = stablehlo.add %arg2, %2 : tensor<4xui32>
    %4 = stablehlo.broadcast_in_dim %arg1, dims = [] : (tensor<ui32>) -> tensor<4xui32>
    %5 = stablehlo.add %arg3, %4 : tensor<4xui32>
    %6 = stablehlo.add %3, %5 : tensor<4xui32>
    %c_0 = stablehlo.constant dense<13> : tensor<ui32>
    %7 = stablehlo.broadcast_in_dim %c_0, dims = [] : (tensor<ui32>) -> tensor<4xui32>
    %8 = stablehlo.shift_left %5, %7 : tensor<4xui32>
    %c_1 = stablehlo.constant dense<19> : tensor<ui32>
    %9 = stablehlo.broadcast_in_dim %c_1, dims = [] : (tensor<ui32>) -> tensor<4xui32>
    %10 = stablehlo.shift_right_logical %5, %9 : tensor<4xui32>
    %11 = stablehlo.or %8, %10 : tensor<4xui32>
    %12 = stablehlo.xor %6, %11 : tensor<4xui32>
    %13 = stablehlo.add %6, %12 : tensor<4xui32>
    %c_2 = stablehlo.constant dense<15> : tensor<ui32>
    %14 = stablehlo.broadcast_in_dim %c_2, dims = [] : (tensor<ui32>) -> tensor<4xui32>
    %15 = stablehlo.shift_left %12, %14 : tensor<4xui32>
    %c_3 = stablehlo.constant dense<17> : tensor<ui32>
    %16 = stablehlo.broadcast_in_dim %c_3, dims = [] : (tensor<ui32>) -> tensor<4xui32>
    %17 = stablehlo.shift_right_logical %12, %16 : tensor<4xui32>
    %18 = stablehlo.or %15, %17 : tensor<4xui32>
    %19 = stablehlo.xor %13, %18 : tensor<4xui32>
    %20 = stablehlo.add %13, %19 : tensor<4xui32>
    %c_4 = stablehlo.constant dense<26> : tensor<ui32>
    %21 = stablehlo.broadcast_in_dim %c_4, dims = [] : (tensor<ui32>) -> tensor<4xui32>
    %22 = stablehlo.shift_left %19, %21 : tensor<4xui32>
    %c_5 = stablehlo.constant dense<6> : tensor<ui32>
    %23 = stablehlo.broadcast_in_dim %c_5, dims = [] : (tensor<ui32>) -> tensor<4xui32>
    %24 = stablehlo.shift_right_logical %19, %23 : tensor<4xui32>
    %25 = stablehlo.or %22, %24 : tensor<4xui32>
    %26 = stablehlo.xor %20, %25 : tensor<4xui32>
    %27 = stablehlo.add %20, %26 : tensor<4xui32>
    %c_6 = stablehlo.constant dense<6> : tensor<ui32>
    %28 = stablehlo.broadcast_in_dim %c_6, dims = [] : (tensor<ui32>) -> tensor<4xui32>
    %29 = stablehlo.shift_left %26, %28 : tensor<4xui32>
    %c_7 = stablehlo.constant dense<26> : tensor<ui32>
    %30 = stablehlo.broadcast_in_dim %c_7, dims = [] : (tensor<ui32>) -> tensor<4xui32>
    %31 = stablehlo.shift_right_logical %26, %30 : tensor<4xui32>
    %32 = stablehlo.or %29, %31 : tensor<4xui32>
    %33 = stablehlo.xor %27, %32 : tensor<4xui32>
    %34 = stablehlo.broadcast_in_dim %arg1, dims = [] : (tensor<ui32>) -> tensor<4xui32>
    %35 = stablehlo.add %27, %34 : tensor<4xui32>
    %36 = stablehlo.broadcast_in_dim %1, dims = [] : (tensor<ui32>) -> tensor<4xui32>
    %37 = stablehlo.add %33, %36 : tensor<4xui32>
    %c_8 = stablehlo.constant dense<1> : tensor<ui32>
    %38 = stablehlo.broadcast_in_dim %c_8, dims = [] : (tensor<ui32>) -> tensor<4xui32>
    %39 = stablehlo.add %37, %38 : tensor<4xui32>
    %40 = stablehlo.add %35, %39 : tensor<4xui32>
    %c_9 = stablehlo.constant dense<17> : tensor<ui32>
    %41 = stablehlo.broadcast_in_dim %c_9, dims = [] : (tensor<ui32>) -> tensor<4xui32>
    %42 = stablehlo.shift_left %39, %41 : tensor<4xui32>
    %c_10 = stablehlo.constant dense<15> : tensor<ui32>
    %43 = stablehlo.broadcast_in_dim %c_10, dims = [] : (tensor<ui32>) -> tensor<4xui32>
    %44 = stablehlo.shift_right_logical %39, %43 : tensor<4xui32>
    %45 = stablehlo.or %42, %44 : tensor<4xui32>
    %46 = stablehlo.xor %40, %45 : tensor<4xui32>
    %47 = stablehlo.add %40, %46 : tensor<4xui32>
    %c_11 = stablehlo.constant dense<29> : tensor<ui32>
    %48 = stablehlo.broadcast_in_dim %c_11, dims = [] : (tensor<ui32>) -> tensor<4xui32>
    %49 = stablehlo.shift_left %46, %48 : tensor<4xui32>
    %c_12 = stablehlo.constant dense<3> : tensor<ui32>
    %50 = stablehlo.broadcast_in_dim %c_12, dims = [] : (tensor<ui32>) -> tensor<4xui32>
    %51 = stablehlo.shift_right_logical %46, %50 : tensor<4xui32>
    %52 = stablehlo.or %49, %51 : tensor<4xui32>
    %53 = stablehlo.xor %47, %52 : tensor<4xui32>
    %54 = stablehlo.add %47, %53 : tensor<4xui32>
    %c_13 = stablehlo.constant dense<16> : tensor<ui32>
    %55 = stablehlo.broadcast_in_dim %c_13, dims = [] : (tensor<ui32>) -> tensor<4xui32>
    %56 = stablehlo.shift_left %53, %55 : tensor<4xui32>
    %c_14 = stablehlo.constant dense<16> : tensor<ui32>
    %57 = stablehlo.broadcast_in_dim %c_14, dims = [] : (tensor<ui32>) -> tensor<4xui32>
    %58 = stablehlo.shift_right_logical %53, %57 : tensor<4xui32>
    %59 = stablehlo.or %56, %58 : tensor<4xui32>
    %60 = stablehlo.xor %54, %59 : tensor<4xui32>
    %61 = stablehlo.add %54, %60 : tensor<4xui32>
    %c_15 = stablehlo.constant dense<24> : tensor<ui32>
    %62 = stablehlo.broadcast_in_dim %c_15, dims = [] : (tensor<ui32>) -> tensor<4xui32>
    %63 = stablehlo.shift_left %60, %62 : tensor<4xui32>
    %c_16 = stablehlo.constant dense<8> : tensor<ui32>
    %64 = stablehlo.broadcast_in_dim %c_16, dims = [] : (tensor<ui32>) -> tensor<4xui32>
    %65 = stablehlo.shift_right_logical %60, %64 : tensor<4xui32>
    %66 = stablehlo.or %63, %65 : tensor<4xui32>
    %67 = stablehlo.xor %61, %66 : tensor<4xui32>
    %68 = stablehlo.broadcast_in_dim %1, dims = [] : (tensor<ui32>) -> tensor<4xui32>
    %69 = stablehlo.add %61, %68 : tensor<4xui32>
    %70 = stablehlo.broadcast_in_dim %arg0, dims = [] : (tensor<ui32>) -> tensor<4xui32>
    %71 = stablehlo.add %67, %70 : tensor<4xui32>
    %c_17 = stablehlo.constant dense<2> : tensor<ui32>
    %72 = stablehlo.broadcast_in_dim %c_17, dims = [] : (tensor<ui32>) -> tensor<4xui32>
    %73 = stablehlo.add %71, %72 : tensor<4xui32>
    %74 = stablehlo.add %69, %73 : tensor<4xui32>
    %c_18 = stablehlo.constant dense<13> : tensor<ui32>
    %75 = stablehlo.broadcast_in_dim %c_18, dims = [] : (tensor<ui32>) -> tensor<4xui32>
    %76 = stablehlo.shift_left %73, %75 : tensor<4xui32>
    %c_19 = stablehlo.constant dense<19> : tensor<ui32>
    %77 = stablehlo.broadcast_in_dim %c_19, dims = [] : (tensor<ui32>) -> tensor<4xui32>
    %78 = stablehlo.shift_right_logical %73, %77 : tensor<4xui32>
    %79 = stablehlo.or %76, %78 : tensor<4xui32>
    %80 = stablehlo.xor %74, %79 : tensor<4xui32>
    %81 = stablehlo.add %74, %80 : tensor<4xui32>
    %c_20 = stablehlo.constant dense<15> : tensor<ui32>
    %82 = stablehlo.broadcast_in_dim %c_20, dims = [] : (tensor<ui32>) -> tensor<4xui32>
    %83 = stablehlo.shift_left %80, %82 : tensor<4xui32>
    %c_21 = stablehlo.constant dense<17> : tensor<ui32>
    %84 = stablehlo.broadcast_in_dim %c_21, dims = [] : (tensor<ui32>) -> tensor<4xui32>
    %85 = stablehlo.shift_right_logical %80, %84 : tensor<4xui32>
    %86 = stablehlo.or %83, %85 : tensor<4xui32>
    %87 = stablehlo.xor %81, %86 : tensor<4xui32>
    %88 = stablehlo.add %81, %87 : tensor<4xui32>
    %c_22 = stablehlo.constant dense<26> : tensor<ui32>
    %89 = stablehlo.broadcast_in_dim %c_22, dims = [] : (tensor<ui32>) -> tensor<4xui32>
    %90 = stablehlo.shift_left %87, %89 : tensor<4xui32>
    %c_23 = stablehlo.constant dense<6> : tensor<ui32>
    %91 = stablehlo.broadcast_in_dim %c_23, dims = [] : (tensor<ui32>) -> tensor<4xui32>
    %92 = stablehlo.shift_right_logical %87, %91 : tensor<4xui32>
    %93 = stablehlo.or %90, %92 : tensor<4xui32>
    %94 = stablehlo.xor %88, %93 : tensor<4xui32>
    %95 = stablehlo.add %88, %94 : tensor<4xui32>
    %c_24 = stablehlo.constant dense<6> : tensor<ui32>
    %96 = stablehlo.broadcast_in_dim %c_24, dims = [] : (tensor<ui32>) -> tensor<4xui32>
    %97 = stablehlo.shift_left %94, %96 : tensor<4xui32>
    %c_25 = stablehlo.constant dense<26> : tensor<ui32>
    %98 = stablehlo.broadcast_in_dim %c_25, dims = [] : (tensor<ui32>) -> tensor<4xui32>
    %99 = stablehlo.shift_right_logical %94, %98 : tensor<4xui32>
    %100 = stablehlo.or %97, %99 : tensor<4xui32>
    %101 = stablehlo.xor %95, %100 : tensor<4xui32>
    %102 = stablehlo.broadcast_in_dim %arg0, dims = [] : (tensor<ui32>) -> tensor<4xui32>
    %103 = stablehlo.add %95, %102 : tensor<4xui32>
    %104 = stablehlo.broadcast_in_dim %arg1, dims = [] : (tensor<ui32>) -> tensor<4xui32>
    %105 = stablehlo.add %101, %104 : tensor<4xui32>
    %c_26 = stablehlo.constant dense<3> : tensor<ui32>
    %106 = stablehlo.broadcast_in_dim %c_26, dims = [] : (tensor<ui32>) -> tensor<4xui32>
    %107 = stablehlo.add %105, %106 : tensor<4xui32>
    %108 = stablehlo.add %103, %107 : tensor<4xui32>
    %c_27 = stablehlo.constant dense<17> : tensor<ui32>
    %109 = stablehlo.broadcast_in_dim %c_27, dims = [] : (tensor<ui32>) -> tensor<4xui32>
    %110 = stablehlo.shift_left %107, %109 : tensor<4xui32>
    %c_28 = stablehlo.constant dense<15> : tensor<ui32>
    %111 = stablehlo.broadcast_in_dim %c_28, dims = [] : (tensor<ui32>) -> tensor<4xui32>
    %112 = stablehlo.shift_right_logical %107, %111 : tensor<4xui32>
    %113 = stablehlo.or %110, %112 : tensor<4xui32>
    %114 = stablehlo.xor %108, %113 : tensor<4xui32>
    %115 = stablehlo.add %108, %114 : tensor<4xui32>
    %c_29 = stablehlo.constant dense<29> : tensor<ui32>
    %116 = stablehlo.broadcast_in_dim %c_29, dims = [] : (tensor<ui32>) -> tensor<4xui32>
    %117 = stablehlo.shift_left %114, %116 : tensor<4xui32>
    %c_30 = stablehlo.constant dense<3> : tensor<ui32>
    %118 = stablehlo.broadcast_in_dim %c_30, dims = [] : (tensor<ui32>) -> tensor<4xui32>
    %119 = stablehlo.shift_right_logical %114, %118 : tensor<4xui32>
    %120 = stablehlo.or %117, %119 : tensor<4xui32>
    %121 = stablehlo.xor %115, %120 : tensor<4xui32>
    %122 = stablehlo.add %115, %121 : tensor<4xui32>
    %c_31 = stablehlo.constant dense<16> : tensor<ui32>
    %123 = stablehlo.broadcast_in_dim %c_31, dims = [] : (tensor<ui32>) -> tensor<4xui32>
    %124 = stablehlo.shift_left %121, %123 : tensor<4xui32>
    %c_32 = stablehlo.constant dense<16> : tensor<ui32>
    %125 = stablehlo.broadcast_in_dim %c_32, dims = [] : (tensor<ui32>) -> tensor<4xui32>
    %126 = stablehlo.shift_right_logical %121, %125 : tensor<4xui32>
    %127 = stablehlo.or %124, %126 : tensor<4xui32>
    %128 = stablehlo.xor %122, %127 : tensor<4xui32>
    %129 = stablehlo.add %122, %128 : tensor<4xui32>
    %c_33 = stablehlo.constant dense<24> : tensor<ui32>
    %130 = stablehlo.broadcast_in_dim %c_33, dims = [] : (tensor<ui32>) -> tensor<4xui32>
    %131 = stablehlo.shift_left %128, %130 : tensor<4xui32>
    %c_34 = stablehlo.constant dense<8> : tensor<ui32>
    %132 = stablehlo.broadcast_in_dim %c_34, dims = [] : (tensor<ui32>) -> tensor<4xui32>
    %133 = stablehlo.shift_right_logical %128, %132 : tensor<4xui32>
    %134 = stablehlo.or %131, %133 : tensor<4xui32>
    %135 = stablehlo.xor %129, %134 : tensor<4xui32>
    %136 = stablehlo.broadcast_in_dim %arg1, dims = [] : (tensor<ui32>) -> tensor<4xui32>
    %137 = stablehlo.add %129, %136 : tensor<4xui32>
    %138 = stablehlo.broadcast_in_dim %1, dims = [] : (tensor<ui32>) -> tensor<4xui32>
    %139 = stablehlo.add %135, %138 : tensor<4xui32>
    %c_35 = stablehlo.constant dense<4> : tensor<ui32>
    %140 = stablehlo.broadcast_in_dim %c_35, dims = [] : (tensor<ui32>) -> tensor<4xui32>
    %141 = stablehlo.add %139, %140 : tensor<4xui32>
    %142 = stablehlo.add %137, %141 : tensor<4xui32>
    %c_36 = stablehlo.constant dense<13> : tensor<ui32>
    %143 = stablehlo.broadcast_in_dim %c_36, dims = [] : (tensor<ui32>) -> tensor<4xui32>
    %144 = stablehlo.shift_left %141, %143 : tensor<4xui32>
    %c_37 = stablehlo.constant dense<19> : tensor<ui32>
    %145 = stablehlo.broadcast_in_dim %c_37, dims = [] : (tensor<ui32>) -> tensor<4xui32>
    %146 = stablehlo.shift_right_logical %141, %145 : tensor<4xui32>
    %147 = stablehlo.or %144, %146 : tensor<4xui32>
    %148 = stablehlo.xor %142, %147 : tensor<4xui32>
    %149 = stablehlo.add %142, %148 : tensor<4xui32>
    %c_38 = stablehlo.constant dense<15> : tensor<ui32>
    %150 = stablehlo.broadcast_in_dim %c_38, dims = [] : (tensor<ui32>) -> tensor<4xui32>
    %151 = stablehlo.shift_left %148, %150 : tensor<4xui32>
    %c_39 = stablehlo.constant dense<17> : tensor<ui32>
    %152 = stablehlo.broadcast_in_dim %c_39, dims = [] : (tensor<ui32>) -> tensor<4xui32>
    %153 = stablehlo.shift_right_logical %148, %152 : tensor<4xui32>
    %154 = stablehlo.or %151, %153 : tensor<4xui32>
    %155 = stablehlo.xor %149, %154 : tensor<4xui32>
    %156 = stablehlo.add %149, %155 : tensor<4xui32>
    %c_40 = stablehlo.constant dense<26> : tensor<ui32>
    %157 = stablehlo.broadcast_in_dim %c_40, dims = [] : (tensor<ui32>) -> tensor<4xui32>
    %158 = stablehlo.shift_left %155, %157 : tensor<4xui32>
    %c_41 = stablehlo.constant dense<6> : tensor<ui32>
    %159 = stablehlo.broadcast_in_dim %c_41, dims = [] : (tensor<ui32>) -> tensor<4xui32>
    %160 = stablehlo.shift_right_logical %155, %159 : tensor<4xui32>
    %161 = stablehlo.or %158, %160 : tensor<4xui32>
    %162 = stablehlo.xor %156, %161 : tensor<4xui32>
    %163 = stablehlo.add %156, %162 : tensor<4xui32>
    %c_42 = stablehlo.constant dense<6> : tensor<ui32>
    %164 = stablehlo.broadcast_in_dim %c_42, dims = [] : (tensor<ui32>) -> tensor<4xui32>
    %165 = stablehlo.shift_left %162, %164 : tensor<4xui32>
    %c_43 = stablehlo.constant dense<26> : tensor<ui32>
    %166 = stablehlo.broadcast_in_dim %c_43, dims = [] : (tensor<ui32>) -> tensor<4xui32>
    %167 = stablehlo.shift_right_logical %162, %166 : tensor<4xui32>
    %168 = stablehlo.or %165, %167 : tensor<4xui32>
    %169 = stablehlo.xor %163, %168 : tensor<4xui32>
    %170 = stablehlo.broadcast_in_dim %1, dims = [] : (tensor<ui32>) -> tensor<4xui32>
    %171 = stablehlo.add %163, %170 : tensor<4xui32>
    %172 = stablehlo.broadcast_in_dim %arg0, dims = [] : (tensor<ui32>) -> tensor<4xui32>
    %173 = stablehlo.add %169, %172 : tensor<4xui32>
    %c_44 = stablehlo.constant dense<5> : tensor<ui32>
    %174 = stablehlo.broadcast_in_dim %c_44, dims = [] : (tensor<ui32>) -> tensor<4xui32>
    %175 = stablehlo.add %173, %174 : tensor<4xui32>
    return %171, %175 : tensor<4xui32>, tensor<4xui32>
  }
  func.func private @_normal(%arg0: tensor<2xui32>) -> tensor<30522x2560xf32> {
    %0 = call @_normal_real(%arg0) : (tensor<2xui32>) -> tensor<30522x2560xf32>
    return %0 : tensor<30522x2560xf32>
  }
  func.func private @_normal_real(%arg0: tensor<2xui32>) -> tensor<30522x2560xf32> {
    %cst = stablehlo.constant dense<-0.99999994> : tensor<f32>
    %cst_0 = stablehlo.constant dense<1.000000e+00> : tensor<f32>
    %0 = call @_uniform(%arg0, %cst, %cst_0) : (tensor<2xui32>, tensor<f32>, tensor<f32>) -> tensor<30522x2560xf32>
    %1 = chlo.erf_inv %0 : tensor<30522x2560xf32> -> tensor<30522x2560xf32>
    %cst_1 = stablehlo.constant dense<1.41421354> : tensor<f32>
    %2 = stablehlo.broadcast_in_dim %cst_1, dims = [] : (tensor<f32>) -> tensor<30522x2560xf32>
    %3 = stablehlo.multiply %2, %1 : tensor<30522x2560xf32>
    return %3 : tensor<30522x2560xf32>
  }
  func.func private @_uniform(%arg0: tensor<2xui32>, %arg1: tensor<f32>, %arg2: tensor<f32>) -> tensor<30522x2560xf32> {
    %0 = stablehlo.broadcast_in_dim %arg1, dims = [] : (tensor<f32>) -> tensor<1x1xf32>
    %1 = stablehlo.broadcast_in_dim %arg2, dims = [] : (tensor<f32>) -> tensor<1x1xf32>
    %2 = stablehlo.slice %arg0 [0:1] : (tensor<2xui32>) -> tensor<1xui32>
    %3 = stablehlo.reshape %2 : (tensor<1xui32>) -> tensor<ui32>
    %4 = stablehlo.slice %arg0 [1:2] : (tensor<2xui32>) -> tensor<1xui32>
    %5 = stablehlo.reshape %4 : (tensor<1xui32>) -> tensor<ui32>
    %6 = stablehlo.iota dim = 0 : tensor<30522x2560xui64>
    %7 = stablehlo.iota dim = 1 : tensor<30522x2560xui64>
    %c = stablehlo.constant dense<2560> : tensor<ui64>
    %8 = stablehlo.broadcast_in_dim %c, dims = [] : (tensor<ui64>) -> tensor<30522x2560xui64>
    %9 = stablehlo.multiply %8, %6 : tensor<30522x2560xui64>
    %c_0 = stablehlo.constant dense<1> : tensor<ui64>
    %10 = stablehlo.broadcast_in_dim %c_0, dims = [] : (tensor<ui64>) -> tensor<30522x2560xui64>
    %11 = stablehlo.multiply %10, %7 : tensor<30522x2560xui64>
    %12 = stablehlo.add %9, %11 : tensor<30522x2560xui64>
    %c_1 = stablehlo.constant dense<32> : tensor<ui64>
    %13 = stablehlo.broadcast_in_dim %c_1, dims = [] : (tensor<ui64>) -> tensor<30522x2560xui64>
    %14 = stablehlo.shift_right_logical %12, %13 : tensor<30522x2560xui64>
    %15 = stablehlo.convert %12 : (tensor<30522x2560xui64>) -> tensor<30522x2560xui32>
    %16 = stablehlo.convert %14 : (tensor<30522x2560xui64>) -> tensor<30522x2560xui32>
    %17:2 = call @threefry2x32_23(%3, %5, %16, %15) : (tensor<ui32>, tensor<ui32>, tensor<30522x2560xui32>, tensor<30522x2560xui32>) -> (tensor<30522x2560xui32>, tensor<30522x2560xui32>)
    %18 = stablehlo.xor %17#0, %17#1 : tensor<30522x2560xui32>
    %c_2 = stablehlo.constant dense<9> : tensor<ui32>
    %19 = stablehlo.broadcast_in_dim %c_2, dims = [] : (tensor<ui32>) -> tensor<30522x2560xui32>
    %20 = stablehlo.shift_right_logical %18, %19 : tensor<30522x2560xui32>
    %c_3 = stablehlo.constant dense<1065353216> : tensor<ui32>
    %21 = stablehlo.broadcast_in_dim %c_3, dims = [] : (tensor<ui32>) -> tensor<30522x2560xui32>
    %22 = stablehlo.or %20, %21 : tensor<30522x2560xui32>
    %23 = stablehlo.bitcast_convert %22 : (tensor<30522x2560xui32>) -> tensor<30522x2560xf32>
    %cst = stablehlo.constant dense<1.000000e+00> : tensor<f32>
    %24 = stablehlo.broadcast_in_dim %cst, dims = [] : (tensor<f32>) -> tensor<30522x2560xf32>
    %25 = stablehlo.subtract %23, %24 : tensor<30522x2560xf32>
    %26 = stablehlo.subtract %1, %0 : tensor<1x1xf32>
    %27 = stablehlo.broadcast_in_dim %26, dims = [0, 1] : (tensor<1x1xf32>) -> tensor<30522x2560xf32>
    %28 = stablehlo.multiply %25, %27 : tensor<30522x2560xf32>
    %29 = stablehlo.broadcast_in_dim %0, dims = [0, 1] : (tensor<1x1xf32>) -> tensor<30522x2560xf32>
    %30 = stablehlo.add %28, %29 : tensor<30522x2560xf32>
    %31 = stablehlo.broadcast_in_dim %0, dims = [0, 1] : (tensor<1x1xf32>) -> tensor<30522x2560xf32>
    %32 = stablehlo.maximum %31, %30 : tensor<30522x2560xf32>
    return %32 : tensor<30522x2560xf32>
  }
  func.func private @threefry2x32_23(%arg0: tensor<ui32>, %arg1: tensor<ui32>, %arg2: tensor<30522x2560xui32>, %arg3: tensor<30522x2560xui32>) -> (tensor<30522x2560xui32>, tensor<30522x2560xui32>) {
    %0 = stablehlo.xor %arg0, %arg1 : tensor<ui32>
    %c = stablehlo.constant dense<466688986> : tensor<ui32>
    %1 = stablehlo.xor %0, %c : tensor<ui32>
    %2 = stablehlo.broadcast_in_dim %arg0, dims = [] : (tensor<ui32>) -> tensor<30522x2560xui32>
    %3 = stablehlo.add %arg2, %2 : tensor<30522x2560xui32>
    %4 = stablehlo.broadcast_in_dim %arg1, dims = [] : (tensor<ui32>) -> tensor<30522x2560xui32>
    %5 = stablehlo.add %arg3, %4 : tensor<30522x2560xui32>
    %6 = stablehlo.add %3, %5 : tensor<30522x2560xui32>
    %c_0 = stablehlo.constant dense<13> : tensor<ui32>
    %7 = stablehlo.broadcast_in_dim %c_0, dims = [] : (tensor<ui32>) -> tensor<30522x2560xui32>
    %8 = stablehlo.shift_left %5, %7 : tensor<30522x2560xui32>
    %c_1 = stablehlo.constant dense<19> : tensor<ui32>
    %9 = stablehlo.broadcast_in_dim %c_1, dims = [] : (tensor<ui32>) -> tensor<30522x2560xui32>
    %10 = stablehlo.shift_right_logical %5, %9 : tensor<30522x2560xui32>
    %11 = stablehlo.or %8, %10 : tensor<30522x2560xui32>
    %12 = stablehlo.xor %6, %11 : tensor<30522x2560xui32>
    %13 = stablehlo.add %6, %12 : tensor<30522x2560xui32>
    %c_2 = stablehlo.constant dense<15> : tensor<ui32>
    %14 = stablehlo.broadcast_in_dim %c_2, dims = [] : (tensor<ui32>) -> tensor<30522x2560xui32>
    %15 = stablehlo.shift_left %12, %14 : tensor<30522x2560xui32>
    %c_3 = stablehlo.constant dense<17> : tensor<ui32>
    %16 = stablehlo.broadcast_in_dim %c_3, dims = [] : (tensor<ui32>) -> tensor<30522x2560xui32>
    %17 = stablehlo.shift_right_logical %12, %16 : tensor<30522x2560xui32>
    %18 = stablehlo.or %15, %17 : tensor<30522x2560xui32>
    %19 = stablehlo.xor %13, %18 : tensor<30522x2560xui32>
    %20 = stablehlo.add %13, %19 : tensor<30522x2560xui32>
    %c_4 = stablehlo.constant dense<26> : tensor<ui32>
    %21 = stablehlo.broadcast_in_dim %c_4, dims = [] : (tensor<ui32>) -> tensor<30522x2560xui32>
    %22 = stablehlo.shift_left %19, %21 : tensor<30522x2560xui32>
    %c_5 = stablehlo.constant dense<6> : tensor<ui32>
    %23 = stablehlo.broadcast_in_dim %c_5, dims = [] : (tensor<ui32>) -> tensor<30522x2560xui32>
    %24 = stablehlo.shift_right_logical %19, %23 : tensor<30522x2560xui32>
    %25 = stablehlo.or %22, %24 : tensor<30522x2560xui32>
    %26 = stablehlo.xor %20, %25 : tensor<30522x2560xui32>
    %27 = stablehlo.add %20, %26 : tensor<30522x2560xui32>
    %c_6 = stablehlo.constant dense<6> : tensor<ui32>
    %28 = stablehlo.broadcast_in_dim %c_6, dims = [] : (tensor<ui32>) -> tensor<30522x2560xui32>
    %29 = stablehlo.shift_left %26, %28 : tensor<30522x2560xui32>
    %c_7 = stablehlo.constant dense<26> : tensor<ui32>
    %30 = stablehlo.broadcast_in_dim %c_7, dims = [] : (tensor<ui32>) -> tensor<30522x2560xui32>
    %31 = stablehlo.shift_right_logical %26, %30 : tensor<30522x2560xui32>
    %32 = stablehlo.or %29, %31 : tensor<30522x2560xui32>
    %33 = stablehlo.xor %27, %32 : tensor<30522x2560xui32>
    %34 = stablehlo.broadcast_in_dim %arg1, dims = [] : (tensor<ui32>) -> tensor<30522x2560xui32>
    %35 = stablehlo.add %27, %34 : tensor<30522x2560xui32>
    %36 = stablehlo.broadcast_in_dim %1, dims = [] : (tensor<ui32>) -> tensor<30522x2560xui32>
    %37 = stablehlo.add %33, %36 : tensor<30522x2560xui32>
    %c_8 = stablehlo.constant dense<1> : tensor<ui32>
    %38 = stablehlo.broadcast_in_dim %c_8, dims = [] : (tensor<ui32>) -> tensor<30522x2560xui32>
    %39 = stablehlo.add %37, %38 : tensor<30522x2560xui32>
    %40 = stablehlo.add %35, %39 : tensor<30522x2560xui32>
    %c_9 = stablehlo.constant dense<17> : tensor<ui32>
    %41 = stablehlo.broadcast_in_dim %c_9, dims = [] : (tensor<ui32>) -> tensor<30522x2560xui32>
    %42 = stablehlo.shift_left %39, %41 : tensor<30522x2560xui32>
    %c_10 = stablehlo.constant dense<15> : tensor<ui32>
    %43 = stablehlo.broadcast_in_dim %c_10, dims = [] : (tensor<ui32>) -> tensor<30522x2560xui32>
    %44 = stablehlo.shift_right_logical %39, %43 : tensor<30522x2560xui32>
    %45 = stablehlo.or %42, %44 : tensor<30522x2560xui32>
    %46 = stablehlo.xor %40, %45 : tensor<30522x2560xui32>
    %47 = stablehlo.add %40, %46 : tensor<30522x2560xui32>
    %c_11 = stablehlo.constant dense<29> : tensor<ui32>
    %48 = stablehlo.broadcast_in_dim %c_11, dims = [] : (tensor<ui32>) -> tensor<30522x2560xui32>
    %49 = stablehlo.shift_left %46, %48 : tensor<30522x2560xui32>
    %c_12 = stablehlo.constant dense<3> : tensor<ui32>
    %50 = stablehlo.broadcast_in_dim %c_12, dims = [] : (tensor<ui32>) -> tensor<30522x2560xui32>
    %51 = stablehlo.shift_right_logical %46, %50 : tensor<30522x2560xui32>
    %52 = stablehlo.or %49, %51 : tensor<30522x2560xui32>
    %53 = stablehlo.xor %47, %52 : tensor<30522x2560xui32>
    %54 = stablehlo.add %47, %53 : tensor<30522x2560xui32>
    %c_13 = stablehlo.constant dense<16> : tensor<ui32>
    %55 = stablehlo.broadcast_in_dim %c_13, dims = [] : (tensor<ui32>) -> tensor<30522x2560xui32>
    %56 = stablehlo.shift_left %53, %55 : tensor<30522x2560xui32>
    %c_14 = stablehlo.constant dense<16> : tensor<ui32>
    %57 = stablehlo.broadcast_in_dim %c_14, dims = [] : (tensor<ui32>) -> tensor<30522x2560xui32>
    %58 = stablehlo.shift_right_logical %53, %57 : tensor<30522x2560xui32>
    %59 = stablehlo.or %56, %58 : tensor<30522x2560xui32>
    %60 = stablehlo.xor %54, %59 : tensor<30522x2560xui32>
    %61 = stablehlo.add %54, %60 : tensor<30522x2560xui32>
    %c_15 = stablehlo.constant dense<24> : tensor<ui32>
    %62 = stablehlo.broadcast_in_dim %c_15, dims = [] : (tensor<ui32>) -> tensor<30522x2560xui32>
    %63 = stablehlo.shift_left %60, %62 : tensor<30522x2560xui32>
    %c_16 = stablehlo.constant dense<8> : tensor<ui32>
    %64 = stablehlo.broadcast_in_dim %c_16, dims = [] : (tensor<ui32>) -> tensor<30522x2560xui32>
    %65 = stablehlo.shift_right_logical %60, %64 : tensor<30522x2560xui32>
    %66 = stablehlo.or %63, %65 : tensor<30522x2560xui32>
    %67 = stablehlo.xor %61, %66 : tensor<30522x2560xui32>
    %68 = stablehlo.broadcast_in_dim %1, dims = [] : (tensor<ui32>) -> tensor<30522x2560xui32>
    %69 = stablehlo.add %61, %68 : tensor<30522x2560xui32>
    %70 = stablehlo.broadcast_in_dim %arg0, dims = [] : (tensor<ui32>) -> tensor<30522x2560xui32>
    %71 = stablehlo.add %67, %70 : tensor<30522x2560xui32>
    %c_17 = stablehlo.constant dense<2> : tensor<ui32>
    %72 = stablehlo.broadcast_in_dim %c_17, dims = [] : (tensor<ui32>) -> tensor<30522x2560xui32>
    %73 = stablehlo.add %71, %72 : tensor<30522x2560xui32>
    %74 = stablehlo.add %69, %73 : tensor<30522x2560xui32>
    %c_18 = stablehlo.constant dense<13> : tensor<ui32>
    %75 = stablehlo.broadcast_in_dim %c_18, dims = [] : (tensor<ui32>) -> tensor<30522x2560xui32>
    %76 = stablehlo.shift_left %73, %75 : tensor<30522x2560xui32>
    %c_19 = stablehlo.constant dense<19> : tensor<ui32>
    %77 = stablehlo.broadcast_in_dim %c_19, dims = [] : (tensor<ui32>) -> tensor<30522x2560xui32>
    %78 = stablehlo.shift_right_logical %73, %77 : tensor<30522x2560xui32>
    %79 = stablehlo.or %76, %78 : tensor<30522x2560xui32>
    %80 = stablehlo.xor %74, %79 : tensor<30522x2560xui32>
    %81 = stablehlo.add %74, %80 : tensor<30522x2560xui32>
    %c_20 = stablehlo.constant dense<15> : tensor<ui32>
    %82 = stablehlo.broadcast_in_dim %c_20, dims = [] : (tensor<ui32>) -> tensor<30522x2560xui32>
    %83 = stablehlo.shift_left %80, %82 : tensor<30522x2560xui32>
    %c_21 = stablehlo.constant dense<17> : tensor<ui32>
    %84 = stablehlo.broadcast_in_dim %c_21, dims = [] : (tensor<ui32>) -> tensor<30522x2560xui32>
    %85 = stablehlo.shift_right_logical %80, %84 : tensor<30522x2560xui32>
    %86 = stablehlo.or %83, %85 : tensor<30522x2560xui32>
    %87 = stablehlo.xor %81, %86 : tensor<30522x2560xui32>
    %88 = stablehlo.add %81, %87 : tensor<30522x2560xui32>
    %c_22 = stablehlo.constant dense<26> : tensor<ui32>
    %89 = stablehlo.broadcast_in_dim %c_22, dims = [] : (tensor<ui32>) -> tensor<30522x2560xui32>
    %90 = stablehlo.shift_left %87, %89 : tensor<30522x2560xui32>
    %c_23 = stablehlo.constant dense<6> : tensor<ui32>
    %91 = stablehlo.broadcast_in_dim %c_23, dims = [] : (tensor<ui32>) -> tensor<30522x2560xui32>
    %92 = stablehlo.shift_right_logical %87, %91 : tensor<30522x2560xui32>
    %93 = stablehlo.or %90, %92 : tensor<30522x2560xui32>
    %94 = stablehlo.xor %88, %93 : tensor<30522x2560xui32>
    %95 = stablehlo.add %88, %94 : tensor<30522x2560xui32>
    %c_24 = stablehlo.constant dense<6> : tensor<ui32>
    %96 = stablehlo.broadcast_in_dim %c_24, dims = [] : (tensor<ui32>) -> tensor<30522x2560xui32>
    %97 = stablehlo.shift_left %94, %96 : tensor<30522x2560xui32>
    %c_25 = stablehlo.constant dense<26> : tensor<ui32>
    %98 = stablehlo.broadcast_in_dim %c_25, dims = [] : (tensor<ui32>) -> tensor<30522x2560xui32>
    %99 = stablehlo.shift_right_logical %94, %98 : tensor<30522x2560xui32>
    %100 = stablehlo.or %97, %99 : tensor<30522x2560xui32>
    %101 = stablehlo.xor %95, %100 : tensor<30522x2560xui32>
    %102 = stablehlo.broadcast_in_dim %arg0, dims = [] : (tensor<ui32>) -> tensor<30522x2560xui32>
    %103 = stablehlo.add %95, %102 : tensor<30522x2560xui32>
    %104 = stablehlo.broadcast_in_dim %arg1, dims = [] : (tensor<ui32>) -> tensor<30522x2560xui32>
    %105 = stablehlo.add %101, %104 : tensor<30522x2560xui32>
    %c_26 = stablehlo.constant dense<3> : tensor<ui32>
    %106 = stablehlo.broadcast_in_dim %c_26, dims = [] : (tensor<ui32>) -> tensor<30522x2560xui32>
    %107 = stablehlo.add %105, %106 : tensor<30522x2560xui32>
    %108 = stablehlo.add %103, %107 : tensor<30522x2560xui32>
    %c_27 = stablehlo.constant dense<17> : tensor<ui32>
    %109 = stablehlo.broadcast_in_dim %c_27, dims = [] : (tensor<ui32>) -> tensor<30522x2560xui32>
    %110 = stablehlo.shift_left %107, %109 : tensor<30522x2560xui32>
    %c_28 = stablehlo.constant dense<15> : tensor<ui32>
    %111 = stablehlo.broadcast_in_dim %c_28, dims = [] : (tensor<ui32>) -> tensor<30522x2560xui32>
    %112 = stablehlo.shift_right_logical %107, %111 : tensor<30522x2560xui32>
    %113 = stablehlo.or %110, %112 : tensor<30522x2560xui32>
    %114 = stablehlo.xor %108, %113 : tensor<30522x2560xui32>
    %115 = stablehlo.add %108, %114 : tensor<30522x2560xui32>
    %c_29 = stablehlo.constant dense<29> : tensor<ui32>
    %116 = stablehlo.broadcast_in_dim %c_29, dims = [] : (tensor<ui32>) -> tensor<30522x2560xui32>
    %117 = stablehlo.shift_left %114, %116 : tensor<30522x2560xui32>
    %c_30 = stablehlo.constant dense<3> : tensor<ui32>
    %118 = stablehlo.broadcast_in_dim %c_30, dims = [] : (tensor<ui32>) -> tensor<30522x2560xui32>
    %119 = stablehlo.shift_right_logical %114, %118 : tensor<30522x2560xui32>
    %120 = stablehlo.or %117, %119 : tensor<30522x2560xui32>
    %121 = stablehlo.xor %115, %120 : tensor<30522x2560xui32>
    %122 = stablehlo.add %115, %121 : tensor<30522x2560xui32>
    %c_31 = stablehlo.constant dense<16> : tensor<ui32>
    %123 = stablehlo.broadcast_in_dim %c_31, dims = [] : (tensor<ui32>) -> tensor<30522x2560xui32>
    %124 = stablehlo.shift_left %121, %123 : tensor<30522x2560xui32>
    %c_32 = stablehlo.constant dense<16> : tensor<ui32>
    %125 = stablehlo.broadcast_in_dim %c_32, dims = [] : (tensor<ui32>) -> tensor<30522x2560xui32>
    %126 = stablehlo.shift_right_logical %121, %125 : tensor<30522x2560xui32>
    %127 = stablehlo.or %124, %126 : tensor<30522x2560xui32>
    %128 = stablehlo.xor %122, %127 : tensor<30522x2560xui32>
    %129 = stablehlo.add %122, %128 : tensor<30522x2560xui32>
    %c_33 = stablehlo.constant dense<24> : tensor<ui32>
    %130 = stablehlo.broadcast_in_dim %c_33, dims = [] : (tensor<ui32>) -> tensor<30522x2560xui32>
    %131 = stablehlo.shift_left %128, %130 : tensor<30522x2560xui32>
    %c_34 = stablehlo.constant dense<8> : tensor<ui32>
    %132 = stablehlo.broadcast_in_dim %c_34, dims = [] : (tensor<ui32>) -> tensor<30522x2560xui32>
    %133 = stablehlo.shift_right_logical %128, %132 : tensor<30522x2560xui32>
    %134 = stablehlo.or %131, %133 : tensor<30522x2560xui32>
    %135 = stablehlo.xor %129, %134 : tensor<30522x2560xui32>
    %136 = stablehlo.broadcast_in_dim %arg1, dims = [] : (tensor<ui32>) -> tensor<30522x2560xui32>
    %137 = stablehlo.add %129, %136 : tensor<30522x2560xui32>
    %138 = stablehlo.broadcast_in_dim %1, dims = [] : (tensor<ui32>) -> tensor<30522x2560xui32>
    %139 = stablehlo.add %135, %138 : tensor<30522x2560xui32>
    %c_35 = stablehlo.constant dense<4> : tensor<ui32>
    %140 = stablehlo.broadcast_in_dim %c_35, dims = [] : (tensor<ui32>) -> tensor<30522x2560xui32>
    %141 = stablehlo.add %139, %140 : tensor<30522x2560xui32>
    %142 = stablehlo.add %137, %141 : tensor<30522x2560xui32>
    %c_36 = stablehlo.constant dense<13> : tensor<ui32>
    %143 = stablehlo.broadcast_in_dim %c_36, dims = [] : (tensor<ui32>) -> tensor<30522x2560xui32>
    %144 = stablehlo.shift_left %141, %143 : tensor<30522x2560xui32>
    %c_37 = stablehlo.constant dense<19> : tensor<ui32>
    %145 = stablehlo.broadcast_in_dim %c_37, dims = [] : (tensor<ui32>) -> tensor<30522x2560xui32>
    %146 = stablehlo.shift_right_logical %141, %145 : tensor<30522x2560xui32>
    %147 = stablehlo.or %144, %146 : tensor<30522x2560xui32>
    %148 = stablehlo.xor %142, %147 : tensor<30522x2560xui32>
    %149 = stablehlo.add %142, %148 : tensor<30522x2560xui32>
    %c_38 = stablehlo.constant dense<15> : tensor<ui32>
    %150 = stablehlo.broadcast_in_dim %c_38, dims = [] : (tensor<ui32>) -> tensor<30522x2560xui32>
    %151 = stablehlo.shift_left %148, %150 : tensor<30522x2560xui32>
    %c_39 = stablehlo.constant dense<17> : tensor<ui32>
    %152 = stablehlo.broadcast_in_dim %c_39, dims = [] : (tensor<ui32>) -> tensor<30522x2560xui32>
    %153 = stablehlo.shift_right_logical %148, %152 : tensor<30522x2560xui32>
    %154 = stablehlo.or %151, %153 : tensor<30522x2560xui32>
    %155 = stablehlo.xor %149, %154 : tensor<30522x2560xui32>
    %156 = stablehlo.add %149, %155 : tensor<30522x2560xui32>
    %c_40 = stablehlo.constant dense<26> : tensor<ui32>
    %157 = stablehlo.broadcast_in_dim %c_40, dims = [] : (tensor<ui32>) -> tensor<30522x2560xui32>
    %158 = stablehlo.shift_left %155, %157 : tensor<30522x2560xui32>
    %c_41 = stablehlo.constant dense<6> : tensor<ui32>
    %159 = stablehlo.broadcast_in_dim %c_41, dims = [] : (tensor<ui32>) -> tensor<30522x2560xui32>
    %160 = stablehlo.shift_right_logical %155, %159 : tensor<30522x2560xui32>
    %161 = stablehlo.or %158, %160 : tensor<30522x2560xui32>
    %162 = stablehlo.xor %156, %161 : tensor<30522x2560xui32>
    %163 = stablehlo.add %156, %162 : tensor<30522x2560xui32>
    %c_42 = stablehlo.constant dense<6> : tensor<ui32>
    %164 = stablehlo.broadcast_in_dim %c_42, dims = [] : (tensor<ui32>) -> tensor<30522x2560xui32>
    %165 = stablehlo.shift_left %162, %164 : tensor<30522x2560xui32>
    %c_43 = stablehlo.constant dense<26> : tensor<ui32>
    %166 = stablehlo.broadcast_in_dim %c_43, dims = [] : (tensor<ui32>) -> tensor<30522x2560xui32>
    %167 = stablehlo.shift_right_logical %162, %166 : tensor<30522x2560xui32>
    %168 = stablehlo.or %165, %167 : tensor<30522x2560xui32>
    %169 = stablehlo.xor %163, %168 : tensor<30522x2560xui32>
    %170 = stablehlo.broadcast_in_dim %1, dims = [] : (tensor<ui32>) -> tensor<30522x2560xui32>
    %171 = stablehlo.add %163, %170 : tensor<30522x2560xui32>
    %172 = stablehlo.broadcast_in_dim %arg0, dims = [] : (tensor<ui32>) -> tensor<30522x2560xui32>
    %173 = stablehlo.add %169, %172 : tensor<30522x2560xui32>
    %c_44 = stablehlo.constant dense<5> : tensor<ui32>
    %174 = stablehlo.broadcast_in_dim %c_44, dims = [] : (tensor<ui32>) -> tensor<30522x2560xui32>
    %175 = stablehlo.add %173, %174 : tensor<30522x2560xui32>
    return %171, %175 : tensor<30522x2560xui32>, tensor<30522x2560xui32>
  }
  func.func private @_normal_35(%arg0: tensor<2xui32>) -> tensor<512x2560xf32> {
    %0 = call @_normal_real_36(%arg0) : (tensor<2xui32>) -> tensor<512x2560xf32>
    return %0 : tensor<512x2560xf32>
  }
  func.func private @_normal_real_36(%arg0: tensor<2xui32>) -> tensor<512x2560xf32> {
    %cst = stablehlo.constant dense<-0.99999994> : tensor<f32>
    %cst_0 = stablehlo.constant dense<1.000000e+00> : tensor<f32>
    %0 = call @_uniform_37(%arg0, %cst, %cst_0) : (tensor<2xui32>, tensor<f32>, tensor<f32>) -> tensor<512x2560xf32>
    %1 = chlo.erf_inv %0 : tensor<512x2560xf32> -> tensor<512x2560xf32>
    %cst_1 = stablehlo.constant dense<1.41421354> : tensor<f32>
    %2 = stablehlo.broadcast_in_dim %cst_1, dims = [] : (tensor<f32>) -> tensor<512x2560xf32>
    %3 = stablehlo.multiply %2, %1 : tensor<512x2560xf32>
    return %3 : tensor<512x2560xf32>
  }
  func.func private @_uniform_37(%arg0: tensor<2xui32>, %arg1: tensor<f32>, %arg2: tensor<f32>) -> tensor<512x2560xf32> {
    %0 = stablehlo.broadcast_in_dim %arg1, dims = [] : (tensor<f32>) -> tensor<1x1xf32>
    %1 = stablehlo.broadcast_in_dim %arg2, dims = [] : (tensor<f32>) -> tensor<1x1xf32>
    %2 = stablehlo.slice %arg0 [0:1] : (tensor<2xui32>) -> tensor<1xui32>
    %3 = stablehlo.reshape %2 : (tensor<1xui32>) -> tensor<ui32>
    %4 = stablehlo.slice %arg0 [1:2] : (tensor<2xui32>) -> tensor<1xui32>
    %5 = stablehlo.reshape %4 : (tensor<1xui32>) -> tensor<ui32>
    %6 = stablehlo.iota dim = 0 : tensor<512x2560xui64>
    %7 = stablehlo.iota dim = 1 : tensor<512x2560xui64>
    %c = stablehlo.constant dense<2560> : tensor<ui64>
    %8 = stablehlo.broadcast_in_dim %c, dims = [] : (tensor<ui64>) -> tensor<512x2560xui64>
    %9 = stablehlo.multiply %8, %6 : tensor<512x2560xui64>
    %c_0 = stablehlo.constant dense<1> : tensor<ui64>
    %10 = stablehlo.broadcast_in_dim %c_0, dims = [] : (tensor<ui64>) -> tensor<512x2560xui64>
    %11 = stablehlo.multiply %10, %7 : tensor<512x2560xui64>
    %12 = stablehlo.add %9, %11 : tensor<512x2560xui64>
    %c_1 = stablehlo.constant dense<32> : tensor<ui64>
    %13 = stablehlo.broadcast_in_dim %c_1, dims = [] : (tensor<ui64>) -> tensor<512x2560xui64>
    %14 = stablehlo.shift_right_logical %12, %13 : tensor<512x2560xui64>
    %15 = stablehlo.convert %12 : (tensor<512x2560xui64>) -> tensor<512x2560xui32>
    %16 = stablehlo.convert %14 : (tensor<512x2560xui64>) -> tensor<512x2560xui32>
    %17:2 = call @threefry2x32_40(%3, %5, %16, %15) : (tensor<ui32>, tensor<ui32>, tensor<512x2560xui32>, tensor<512x2560xui32>) -> (tensor<512x2560xui32>, tensor<512x2560xui32>)
    %18 = stablehlo.xor %17#0, %17#1 : tensor<512x2560xui32>
    %c_2 = stablehlo.constant dense<9> : tensor<ui32>
    %19 = stablehlo.broadcast_in_dim %c_2, dims = [] : (tensor<ui32>) -> tensor<512x2560xui32>
    %20 = stablehlo.shift_right_logical %18, %19 : tensor<512x2560xui32>
    %c_3 = stablehlo.constant dense<1065353216> : tensor<ui32>
    %21 = stablehlo.broadcast_in_dim %c_3, dims = [] : (tensor<ui32>) -> tensor<512x2560xui32>
    %22 = stablehlo.or %20, %21 : tensor<512x2560xui32>
    %23 = stablehlo.bitcast_convert %22 : (tensor<512x2560xui32>) -> tensor<512x2560xf32>
    %cst = stablehlo.constant dense<1.000000e+00> : tensor<f32>
    %24 = stablehlo.broadcast_in_dim %cst, dims = [] : (tensor<f32>) -> tensor<512x2560xf32>
    %25 = stablehlo.subtract %23, %24 : tensor<512x2560xf32>
    %26 = stablehlo.subtract %1, %0 : tensor<1x1xf32>
    %27 = stablehlo.broadcast_in_dim %26, dims = [0, 1] : (tensor<1x1xf32>) -> tensor<512x2560xf32>
    %28 = stablehlo.multiply %25, %27 : tensor<512x2560xf32>
    %29 = stablehlo.broadcast_in_dim %0, dims = [0, 1] : (tensor<1x1xf32>) -> tensor<512x2560xf32>
    %30 = stablehlo.add %28, %29 : tensor<512x2560xf32>
    %31 = stablehlo.broadcast_in_dim %0, dims = [0, 1] : (tensor<1x1xf32>) -> tensor<512x2560xf32>
    %32 = stablehlo.maximum %31, %30 : tensor<512x2560xf32>
    return %32 : tensor<512x2560xf32>
  }
  func.func private @threefry2x32_40(%arg0: tensor<ui32>, %arg1: tensor<ui32>, %arg2: tensor<512x2560xui32>, %arg3: tensor<512x2560xui32>) -> (tensor<512x2560xui32>, tensor<512x2560xui32>) {
    %0 = stablehlo.xor %arg0, %arg1 : tensor<ui32>
    %c = stablehlo.constant dense<466688986> : tensor<ui32>
    %1 = stablehlo.xor %0, %c : tensor<ui32>
    %2 = stablehlo.broadcast_in_dim %arg0, dims = [] : (tensor<ui32>) -> tensor<512x2560xui32>
    %3 = stablehlo.add %arg2, %2 : tensor<512x2560xui32>
    %4 = stablehlo.broadcast_in_dim %arg1, dims = [] : (tensor<ui32>) -> tensor<512x2560xui32>
    %5 = stablehlo.add %arg3, %4 : tensor<512x2560xui32>
    %6 = stablehlo.add %3, %5 : tensor<512x2560xui32>
    %c_0 = stablehlo.constant dense<13> : tensor<ui32>
    %7 = stablehlo.broadcast_in_dim %c_0, dims = [] : (tensor<ui32>) -> tensor<512x2560xui32>
    %8 = stablehlo.shift_left %5, %7 : tensor<512x2560xui32>
    %c_1 = stablehlo.constant dense<19> : tensor<ui32>
    %9 = stablehlo.broadcast_in_dim %c_1, dims = [] : (tensor<ui32>) -> tensor<512x2560xui32>
    %10 = stablehlo.shift_right_logical %5, %9 : tensor<512x2560xui32>
    %11 = stablehlo.or %8, %10 : tensor<512x2560xui32>
    %12 = stablehlo.xor %6, %11 : tensor<512x2560xui32>
    %13 = stablehlo.add %6, %12 : tensor<512x2560xui32>
    %c_2 = stablehlo.constant dense<15> : tensor<ui32>
    %14 = stablehlo.broadcast_in_dim %c_2, dims = [] : (tensor<ui32>) -> tensor<512x2560xui32>
    %15 = stablehlo.shift_left %12, %14 : tensor<512x2560xui32>
    %c_3 = stablehlo.constant dense<17> : tensor<ui32>
    %16 = stablehlo.broadcast_in_dim %c_3, dims = [] : (tensor<ui32>) -> tensor<512x2560xui32>
    %17 = stablehlo.shift_right_logical %12, %16 : tensor<512x2560xui32>
    %18 = stablehlo.or %15, %17 : tensor<512x2560xui32>
    %19 = stablehlo.xor %13, %18 : tensor<512x2560xui32>
    %20 = stablehlo.add %13, %19 : tensor<512x2560xui32>
    %c_4 = stablehlo.constant dense<26> : tensor<ui32>
    %21 = stablehlo.broadcast_in_dim %c_4, dims = [] : (tensor<ui32>) -> tensor<512x2560xui32>
    %22 = stablehlo.shift_left %19, %21 : tensor<512x2560xui32>
    %c_5 = stablehlo.constant dense<6> : tensor<ui32>
    %23 = stablehlo.broadcast_in_dim %c_5, dims = [] : (tensor<ui32>) -> tensor<512x2560xui32>
    %24 = stablehlo.shift_right_logical %19, %23 : tensor<512x2560xui32>
    %25 = stablehlo.or %22, %24 : tensor<512x2560xui32>
    %26 = stablehlo.xor %20, %25 : tensor<512x2560xui32>
    %27 = stablehlo.add %20, %26 : tensor<512x2560xui32>
    %c_6 = stablehlo.constant dense<6> : tensor<ui32>
    %28 = stablehlo.broadcast_in_dim %c_6, dims = [] : (tensor<ui32>) -> tensor<512x2560xui32>
    %29 = stablehlo.shift_left %26, %28 : tensor<512x2560xui32>
    %c_7 = stablehlo.constant dense<26> : tensor<ui32>
    %30 = stablehlo.broadcast_in_dim %c_7, dims = [] : (tensor<ui32>) -> tensor<512x2560xui32>
    %31 = stablehlo.shift_right_logical %26, %30 : tensor<512x2560xui32>
    %32 = stablehlo.or %29, %31 : tensor<512x2560xui32>
    %33 = stablehlo.xor %27, %32 : tensor<512x2560xui32>
    %34 = stablehlo.broadcast_in_dim %arg1, dims = [] : (tensor<ui32>) -> tensor<512x2560xui32>
    %35 = stablehlo.add %27, %34 : tensor<512x2560xui32>
    %36 = stablehlo.broadcast_in_dim %1, dims = [] : (tensor<ui32>) -> tensor<512x2560xui32>
    %37 = stablehlo.add %33, %36 : tensor<512x2560xui32>
    %c_8 = stablehlo.constant dense<1> : tensor<ui32>
    %38 = stablehlo.broadcast_in_dim %c_8, dims = [] : (tensor<ui32>) -> tensor<512x2560xui32>
    %39 = stablehlo.add %37, %38 : tensor<512x2560xui32>
    %40 = stablehlo.add %35, %39 : tensor<512x2560xui32>
    %c_9 = stablehlo.constant dense<17> : tensor<ui32>
    %41 = stablehlo.broadcast_in_dim %c_9, dims = [] : (tensor<ui32>) -> tensor<512x2560xui32>
    %42 = stablehlo.shift_left %39, %41 : tensor<512x2560xui32>
    %c_10 = stablehlo.constant dense<15> : tensor<ui32>
    %43 = stablehlo.broadcast_in_dim %c_10, dims = [] : (tensor<ui32>) -> tensor<512x2560xui32>
    %44 = stablehlo.shift_right_logical %39, %43 : tensor<512x2560xui32>
    %45 = stablehlo.or %42, %44 : tensor<512x2560xui32>
    %46 = stablehlo.xor %40, %45 : tensor<512x2560xui32>
    %47 = stablehlo.add %40, %46 : tensor<512x2560xui32>
    %c_11 = stablehlo.constant dense<29> : tensor<ui32>
    %48 = stablehlo.broadcast_in_dim %c_11, dims = [] : (tensor<ui32>) -> tensor<512x2560xui32>
    %49 = stablehlo.shift_left %46, %48 : tensor<512x2560xui32>
    %c_12 = stablehlo.constant dense<3> : tensor<ui32>
    %50 = stablehlo.broadcast_in_dim %c_12, dims = [] : (tensor<ui32>) -> tensor<512x2560xui32>
    %51 = stablehlo.shift_right_logical %46, %50 : tensor<512x2560xui32>
    %52 = stablehlo.or %49, %51 : tensor<512x2560xui32>
    %53 = stablehlo.xor %47, %52 : tensor<512x2560xui32>
    %54 = stablehlo.add %47, %53 : tensor<512x2560xui32>
    %c_13 = stablehlo.constant dense<16> : tensor<ui32>
    %55 = stablehlo.broadcast_in_dim %c_13, dims = [] : (tensor<ui32>) -> tensor<512x2560xui32>
    %56 = stablehlo.shift_left %53, %55 : tensor<512x2560xui32>
    %c_14 = stablehlo.constant dense<16> : tensor<ui32>
    %57 = stablehlo.broadcast_in_dim %c_14, dims = [] : (tensor<ui32>) -> tensor<512x2560xui32>
    %58 = stablehlo.shift_right_logical %53, %57 : tensor<512x2560xui32>
    %59 = stablehlo.or %56, %58 : tensor<512x2560xui32>
    %60 = stablehlo.xor %54, %59 : tensor<512x2560xui32>
    %61 = stablehlo.add %54, %60 : tensor<512x2560xui32>
    %c_15 = stablehlo.constant dense<24> : tensor<ui32>
    %62 = stablehlo.broadcast_in_dim %c_15, dims = [] : (tensor<ui32>) -> tensor<512x2560xui32>
    %63 = stablehlo.shift_left %60, %62 : tensor<512x2560xui32>
    %c_16 = stablehlo.constant dense<8> : tensor<ui32>
    %64 = stablehlo.broadcast_in_dim %c_16, dims = [] : (tensor<ui32>) -> tensor<512x2560xui32>
    %65 = stablehlo.shift_right_logical %60, %64 : tensor<512x2560xui32>
    %66 = stablehlo.or %63, %65 : tensor<512x2560xui32>
    %67 = stablehlo.xor %61, %66 : tensor<512x2560xui32>
    %68 = stablehlo.broadcast_in_dim %1, dims = [] : (tensor<ui32>) -> tensor<512x2560xui32>
    %69 = stablehlo.add %61, %68 : tensor<512x2560xui32>
    %70 = stablehlo.broadcast_in_dim %arg0, dims = [] : (tensor<ui32>) -> tensor<512x2560xui32>
    %71 = stablehlo.add %67, %70 : tensor<512x2560xui32>
    %c_17 = stablehlo.constant dense<2> : tensor<ui32>
    %72 = stablehlo.broadcast_in_dim %c_17, dims = [] : (tensor<ui32>) -> tensor<512x2560xui32>
    %73 = stablehlo.add %71, %72 : tensor<512x2560xui32>
    %74 = stablehlo.add %69, %73 : tensor<512x2560xui32>
    %c_18 = stablehlo.constant dense<13> : tensor<ui32>
    %75 = stablehlo.broadcast_in_dim %c_18, dims = [] : (tensor<ui32>) -> tensor<512x2560xui32>
    %76 = stablehlo.shift_left %73, %75 : tensor<512x2560xui32>
    %c_19 = stablehlo.constant dense<19> : tensor<ui32>
    %77 = stablehlo.broadcast_in_dim %c_19, dims = [] : (tensor<ui32>) -> tensor<512x2560xui32>
    %78 = stablehlo.shift_right_logical %73, %77 : tensor<512x2560xui32>
    %79 = stablehlo.or %76, %78 : tensor<512x2560xui32>
    %80 = stablehlo.xor %74, %79 : tensor<512x2560xui32>
    %81 = stablehlo.add %74, %80 : tensor<512x2560xui32>
    %c_20 = stablehlo.constant dense<15> : tensor<ui32>
    %82 = stablehlo.broadcast_in_dim %c_20, dims = [] : (tensor<ui32>) -> tensor<512x2560xui32>
    %83 = stablehlo.shift_left %80, %82 : tensor<512x2560xui32>
    %c_21 = stablehlo.constant dense<17> : tensor<ui32>
    %84 = stablehlo.broadcast_in_dim %c_21, dims = [] : (tensor<ui32>) -> tensor<512x2560xui32>
    %85 = stablehlo.shift_right_logical %80, %84 : tensor<512x2560xui32>
    %86 = stablehlo.or %83, %85 : tensor<512x2560xui32>
    %87 = stablehlo.xor %81, %86 : tensor<512x2560xui32>
    %88 = stablehlo.add %81, %87 : tensor<512x2560xui32>
    %c_22 = stablehlo.constant dense<26> : tensor<ui32>
    %89 = stablehlo.broadcast_in_dim %c_22, dims = [] : (tensor<ui32>) -> tensor<512x2560xui32>
    %90 = stablehlo.shift_left %87, %89 : tensor<512x2560xui32>
    %c_23 = stablehlo.constant dense<6> : tensor<ui32>
    %91 = stablehlo.broadcast_in_dim %c_23, dims = [] : (tensor<ui32>) -> tensor<512x2560xui32>
    %92 = stablehlo.shift_right_logical %87, %91 : tensor<512x2560xui32>
    %93 = stablehlo.or %90, %92 : tensor<512x2560xui32>
    %94 = stablehlo.xor %88, %93 : tensor<512x2560xui32>
    %95 = stablehlo.add %88, %94 : tensor<512x2560xui32>
    %c_24 = stablehlo.constant dense<6> : tensor<ui32>
    %96 = stablehlo.broadcast_in_dim %c_24, dims = [] : (tensor<ui32>) -> tensor<512x2560xui32>
    %97 = stablehlo.shift_left %94, %96 : tensor<512x2560xui32>
    %c_25 = stablehlo.constant dense<26> : tensor<ui32>
    %98 = stablehlo.broadcast_in_dim %c_25, dims = [] : (tensor<ui32>) -> tensor<512x2560xui32>
    %99 = stablehlo.shift_right_logical %94, %98 : tensor<512x2560xui32>
    %100 = stablehlo.or %97, %99 : tensor<512x2560xui32>
    %101 = stablehlo.xor %95, %100 : tensor<512x2560xui32>
    %102 = stablehlo.broadcast_in_dim %arg0, dims = [] : (tensor<ui32>) -> tensor<512x2560xui32>
    %103 = stablehlo.add %95, %102 : tensor<512x2560xui32>
    %104 = stablehlo.broadcast_in_dim %arg1, dims = [] : (tensor<ui32>) -> tensor<512x2560xui32>
    %105 = stablehlo.add %101, %104 : tensor<512x2560xui32>
    %c_26 = stablehlo.constant dense<3> : tensor<ui32>
    %106 = stablehlo.broadcast_in_dim %c_26, dims = [] : (tensor<ui32>) -> tensor<512x2560xui32>
    %107 = stablehlo.add %105, %106 : tensor<512x2560xui32>
    %108 = stablehlo.add %103, %107 : tensor<512x2560xui32>
    %c_27 = stablehlo.constant dense<17> : tensor<ui32>
    %109 = stablehlo.broadcast_in_dim %c_27, dims = [] : (tensor<ui32>) -> tensor<512x2560xui32>
    %110 = stablehlo.shift_left %107, %109 : tensor<512x2560xui32>
    %c_28 = stablehlo.constant dense<15> : tensor<ui32>
    %111 = stablehlo.broadcast_in_dim %c_28, dims = [] : (tensor<ui32>) -> tensor<512x2560xui32>
    %112 = stablehlo.shift_right_logical %107, %111 : tensor<512x2560xui32>
    %113 = stablehlo.or %110, %112 : tensor<512x2560xui32>
    %114 = stablehlo.xor %108, %113 : tensor<512x2560xui32>
    %115 = stablehlo.add %108, %114 : tensor<512x2560xui32>
    %c_29 = stablehlo.constant dense<29> : tensor<ui32>
    %116 = stablehlo.broadcast_in_dim %c_29, dims = [] : (tensor<ui32>) -> tensor<512x2560xui32>
    %117 = stablehlo.shift_left %114, %116 : tensor<512x2560xui32>
    %c_30 = stablehlo.constant dense<3> : tensor<ui32>
    %118 = stablehlo.broadcast_in_dim %c_30, dims = [] : (tensor<ui32>) -> tensor<512x2560xui32>
    %119 = stablehlo.shift_right_logical %114, %118 : tensor<512x2560xui32>
    %120 = stablehlo.or %117, %119 : tensor<512x2560xui32>
    %121 = stablehlo.xor %115, %120 : tensor<512x2560xui32>
    %122 = stablehlo.add %115, %121 : tensor<512x2560xui32>
    %c_31 = stablehlo.constant dense<16> : tensor<ui32>
    %123 = stablehlo.broadcast_in_dim %c_31, dims = [] : (tensor<ui32>) -> tensor<512x2560xui32>
    %124 = stablehlo.shift_left %121, %123 : tensor<512x2560xui32>
    %c_32 = stablehlo.constant dense<16> : tensor<ui32>
    %125 = stablehlo.broadcast_in_dim %c_32, dims = [] : (tensor<ui32>) -> tensor<512x2560xui32>
    %126 = stablehlo.shift_right_logical %121, %125 : tensor<512x2560xui32>
    %127 = stablehlo.or %124, %126 : tensor<512x2560xui32>
    %128 = stablehlo.xor %122, %127 : tensor<512x2560xui32>
    %129 = stablehlo.add %122, %128 : tensor<512x2560xui32>
    %c_33 = stablehlo.constant dense<24> : tensor<ui32>
    %130 = stablehlo.broadcast_in_dim %c_33, dims = [] : (tensor<ui32>) -> tensor<512x2560xui32>
    %131 = stablehlo.shift_left %128, %130 : tensor<512x2560xui32>
    %c_34 = stablehlo.constant dense<8> : tensor<ui32>
    %132 = stablehlo.broadcast_in_dim %c_34, dims = [] : (tensor<ui32>) -> tensor<512x2560xui32>
    %133 = stablehlo.shift_right_logical %128, %132 : tensor<512x2560xui32>
    %134 = stablehlo.or %131, %133 : tensor<512x2560xui32>
    %135 = stablehlo.xor %129, %134 : tensor<512x2560xui32>
    %136 = stablehlo.broadcast_in_dim %arg1, dims = [] : (tensor<ui32>) -> tensor<512x2560xui32>
    %137 = stablehlo.add %129, %136 : tensor<512x2560xui32>
    %138 = stablehlo.broadcast_in_dim %1, dims = [] : (tensor<ui32>) -> tensor<512x2560xui32>
    %139 = stablehlo.add %135, %138 : tensor<512x2560xui32>
    %c_35 = stablehlo.constant dense<4> : tensor<ui32>
    %140 = stablehlo.broadcast_in_dim %c_35, dims = [] : (tensor<ui32>) -> tensor<512x2560xui32>
    %141 = stablehlo.add %139, %140 : tensor<512x2560xui32>
    %142 = stablehlo.add %137, %141 : tensor<512x2560xui32>
    %c_36 = stablehlo.constant dense<13> : tensor<ui32>
    %143 = stablehlo.broadcast_in_dim %c_36, dims = [] : (tensor<ui32>) -> tensor<512x2560xui32>
    %144 = stablehlo.shift_left %141, %143 : tensor<512x2560xui32>
    %c_37 = stablehlo.constant dense<19> : tensor<ui32>
    %145 = stablehlo.broadcast_in_dim %c_37, dims = [] : (tensor<ui32>) -> tensor<512x2560xui32>
    %146 = stablehlo.shift_right_logical %141, %145 : tensor<512x2560xui32>
    %147 = stablehlo.or %144, %146 : tensor<512x2560xui32>
    %148 = stablehlo.xor %142, %147 : tensor<512x2560xui32>
    %149 = stablehlo.add %142, %148 : tensor<512x2560xui32>
    %c_38 = stablehlo.constant dense<15> : tensor<ui32>
    %150 = stablehlo.broadcast_in_dim %c_38, dims = [] : (tensor<ui32>) -> tensor<512x2560xui32>
    %151 = stablehlo.shift_left %148, %150 : tensor<512x2560xui32>
    %c_39 = stablehlo.constant dense<17> : tensor<ui32>
    %152 = stablehlo.broadcast_in_dim %c_39, dims = [] : (tensor<ui32>) -> tensor<512x2560xui32>
    %153 = stablehlo.shift_right_logical %148, %152 : tensor<512x2560xui32>
    %154 = stablehlo.or %151, %153 : tensor<512x2560xui32>
    %155 = stablehlo.xor %149, %154 : tensor<512x2560xui32>
    %156 = stablehlo.add %149, %155 : tensor<512x2560xui32>
    %c_40 = stablehlo.constant dense<26> : tensor<ui32>
    %157 = stablehlo.broadcast_in_dim %c_40, dims = [] : (tensor<ui32>) -> tensor<512x2560xui32>
    %158 = stablehlo.shift_left %155, %157 : tensor<512x2560xui32>
    %c_41 = stablehlo.constant dense<6> : tensor<ui32>
    %159 = stablehlo.broadcast_in_dim %c_41, dims = [] : (tensor<ui32>) -> tensor<512x2560xui32>
    %160 = stablehlo.shift_right_logical %155, %159 : tensor<512x2560xui32>
    %161 = stablehlo.or %158, %160 : tensor<512x2560xui32>
    %162 = stablehlo.xor %156, %161 : tensor<512x2560xui32>
    %163 = stablehlo.add %156, %162 : tensor<512x2560xui32>
    %c_42 = stablehlo.constant dense<6> : tensor<ui32>
    %164 = stablehlo.broadcast_in_dim %c_42, dims = [] : (tensor<ui32>) -> tensor<512x2560xui32>
    %165 = stablehlo.shift_left %162, %164 : tensor<512x2560xui32>
    %c_43 = stablehlo.constant dense<26> : tensor<ui32>
    %166 = stablehlo.broadcast_in_dim %c_43, dims = [] : (tensor<ui32>) -> tensor<512x2560xui32>
    %167 = stablehlo.shift_right_logical %162, %166 : tensor<512x2560xui32>
    %168 = stablehlo.or %165, %167 : tensor<512x2560xui32>
    %169 = stablehlo.xor %163, %168 : tensor<512x2560xui32>
    %170 = stablehlo.broadcast_in_dim %1, dims = [] : (tensor<ui32>) -> tensor<512x2560xui32>
    %171 = stablehlo.add %163, %170 : tensor<512x2560xui32>
    %172 = stablehlo.broadcast_in_dim %arg0, dims = [] : (tensor<ui32>) -> tensor<512x2560xui32>
    %173 = stablehlo.add %169, %172 : tensor<512x2560xui32>
    %c_44 = stablehlo.constant dense<5> : tensor<ui32>
    %174 = stablehlo.broadcast_in_dim %c_44, dims = [] : (tensor<ui32>) -> tensor<512x2560xui32>
    %175 = stablehlo.add %173, %174 : tensor<512x2560xui32>
    return %171, %175 : tensor<512x2560xui32>, tensor<512x2560xui32>
  }
  func.func private @_normal_56(%arg0: tensor<2xui32>) -> tensor<2x2560xf32> {
    %0 = call @_normal_real_57(%arg0) : (tensor<2xui32>) -> tensor<2x2560xf32>
    return %0 : tensor<2x2560xf32>
  }
  func.func private @_normal_real_57(%arg0: tensor<2xui32>) -> tensor<2x2560xf32> {
    %cst = stablehlo.constant dense<-0.99999994> : tensor<f32>
    %cst_0 = stablehlo.constant dense<1.000000e+00> : tensor<f32>
    %0 = call @_uniform_58(%arg0, %cst, %cst_0) : (tensor<2xui32>, tensor<f32>, tensor<f32>) -> tensor<2x2560xf32>
    %1 = chlo.erf_inv %0 : tensor<2x2560xf32> -> tensor<2x2560xf32>
    %cst_1 = stablehlo.constant dense<1.41421354> : tensor<f32>
    %2 = stablehlo.broadcast_in_dim %cst_1, dims = [] : (tensor<f32>) -> tensor<2x2560xf32>
    %3 = stablehlo.multiply %2, %1 : tensor<2x2560xf32>
    return %3 : tensor<2x2560xf32>
  }
  func.func private @_uniform_58(%arg0: tensor<2xui32>, %arg1: tensor<f32>, %arg2: tensor<f32>) -> tensor<2x2560xf32> {
    %0 = stablehlo.broadcast_in_dim %arg1, dims = [] : (tensor<f32>) -> tensor<1x1xf32>
    %1 = stablehlo.broadcast_in_dim %arg2, dims = [] : (tensor<f32>) -> tensor<1x1xf32>
    %2 = stablehlo.slice %arg0 [0:1] : (tensor<2xui32>) -> tensor<1xui32>
    %3 = stablehlo.reshape %2 : (tensor<1xui32>) -> tensor<ui32>
    %4 = stablehlo.slice %arg0 [1:2] : (tensor<2xui32>) -> tensor<1xui32>
    %5 = stablehlo.reshape %4 : (tensor<1xui32>) -> tensor<ui32>
    %6 = stablehlo.iota dim = 0 : tensor<2x2560xui64>
    %7 = stablehlo.iota dim = 1 : tensor<2x2560xui64>
    %c = stablehlo.constant dense<2560> : tensor<ui64>
    %8 = stablehlo.broadcast_in_dim %c, dims = [] : (tensor<ui64>) -> tensor<2x2560xui64>
    %9 = stablehlo.multiply %8, %6 : tensor<2x2560xui64>
    %c_0 = stablehlo.constant dense<1> : tensor<ui64>
    %10 = stablehlo.broadcast_in_dim %c_0, dims = [] : (tensor<ui64>) -> tensor<2x2560xui64>
    %11 = stablehlo.multiply %10, %7 : tensor<2x2560xui64>
    %12 = stablehlo.add %9, %11 : tensor<2x2560xui64>
    %c_1 = stablehlo.constant dense<32> : tensor<ui64>
    %13 = stablehlo.broadcast_in_dim %c_1, dims = [] : (tensor<ui64>) -> tensor<2x2560xui64>
    %14 = stablehlo.shift_right_logical %12, %13 : tensor<2x2560xui64>
    %15 = stablehlo.convert %12 : (tensor<2x2560xui64>) -> tensor<2x2560xui32>
    %16 = stablehlo.convert %14 : (tensor<2x2560xui64>) -> tensor<2x2560xui32>
    %17:2 = call @threefry2x32_61(%3, %5, %16, %15) : (tensor<ui32>, tensor<ui32>, tensor<2x2560xui32>, tensor<2x2560xui32>) -> (tensor<2x2560xui32>, tensor<2x2560xui32>)
    %18 = stablehlo.xor %17#0, %17#1 : tensor<2x2560xui32>
    %c_2 = stablehlo.constant dense<9> : tensor<ui32>
    %19 = stablehlo.broadcast_in_dim %c_2, dims = [] : (tensor<ui32>) -> tensor<2x2560xui32>
    %20 = stablehlo.shift_right_logical %18, %19 : tensor<2x2560xui32>
    %c_3 = stablehlo.constant dense<1065353216> : tensor<ui32>
    %21 = stablehlo.broadcast_in_dim %c_3, dims = [] : (tensor<ui32>) -> tensor<2x2560xui32>
    %22 = stablehlo.or %20, %21 : tensor<2x2560xui32>
    %23 = stablehlo.bitcast_convert %22 : (tensor<2x2560xui32>) -> tensor<2x2560xf32>
    %cst = stablehlo.constant dense<1.000000e+00> : tensor<f32>
    %24 = stablehlo.broadcast_in_dim %cst, dims = [] : (tensor<f32>) -> tensor<2x2560xf32>
    %25 = stablehlo.subtract %23, %24 : tensor<2x2560xf32>
    %26 = stablehlo.subtract %1, %0 : tensor<1x1xf32>
    %27 = stablehlo.broadcast_in_dim %26, dims = [0, 1] : (tensor<1x1xf32>) -> tensor<2x2560xf32>
    %28 = stablehlo.multiply %25, %27 : tensor<2x2560xf32>
    %29 = stablehlo.broadcast_in_dim %0, dims = [0, 1] : (tensor<1x1xf32>) -> tensor<2x2560xf32>
    %30 = stablehlo.add %28, %29 : tensor<2x2560xf32>
    %31 = stablehlo.broadcast_in_dim %0, dims = [0, 1] : (tensor<1x1xf32>) -> tensor<2x2560xf32>
    %32 = stablehlo.maximum %31, %30 : tensor<2x2560xf32>
    return %32 : tensor<2x2560xf32>
  }
  func.func private @threefry2x32_61(%arg0: tensor<ui32>, %arg1: tensor<ui32>, %arg2: tensor<2x2560xui32>, %arg3: tensor<2x2560xui32>) -> (tensor<2x2560xui32>, tensor<2x2560xui32>) {
    %0 = stablehlo.xor %arg0, %arg1 : tensor<ui32>
    %c = stablehlo.constant dense<466688986> : tensor<ui32>
    %1 = stablehlo.xor %0, %c : tensor<ui32>
    %2 = stablehlo.broadcast_in_dim %arg0, dims = [] : (tensor<ui32>) -> tensor<2x2560xui32>
    %3 = stablehlo.add %arg2, %2 : tensor<2x2560xui32>
    %4 = stablehlo.broadcast_in_dim %arg1, dims = [] : (tensor<ui32>) -> tensor<2x2560xui32>
    %5 = stablehlo.add %arg3, %4 : tensor<2x2560xui32>
    %6 = stablehlo.add %3, %5 : tensor<2x2560xui32>
    %c_0 = stablehlo.constant dense<13> : tensor<ui32>
    %7 = stablehlo.broadcast_in_dim %c_0, dims = [] : (tensor<ui32>) -> tensor<2x2560xui32>
    %8 = stablehlo.shift_left %5, %7 : tensor<2x2560xui32>
    %c_1 = stablehlo.constant dense<19> : tensor<ui32>
    %9 = stablehlo.broadcast_in_dim %c_1, dims = [] : (tensor<ui32>) -> tensor<2x2560xui32>
    %10 = stablehlo.shift_right_logical %5, %9 : tensor<2x2560xui32>
    %11 = stablehlo.or %8, %10 : tensor<2x2560xui32>
    %12 = stablehlo.xor %6, %11 : tensor<2x2560xui32>
    %13 = stablehlo.add %6, %12 : tensor<2x2560xui32>
    %c_2 = stablehlo.constant dense<15> : tensor<ui32>
    %14 = stablehlo.broadcast_in_dim %c_2, dims = [] : (tensor<ui32>) -> tensor<2x2560xui32>
    %15 = stablehlo.shift_left %12, %14 : tensor<2x2560xui32>
    %c_3 = stablehlo.constant dense<17> : tensor<ui32>
    %16 = stablehlo.broadcast_in_dim %c_3, dims = [] : (tensor<ui32>) -> tensor<2x2560xui32>
    %17 = stablehlo.shift_right_logical %12, %16 : tensor<2x2560xui32>
    %18 = stablehlo.or %15, %17 : tensor<2x2560xui32>
    %19 = stablehlo.xor %13, %18 : tensor<2x2560xui32>
    %20 = stablehlo.add %13, %19 : tensor<2x2560xui32>
    %c_4 = stablehlo.constant dense<26> : tensor<ui32>
    %21 = stablehlo.broadcast_in_dim %c_4, dims = [] : (tensor<ui32>) -> tensor<2x2560xui32>
    %22 = stablehlo.shift_left %19, %21 : tensor<2x2560xui32>
    %c_5 = stablehlo.constant dense<6> : tensor<ui32>
    %23 = stablehlo.broadcast_in_dim %c_5, dims = [] : (tensor<ui32>) -> tensor<2x2560xui32>
    %24 = stablehlo.shift_right_logical %19, %23 : tensor<2x2560xui32>
    %25 = stablehlo.or %22, %24 : tensor<2x2560xui32>
    %26 = stablehlo.xor %20, %25 : tensor<2x2560xui32>
    %27 = stablehlo.add %20, %26 : tensor<2x2560xui32>
    %c_6 = stablehlo.constant dense<6> : tensor<ui32>
    %28 = stablehlo.broadcast_in_dim %c_6, dims = [] : (tensor<ui32>) -> tensor<2x2560xui32>
    %29 = stablehlo.shift_left %26, %28 : tensor<2x2560xui32>
    %c_7 = stablehlo.constant dense<26> : tensor<ui32>
    %30 = stablehlo.broadcast_in_dim %c_7, dims = [] : (tensor<ui32>) -> tensor<2x2560xui32>
    %31 = stablehlo.shift_right_logical %26, %30 : tensor<2x2560xui32>
    %32 = stablehlo.or %29, %31 : tensor<2x2560xui32>
    %33 = stablehlo.xor %27, %32 : tensor<2x2560xui32>
    %34 = stablehlo.broadcast_in_dim %arg1, dims = [] : (tensor<ui32>) -> tensor<2x2560xui32>
    %35 = stablehlo.add %27, %34 : tensor<2x2560xui32>
    %36 = stablehlo.broadcast_in_dim %1, dims = [] : (tensor<ui32>) -> tensor<2x2560xui32>
    %37 = stablehlo.add %33, %36 : tensor<2x2560xui32>
    %c_8 = stablehlo.constant dense<1> : tensor<ui32>
    %38 = stablehlo.broadcast_in_dim %c_8, dims = [] : (tensor<ui32>) -> tensor<2x2560xui32>
    %39 = stablehlo.add %37, %38 : tensor<2x2560xui32>
    %40 = stablehlo.add %35, %39 : tensor<2x2560xui32>
    %c_9 = stablehlo.constant dense<17> : tensor<ui32>
    %41 = stablehlo.broadcast_in_dim %c_9, dims = [] : (tensor<ui32>) -> tensor<2x2560xui32>
    %42 = stablehlo.shift_left %39, %41 : tensor<2x2560xui32>
    %c_10 = stablehlo.constant dense<15> : tensor<ui32>
    %43 = stablehlo.broadcast_in_dim %c_10, dims = [] : (tensor<ui32>) -> tensor<2x2560xui32>
    %44 = stablehlo.shift_right_logical %39, %43 : tensor<2x2560xui32>
    %45 = stablehlo.or %42, %44 : tensor<2x2560xui32>
    %46 = stablehlo.xor %40, %45 : tensor<2x2560xui32>
    %47 = stablehlo.add %40, %46 : tensor<2x2560xui32>
    %c_11 = stablehlo.constant dense<29> : tensor<ui32>
    %48 = stablehlo.broadcast_in_dim %c_11, dims = [] : (tensor<ui32>) -> tensor<2x2560xui32>
    %49 = stablehlo.shift_left %46, %48 : tensor<2x2560xui32>
    %c_12 = stablehlo.constant dense<3> : tensor<ui32>
    %50 = stablehlo.broadcast_in_dim %c_12, dims = [] : (tensor<ui32>) -> tensor<2x2560xui32>
    %51 = stablehlo.shift_right_logical %46, %50 : tensor<2x2560xui32>
    %52 = stablehlo.or %49, %51 : tensor<2x2560xui32>
    %53 = stablehlo.xor %47, %52 : tensor<2x2560xui32>
    %54 = stablehlo.add %47, %53 : tensor<2x2560xui32>
    %c_13 = stablehlo.constant dense<16> : tensor<ui32>
    %55 = stablehlo.broadcast_in_dim %c_13, dims = [] : (tensor<ui32>) -> tensor<2x2560xui32>
    %56 = stablehlo.shift_left %53, %55 : tensor<2x2560xui32>
    %c_14 = stablehlo.constant dense<16> : tensor<ui32>
    %57 = stablehlo.broadcast_in_dim %c_14, dims = [] : (tensor<ui32>) -> tensor<2x2560xui32>
    %58 = stablehlo.shift_right_logical %53, %57 : tensor<2x2560xui32>
    %59 = stablehlo.or %56, %58 : tensor<2x2560xui32>
    %60 = stablehlo.xor %54, %59 : tensor<2x2560xui32>
    %61 = stablehlo.add %54, %60 : tensor<2x2560xui32>
    %c_15 = stablehlo.constant dense<24> : tensor<ui32>
    %62 = stablehlo.broadcast_in_dim %c_15, dims = [] : (tensor<ui32>) -> tensor<2x2560xui32>
    %63 = stablehlo.shift_left %60, %62 : tensor<2x2560xui32>
    %c_16 = stablehlo.constant dense<8> : tensor<ui32>
    %64 = stablehlo.broadcast_in_dim %c_16, dims = [] : (tensor<ui32>) -> tensor<2x2560xui32>
    %65 = stablehlo.shift_right_logical %60, %64 : tensor<2x2560xui32>
    %66 = stablehlo.or %63, %65 : tensor<2x2560xui32>
    %67 = stablehlo.xor %61, %66 : tensor<2x2560xui32>
    %68 = stablehlo.broadcast_in_dim %1, dims = [] : (tensor<ui32>) -> tensor<2x2560xui32>
    %69 = stablehlo.add %61, %68 : tensor<2x2560xui32>
    %70 = stablehlo.broadcast_in_dim %arg0, dims = [] : (tensor<ui32>) -> tensor<2x2560xui32>
    %71 = stablehlo.add %67, %70 : tensor<2x2560xui32>
    %c_17 = stablehlo.constant dense<2> : tensor<ui32>
    %72 = stablehlo.broadcast_in_dim %c_17, dims = [] : (tensor<ui32>) -> tensor<2x2560xui32>
    %73 = stablehlo.add %71, %72 : tensor<2x2560xui32>
    %74 = stablehlo.add %69, %73 : tensor<2x2560xui32>
    %c_18 = stablehlo.constant dense<13> : tensor<ui32>
    %75 = stablehlo.broadcast_in_dim %c_18, dims = [] : (tensor<ui32>) -> tensor<2x2560xui32>
    %76 = stablehlo.shift_left %73, %75 : tensor<2x2560xui32>
    %c_19 = stablehlo.constant dense<19> : tensor<ui32>
    %77 = stablehlo.broadcast_in_dim %c_19, dims = [] : (tensor<ui32>) -> tensor<2x2560xui32>
    %78 = stablehlo.shift_right_logical %73, %77 : tensor<2x2560xui32>
    %79 = stablehlo.or %76, %78 : tensor<2x2560xui32>
    %80 = stablehlo.xor %74, %79 : tensor<2x2560xui32>
    %81 = stablehlo.add %74, %80 : tensor<2x2560xui32>
    %c_20 = stablehlo.constant dense<15> : tensor<ui32>
    %82 = stablehlo.broadcast_in_dim %c_20, dims = [] : (tensor<ui32>) -> tensor<2x2560xui32>
    %83 = stablehlo.shift_left %80, %82 : tensor<2x2560xui32>
    %c_21 = stablehlo.constant dense<17> : tensor<ui32>
    %84 = stablehlo.broadcast_in_dim %c_21, dims = [] : (tensor<ui32>) -> tensor<2x2560xui32>
    %85 = stablehlo.shift_right_logical %80, %84 : tensor<2x2560xui32>
    %86 = stablehlo.or %83, %85 : tensor<2x2560xui32>
    %87 = stablehlo.xor %81, %86 : tensor<2x2560xui32>
    %88 = stablehlo.add %81, %87 : tensor<2x2560xui32>
    %c_22 = stablehlo.constant dense<26> : tensor<ui32>
    %89 = stablehlo.broadcast_in_dim %c_22, dims = [] : (tensor<ui32>) -> tensor<2x2560xui32>
    %90 = stablehlo.shift_left %87, %89 : tensor<2x2560xui32>
    %c_23 = stablehlo.constant dense<6> : tensor<ui32>
    %91 = stablehlo.broadcast_in_dim %c_23, dims = [] : (tensor<ui32>) -> tensor<2x2560xui32>
    %92 = stablehlo.shift_right_logical %87, %91 : tensor<2x2560xui32>
    %93 = stablehlo.or %90, %92 : tensor<2x2560xui32>
    %94 = stablehlo.xor %88, %93 : tensor<2x2560xui32>
    %95 = stablehlo.add %88, %94 : tensor<2x2560xui32>
    %c_24 = stablehlo.constant dense<6> : tensor<ui32>
    %96 = stablehlo.broadcast_in_dim %c_24, dims = [] : (tensor<ui32>) -> tensor<2x2560xui32>
    %97 = stablehlo.shift_left %94, %96 : tensor<2x2560xui32>
    %c_25 = stablehlo.constant dense<26> : tensor<ui32>
    %98 = stablehlo.broadcast_in_dim %c_25, dims = [] : (tensor<ui32>) -> tensor<2x2560xui32>
    %99 = stablehlo.shift_right_logical %94, %98 : tensor<2x2560xui32>
    %100 = stablehlo.or %97, %99 : tensor<2x2560xui32>
    %101 = stablehlo.xor %95, %100 : tensor<2x2560xui32>
    %102 = stablehlo.broadcast_in_dim %arg0, dims = [] : (tensor<ui32>) -> tensor<2x2560xui32>
    %103 = stablehlo.add %95, %102 : tensor<2x2560xui32>
    %104 = stablehlo.broadcast_in_dim %arg1, dims = [] : (tensor<ui32>) -> tensor<2x2560xui32>
    %105 = stablehlo.add %101, %104 : tensor<2x2560xui32>
    %c_26 = stablehlo.constant dense<3> : tensor<ui32>
    %106 = stablehlo.broadcast_in_dim %c_26, dims = [] : (tensor<ui32>) -> tensor<2x2560xui32>
    %107 = stablehlo.add %105, %106 : tensor<2x2560xui32>
    %108 = stablehlo.add %103, %107 : tensor<2x2560xui32>
    %c_27 = stablehlo.constant dense<17> : tensor<ui32>
    %109 = stablehlo.broadcast_in_dim %c_27, dims = [] : (tensor<ui32>) -> tensor<2x2560xui32>
    %110 = stablehlo.shift_left %107, %109 : tensor<2x2560xui32>
    %c_28 = stablehlo.constant dense<15> : tensor<ui32>
    %111 = stablehlo.broadcast_in_dim %c_28, dims = [] : (tensor<ui32>) -> tensor<2x2560xui32>
    %112 = stablehlo.shift_right_logical %107, %111 : tensor<2x2560xui32>
    %113 = stablehlo.or %110, %112 : tensor<2x2560xui32>
    %114 = stablehlo.xor %108, %113 : tensor<2x2560xui32>
    %115 = stablehlo.add %108, %114 : tensor<2x2560xui32>
    %c_29 = stablehlo.constant dense<29> : tensor<ui32>
    %116 = stablehlo.broadcast_in_dim %c_29, dims = [] : (tensor<ui32>) -> tensor<2x2560xui32>
    %117 = stablehlo.shift_left %114, %116 : tensor<2x2560xui32>
    %c_30 = stablehlo.constant dense<3> : tensor<ui32>
    %118 = stablehlo.broadcast_in_dim %c_30, dims = [] : (tensor<ui32>) -> tensor<2x2560xui32>
    %119 = stablehlo.shift_right_logical %114, %118 : tensor<2x2560xui32>
    %120 = stablehlo.or %117, %119 : tensor<2x2560xui32>
    %121 = stablehlo.xor %115, %120 : tensor<2x2560xui32>
    %122 = stablehlo.add %115, %121 : tensor<2x2560xui32>
    %c_31 = stablehlo.constant dense<16> : tensor<ui32>
    %123 = stablehlo.broadcast_in_dim %c_31, dims = [] : (tensor<ui32>) -> tensor<2x2560xui32>
    %124 = stablehlo.shift_left %121, %123 : tensor<2x2560xui32>
    %c_32 = stablehlo.constant dense<16> : tensor<ui32>
    %125 = stablehlo.broadcast_in_dim %c_32, dims = [] : (tensor<ui32>) -> tensor<2x2560xui32>
    %126 = stablehlo.shift_right_logical %121, %125 : tensor<2x2560xui32>
    %127 = stablehlo.or %124, %126 : tensor<2x2560xui32>
    %128 = stablehlo.xor %122, %127 : tensor<2x2560xui32>
    %129 = stablehlo.add %122, %128 : tensor<2x2560xui32>
    %c_33 = stablehlo.constant dense<24> : tensor<ui32>
    %130 = stablehlo.broadcast_in_dim %c_33, dims = [] : (tensor<ui32>) -> tensor<2x2560xui32>
    %131 = stablehlo.shift_left %128, %130 : tensor<2x2560xui32>
    %c_34 = stablehlo.constant dense<8> : tensor<ui32>
    %132 = stablehlo.broadcast_in_dim %c_34, dims = [] : (tensor<ui32>) -> tensor<2x2560xui32>
    %133 = stablehlo.shift_right_logical %128, %132 : tensor<2x2560xui32>
    %134 = stablehlo.or %131, %133 : tensor<2x2560xui32>
    %135 = stablehlo.xor %129, %134 : tensor<2x2560xui32>
    %136 = stablehlo.broadcast_in_dim %arg1, dims = [] : (tensor<ui32>) -> tensor<2x2560xui32>
    %137 = stablehlo.add %129, %136 : tensor<2x2560xui32>
    %138 = stablehlo.broadcast_in_dim %1, dims = [] : (tensor<ui32>) -> tensor<2x2560xui32>
    %139 = stablehlo.add %135, %138 : tensor<2x2560xui32>
    %c_35 = stablehlo.constant dense<4> : tensor<ui32>
    %140 = stablehlo.broadcast_in_dim %c_35, dims = [] : (tensor<ui32>) -> tensor<2x2560xui32>
    %141 = stablehlo.add %139, %140 : tensor<2x2560xui32>
    %142 = stablehlo.add %137, %141 : tensor<2x2560xui32>
    %c_36 = stablehlo.constant dense<13> : tensor<ui32>
    %143 = stablehlo.broadcast_in_dim %c_36, dims = [] : (tensor<ui32>) -> tensor<2x2560xui32>
    %144 = stablehlo.shift_left %141, %143 : tensor<2x2560xui32>
    %c_37 = stablehlo.constant dense<19> : tensor<ui32>
    %145 = stablehlo.broadcast_in_dim %c_37, dims = [] : (tensor<ui32>) -> tensor<2x2560xui32>
    %146 = stablehlo.shift_right_logical %141, %145 : tensor<2x2560xui32>
    %147 = stablehlo.or %144, %146 : tensor<2x2560xui32>
    %148 = stablehlo.xor %142, %147 : tensor<2x2560xui32>
    %149 = stablehlo.add %142, %148 : tensor<2x2560xui32>
    %c_38 = stablehlo.constant dense<15> : tensor<ui32>
    %150 = stablehlo.broadcast_in_dim %c_38, dims = [] : (tensor<ui32>) -> tensor<2x2560xui32>
    %151 = stablehlo.shift_left %148, %150 : tensor<2x2560xui32>
    %c_39 = stablehlo.constant dense<17> : tensor<ui32>
    %152 = stablehlo.broadcast_in_dim %c_39, dims = [] : (tensor<ui32>) -> tensor<2x2560xui32>
    %153 = stablehlo.shift_right_logical %148, %152 : tensor<2x2560xui32>
    %154 = stablehlo.or %151, %153 : tensor<2x2560xui32>
    %155 = stablehlo.xor %149, %154 : tensor<2x2560xui32>
    %156 = stablehlo.add %149, %155 : tensor<2x2560xui32>
    %c_40 = stablehlo.constant dense<26> : tensor<ui32>
    %157 = stablehlo.broadcast_in_dim %c_40, dims = [] : (tensor<ui32>) -> tensor<2x2560xui32>
    %158 = stablehlo.shift_left %155, %157 : tensor<2x2560xui32>
    %c_41 = stablehlo.constant dense<6> : tensor<ui32>
    %159 = stablehlo.broadcast_in_dim %c_41, dims = [] : (tensor<ui32>) -> tensor<2x2560xui32>
    %160 = stablehlo.shift_right_logical %155, %159 : tensor<2x2560xui32>
    %161 = stablehlo.or %158, %160 : tensor<2x2560xui32>
    %162 = stablehlo.xor %156, %161 : tensor<2x2560xui32>
    %163 = stablehlo.add %156, %162 : tensor<2x2560xui32>
    %c_42 = stablehlo.constant dense<6> : tensor<ui32>
    %164 = stablehlo.broadcast_in_dim %c_42, dims = [] : (tensor<ui32>) -> tensor<2x2560xui32>
    %165 = stablehlo.shift_left %162, %164 : tensor<2x2560xui32>
    %c_43 = stablehlo.constant dense<26> : tensor<ui32>
    %166 = stablehlo.broadcast_in_dim %c_43, dims = [] : (tensor<ui32>) -> tensor<2x2560xui32>
    %167 = stablehlo.shift_right_logical %162, %166 : tensor<2x2560xui32>
    %168 = stablehlo.or %165, %167 : tensor<2x2560xui32>
    %169 = stablehlo.xor %163, %168 : tensor<2x2560xui32>
    %170 = stablehlo.broadcast_in_dim %1, dims = [] : (tensor<ui32>) -> tensor<2x2560xui32>
    %171 = stablehlo.add %163, %170 : tensor<2x2560xui32>
    %172 = stablehlo.broadcast_in_dim %arg0, dims = [] : (tensor<ui32>) -> tensor<2x2560xui32>
    %173 = stablehlo.add %169, %172 : tensor<2x2560xui32>
    %c_44 = stablehlo.constant dense<5> : tensor<ui32>
    %174 = stablehlo.broadcast_in_dim %c_44, dims = [] : (tensor<ui32>) -> tensor<2x2560xui32>
    %175 = stablehlo.add %173, %174 : tensor<2x2560xui32>
    return %171, %175 : tensor<2x2560xui32>, tensor<2x2560xui32>
  }
  func.func private @_threefry_split_79(%arg0: tensor<2xui32>) -> tensor<32x2xui32> {
    %0 = stablehlo.slice %arg0 [0:1] : (tensor<2xui32>) -> tensor<1xui32>
    %1 = stablehlo.reshape %0 : (tensor<1xui32>) -> tensor<ui32>
    %2 = stablehlo.slice %arg0 [1:2] : (tensor<2xui32>) -> tensor<1xui32>
    %3 = stablehlo.reshape %2 : (tensor<1xui32>) -> tensor<ui32>
    %4 = stablehlo.iota dim = 0 : tensor<32xui64>
    %c = stablehlo.constant dense<1> : tensor<ui64>
    %5 = stablehlo.broadcast_in_dim %c, dims = [] : (tensor<ui64>) -> tensor<32xui64>
    %6 = stablehlo.multiply %5, %4 : tensor<32xui64>
    %c_0 = stablehlo.constant dense<32> : tensor<ui64>
    %7 = stablehlo.broadcast_in_dim %c_0, dims = [] : (tensor<ui64>) -> tensor<32xui64>
    %8 = stablehlo.shift_right_logical %6, %7 : tensor<32xui64>
    %9 = stablehlo.convert %6 : (tensor<32xui64>) -> tensor<32xui32>
    %10 = stablehlo.convert %8 : (tensor<32xui64>) -> tensor<32xui32>
    %11:2 = call @threefry2x32_81(%1, %3, %10, %9) : (tensor<ui32>, tensor<ui32>, tensor<32xui32>, tensor<32xui32>) -> (tensor<32xui32>, tensor<32xui32>)
    %12 = stablehlo.broadcast_in_dim %11#0, dims = [0] : (tensor<32xui32>) -> tensor<32x1xui32>
    %13 = stablehlo.broadcast_in_dim %11#1, dims = [0] : (tensor<32xui32>) -> tensor<32x1xui32>
    %14 = stablehlo.concatenate %12, %13, dim = 1 : (tensor<32x1xui32>, tensor<32x1xui32>) -> tensor<32x2xui32>
    return %14 : tensor<32x2xui32>
  }
  func.func private @threefry2x32_81(%arg0: tensor<ui32>, %arg1: tensor<ui32>, %arg2: tensor<32xui32>, %arg3: tensor<32xui32>) -> (tensor<32xui32>, tensor<32xui32>) {
    %0 = stablehlo.xor %arg0, %arg1 : tensor<ui32>
    %c = stablehlo.constant dense<466688986> : tensor<ui32>
    %1 = stablehlo.xor %0, %c : tensor<ui32>
    %2 = stablehlo.broadcast_in_dim %arg0, dims = [] : (tensor<ui32>) -> tensor<32xui32>
    %3 = stablehlo.add %arg2, %2 : tensor<32xui32>
    %4 = stablehlo.broadcast_in_dim %arg1, dims = [] : (tensor<ui32>) -> tensor<32xui32>
    %5 = stablehlo.add %arg3, %4 : tensor<32xui32>
    %6 = stablehlo.add %3, %5 : tensor<32xui32>
    %c_0 = stablehlo.constant dense<13> : tensor<ui32>
    %7 = stablehlo.broadcast_in_dim %c_0, dims = [] : (tensor<ui32>) -> tensor<32xui32>
    %8 = stablehlo.shift_left %5, %7 : tensor<32xui32>
    %c_1 = stablehlo.constant dense<19> : tensor<ui32>
    %9 = stablehlo.broadcast_in_dim %c_1, dims = [] : (tensor<ui32>) -> tensor<32xui32>
    %10 = stablehlo.shift_right_logical %5, %9 : tensor<32xui32>
    %11 = stablehlo.or %8, %10 : tensor<32xui32>
    %12 = stablehlo.xor %6, %11 : tensor<32xui32>
    %13 = stablehlo.add %6, %12 : tensor<32xui32>
    %c_2 = stablehlo.constant dense<15> : tensor<ui32>
    %14 = stablehlo.broadcast_in_dim %c_2, dims = [] : (tensor<ui32>) -> tensor<32xui32>
    %15 = stablehlo.shift_left %12, %14 : tensor<32xui32>
    %c_3 = stablehlo.constant dense<17> : tensor<ui32>
    %16 = stablehlo.broadcast_in_dim %c_3, dims = [] : (tensor<ui32>) -> tensor<32xui32>
    %17 = stablehlo.shift_right_logical %12, %16 : tensor<32xui32>
    %18 = stablehlo.or %15, %17 : tensor<32xui32>
    %19 = stablehlo.xor %13, %18 : tensor<32xui32>
    %20 = stablehlo.add %13, %19 : tensor<32xui32>
    %c_4 = stablehlo.constant dense<26> : tensor<ui32>
    %21 = stablehlo.broadcast_in_dim %c_4, dims = [] : (tensor<ui32>) -> tensor<32xui32>
    %22 = stablehlo.shift_left %19, %21 : tensor<32xui32>
    %c_5 = stablehlo.constant dense<6> : tensor<ui32>
    %23 = stablehlo.broadcast_in_dim %c_5, dims = [] : (tensor<ui32>) -> tensor<32xui32>
    %24 = stablehlo.shift_right_logical %19, %23 : tensor<32xui32>
    %25 = stablehlo.or %22, %24 : tensor<32xui32>
    %26 = stablehlo.xor %20, %25 : tensor<32xui32>
    %27 = stablehlo.add %20, %26 : tensor<32xui32>
    %c_6 = stablehlo.constant dense<6> : tensor<ui32>
    %28 = stablehlo.broadcast_in_dim %c_6, dims = [] : (tensor<ui32>) -> tensor<32xui32>
    %29 = stablehlo.shift_left %26, %28 : tensor<32xui32>
    %c_7 = stablehlo.constant dense<26> : tensor<ui32>
    %30 = stablehlo.broadcast_in_dim %c_7, dims = [] : (tensor<ui32>) -> tensor<32xui32>
    %31 = stablehlo.shift_right_logical %26, %30 : tensor<32xui32>
    %32 = stablehlo.or %29, %31 : tensor<32xui32>
    %33 = stablehlo.xor %27, %32 : tensor<32xui32>
    %34 = stablehlo.broadcast_in_dim %arg1, dims = [] : (tensor<ui32>) -> tensor<32xui32>
    %35 = stablehlo.add %27, %34 : tensor<32xui32>
    %36 = stablehlo.broadcast_in_dim %1, dims = [] : (tensor<ui32>) -> tensor<32xui32>
    %37 = stablehlo.add %33, %36 : tensor<32xui32>
    %c_8 = stablehlo.constant dense<1> : tensor<ui32>
    %38 = stablehlo.broadcast_in_dim %c_8, dims = [] : (tensor<ui32>) -> tensor<32xui32>
    %39 = stablehlo.add %37, %38 : tensor<32xui32>
    %40 = stablehlo.add %35, %39 : tensor<32xui32>
    %c_9 = stablehlo.constant dense<17> : tensor<ui32>
    %41 = stablehlo.broadcast_in_dim %c_9, dims = [] : (tensor<ui32>) -> tensor<32xui32>
    %42 = stablehlo.shift_left %39, %41 : tensor<32xui32>
    %c_10 = stablehlo.constant dense<15> : tensor<ui32>
    %43 = stablehlo.broadcast_in_dim %c_10, dims = [] : (tensor<ui32>) -> tensor<32xui32>
    %44 = stablehlo.shift_right_logical %39, %43 : tensor<32xui32>
    %45 = stablehlo.or %42, %44 : tensor<32xui32>
    %46 = stablehlo.xor %40, %45 : tensor<32xui32>
    %47 = stablehlo.add %40, %46 : tensor<32xui32>
    %c_11 = stablehlo.constant dense<29> : tensor<ui32>
    %48 = stablehlo.broadcast_in_dim %c_11, dims = [] : (tensor<ui32>) -> tensor<32xui32>
    %49 = stablehlo.shift_left %46, %48 : tensor<32xui32>
    %c_12 = stablehlo.constant dense<3> : tensor<ui32>
    %50 = stablehlo.broadcast_in_dim %c_12, dims = [] : (tensor<ui32>) -> tensor<32xui32>
    %51 = stablehlo.shift_right_logical %46, %50 : tensor<32xui32>
    %52 = stablehlo.or %49, %51 : tensor<32xui32>
    %53 = stablehlo.xor %47, %52 : tensor<32xui32>
    %54 = stablehlo.add %47, %53 : tensor<32xui32>
    %c_13 = stablehlo.constant dense<16> : tensor<ui32>
    %55 = stablehlo.broadcast_in_dim %c_13, dims = [] : (tensor<ui32>) -> tensor<32xui32>
    %56 = stablehlo.shift_left %53, %55 : tensor<32xui32>
    %c_14 = stablehlo.constant dense<16> : tensor<ui32>
    %57 = stablehlo.broadcast_in_dim %c_14, dims = [] : (tensor<ui32>) -> tensor<32xui32>
    %58 = stablehlo.shift_right_logical %53, %57 : tensor<32xui32>
    %59 = stablehlo.or %56, %58 : tensor<32xui32>
    %60 = stablehlo.xor %54, %59 : tensor<32xui32>
    %61 = stablehlo.add %54, %60 : tensor<32xui32>
    %c_15 = stablehlo.constant dense<24> : tensor<ui32>
    %62 = stablehlo.broadcast_in_dim %c_15, dims = [] : (tensor<ui32>) -> tensor<32xui32>
    %63 = stablehlo.shift_left %60, %62 : tensor<32xui32>
    %c_16 = stablehlo.constant dense<8> : tensor<ui32>
    %64 = stablehlo.broadcast_in_dim %c_16, dims = [] : (tensor<ui32>) -> tensor<32xui32>
    %65 = stablehlo.shift_right_logical %60, %64 : tensor<32xui32>
    %66 = stablehlo.or %63, %65 : tensor<32xui32>
    %67 = stablehlo.xor %61, %66 : tensor<32xui32>
    %68 = stablehlo.broadcast_in_dim %1, dims = [] : (tensor<ui32>) -> tensor<32xui32>
    %69 = stablehlo.add %61, %68 : tensor<32xui32>
    %70 = stablehlo.broadcast_in_dim %arg0, dims = [] : (tensor<ui32>) -> tensor<32xui32>
    %71 = stablehlo.add %67, %70 : tensor<32xui32>
    %c_17 = stablehlo.constant dense<2> : tensor<ui32>
    %72 = stablehlo.broadcast_in_dim %c_17, dims = [] : (tensor<ui32>) -> tensor<32xui32>
    %73 = stablehlo.add %71, %72 : tensor<32xui32>
    %74 = stablehlo.add %69, %73 : tensor<32xui32>
    %c_18 = stablehlo.constant dense<13> : tensor<ui32>
    %75 = stablehlo.broadcast_in_dim %c_18, dims = [] : (tensor<ui32>) -> tensor<32xui32>
    %76 = stablehlo.shift_left %73, %75 : tensor<32xui32>
    %c_19 = stablehlo.constant dense<19> : tensor<ui32>
    %77 = stablehlo.broadcast_in_dim %c_19, dims = [] : (tensor<ui32>) -> tensor<32xui32>
    %78 = stablehlo.shift_right_logical %73, %77 : tensor<32xui32>
    %79 = stablehlo.or %76, %78 : tensor<32xui32>
    %80 = stablehlo.xor %74, %79 : tensor<32xui32>
    %81 = stablehlo.add %74, %80 : tensor<32xui32>
    %c_20 = stablehlo.constant dense<15> : tensor<ui32>
    %82 = stablehlo.broadcast_in_dim %c_20, dims = [] : (tensor<ui32>) -> tensor<32xui32>
    %83 = stablehlo.shift_left %80, %82 : tensor<32xui32>
    %c_21 = stablehlo.constant dense<17> : tensor<ui32>
    %84 = stablehlo.broadcast_in_dim %c_21, dims = [] : (tensor<ui32>) -> tensor<32xui32>
    %85 = stablehlo.shift_right_logical %80, %84 : tensor<32xui32>
    %86 = stablehlo.or %83, %85 : tensor<32xui32>
    %87 = stablehlo.xor %81, %86 : tensor<32xui32>
    %88 = stablehlo.add %81, %87 : tensor<32xui32>
    %c_22 = stablehlo.constant dense<26> : tensor<ui32>
    %89 = stablehlo.broadcast_in_dim %c_22, dims = [] : (tensor<ui32>) -> tensor<32xui32>
    %90 = stablehlo.shift_left %87, %89 : tensor<32xui32>
    %c_23 = stablehlo.constant dense<6> : tensor<ui32>
    %91 = stablehlo.broadcast_in_dim %c_23, dims = [] : (tensor<ui32>) -> tensor<32xui32>
    %92 = stablehlo.shift_right_logical %87, %91 : tensor<32xui32>
    %93 = stablehlo.or %90, %92 : tensor<32xui32>
    %94 = stablehlo.xor %88, %93 : tensor<32xui32>
    %95 = stablehlo.add %88, %94 : tensor<32xui32>
    %c_24 = stablehlo.constant dense<6> : tensor<ui32>
    %96 = stablehlo.broadcast_in_dim %c_24, dims = [] : (tensor<ui32>) -> tensor<32xui32>
    %97 = stablehlo.shift_left %94, %96 : tensor<32xui32>
    %c_25 = stablehlo.constant dense<26> : tensor<ui32>
    %98 = stablehlo.broadcast_in_dim %c_25, dims = [] : (tensor<ui32>) -> tensor<32xui32>
    %99 = stablehlo.shift_right_logical %94, %98 : tensor<32xui32>
    %100 = stablehlo.or %97, %99 : tensor<32xui32>
    %101 = stablehlo.xor %95, %100 : tensor<32xui32>
    %102 = stablehlo.broadcast_in_dim %arg0, dims = [] : (tensor<ui32>) -> tensor<32xui32>
    %103 = stablehlo.add %95, %102 : tensor<32xui32>
    %104 = stablehlo.broadcast_in_dim %arg1, dims = [] : (tensor<ui32>) -> tensor<32xui32>
    %105 = stablehlo.add %101, %104 : tensor<32xui32>
    %c_26 = stablehlo.constant dense<3> : tensor<ui32>
    %106 = stablehlo.broadcast_in_dim %c_26, dims = [] : (tensor<ui32>) -> tensor<32xui32>
    %107 = stablehlo.add %105, %106 : tensor<32xui32>
    %108 = stablehlo.add %103, %107 : tensor<32xui32>
    %c_27 = stablehlo.constant dense<17> : tensor<ui32>
    %109 = stablehlo.broadcast_in_dim %c_27, dims = [] : (tensor<ui32>) -> tensor<32xui32>
    %110 = stablehlo.shift_left %107, %109 : tensor<32xui32>
    %c_28 = stablehlo.constant dense<15> : tensor<ui32>
    %111 = stablehlo.broadcast_in_dim %c_28, dims = [] : (tensor<ui32>) -> tensor<32xui32>
    %112 = stablehlo.shift_right_logical %107, %111 : tensor<32xui32>
    %113 = stablehlo.or %110, %112 : tensor<32xui32>
    %114 = stablehlo.xor %108, %113 : tensor<32xui32>
    %115 = stablehlo.add %108, %114 : tensor<32xui32>
    %c_29 = stablehlo.constant dense<29> : tensor<ui32>
    %116 = stablehlo.broadcast_in_dim %c_29, dims = [] : (tensor<ui32>) -> tensor<32xui32>
    %117 = stablehlo.shift_left %114, %116 : tensor<32xui32>
    %c_30 = stablehlo.constant dense<3> : tensor<ui32>
    %118 = stablehlo.broadcast_in_dim %c_30, dims = [] : (tensor<ui32>) -> tensor<32xui32>
    %119 = stablehlo.shift_right_logical %114, %118 : tensor<32xui32>
    %120 = stablehlo.or %117, %119 : tensor<32xui32>
    %121 = stablehlo.xor %115, %120 : tensor<32xui32>
    %122 = stablehlo.add %115, %121 : tensor<32xui32>
    %c_31 = stablehlo.constant dense<16> : tensor<ui32>
    %123 = stablehlo.broadcast_in_dim %c_31, dims = [] : (tensor<ui32>) -> tensor<32xui32>
    %124 = stablehlo.shift_left %121, %123 : tensor<32xui32>
    %c_32 = stablehlo.constant dense<16> : tensor<ui32>
    %125 = stablehlo.broadcast_in_dim %c_32, dims = [] : (tensor<ui32>) -> tensor<32xui32>
    %126 = stablehlo.shift_right_logical %121, %125 : tensor<32xui32>
    %127 = stablehlo.or %124, %126 : tensor<32xui32>
    %128 = stablehlo.xor %122, %127 : tensor<32xui32>
    %129 = stablehlo.add %122, %128 : tensor<32xui32>
    %c_33 = stablehlo.constant dense<24> : tensor<ui32>
    %130 = stablehlo.broadcast_in_dim %c_33, dims = [] : (tensor<ui32>) -> tensor<32xui32>
    %131 = stablehlo.shift_left %128, %130 : tensor<32xui32>
    %c_34 = stablehlo.constant dense<8> : tensor<ui32>
    %132 = stablehlo.broadcast_in_dim %c_34, dims = [] : (tensor<ui32>) -> tensor<32xui32>
    %133 = stablehlo.shift_right_logical %128, %132 : tensor<32xui32>
    %134 = stablehlo.or %131, %133 : tensor<32xui32>
    %135 = stablehlo.xor %129, %134 : tensor<32xui32>
    %136 = stablehlo.broadcast_in_dim %arg1, dims = [] : (tensor<ui32>) -> tensor<32xui32>
    %137 = stablehlo.add %129, %136 : tensor<32xui32>
    %138 = stablehlo.broadcast_in_dim %1, dims = [] : (tensor<ui32>) -> tensor<32xui32>
    %139 = stablehlo.add %135, %138 : tensor<32xui32>
    %c_35 = stablehlo.constant dense<4> : tensor<ui32>
    %140 = stablehlo.broadcast_in_dim %c_35, dims = [] : (tensor<ui32>) -> tensor<32xui32>
    %141 = stablehlo.add %139, %140 : tensor<32xui32>
    %142 = stablehlo.add %137, %141 : tensor<32xui32>
    %c_36 = stablehlo.constant dense<13> : tensor<ui32>
    %143 = stablehlo.broadcast_in_dim %c_36, dims = [] : (tensor<ui32>) -> tensor<32xui32>
    %144 = stablehlo.shift_left %141, %143 : tensor<32xui32>
    %c_37 = stablehlo.constant dense<19> : tensor<ui32>
    %145 = stablehlo.broadcast_in_dim %c_37, dims = [] : (tensor<ui32>) -> tensor<32xui32>
    %146 = stablehlo.shift_right_logical %141, %145 : tensor<32xui32>
    %147 = stablehlo.or %144, %146 : tensor<32xui32>
    %148 = stablehlo.xor %142, %147 : tensor<32xui32>
    %149 = stablehlo.add %142, %148 : tensor<32xui32>
    %c_38 = stablehlo.constant dense<15> : tensor<ui32>
    %150 = stablehlo.broadcast_in_dim %c_38, dims = [] : (tensor<ui32>) -> tensor<32xui32>
    %151 = stablehlo.shift_left %148, %150 : tensor<32xui32>
    %c_39 = stablehlo.constant dense<17> : tensor<ui32>
    %152 = stablehlo.broadcast_in_dim %c_39, dims = [] : (tensor<ui32>) -> tensor<32xui32>
    %153 = stablehlo.shift_right_logical %148, %152 : tensor<32xui32>
    %154 = stablehlo.or %151, %153 : tensor<32xui32>
    %155 = stablehlo.xor %149, %154 : tensor<32xui32>
    %156 = stablehlo.add %149, %155 : tensor<32xui32>
    %c_40 = stablehlo.constant dense<26> : tensor<ui32>
    %157 = stablehlo.broadcast_in_dim %c_40, dims = [] : (tensor<ui32>) -> tensor<32xui32>
    %158 = stablehlo.shift_left %155, %157 : tensor<32xui32>
    %c_41 = stablehlo.constant dense<6> : tensor<ui32>
    %159 = stablehlo.broadcast_in_dim %c_41, dims = [] : (tensor<ui32>) -> tensor<32xui32>
    %160 = stablehlo.shift_right_logical %155, %159 : tensor<32xui32>
    %161 = stablehlo.or %158, %160 : tensor<32xui32>
    %162 = stablehlo.xor %156, %161 : tensor<32xui32>
    %163 = stablehlo.add %156, %162 : tensor<32xui32>
    %c_42 = stablehlo.constant dense<6> : tensor<ui32>
    %164 = stablehlo.broadcast_in_dim %c_42, dims = [] : (tensor<ui32>) -> tensor<32xui32>
    %165 = stablehlo.shift_left %162, %164 : tensor<32xui32>
    %c_43 = stablehlo.constant dense<26> : tensor<ui32>
    %166 = stablehlo.broadcast_in_dim %c_43, dims = [] : (tensor<ui32>) -> tensor<32xui32>
    %167 = stablehlo.shift_right_logical %162, %166 : tensor<32xui32>
    %168 = stablehlo.or %165, %167 : tensor<32xui32>
    %169 = stablehlo.xor %163, %168 : tensor<32xui32>
    %170 = stablehlo.broadcast_in_dim %1, dims = [] : (tensor<ui32>) -> tensor<32xui32>
    %171 = stablehlo.add %163, %170 : tensor<32xui32>
    %172 = stablehlo.broadcast_in_dim %arg0, dims = [] : (tensor<ui32>) -> tensor<32xui32>
    %173 = stablehlo.add %169, %172 : tensor<32xui32>
    %c_44 = stablehlo.constant dense<5> : tensor<ui32>
    %174 = stablehlo.broadcast_in_dim %c_44, dims = [] : (tensor<ui32>) -> tensor<32xui32>
    %175 = stablehlo.add %173, %174 : tensor<32xui32>
    return %171, %175 : tensor<32xui32>, tensor<32xui32>
  }
  func.func private @_threefry_split_91(%arg0: tensor<32x2xui32>) -> tensor<32x3x2xui32> {
    %0 = stablehlo.slice %arg0 [0:32, 0:1] : (tensor<32x2xui32>) -> tensor<32x1xui32>
    %1 = stablehlo.reshape %0 : (tensor<32x1xui32>) -> tensor<32xui32>
    %2 = stablehlo.slice %arg0 [0:32, 1:2] : (tensor<32x2xui32>) -> tensor<32x1xui32>
    %3 = stablehlo.reshape %2 : (tensor<32x1xui32>) -> tensor<32xui32>
    %4 = stablehlo.iota dim = 0 : tensor<3xui64>
    %c = stablehlo.constant dense<1> : tensor<ui64>
    %5 = stablehlo.broadcast_in_dim %c, dims = [] : (tensor<ui64>) -> tensor<3xui64>
    %6 = stablehlo.multiply %5, %4 : tensor<3xui64>
    %c_0 = stablehlo.constant dense<32> : tensor<ui64>
    %7 = stablehlo.broadcast_in_dim %c_0, dims = [] : (tensor<ui64>) -> tensor<3xui64>
    %8 = stablehlo.shift_right_logical %6, %7 : tensor<3xui64>
    %9 = stablehlo.convert %6 : (tensor<3xui64>) -> tensor<3xui32>
    %10 = stablehlo.convert %8 : (tensor<3xui64>) -> tensor<3xui32>
    %11 = stablehlo.broadcast_in_dim %10, dims = [1] : (tensor<3xui32>) -> tensor<1x3xui32>
    %12 = stablehlo.broadcast_in_dim %9, dims = [1] : (tensor<3xui32>) -> tensor<1x3xui32>
    %13 = stablehlo.broadcast_in_dim %1, dims = [0] : (tensor<32xui32>) -> tensor<32x1xui32>
    %14 = stablehlo.broadcast_in_dim %3, dims = [0] : (tensor<32xui32>) -> tensor<32x1xui32>
    %15:2 = call @threefry2x32_97(%13, %14, %11, %12) : (tensor<32x1xui32>, tensor<32x1xui32>, tensor<1x3xui32>, tensor<1x3xui32>) -> (tensor<32x3xui32>, tensor<32x3xui32>)
    %16 = stablehlo.broadcast_in_dim %15#0, dims = [0, 1] : (tensor<32x3xui32>) -> tensor<32x3x1xui32>
    %17 = stablehlo.broadcast_in_dim %15#1, dims = [0, 1] : (tensor<32x3xui32>) -> tensor<32x3x1xui32>
    %18 = stablehlo.concatenate %16, %17, dim = 2 : (tensor<32x3x1xui32>, tensor<32x3x1xui32>) -> tensor<32x3x2xui32>
    return %18 : tensor<32x3x2xui32>
  }
  func.func private @threefry2x32_97(%arg0: tensor<32x1xui32>, %arg1: tensor<32x1xui32>, %arg2: tensor<1x3xui32>, %arg3: tensor<1x3xui32>) -> (tensor<32x3xui32>, tensor<32x3xui32>) {
    %0 = stablehlo.xor %arg0, %arg1 : tensor<32x1xui32>
    %c = stablehlo.constant dense<466688986> : tensor<ui32>
    %1 = stablehlo.broadcast_in_dim %c, dims = [] : (tensor<ui32>) -> tensor<32x1xui32>
    %2 = stablehlo.xor %0, %1 : tensor<32x1xui32>
    %3 = stablehlo.broadcast_in_dim %arg2, dims = [0, 1] : (tensor<1x3xui32>) -> tensor<32x3xui32>
    %4 = stablehlo.broadcast_in_dim %arg0, dims = [0, 1] : (tensor<32x1xui32>) -> tensor<32x3xui32>
    %5 = stablehlo.add %3, %4 : tensor<32x3xui32>
    %6 = stablehlo.broadcast_in_dim %arg3, dims = [0, 1] : (tensor<1x3xui32>) -> tensor<32x3xui32>
    %7 = stablehlo.broadcast_in_dim %arg1, dims = [0, 1] : (tensor<32x1xui32>) -> tensor<32x3xui32>
    %8 = stablehlo.add %6, %7 : tensor<32x3xui32>
    %9 = stablehlo.add %5, %8 : tensor<32x3xui32>
    %c_0 = stablehlo.constant dense<13> : tensor<ui32>
    %10 = stablehlo.broadcast_in_dim %c_0, dims = [] : (tensor<ui32>) -> tensor<32x3xui32>
    %11 = stablehlo.shift_left %8, %10 : tensor<32x3xui32>
    %c_1 = stablehlo.constant dense<19> : tensor<ui32>
    %12 = stablehlo.broadcast_in_dim %c_1, dims = [] : (tensor<ui32>) -> tensor<32x3xui32>
    %13 = stablehlo.shift_right_logical %8, %12 : tensor<32x3xui32>
    %14 = stablehlo.or %11, %13 : tensor<32x3xui32>
    %15 = stablehlo.xor %9, %14 : tensor<32x3xui32>
    %16 = stablehlo.add %9, %15 : tensor<32x3xui32>
    %c_2 = stablehlo.constant dense<15> : tensor<ui32>
    %17 = stablehlo.broadcast_in_dim %c_2, dims = [] : (tensor<ui32>) -> tensor<32x3xui32>
    %18 = stablehlo.shift_left %15, %17 : tensor<32x3xui32>
    %c_3 = stablehlo.constant dense<17> : tensor<ui32>
    %19 = stablehlo.broadcast_in_dim %c_3, dims = [] : (tensor<ui32>) -> tensor<32x3xui32>
    %20 = stablehlo.shift_right_logical %15, %19 : tensor<32x3xui32>
    %21 = stablehlo.or %18, %20 : tensor<32x3xui32>
    %22 = stablehlo.xor %16, %21 : tensor<32x3xui32>
    %23 = stablehlo.add %16, %22 : tensor<32x3xui32>
    %c_4 = stablehlo.constant dense<26> : tensor<ui32>
    %24 = stablehlo.broadcast_in_dim %c_4, dims = [] : (tensor<ui32>) -> tensor<32x3xui32>
    %25 = stablehlo.shift_left %22, %24 : tensor<32x3xui32>
    %c_5 = stablehlo.constant dense<6> : tensor<ui32>
    %26 = stablehlo.broadcast_in_dim %c_5, dims = [] : (tensor<ui32>) -> tensor<32x3xui32>
    %27 = stablehlo.shift_right_logical %22, %26 : tensor<32x3xui32>
    %28 = stablehlo.or %25, %27 : tensor<32x3xui32>
    %29 = stablehlo.xor %23, %28 : tensor<32x3xui32>
    %30 = stablehlo.add %23, %29 : tensor<32x3xui32>
    %c_6 = stablehlo.constant dense<6> : tensor<ui32>
    %31 = stablehlo.broadcast_in_dim %c_6, dims = [] : (tensor<ui32>) -> tensor<32x3xui32>
    %32 = stablehlo.shift_left %29, %31 : tensor<32x3xui32>
    %c_7 = stablehlo.constant dense<26> : tensor<ui32>
    %33 = stablehlo.broadcast_in_dim %c_7, dims = [] : (tensor<ui32>) -> tensor<32x3xui32>
    %34 = stablehlo.shift_right_logical %29, %33 : tensor<32x3xui32>
    %35 = stablehlo.or %32, %34 : tensor<32x3xui32>
    %36 = stablehlo.xor %30, %35 : tensor<32x3xui32>
    %37 = stablehlo.broadcast_in_dim %arg1, dims = [0, 1] : (tensor<32x1xui32>) -> tensor<32x3xui32>
    %38 = stablehlo.add %30, %37 : tensor<32x3xui32>
    %39 = stablehlo.broadcast_in_dim %2, dims = [0, 1] : (tensor<32x1xui32>) -> tensor<32x3xui32>
    %40 = stablehlo.add %36, %39 : tensor<32x3xui32>
    %c_8 = stablehlo.constant dense<1> : tensor<ui32>
    %41 = stablehlo.broadcast_in_dim %c_8, dims = [] : (tensor<ui32>) -> tensor<32x3xui32>
    %42 = stablehlo.add %40, %41 : tensor<32x3xui32>
    %43 = stablehlo.add %38, %42 : tensor<32x3xui32>
    %c_9 = stablehlo.constant dense<17> : tensor<ui32>
    %44 = stablehlo.broadcast_in_dim %c_9, dims = [] : (tensor<ui32>) -> tensor<32x3xui32>
    %45 = stablehlo.shift_left %42, %44 : tensor<32x3xui32>
    %c_10 = stablehlo.constant dense<15> : tensor<ui32>
    %46 = stablehlo.broadcast_in_dim %c_10, dims = [] : (tensor<ui32>) -> tensor<32x3xui32>
    %47 = stablehlo.shift_right_logical %42, %46 : tensor<32x3xui32>
    %48 = stablehlo.or %45, %47 : tensor<32x3xui32>
    %49 = stablehlo.xor %43, %48 : tensor<32x3xui32>
    %50 = stablehlo.add %43, %49 : tensor<32x3xui32>
    %c_11 = stablehlo.constant dense<29> : tensor<ui32>
    %51 = stablehlo.broadcast_in_dim %c_11, dims = [] : (tensor<ui32>) -> tensor<32x3xui32>
    %52 = stablehlo.shift_left %49, %51 : tensor<32x3xui32>
    %c_12 = stablehlo.constant dense<3> : tensor<ui32>
    %53 = stablehlo.broadcast_in_dim %c_12, dims = [] : (tensor<ui32>) -> tensor<32x3xui32>
    %54 = stablehlo.shift_right_logical %49, %53 : tensor<32x3xui32>
    %55 = stablehlo.or %52, %54 : tensor<32x3xui32>
    %56 = stablehlo.xor %50, %55 : tensor<32x3xui32>
    %57 = stablehlo.add %50, %56 : tensor<32x3xui32>
    %c_13 = stablehlo.constant dense<16> : tensor<ui32>
    %58 = stablehlo.broadcast_in_dim %c_13, dims = [] : (tensor<ui32>) -> tensor<32x3xui32>
    %59 = stablehlo.shift_left %56, %58 : tensor<32x3xui32>
    %c_14 = stablehlo.constant dense<16> : tensor<ui32>
    %60 = stablehlo.broadcast_in_dim %c_14, dims = [] : (tensor<ui32>) -> tensor<32x3xui32>
    %61 = stablehlo.shift_right_logical %56, %60 : tensor<32x3xui32>
    %62 = stablehlo.or %59, %61 : tensor<32x3xui32>
    %63 = stablehlo.xor %57, %62 : tensor<32x3xui32>
    %64 = stablehlo.add %57, %63 : tensor<32x3xui32>
    %c_15 = stablehlo.constant dense<24> : tensor<ui32>
    %65 = stablehlo.broadcast_in_dim %c_15, dims = [] : (tensor<ui32>) -> tensor<32x3xui32>
    %66 = stablehlo.shift_left %63, %65 : tensor<32x3xui32>
    %c_16 = stablehlo.constant dense<8> : tensor<ui32>
    %67 = stablehlo.broadcast_in_dim %c_16, dims = [] : (tensor<ui32>) -> tensor<32x3xui32>
    %68 = stablehlo.shift_right_logical %63, %67 : tensor<32x3xui32>
    %69 = stablehlo.or %66, %68 : tensor<32x3xui32>
    %70 = stablehlo.xor %64, %69 : tensor<32x3xui32>
    %71 = stablehlo.broadcast_in_dim %2, dims = [0, 1] : (tensor<32x1xui32>) -> tensor<32x3xui32>
    %72 = stablehlo.add %64, %71 : tensor<32x3xui32>
    %73 = stablehlo.broadcast_in_dim %arg0, dims = [0, 1] : (tensor<32x1xui32>) -> tensor<32x3xui32>
    %74 = stablehlo.add %70, %73 : tensor<32x3xui32>
    %c_17 = stablehlo.constant dense<2> : tensor<ui32>
    %75 = stablehlo.broadcast_in_dim %c_17, dims = [] : (tensor<ui32>) -> tensor<32x3xui32>
    %76 = stablehlo.add %74, %75 : tensor<32x3xui32>
    %77 = stablehlo.add %72, %76 : tensor<32x3xui32>
    %c_18 = stablehlo.constant dense<13> : tensor<ui32>
    %78 = stablehlo.broadcast_in_dim %c_18, dims = [] : (tensor<ui32>) -> tensor<32x3xui32>
    %79 = stablehlo.shift_left %76, %78 : tensor<32x3xui32>
    %c_19 = stablehlo.constant dense<19> : tensor<ui32>
    %80 = stablehlo.broadcast_in_dim %c_19, dims = [] : (tensor<ui32>) -> tensor<32x3xui32>
    %81 = stablehlo.shift_right_logical %76, %80 : tensor<32x3xui32>
    %82 = stablehlo.or %79, %81 : tensor<32x3xui32>
    %83 = stablehlo.xor %77, %82 : tensor<32x3xui32>
    %84 = stablehlo.add %77, %83 : tensor<32x3xui32>
    %c_20 = stablehlo.constant dense<15> : tensor<ui32>
    %85 = stablehlo.broadcast_in_dim %c_20, dims = [] : (tensor<ui32>) -> tensor<32x3xui32>
    %86 = stablehlo.shift_left %83, %85 : tensor<32x3xui32>
    %c_21 = stablehlo.constant dense<17> : tensor<ui32>
    %87 = stablehlo.broadcast_in_dim %c_21, dims = [] : (tensor<ui32>) -> tensor<32x3xui32>
    %88 = stablehlo.shift_right_logical %83, %87 : tensor<32x3xui32>
    %89 = stablehlo.or %86, %88 : tensor<32x3xui32>
    %90 = stablehlo.xor %84, %89 : tensor<32x3xui32>
    %91 = stablehlo.add %84, %90 : tensor<32x3xui32>
    %c_22 = stablehlo.constant dense<26> : tensor<ui32>
    %92 = stablehlo.broadcast_in_dim %c_22, dims = [] : (tensor<ui32>) -> tensor<32x3xui32>
    %93 = stablehlo.shift_left %90, %92 : tensor<32x3xui32>
    %c_23 = stablehlo.constant dense<6> : tensor<ui32>
    %94 = stablehlo.broadcast_in_dim %c_23, dims = [] : (tensor<ui32>) -> tensor<32x3xui32>
    %95 = stablehlo.shift_right_logical %90, %94 : tensor<32x3xui32>
    %96 = stablehlo.or %93, %95 : tensor<32x3xui32>
    %97 = stablehlo.xor %91, %96 : tensor<32x3xui32>
    %98 = stablehlo.add %91, %97 : tensor<32x3xui32>
    %c_24 = stablehlo.constant dense<6> : tensor<ui32>
    %99 = stablehlo.broadcast_in_dim %c_24, dims = [] : (tensor<ui32>) -> tensor<32x3xui32>
    %100 = stablehlo.shift_left %97, %99 : tensor<32x3xui32>
    %c_25 = stablehlo.constant dense<26> : tensor<ui32>
    %101 = stablehlo.broadcast_in_dim %c_25, dims = [] : (tensor<ui32>) -> tensor<32x3xui32>
    %102 = stablehlo.shift_right_logical %97, %101 : tensor<32x3xui32>
    %103 = stablehlo.or %100, %102 : tensor<32x3xui32>
    %104 = stablehlo.xor %98, %103 : tensor<32x3xui32>
    %105 = stablehlo.broadcast_in_dim %arg0, dims = [0, 1] : (tensor<32x1xui32>) -> tensor<32x3xui32>
    %106 = stablehlo.add %98, %105 : tensor<32x3xui32>
    %107 = stablehlo.broadcast_in_dim %arg1, dims = [0, 1] : (tensor<32x1xui32>) -> tensor<32x3xui32>
    %108 = stablehlo.add %104, %107 : tensor<32x3xui32>
    %c_26 = stablehlo.constant dense<3> : tensor<ui32>
    %109 = stablehlo.broadcast_in_dim %c_26, dims = [] : (tensor<ui32>) -> tensor<32x3xui32>
    %110 = stablehlo.add %108, %109 : tensor<32x3xui32>
    %111 = stablehlo.add %106, %110 : tensor<32x3xui32>
    %c_27 = stablehlo.constant dense<17> : tensor<ui32>
    %112 = stablehlo.broadcast_in_dim %c_27, dims = [] : (tensor<ui32>) -> tensor<32x3xui32>
    %113 = stablehlo.shift_left %110, %112 : tensor<32x3xui32>
    %c_28 = stablehlo.constant dense<15> : tensor<ui32>
    %114 = stablehlo.broadcast_in_dim %c_28, dims = [] : (tensor<ui32>) -> tensor<32x3xui32>
    %115 = stablehlo.shift_right_logical %110, %114 : tensor<32x3xui32>
    %116 = stablehlo.or %113, %115 : tensor<32x3xui32>
    %117 = stablehlo.xor %111, %116 : tensor<32x3xui32>
    %118 = stablehlo.add %111, %117 : tensor<32x3xui32>
    %c_29 = stablehlo.constant dense<29> : tensor<ui32>
    %119 = stablehlo.broadcast_in_dim %c_29, dims = [] : (tensor<ui32>) -> tensor<32x3xui32>
    %120 = stablehlo.shift_left %117, %119 : tensor<32x3xui32>
    %c_30 = stablehlo.constant dense<3> : tensor<ui32>
    %121 = stablehlo.broadcast_in_dim %c_30, dims = [] : (tensor<ui32>) -> tensor<32x3xui32>
    %122 = stablehlo.shift_right_logical %117, %121 : tensor<32x3xui32>
    %123 = stablehlo.or %120, %122 : tensor<32x3xui32>
    %124 = stablehlo.xor %118, %123 : tensor<32x3xui32>
    %125 = stablehlo.add %118, %124 : tensor<32x3xui32>
    %c_31 = stablehlo.constant dense<16> : tensor<ui32>
    %126 = stablehlo.broadcast_in_dim %c_31, dims = [] : (tensor<ui32>) -> tensor<32x3xui32>
    %127 = stablehlo.shift_left %124, %126 : tensor<32x3xui32>
    %c_32 = stablehlo.constant dense<16> : tensor<ui32>
    %128 = stablehlo.broadcast_in_dim %c_32, dims = [] : (tensor<ui32>) -> tensor<32x3xui32>
    %129 = stablehlo.shift_right_logical %124, %128 : tensor<32x3xui32>
    %130 = stablehlo.or %127, %129 : tensor<32x3xui32>
    %131 = stablehlo.xor %125, %130 : tensor<32x3xui32>
    %132 = stablehlo.add %125, %131 : tensor<32x3xui32>
    %c_33 = stablehlo.constant dense<24> : tensor<ui32>
    %133 = stablehlo.broadcast_in_dim %c_33, dims = [] : (tensor<ui32>) -> tensor<32x3xui32>
    %134 = stablehlo.shift_left %131, %133 : tensor<32x3xui32>
    %c_34 = stablehlo.constant dense<8> : tensor<ui32>
    %135 = stablehlo.broadcast_in_dim %c_34, dims = [] : (tensor<ui32>) -> tensor<32x3xui32>
    %136 = stablehlo.shift_right_logical %131, %135 : tensor<32x3xui32>
    %137 = stablehlo.or %134, %136 : tensor<32x3xui32>
    %138 = stablehlo.xor %132, %137 : tensor<32x3xui32>
    %139 = stablehlo.broadcast_in_dim %arg1, dims = [0, 1] : (tensor<32x1xui32>) -> tensor<32x3xui32>
    %140 = stablehlo.add %132, %139 : tensor<32x3xui32>
    %141 = stablehlo.broadcast_in_dim %2, dims = [0, 1] : (tensor<32x1xui32>) -> tensor<32x3xui32>
    %142 = stablehlo.add %138, %141 : tensor<32x3xui32>
    %c_35 = stablehlo.constant dense<4> : tensor<ui32>
    %143 = stablehlo.broadcast_in_dim %c_35, dims = [] : (tensor<ui32>) -> tensor<32x3xui32>
    %144 = stablehlo.add %142, %143 : tensor<32x3xui32>
    %145 = stablehlo.add %140, %144 : tensor<32x3xui32>
    %c_36 = stablehlo.constant dense<13> : tensor<ui32>
    %146 = stablehlo.broadcast_in_dim %c_36, dims = [] : (tensor<ui32>) -> tensor<32x3xui32>
    %147 = stablehlo.shift_left %144, %146 : tensor<32x3xui32>
    %c_37 = stablehlo.constant dense<19> : tensor<ui32>
    %148 = stablehlo.broadcast_in_dim %c_37, dims = [] : (tensor<ui32>) -> tensor<32x3xui32>
    %149 = stablehlo.shift_right_logical %144, %148 : tensor<32x3xui32>
    %150 = stablehlo.or %147, %149 : tensor<32x3xui32>
    %151 = stablehlo.xor %145, %150 : tensor<32x3xui32>
    %152 = stablehlo.add %145, %151 : tensor<32x3xui32>
    %c_38 = stablehlo.constant dense<15> : tensor<ui32>
    %153 = stablehlo.broadcast_in_dim %c_38, dims = [] : (tensor<ui32>) -> tensor<32x3xui32>
    %154 = stablehlo.shift_left %151, %153 : tensor<32x3xui32>
    %c_39 = stablehlo.constant dense<17> : tensor<ui32>
    %155 = stablehlo.broadcast_in_dim %c_39, dims = [] : (tensor<ui32>) -> tensor<32x3xui32>
    %156 = stablehlo.shift_right_logical %151, %155 : tensor<32x3xui32>
    %157 = stablehlo.or %154, %156 : tensor<32x3xui32>
    %158 = stablehlo.xor %152, %157 : tensor<32x3xui32>
    %159 = stablehlo.add %152, %158 : tensor<32x3xui32>
    %c_40 = stablehlo.constant dense<26> : tensor<ui32>
    %160 = stablehlo.broadcast_in_dim %c_40, dims = [] : (tensor<ui32>) -> tensor<32x3xui32>
    %161 = stablehlo.shift_left %158, %160 : tensor<32x3xui32>
    %c_41 = stablehlo.constant dense<6> : tensor<ui32>
    %162 = stablehlo.broadcast_in_dim %c_41, dims = [] : (tensor<ui32>) -> tensor<32x3xui32>
    %163 = stablehlo.shift_right_logical %158, %162 : tensor<32x3xui32>
    %164 = stablehlo.or %161, %163 : tensor<32x3xui32>
    %165 = stablehlo.xor %159, %164 : tensor<32x3xui32>
    %166 = stablehlo.add %159, %165 : tensor<32x3xui32>
    %c_42 = stablehlo.constant dense<6> : tensor<ui32>
    %167 = stablehlo.broadcast_in_dim %c_42, dims = [] : (tensor<ui32>) -> tensor<32x3xui32>
    %168 = stablehlo.shift_left %165, %167 : tensor<32x3xui32>
    %c_43 = stablehlo.constant dense<26> : tensor<ui32>
    %169 = stablehlo.broadcast_in_dim %c_43, dims = [] : (tensor<ui32>) -> tensor<32x3xui32>
    %170 = stablehlo.shift_right_logical %165, %169 : tensor<32x3xui32>
    %171 = stablehlo.or %168, %170 : tensor<32x3xui32>
    %172 = stablehlo.xor %166, %171 : tensor<32x3xui32>
    %173 = stablehlo.broadcast_in_dim %2, dims = [0, 1] : (tensor<32x1xui32>) -> tensor<32x3xui32>
    %174 = stablehlo.add %166, %173 : tensor<32x3xui32>
    %175 = stablehlo.broadcast_in_dim %arg0, dims = [0, 1] : (tensor<32x1xui32>) -> tensor<32x3xui32>
    %176 = stablehlo.add %172, %175 : tensor<32x3xui32>
    %c_44 = stablehlo.constant dense<5> : tensor<ui32>
    %177 = stablehlo.broadcast_in_dim %c_44, dims = [] : (tensor<ui32>) -> tensor<32x3xui32>
    %178 = stablehlo.add %176, %177 : tensor<32x3xui32>
    return %174, %178 : tensor<32x3xui32>, tensor<32x3xui32>
  }
  func.func private @_threefry_split_115(%arg0: tensor<32x2xui32>) -> tensor<32x2x2xui32> {
    %0 = stablehlo.slice %arg0 [0:32, 0:1] : (tensor<32x2xui32>) -> tensor<32x1xui32>
    %1 = stablehlo.reshape %0 : (tensor<32x1xui32>) -> tensor<32xui32>
    %2 = stablehlo.slice %arg0 [0:32, 1:2] : (tensor<32x2xui32>) -> tensor<32x1xui32>
    %3 = stablehlo.reshape %2 : (tensor<32x1xui32>) -> tensor<32xui32>
    %4 = stablehlo.iota dim = 0 : tensor<2xui64>
    %c = stablehlo.constant dense<1> : tensor<ui64>
    %5 = stablehlo.broadcast_in_dim %c, dims = [] : (tensor<ui64>) -> tensor<2xui64>
    %6 = stablehlo.multiply %5, %4 : tensor<2xui64>
    %c_0 = stablehlo.constant dense<32> : tensor<ui64>
    %7 = stablehlo.broadcast_in_dim %c_0, dims = [] : (tensor<ui64>) -> tensor<2xui64>
    %8 = stablehlo.shift_right_logical %6, %7 : tensor<2xui64>
    %9 = stablehlo.convert %6 : (tensor<2xui64>) -> tensor<2xui32>
    %10 = stablehlo.convert %8 : (tensor<2xui64>) -> tensor<2xui32>
    %11 = stablehlo.broadcast_in_dim %10, dims = [1] : (tensor<2xui32>) -> tensor<1x2xui32>
    %12 = stablehlo.broadcast_in_dim %9, dims = [1] : (tensor<2xui32>) -> tensor<1x2xui32>
    %13 = stablehlo.broadcast_in_dim %1, dims = [0] : (tensor<32xui32>) -> tensor<32x1xui32>
    %14 = stablehlo.broadcast_in_dim %3, dims = [0] : (tensor<32xui32>) -> tensor<32x1xui32>
    %15:2 = call @threefry2x32_117(%13, %14, %11, %12) : (tensor<32x1xui32>, tensor<32x1xui32>, tensor<1x2xui32>, tensor<1x2xui32>) -> (tensor<32x2xui32>, tensor<32x2xui32>)
    %16 = stablehlo.broadcast_in_dim %15#0, dims = [0, 1] : (tensor<32x2xui32>) -> tensor<32x2x1xui32>
    %17 = stablehlo.broadcast_in_dim %15#1, dims = [0, 1] : (tensor<32x2xui32>) -> tensor<32x2x1xui32>
    %18 = stablehlo.concatenate %16, %17, dim = 2 : (tensor<32x2x1xui32>, tensor<32x2x1xui32>) -> tensor<32x2x2xui32>
    return %18 : tensor<32x2x2xui32>
  }
  func.func private @threefry2x32_117(%arg0: tensor<32x1xui32>, %arg1: tensor<32x1xui32>, %arg2: tensor<1x2xui32>, %arg3: tensor<1x2xui32>) -> (tensor<32x2xui32>, tensor<32x2xui32>) {
    %0 = stablehlo.xor %arg0, %arg1 : tensor<32x1xui32>
    %c = stablehlo.constant dense<466688986> : tensor<ui32>
    %1 = stablehlo.broadcast_in_dim %c, dims = [] : (tensor<ui32>) -> tensor<32x1xui32>
    %2 = stablehlo.xor %0, %1 : tensor<32x1xui32>
    %3 = stablehlo.broadcast_in_dim %arg2, dims = [0, 1] : (tensor<1x2xui32>) -> tensor<32x2xui32>
    %4 = stablehlo.broadcast_in_dim %arg0, dims = [0, 1] : (tensor<32x1xui32>) -> tensor<32x2xui32>
    %5 = stablehlo.add %3, %4 : tensor<32x2xui32>
    %6 = stablehlo.broadcast_in_dim %arg3, dims = [0, 1] : (tensor<1x2xui32>) -> tensor<32x2xui32>
    %7 = stablehlo.broadcast_in_dim %arg1, dims = [0, 1] : (tensor<32x1xui32>) -> tensor<32x2xui32>
    %8 = stablehlo.add %6, %7 : tensor<32x2xui32>
    %9 = stablehlo.add %5, %8 : tensor<32x2xui32>
    %c_0 = stablehlo.constant dense<13> : tensor<ui32>
    %10 = stablehlo.broadcast_in_dim %c_0, dims = [] : (tensor<ui32>) -> tensor<32x2xui32>
    %11 = stablehlo.shift_left %8, %10 : tensor<32x2xui32>
    %c_1 = stablehlo.constant dense<19> : tensor<ui32>
    %12 = stablehlo.broadcast_in_dim %c_1, dims = [] : (tensor<ui32>) -> tensor<32x2xui32>
    %13 = stablehlo.shift_right_logical %8, %12 : tensor<32x2xui32>
    %14 = stablehlo.or %11, %13 : tensor<32x2xui32>
    %15 = stablehlo.xor %9, %14 : tensor<32x2xui32>
    %16 = stablehlo.add %9, %15 : tensor<32x2xui32>
    %c_2 = stablehlo.constant dense<15> : tensor<ui32>
    %17 = stablehlo.broadcast_in_dim %c_2, dims = [] : (tensor<ui32>) -> tensor<32x2xui32>
    %18 = stablehlo.shift_left %15, %17 : tensor<32x2xui32>
    %c_3 = stablehlo.constant dense<17> : tensor<ui32>
    %19 = stablehlo.broadcast_in_dim %c_3, dims = [] : (tensor<ui32>) -> tensor<32x2xui32>
    %20 = stablehlo.shift_right_logical %15, %19 : tensor<32x2xui32>
    %21 = stablehlo.or %18, %20 : tensor<32x2xui32>
    %22 = stablehlo.xor %16, %21 : tensor<32x2xui32>
    %23 = stablehlo.add %16, %22 : tensor<32x2xui32>
    %c_4 = stablehlo.constant dense<26> : tensor<ui32>
    %24 = stablehlo.broadcast_in_dim %c_4, dims = [] : (tensor<ui32>) -> tensor<32x2xui32>
    %25 = stablehlo.shift_left %22, %24 : tensor<32x2xui32>
    %c_5 = stablehlo.constant dense<6> : tensor<ui32>
    %26 = stablehlo.broadcast_in_dim %c_5, dims = [] : (tensor<ui32>) -> tensor<32x2xui32>
    %27 = stablehlo.shift_right_logical %22, %26 : tensor<32x2xui32>
    %28 = stablehlo.or %25, %27 : tensor<32x2xui32>
    %29 = stablehlo.xor %23, %28 : tensor<32x2xui32>
    %30 = stablehlo.add %23, %29 : tensor<32x2xui32>
    %c_6 = stablehlo.constant dense<6> : tensor<ui32>
    %31 = stablehlo.broadcast_in_dim %c_6, dims = [] : (tensor<ui32>) -> tensor<32x2xui32>
    %32 = stablehlo.shift_left %29, %31 : tensor<32x2xui32>
    %c_7 = stablehlo.constant dense<26> : tensor<ui32>
    %33 = stablehlo.broadcast_in_dim %c_7, dims = [] : (tensor<ui32>) -> tensor<32x2xui32>
    %34 = stablehlo.shift_right_logical %29, %33 : tensor<32x2xui32>
    %35 = stablehlo.or %32, %34 : tensor<32x2xui32>
    %36 = stablehlo.xor %30, %35 : tensor<32x2xui32>
    %37 = stablehlo.broadcast_in_dim %arg1, dims = [0, 1] : (tensor<32x1xui32>) -> tensor<32x2xui32>
    %38 = stablehlo.add %30, %37 : tensor<32x2xui32>
    %39 = stablehlo.broadcast_in_dim %2, dims = [0, 1] : (tensor<32x1xui32>) -> tensor<32x2xui32>
    %40 = stablehlo.add %36, %39 : tensor<32x2xui32>
    %c_8 = stablehlo.constant dense<1> : tensor<ui32>
    %41 = stablehlo.broadcast_in_dim %c_8, dims = [] : (tensor<ui32>) -> tensor<32x2xui32>
    %42 = stablehlo.add %40, %41 : tensor<32x2xui32>
    %43 = stablehlo.add %38, %42 : tensor<32x2xui32>
    %c_9 = stablehlo.constant dense<17> : tensor<ui32>
    %44 = stablehlo.broadcast_in_dim %c_9, dims = [] : (tensor<ui32>) -> tensor<32x2xui32>
    %45 = stablehlo.shift_left %42, %44 : tensor<32x2xui32>
    %c_10 = stablehlo.constant dense<15> : tensor<ui32>
    %46 = stablehlo.broadcast_in_dim %c_10, dims = [] : (tensor<ui32>) -> tensor<32x2xui32>
    %47 = stablehlo.shift_right_logical %42, %46 : tensor<32x2xui32>
    %48 = stablehlo.or %45, %47 : tensor<32x2xui32>
    %49 = stablehlo.xor %43, %48 : tensor<32x2xui32>
    %50 = stablehlo.add %43, %49 : tensor<32x2xui32>
    %c_11 = stablehlo.constant dense<29> : tensor<ui32>
    %51 = stablehlo.broadcast_in_dim %c_11, dims = [] : (tensor<ui32>) -> tensor<32x2xui32>
    %52 = stablehlo.shift_left %49, %51 : tensor<32x2xui32>
    %c_12 = stablehlo.constant dense<3> : tensor<ui32>
    %53 = stablehlo.broadcast_in_dim %c_12, dims = [] : (tensor<ui32>) -> tensor<32x2xui32>
    %54 = stablehlo.shift_right_logical %49, %53 : tensor<32x2xui32>
    %55 = stablehlo.or %52, %54 : tensor<32x2xui32>
    %56 = stablehlo.xor %50, %55 : tensor<32x2xui32>
    %57 = stablehlo.add %50, %56 : tensor<32x2xui32>
    %c_13 = stablehlo.constant dense<16> : tensor<ui32>
    %58 = stablehlo.broadcast_in_dim %c_13, dims = [] : (tensor<ui32>) -> tensor<32x2xui32>
    %59 = stablehlo.shift_left %56, %58 : tensor<32x2xui32>
    %c_14 = stablehlo.constant dense<16> : tensor<ui32>
    %60 = stablehlo.broadcast_in_dim %c_14, dims = [] : (tensor<ui32>) -> tensor<32x2xui32>
    %61 = stablehlo.shift_right_logical %56, %60 : tensor<32x2xui32>
    %62 = stablehlo.or %59, %61 : tensor<32x2xui32>
    %63 = stablehlo.xor %57, %62 : tensor<32x2xui32>
    %64 = stablehlo.add %57, %63 : tensor<32x2xui32>
    %c_15 = stablehlo.constant dense<24> : tensor<ui32>
    %65 = stablehlo.broadcast_in_dim %c_15, dims = [] : (tensor<ui32>) -> tensor<32x2xui32>
    %66 = stablehlo.shift_left %63, %65 : tensor<32x2xui32>
    %c_16 = stablehlo.constant dense<8> : tensor<ui32>
    %67 = stablehlo.broadcast_in_dim %c_16, dims = [] : (tensor<ui32>) -> tensor<32x2xui32>
    %68 = stablehlo.shift_right_logical %63, %67 : tensor<32x2xui32>
    %69 = stablehlo.or %66, %68 : tensor<32x2xui32>
    %70 = stablehlo.xor %64, %69 : tensor<32x2xui32>
    %71 = stablehlo.broadcast_in_dim %2, dims = [0, 1] : (tensor<32x1xui32>) -> tensor<32x2xui32>
    %72 = stablehlo.add %64, %71 : tensor<32x2xui32>
    %73 = stablehlo.broadcast_in_dim %arg0, dims = [0, 1] : (tensor<32x1xui32>) -> tensor<32x2xui32>
    %74 = stablehlo.add %70, %73 : tensor<32x2xui32>
    %c_17 = stablehlo.constant dense<2> : tensor<ui32>
    %75 = stablehlo.broadcast_in_dim %c_17, dims = [] : (tensor<ui32>) -> tensor<32x2xui32>
    %76 = stablehlo.add %74, %75 : tensor<32x2xui32>
    %77 = stablehlo.add %72, %76 : tensor<32x2xui32>
    %c_18 = stablehlo.constant dense<13> : tensor<ui32>
    %78 = stablehlo.broadcast_in_dim %c_18, dims = [] : (tensor<ui32>) -> tensor<32x2xui32>
    %79 = stablehlo.shift_left %76, %78 : tensor<32x2xui32>
    %c_19 = stablehlo.constant dense<19> : tensor<ui32>
    %80 = stablehlo.broadcast_in_dim %c_19, dims = [] : (tensor<ui32>) -> tensor<32x2xui32>
    %81 = stablehlo.shift_right_logical %76, %80 : tensor<32x2xui32>
    %82 = stablehlo.or %79, %81 : tensor<32x2xui32>
    %83 = stablehlo.xor %77, %82 : tensor<32x2xui32>
    %84 = stablehlo.add %77, %83 : tensor<32x2xui32>
    %c_20 = stablehlo.constant dense<15> : tensor<ui32>
    %85 = stablehlo.broadcast_in_dim %c_20, dims = [] : (tensor<ui32>) -> tensor<32x2xui32>
    %86 = stablehlo.shift_left %83, %85 : tensor<32x2xui32>
    %c_21 = stablehlo.constant dense<17> : tensor<ui32>
    %87 = stablehlo.broadcast_in_dim %c_21, dims = [] : (tensor<ui32>) -> tensor<32x2xui32>
    %88 = stablehlo.shift_right_logical %83, %87 : tensor<32x2xui32>
    %89 = stablehlo.or %86, %88 : tensor<32x2xui32>
    %90 = stablehlo.xor %84, %89 : tensor<32x2xui32>
    %91 = stablehlo.add %84, %90 : tensor<32x2xui32>
    %c_22 = stablehlo.constant dense<26> : tensor<ui32>
    %92 = stablehlo.broadcast_in_dim %c_22, dims = [] : (tensor<ui32>) -> tensor<32x2xui32>
    %93 = stablehlo.shift_left %90, %92 : tensor<32x2xui32>
    %c_23 = stablehlo.constant dense<6> : tensor<ui32>
    %94 = stablehlo.broadcast_in_dim %c_23, dims = [] : (tensor<ui32>) -> tensor<32x2xui32>
    %95 = stablehlo.shift_right_logical %90, %94 : tensor<32x2xui32>
    %96 = stablehlo.or %93, %95 : tensor<32x2xui32>
    %97 = stablehlo.xor %91, %96 : tensor<32x2xui32>
    %98 = stablehlo.add %91, %97 : tensor<32x2xui32>
    %c_24 = stablehlo.constant dense<6> : tensor<ui32>
    %99 = stablehlo.broadcast_in_dim %c_24, dims = [] : (tensor<ui32>) -> tensor<32x2xui32>
    %100 = stablehlo.shift_left %97, %99 : tensor<32x2xui32>
    %c_25 = stablehlo.constant dense<26> : tensor<ui32>
…
    %26 = stablehlo.broadcast_in_dim %c_5, dims = [] : (tensor<ui32>) -> tensor<32x2560x10240xui32>
    %27 = stablehlo.shift_right_logical %22, %26 : tensor<32x2560x10240xui32>
    %28 = stablehlo.or %25, %27 : tensor<32x2560x10240xui32>
    %29 = stablehlo.xor %23, %28 : tensor<32x2560x10240xui32>
    %30 = stablehlo.add %23, %29 : tensor<32x2560x10240xui32>
    %c_6 = stablehlo.constant dense<6> : tensor<ui32>
    %31 = stablehlo.broadcast_in_dim %c_6, dims = [] : (tensor<ui32>) -> tensor<32x2560x10240xui32>
    %32 = stablehlo.shift_left %29, %31 : tensor<32x2560x10240xui32>
    %c_7 = stablehlo.constant dense<26> : tensor<ui32>
    %33 = stablehlo.broadcast_in_dim %c_7, dims = [] : (tensor<ui32>) -> tensor<32x2560x10240xui32>
    %34 = stablehlo.shift_right_logical %29, %33 : tensor<32x2560x10240xui32>
    %35 = stablehlo.or %32, %34 : tensor<32x2560x10240xui32>
    %36 = stablehlo.xor %30, %35 : tensor<32x2560x10240xui32>
    %37 = stablehlo.broadcast_in_dim %arg1, dims = [0, 1, 2] : (tensor<32x1x1xui32>) -> tensor<32x2560x10240xui32>
    %38 = stablehlo.add %30, %37 : tensor<32x2560x10240xui32>
    %39 = stablehlo.broadcast_in_dim %2, dims = [0, 1, 2] : (tensor<32x1x1xui32>) -> tensor<32x2560x10240xui32>
    %40 = stablehlo.add %36, %39 : tensor<32x2560x10240xui32>
    %c_8 = stablehlo.constant dense<1> : tensor<ui32>
    %41 = stablehlo.broadcast_in_dim %c_8, dims = [] : (tensor<ui32>) -> tensor<32x2560x10240xui32>
    %42 = stablehlo.add %40, %41 : tensor<32x2560x10240xui32>
    %43 = stablehlo.add %38, %42 : tensor<32x2560x10240xui32>
    %c_9 = stablehlo.constant dense<17> : tensor<ui32>
    %44 = stablehlo.broadcast_in_dim %c_9, dims = [] : (tensor<ui32>) -> tensor<32x2560x10240xui32>
    %45 = stablehlo.shift_left %42, %44 : tensor<32x2560x10240xui32>
    %c_10 = stablehlo.constant dense<15> : tensor<ui32>
    %46 = stablehlo.broadcast_in_dim %c_10, dims = [] : (tensor<ui32>) -> tensor<32x2560x10240xui32>
    %47 = stablehlo.shift_right_logical %42, %46 : tensor<32x2560x10240xui32>
    %48 = stablehlo.or %45, %47 : tensor<32x2560x10240xui32>
    %49 = stablehlo.xor %43, %48 : tensor<32x2560x10240xui32>
    %50 = stablehlo.add %43, %49 : tensor<32x2560x10240xui32>
    %c_11 = stablehlo.constant dense<29> : tensor<ui32>
    %51 = stablehlo.broadcast_in_dim %c_11, dims = [] : (tensor<ui32>) -> tensor<32x2560x10240xui32>
    %52 = stablehlo.shift_left %49, %51 : tensor<32x2560x10240xui32>
    %c_12 = stablehlo.constant dense<3> : tensor<ui32>
    %53 = stablehlo.broadcast_in_dim %c_12, dims = [] : (tensor<ui32>) -> tensor<32x2560x10240xui32>
    %54 = stablehlo.shift_right_logical %49, %53 : tensor<32x2560x10240xui32>
    %55 = stablehlo.or %52, %54 : tensor<32x2560x10240xui32>
    %56 = stablehlo.xor %50, %55 : tensor<32x2560x10240xui32>
    %57 = stablehlo.add %50, %56 : tensor<32x2560x10240xui32>
    %c_13 = stablehlo.constant dense<16> : tensor<ui32>
    %58 = stablehlo.broadcast_in_dim %c_13, dims = [] : (tensor<ui32>) -> tensor<32x2560x10240xui32>
    %59 = stablehlo.shift_left %56, %58 : tensor<32x2560x10240xui32>
    %c_14 = stablehlo.constant dense<16> : tensor<ui32>
    %60 = stablehlo.broadcast_in_dim %c_14, dims = [] : (tensor<ui32>) -> tensor<32x2560x10240xui32>
    %61 = stablehlo.shift_right_logical %56, %60 : tensor<32x2560x10240xui32>
    %62 = stablehlo.or %59, %61 : tensor<32x2560x10240xui32>
    %63 = stablehlo.xor %57, %62 : tensor<32x2560x10240xui32>
    %64 = stablehlo.add %57, %63 : tensor<32x2560x10240xui32>
    %c_15 = stablehlo.constant dense<24> : tensor<ui32>
    %65 = stablehlo.broadcast_in_dim %c_15, dims = [] : (tensor<ui32>) -> tensor<32x2560x10240xui32>
    %66 = stablehlo.shift_left %63, %65 : tensor<32x2560x10240xui32>
    %c_16 = stablehlo.constant dense<8> : tensor<ui32>
    %67 = stablehlo.broadcast_in_dim %c_16, dims = [] : (tensor<ui32>) -> tensor<32x2560x10240xui32>
    %68 = stablehlo.shift_right_logical %63, %67 : tensor<32x2560x10240xui32>
    %69 = stablehlo.or %66, %68 : tensor<32x2560x10240xui32>
    %70 = stablehlo.xor %64, %69 : tensor<32x2560x10240xui32>
    %71 = stablehlo.broadcast_in_dim %2, dims = [0, 1, 2] : (tensor<32x1x1xui32>) -> tensor<32x2560x10240xui32>
    %72 = stablehlo.add %64, %71 : tensor<32x2560x10240xui32>
    %73 = stablehlo.broadcast_in_dim %arg0, dims = [0, 1, 2] : (tensor<32x1x1xui32>) -> tensor<32x2560x10240xui32>
    %74 = stablehlo.add %70, %73 : tensor<32x2560x10240xui32>
    %c_17 = stablehlo.constant dense<2> : tensor<ui32>
    %75 = stablehlo.broadcast_in_dim %c_17, dims = [] : (tensor<ui32>) -> tensor<32x2560x10240xui32>
    %76 = stablehlo.add %74, %75 : tensor<32x2560x10240xui32>
    %77 = stablehlo.add %72, %76 : tensor<32x2560x10240xui32>
    %c_18 = stablehlo.constant dense<13> : tensor<ui32>
    %78 = stablehlo.broadcast_in_dim %c_18, dims = [] : (tensor<ui32>) -> tensor<32x2560x10240xui32>
    %79 = stablehlo.shift_left %76, %78 : tensor<32x2560x10240xui32>
    %c_19 = stablehlo.constant dense<19> : tensor<ui32>
    %80 = stablehlo.broadcast_in_dim %c_19, dims = [] : (tensor<ui32>) -> tensor<32x2560x10240xui32>
    %81 = stablehlo.shift_right_logical %76, %80 : tensor<32x2560x10240xui32>
    %82 = stablehlo.or %79, %81 : tensor<32x2560x10240xui32>
    %83 = stablehlo.xor %77, %82 : tensor<32x2560x10240xui32>
    %84 = stablehlo.add %77, %83 : tensor<32x2560x10240xui32>
    %c_20 = stablehlo.constant dense<15> : tensor<ui32>
    %85 = stablehlo.broadcast_in_dim %c_20, dims = [] : (tensor<ui32>) -> tensor<32x2560x10240xui32>
    %86 = stablehlo.shift_left %83, %85 : tensor<32x2560x10240xui32>
    %c_21 = stablehlo.constant dense<17> : tensor<ui32>
    %87 = stablehlo.broadcast_in_dim %c_21, dims = [] : (tensor<ui32>) -> tensor<32x2560x10240xui32>
    %88 = stablehlo.shift_right_logical %83, %87 : tensor<32x2560x10240xui32>
    %89 = stablehlo.or %86, %88 : tensor<32x2560x10240xui32>
    %90 = stablehlo.xor %84, %89 : tensor<32x2560x10240xui32>
    %91 = stablehlo.add %84, %90 : tensor<32x2560x10240xui32>
    %c_22 = stablehlo.constant dense<26> : tensor<ui32>
    %92 = stablehlo.broadcast_in_dim %c_22, dims = [] : (tensor<ui32>) -> tensor<32x2560x10240xui32>
    %93 = stablehlo.shift_left %90, %92 : tensor<32x2560x10240xui32>
    %c_23 = stablehlo.constant dense<6> : tensor<ui32>
    %94 = stablehlo.broadcast_in_dim %c_23, dims = [] : (tensor<ui32>) -> tensor<32x2560x10240xui32>
    %95 = stablehlo.shift_right_logical %90, %94 : tensor<32x2560x10240xui32>
    %96 = stablehlo.or %93, %95 : tensor<32x2560x10240xui32>
    %97 = stablehlo.xor %91, %96 : tensor<32x2560x10240xui32>
    %98 = stablehlo.add %91, %97 : tensor<32x2560x10240xui32>
    %c_24 = stablehlo.constant dense<6> : tensor<ui32>
    %99 = stablehlo.broadcast_in_dim %c_24, dims = [] : (tensor<ui32>) -> tensor<32x2560x10240xui32>
    %100 = stablehlo.shift_left %97, %99 : tensor<32x2560x10240xui32>
    %c_25 = stablehlo.constant dense<26> : tensor<ui32>
    %101 = stablehlo.broadcast_in_dim %c_25, dims = [] : (tensor<ui32>) -> tensor<32x2560x10240xui32>
    %102 = stablehlo.shift_right_logical %97, %101 : tensor<32x2560x10240xui32>
    %103 = stablehlo.or %100, %102 : tensor<32x2560x10240xui32>
    %104 = stablehlo.xor %98, %103 : tensor<32x2560x10240xui32>
    %105 = stablehlo.broadcast_in_dim %arg0, dims = [0, 1, 2] : (tensor<32x1x1xui32>) -> tensor<32x2560x10240xui32>
    %106 = stablehlo.add %98, %105 : tensor<32x2560x10240xui32>
    %107 = stablehlo.broadcast_in_dim %arg1, dims = [0, 1, 2] : (tensor<32x1x1xui32>) -> tensor<32x2560x10240xui32>
    %108 = stablehlo.add %104, %107 : tensor<32x2560x10240xui32>
    %c_26 = stablehlo.constant dense<3> : tensor<ui32>
    %109 = stablehlo.broadcast_in_dim %c_26, dims = [] : (tensor<ui32>) -> tensor<32x2560x10240xui32>
    %110 = stablehlo.add %108, %109 : tensor<32x2560x10240xui32>
    %111 = stablehlo.add %106, %110 : tensor<32x2560x10240xui32>
    %c_27 = stablehlo.constant dense<17> : tensor<ui32>
    %112 = stablehlo.broadcast_in_dim %c_27, dims = [] : (tensor<ui32>) -> tensor<32x2560x10240xui32>
    %113 = stablehlo.shift_left %110, %112 : tensor<32x2560x10240xui32>
    %c_28 = stablehlo.constant dense<15> : tensor<ui32>
    %114 = stablehlo.broadcast_in_dim %c_28, dims = [] : (tensor<ui32>) -> tensor<32x2560x10240xui32>
    %115 = stablehlo.shift_right_logical %110, %114 : tensor<32x2560x10240xui32>
    %116 = stablehlo.or %113, %115 : tensor<32x2560x10240xui32>
    %117 = stablehlo.xor %111, %116 : tensor<32x2560x10240xui32>
    %118 = stablehlo.add %111, %117 : tensor<32x2560x10240xui32>
    %c_29 = stablehlo.constant dense<29> : tensor<ui32>
    %119 = stablehlo.broadcast_in_dim %c_29, dims = [] : (tensor<ui32>) -> tensor<32x2560x10240xui32>
    %120 = stablehlo.shift_left %117, %119 : tensor<32x2560x10240xui32>
    %c_30 = stablehlo.constant dense<3> : tensor<ui32>
    %121 = stablehlo.broadcast_in_dim %c_30, dims = [] : (tensor<ui32>) -> tensor<32x2560x10240xui32>
    %122 = stablehlo.shift_right_logical %117, %121 : tensor<32x2560x10240xui32>
    %123 = stablehlo.or %120, %122 : tensor<32x2560x10240xui32>
    %124 = stablehlo.xor %118, %123 : tensor<32x2560x10240xui32>
    %125 = stablehlo.add %118, %124 : tensor<32x2560x10240xui32>
    %c_31 = stablehlo.constant dense<16> : tensor<ui32>
    %126 = stablehlo.broadcast_in_dim %c_31, dims = [] : (tensor<ui32>) -> tensor<32x2560x10240xui32>
    %127 = stablehlo.shift_left %124, %126 : tensor<32x2560x10240xui32>
    %c_32 = stablehlo.constant dense<16> : tensor<ui32>
    %128 = stablehlo.broadcast_in_dim %c_32, dims = [] : (tensor<ui32>) -> tensor<32x2560x10240xui32>
    %129 = stablehlo.shift_right_logical %124, %128 : tensor<32x2560x10240xui32>
    %130 = stablehlo.or %127, %129 : tensor<32x2560x10240xui32>
    %131 = stablehlo.xor %125, %130 : tensor<32x2560x10240xui32>
    %132 = stablehlo.add %125, %131 : tensor<32x2560x10240xui32>
    %c_33 = stablehlo.constant dense<24> : tensor<ui32>
    %133 = stablehlo.broadcast_in_dim %c_33, dims = [] : (tensor<ui32>) -> tensor<32x2560x10240xui32>
    %134 = stablehlo.shift_left %131, %133 : tensor<32x2560x10240xui32>
    %c_34 = stablehlo.constant dense<8> : tensor<ui32>
    %135 = stablehlo.broadcast_in_dim %c_34, dims = [] : (tensor<ui32>) -> tensor<32x2560x10240xui32>
    %136 = stablehlo.shift_right_logical %131, %135 : tensor<32x2560x10240xui32>
    %137 = stablehlo.or %134, %136 : tensor<32x2560x10240xui32>
    %138 = stablehlo.xor %132, %137 : tensor<32x2560x10240xui32>
    %139 = stablehlo.broadcast_in_dim %arg1, dims = [0, 1, 2] : (tensor<32x1x1xui32>) -> tensor<32x2560x10240xui32>
    %140 = stablehlo.add %132, %139 : tensor<32x2560x10240xui32>
    %141 = stablehlo.broadcast_in_dim %2, dims = [0, 1, 2] : (tensor<32x1x1xui32>) -> tensor<32x2560x10240xui32>
    %142 = stablehlo.add %138, %141 : tensor<32x2560x10240xui32>
    %c_35 = stablehlo.constant dense<4> : tensor<ui32>
    %143 = stablehlo.broadcast_in_dim %c_35, dims = [] : (tensor<ui32>) -> tensor<32x2560x10240xui32>
    %144 = stablehlo.add %142, %143 : tensor<32x2560x10240xui32>
    %145 = stablehlo.add %140, %144 : tensor<32x2560x10240xui32>
    %c_36 = stablehlo.constant dense<13> : tensor<ui32>
    %146 = stablehlo.broadcast_in_dim %c_36, dims = [] : (tensor<ui32>) -> tensor<32x2560x10240xui32>
    %147 = stablehlo.shift_left %144, %146 : tensor<32x2560x10240xui32>
    %c_37 = stablehlo.constant dense<19> : tensor<ui32>
    %148 = stablehlo.broadcast_in_dim %c_37, dims = [] : (tensor<ui32>) -> tensor<32x2560x10240xui32>
    %149 = stablehlo.shift_right_logical %144, %148 : tensor<32x2560x10240xui32>
    %150 = stablehlo.or %147, %149 : tensor<32x2560x10240xui32>
    %151 = stablehlo.xor %145, %150 : tensor<32x2560x10240xui32>
    %152 = stablehlo.add %145, %151 : tensor<32x2560x10240xui32>
    %c_38 = stablehlo.constant dense<15> : tensor<ui32>
    %153 = stablehlo.broadcast_in_dim %c_38, dims = [] : (tensor<ui32>) -> tensor<32x2560x10240xui32>
    %154 = stablehlo.shift_left %151, %153 : tensor<32x2560x10240xui32>
    %c_39 = stablehlo.constant dense<17> : tensor<ui32>
    %155 = stablehlo.broadcast_in_dim %c_39, dims = [] : (tensor<ui32>) -> tensor<32x2560x10240xui32>
    %156 = stablehlo.shift_right_logical %151, %155 : tensor<32x2560x10240xui32>
    %157 = stablehlo.or %154, %156 : tensor<32x2560x10240xui32>
    %158 = stablehlo.xor %152, %157 : tensor<32x2560x10240xui32>
    %159 = stablehlo.add %152, %158 : tensor<32x2560x10240xui32>
    %c_40 = stablehlo.constant dense<26> : tensor<ui32>
    %160 = stablehlo.broadcast_in_dim %c_40, dims = [] : (tensor<ui32>) -> tensor<32x2560x10240xui32>
    %161 = stablehlo.shift_left %158, %160 : tensor<32x2560x10240xui32>
    %c_41 = stablehlo.constant dense<6> : tensor<ui32>
    %162 = stablehlo.broadcast_in_dim %c_41, dims = [] : (tensor<ui32>) -> tensor<32x2560x10240xui32>
    %163 = stablehlo.shift_right_logical %158, %162 : tensor<32x2560x10240xui32>
    %164 = stablehlo.or %161, %163 : tensor<32x2560x10240xui32>
    %165 = stablehlo.xor %159, %164 : tensor<32x2560x10240xui32>
    %166 = stablehlo.add %159, %165 : tensor<32x2560x10240xui32>
    %c_42 = stablehlo.constant dense<6> : tensor<ui32>
    %167 = stablehlo.broadcast_in_dim %c_42, dims = [] : (tensor<ui32>) -> tensor<32x2560x10240xui32>
    %168 = stablehlo.shift_left %165, %167 : tensor<32x2560x10240xui32>
    %c_43 = stablehlo.constant dense<26> : tensor<ui32>
    %169 = stablehlo.broadcast_in_dim %c_43, dims = [] : (tensor<ui32>) -> tensor<32x2560x10240xui32>
    %170 = stablehlo.shift_right_logical %165, %169 : tensor<32x2560x10240xui32>
    %171 = stablehlo.or %168, %170 : tensor<32x2560x10240xui32>
    %172 = stablehlo.xor %166, %171 : tensor<32x2560x10240xui32>
    %173 = stablehlo.broadcast_in_dim %2, dims = [0, 1, 2] : (tensor<32x1x1xui32>) -> tensor<32x2560x10240xui32>
    %174 = stablehlo.add %166, %173 : tensor<32x2560x10240xui32>
    %175 = stablehlo.broadcast_in_dim %arg0, dims = [0, 1, 2] : (tensor<32x1x1xui32>) -> tensor<32x2560x10240xui32>
    %176 = stablehlo.add %172, %175 : tensor<32x2560x10240xui32>
    %c_44 = stablehlo.constant dense<5> : tensor<ui32>
    %177 = stablehlo.broadcast_in_dim %c_44, dims = [] : (tensor<ui32>) -> tensor<32x2560x10240xui32>
    %178 = stablehlo.add %176, %177 : tensor<32x2560x10240xui32>
    return %174, %178 : tensor<32x2560x10240xui32>, tensor<32x2560x10240xui32>
  }
  func.func private @_threefry_split_210(%arg0: tensor<2xui32>) -> tensor<3x2xui32> {
    %0 = stablehlo.slice %arg0 [0:1] : (tensor<2xui32>) -> tensor<1xui32>
    %1 = stablehlo.reshape %0 : (tensor<1xui32>) -> tensor<ui32>
    %2 = stablehlo.slice %arg0 [1:2] : (tensor<2xui32>) -> tensor<1xui32>
    %3 = stablehlo.reshape %2 : (tensor<1xui32>) -> tensor<ui32>
    %4 = stablehlo.iota dim = 0 : tensor<3xui64>
    %c = stablehlo.constant dense<1> : tensor<ui64>
    %5 = stablehlo.broadcast_in_dim %c, dims = [] : (tensor<ui64>) -> tensor<3xui64>
    %6 = stablehlo.multiply %5, %4 : tensor<3xui64>
    %c_0 = stablehlo.constant dense<32> : tensor<ui64>
    %7 = stablehlo.broadcast_in_dim %c_0, dims = [] : (tensor<ui64>) -> tensor<3xui64>
    %8 = stablehlo.shift_right_logical %6, %7 : tensor<3xui64>
    %9 = stablehlo.convert %6 : (tensor<3xui64>) -> tensor<3xui32>
    %10 = stablehlo.convert %8 : (tensor<3xui64>) -> tensor<3xui32>
    %11:2 = call @threefry2x32_211(%1, %3, %10, %9) : (tensor<ui32>, tensor<ui32>, tensor<3xui32>, tensor<3xui32>) -> (tensor<3xui32>, tensor<3xui32>)
    %12 = stablehlo.broadcast_in_dim %11#0, dims = [0] : (tensor<3xui32>) -> tensor<3x1xui32>
    %13 = stablehlo.broadcast_in_dim %11#1, dims = [0] : (tensor<3xui32>) -> tensor<3x1xui32>
    %14 = stablehlo.concatenate %12, %13, dim = 1 : (tensor<3x1xui32>, tensor<3x1xui32>) -> tensor<3x2xui32>
    return %14 : tensor<3x2xui32>
  }
  func.func private @threefry2x32_211(%arg0: tensor<ui32>, %arg1: tensor<ui32>, %arg2: tensor<3xui32>, %arg3: tensor<3xui32>) -> (tensor<3xui32>, tensor<3xui32>) {
    %0 = stablehlo.xor %arg0, %arg1 : tensor<ui32>
    %c = stablehlo.constant dense<466688986> : tensor<ui32>
    %1 = stablehlo.xor %0, %c : tensor<ui32>
    %2 = stablehlo.broadcast_in_dim %arg0, dims = [] : (tensor<ui32>) -> tensor<3xui32>
    %3 = stablehlo.add %arg2, %2 : tensor<3xui32>
    %4 = stablehlo.broadcast_in_dim %arg1, dims = [] : (tensor<ui32>) -> tensor<3xui32>
    %5 = stablehlo.add %arg3, %4 : tensor<3xui32>
    %6 = stablehlo.add %3, %5 : tensor<3xui32>
    %c_0 = stablehlo.constant dense<13> : tensor<ui32>
    %7 = stablehlo.broadcast_in_dim %c_0, dims = [] : (tensor<ui32>) -> tensor<3xui32>
    %8 = stablehlo.shift_left %5, %7 : tensor<3xui32>
    %c_1 = stablehlo.constant dense<19> : tensor<ui32>
    %9 = stablehlo.broadcast_in_dim %c_1, dims = [] : (tensor<ui32>) -> tensor<3xui32>
    %10 = stablehlo.shift_right_logical %5, %9 : tensor<3xui32>
    %11 = stablehlo.or %8, %10 : tensor<3xui32>
    %12 = stablehlo.xor %6, %11 : tensor<3xui32>
    %13 = stablehlo.add %6, %12 : tensor<3xui32>
    %c_2 = stablehlo.constant dense<15> : tensor<ui32>
    %14 = stablehlo.broadcast_in_dim %c_2, dims = [] : (tensor<ui32>) -> tensor<3xui32>
    %15 = stablehlo.shift_left %12, %14 : tensor<3xui32>
    %c_3 = stablehlo.constant dense<17> : tensor<ui32>
    %16 = stablehlo.broadcast_in_dim %c_3, dims = [] : (tensor<ui32>) -> tensor<3xui32>
    %17 = stablehlo.shift_right_logical %12, %16 : tensor<3xui32>
    %18 = stablehlo.or %15, %17 : tensor<3xui32>
    %19 = stablehlo.xor %13, %18 : tensor<3xui32>
    %20 = stablehlo.add %13, %19 : tensor<3xui32>
    %c_4 = stablehlo.constant dense<26> : tensor<ui32>
    %21 = stablehlo.broadcast_in_dim %c_4, dims = [] : (tensor<ui32>) -> tensor<3xui32>
    %22 = stablehlo.shift_left %19, %21 : tensor<3xui32>
    %c_5 = stablehlo.constant dense<6> : tensor<ui32>
    %23 = stablehlo.broadcast_in_dim %c_5, dims = [] : (tensor<ui32>) -> tensor<3xui32>
    %24 = stablehlo.shift_right_logical %19, %23 : tensor<3xui32>
    %25 = stablehlo.or %22, %24 : tensor<3xui32>
    %26 = stablehlo.xor %20, %25 : tensor<3xui32>
    %27 = stablehlo.add %20, %26 : tensor<3xui32>
    %c_6 = stablehlo.constant dense<6> : tensor<ui32>
    %28 = stablehlo.broadcast_in_dim %c_6, dims = [] : (tensor<ui32>) -> tensor<3xui32>
    %29 = stablehlo.shift_left %26, %28 : tensor<3xui32>
    %c_7 = stablehlo.constant dense<26> : tensor<ui32>
    %30 = stablehlo.broadcast_in_dim %c_7, dims = [] : (tensor<ui32>) -> tensor<3xui32>
    %31 = stablehlo.shift_right_logical %26, %30 : tensor<3xui32>
    %32 = stablehlo.or %29, %31 : tensor<3xui32>
    %33 = stablehlo.xor %27, %32 : tensor<3xui32>
    %34 = stablehlo.broadcast_in_dim %arg1, dims = [] : (tensor<ui32>) -> tensor<3xui32>
    %35 = stablehlo.add %27, %34 : tensor<3xui32>
    %36 = stablehlo.broadcast_in_dim %1, dims = [] : (tensor<ui32>) -> tensor<3xui32>
    %37 = stablehlo.add %33, %36 : tensor<3xui32>
    %c_8 = stablehlo.constant dense<1> : tensor<ui32>
    %38 = stablehlo.broadcast_in_dim %c_8, dims = [] : (tensor<ui32>) -> tensor<3xui32>
    %39 = stablehlo.add %37, %38 : tensor<3xui32>
    %40 = stablehlo.add %35, %39 : tensor<3xui32>
    %c_9 = stablehlo.constant dense<17> : tensor<ui32>
    %41 = stablehlo.broadcast_in_dim %c_9, dims = [] : (tensor<ui32>) -> tensor<3xui32>
    %42 = stablehlo.shift_left %39, %41 : tensor<3xui32>
    %c_10 = stablehlo.constant dense<15> : tensor<ui32>
    %43 = stablehlo.broadcast_in_dim %c_10, dims = [] : (tensor<ui32>) -> tensor<3xui32>
    %44 = stablehlo.shift_right_logical %39, %43 : tensor<3xui32>
    %45 = stablehlo.or %42, %44 : tensor<3xui32>
    %46 = stablehlo.xor %40, %45 : tensor<3xui32>
    %47 = stablehlo.add %40, %46 : tensor<3xui32>
    %c_11 = stablehlo.constant dense<29> : tensor<ui32>
    %48 = stablehlo.broadcast_in_dim %c_11, dims = [] : (tensor<ui32>) -> tensor<3xui32>
    %49 = stablehlo.shift_left %46, %48 : tensor<3xui32>
    %c_12 = stablehlo.constant dense<3> : tensor<ui32>
    %50 = stablehlo.broadcast_in_dim %c_12, dims = [] : (tensor<ui32>) -> tensor<3xui32>
    %51 = stablehlo.shift_right_logical %46, %50 : tensor<3xui32>
    %52 = stablehlo.or %49, %51 : tensor<3xui32>
    %53 = stablehlo.xor %47, %52 : tensor<3xui32>
    %54 = stablehlo.add %47, %53 : tensor<3xui32>
    %c_13 = stablehlo.constant dense<16> : tensor<ui32>
    %55 = stablehlo.broadcast_in_dim %c_13, dims = [] : (tensor<ui32>) -> tensor<3xui32>
    %56 = stablehlo.shift_left %53, %55 : tensor<3xui32>
    %c_14 = stablehlo.constant dense<16> : tensor<ui32>
    %57 = stablehlo.broadcast_in_dim %c_14, dims = [] : (tensor<ui32>) -> tensor<3xui32>
    %58 = stablehlo.shift_right_logical %53, %57 : tensor<3xui32>
    %59 = stablehlo.or %56, %58 : tensor<3xui32>
    %60 = stablehlo.xor %54, %59 : tensor<3xui32>
    %61 = stablehlo.add %54, %60 : tensor<3xui32>
    %c_15 = stablehlo.constant dense<24> : tensor<ui32>
    %62 = stablehlo.broadcast_in_dim %c_15, dims = [] : (tensor<ui32>) -> tensor<3xui32>
    %63 = stablehlo.shift_left %60, %62 : tensor<3xui32>
    %c_16 = stablehlo.constant dense<8> : tensor<ui32>
    %64 = stablehlo.broadcast_in_dim %c_16, dims = [] : (tensor<ui32>) -> tensor<3xui32>
    %65 = stablehlo.shift_right_logical %60, %64 : tensor<3xui32>
    %66 = stablehlo.or %63, %65 : tensor<3xui32>
    %67 = stablehlo.xor %61, %66 : tensor<3xui32>
    %68 = stablehlo.broadcast_in_dim %1, dims = [] : (tensor<ui32>) -> tensor<3xui32>
    %69 = stablehlo.add %61, %68 : tensor<3xui32>
    %70 = stablehlo.broadcast_in_dim %arg0, dims = [] : (tensor<ui32>) -> tensor<3xui32>
    %71 = stablehlo.add %67, %70 : tensor<3xui32>
    %c_17 = stablehlo.constant dense<2> : tensor<ui32>
    %72 = stablehlo.broadcast_in_dim %c_17, dims = [] : (tensor<ui32>) -> tensor<3xui32>
    %73 = stablehlo.add %71, %72 : tensor<3xui32>
    %74 = stablehlo.add %69, %73 : tensor<3xui32>
    %c_18 = stablehlo.constant dense<13> : tensor<ui32>
    %75 = stablehlo.broadcast_in_dim %c_18, dims = [] : (tensor<ui32>) -> tensor<3xui32>
    %76 = stablehlo.shift_left %73, %75 : tensor<3xui32>
    %c_19 = stablehlo.constant dense<19> : tensor<ui32>
    %77 = stablehlo.broadcast_in_dim %c_19, dims = [] : (tensor<ui32>) -> tensor<3xui32>
    %78 = stablehlo.shift_right_logical %73, %77 : tensor<3xui32>
    %79 = stablehlo.or %76, %78 : tensor<3xui32>
    %80 = stablehlo.xor %74, %79 : tensor<3xui32>
    %81 = stablehlo.add %74, %80 : tensor<3xui32>
    %c_20 = stablehlo.constant dense<15> : tensor<ui32>
    %82 = stablehlo.broadcast_in_dim %c_20, dims = [] : (tensor<ui32>) -> tensor<3xui32>
    %83 = stablehlo.shift_left %80, %82 : tensor<3xui32>
    %c_21 = stablehlo.constant dense<17> : tensor<ui32>
    %84 = stablehlo.broadcast_in_dim %c_21, dims = [] : (tensor<ui32>) -> tensor<3xui32>
    %85 = stablehlo.shift_right_logical %80, %84 : tensor<3xui32>
    %86 = stablehlo.or %83, %85 : tensor<3xui32>
    %87 = stablehlo.xor %81, %86 : tensor<3xui32>
    %88 = stablehlo.add %81, %87 : tensor<3xui32>
    %c_22 = stablehlo.constant dense<26> : tensor<ui32>
    %89 = stablehlo.broadcast_in_dim %c_22, dims = [] : (tensor<ui32>) -> tensor<3xui32>
    %90 = stablehlo.shift_left %87, %89 : tensor<3xui32>
    %c_23 = stablehlo.constant dense<6> : tensor<ui32>
    %91 = stablehlo.broadcast_in_dim %c_23, dims = [] : (tensor<ui32>) -> tensor<3xui32>
    %92 = stablehlo.shift_right_logical %87, %91 : tensor<3xui32>
    %93 = stablehlo.or %90, %92 : tensor<3xui32>
    %94 = stablehlo.xor %88, %93 : tensor<3xui32>
    %95 = stablehlo.add %88, %94 : tensor<3xui32>
    %c_24 = stablehlo.constant dense<6> : tensor<ui32>
    %96 = stablehlo.broadcast_in_dim %c_24, dims = [] : (tensor<ui32>) -> tensor<3xui32>
    %97 = stablehlo.shift_left %94, %96 : tensor<3xui32>
    %c_25 = stablehlo.constant dense<26> : tensor<ui32>
    %98 = stablehlo.broadcast_in_dim %c_25, dims = [] : (tensor<ui32>) -> tensor<3xui32>
    %99 = stablehlo.shift_right_logical %94, %98 : tensor<3xui32>
    %100 = stablehlo.or %97, %99 : tensor<3xui32>
    %101 = stablehlo.xor %95, %100 : tensor<3xui32>
    %102 = stablehlo.broadcast_in_dim %arg0, dims = [] : (tensor<ui32>) -> tensor<3xui32>
    %103 = stablehlo.add %95, %102 : tensor<3xui32>
    %104 = stablehlo.broadcast_in_dim %arg1, dims = [] : (tensor<ui32>) -> tensor<3xui32>
    %105 = stablehlo.add %101, %104 : tensor<3xui32>
    %c_26 = stablehlo.constant dense<3> : tensor<ui32>
    %106 = stablehlo.broadcast_in_dim %c_26, dims = [] : (tensor<ui32>) -> tensor<3xui32>
    %107 = stablehlo.add %105, %106 : tensor<3xui32>
    %108 = stablehlo.add %103, %107 : tensor<3xui32>
    %c_27 = stablehlo.constant dense<17> : tensor<ui32>
    %109 = stablehlo.broadcast_in_dim %c_27, dims = [] : (tensor<ui32>) -> tensor<3xui32>
    %110 = stablehlo.shift_left %107, %109 : tensor<3xui32>
    %c_28 = stablehlo.constant dense<15> : tensor<ui32>
    %111 = stablehlo.broadcast_in_dim %c_28, dims = [] : (tensor<ui32>) -> tensor<3xui32>
    %112 = stablehlo.shift_right_logical %107, %111 : tensor<3xui32>
    %113 = stablehlo.or %110, %112 : tensor<3xui32>
    %114 = stablehlo.xor %108, %113 : tensor<3xui32>
    %115 = stablehlo.add %108, %114 : tensor<3xui32>
    %c_29 = stablehlo.constant dense<29> : tensor<ui32>
    %116 = stablehlo.broadcast_in_dim %c_29, dims = [] : (tensor<ui32>) -> tensor<3xui32>
    %117 = stablehlo.shift_left %114, %116 : tensor<3xui32>
    %c_30 = stablehlo.constant dense<3> : tensor<ui32>
    %118 = stablehlo.broadcast_in_dim %c_30, dims = [] : (tensor<ui32>) -> tensor<3xui32>
    %119 = stablehlo.shift_right_logical %114, %118 : tensor<3xui32>
    %120 = stablehlo.or %117, %119 : tensor<3xui32>
    %121 = stablehlo.xor %115, %120 : tensor<3xui32>
    %122 = stablehlo.add %115, %121 : tensor<3xui32>
    %c_31 = stablehlo.constant dense<16> : tensor<ui32>
    %123 = stablehlo.broadcast_in_dim %c_31, dims = [] : (tensor<ui32>) -> tensor<3xui32>
    %124 = stablehlo.shift_left %121, %123 : tensor<3xui32>
    %c_32 = stablehlo.constant dense<16> : tensor<ui32>
    %125 = stablehlo.broadcast_in_dim %c_32, dims = [] : (tensor<ui32>) -> tensor<3xui32>
    %126 = stablehlo.shift_right_logical %121, %125 : tensor<3xui32>
    %127 = stablehlo.or %124, %126 : tensor<3xui32>
    %128 = stablehlo.xor %122, %127 : tensor<3xui32>
    %129 = stablehlo.add %122, %128 : tensor<3xui32>
    %c_33 = stablehlo.constant dense<24> : tensor<ui32>
    %130 = stablehlo.broadcast_in_dim %c_33, dims = [] : (tensor<ui32>) -> tensor<3xui32>
    %131 = stablehlo.shift_left %128, %130 : tensor<3xui32>
    %c_34 = stablehlo.constant dense<8> : tensor<ui32>
    %132 = stablehlo.broadcast_in_dim %c_34, dims = [] : (tensor<ui32>) -> tensor<3xui32>
    %133 = stablehlo.shift_right_logical %128, %132 : tensor<3xui32>
    %134 = stablehlo.or %131, %133 : tensor<3xui32>
    %135 = stablehlo.xor %129, %134 : tensor<3xui32>
    %136 = stablehlo.broadcast_in_dim %arg1, dims = [] : (tensor<ui32>) -> tensor<3xui32>
    %137 = stablehlo.add %129, %136 : tensor<3xui32>
    %138 = stablehlo.broadcast_in_dim %1, dims = [] : (tensor<ui32>) -> tensor<3xui32>
    %139 = stablehlo.add %135, %138 : tensor<3xui32>
    %c_35 = stablehlo.constant dense<4> : tensor<ui32>
    %140 = stablehlo.broadcast_in_dim %c_35, dims = [] : (tensor<ui32>) -> tensor<3xui32>
    %141 = stablehlo.add %139, %140 : tensor<3xui32>
    %142 = stablehlo.add %137, %141 : tensor<3xui32>
    %c_36 = stablehlo.constant dense<13> : tensor<ui32>
    %143 = stablehlo.broadcast_in_dim %c_36, dims = [] : (tensor<ui32>) -> tensor<3xui32>
    %144 = stablehlo.shift_left %141, %143 : tensor<3xui32>
    %c_37 = stablehlo.constant dense<19> : tensor<ui32>
    %145 = stablehlo.broadcast_in_dim %c_37, dims = [] : (tensor<ui32>) -> tensor<3xui32>
    %146 = stablehlo.shift_right_logical %141, %145 : tensor<3xui32>
    %147 = stablehlo.or %144, %146 : tensor<3xui32>
    %148 = stablehlo.xor %142, %147 : tensor<3xui32>
    %149 = stablehlo.add %142, %148 : tensor<3xui32>
    %c_38 = stablehlo.constant dense<15> : tensor<ui32>
    %150 = stablehlo.broadcast_in_dim %c_38, dims = [] : (tensor<ui32>) -> tensor<3xui32>
    %151 = stablehlo.shift_left %148, %150 : tensor<3xui32>
    %c_39 = stablehlo.constant dense<17> : tensor<ui32>
    %152 = stablehlo.broadcast_in_dim %c_39, dims = [] : (tensor<ui32>) -> tensor<3xui32>
    %153 = stablehlo.shift_right_logical %148, %152 : tensor<3xui32>
    %154 = stablehlo.or %151, %153 : tensor<3xui32>
    %155 = stablehlo.xor %149, %154 : tensor<3xui32>
    %156 = stablehlo.add %149, %155 : tensor<3xui32>
    %c_40 = stablehlo.constant dense<26> : tensor<ui32>
    %157 = stablehlo.broadcast_in_dim %c_40, dims = [] : (tensor<ui32>) -> tensor<3xui32>
    %158 = stablehlo.shift_left %155, %157 : tensor<3xui32>
    %c_41 = stablehlo.constant dense<6> : tensor<ui32>
    %159 = stablehlo.broadcast_in_dim %c_41, dims = [] : (tensor<ui32>) -> tensor<3xui32>
    %160 = stablehlo.shift_right_logical %155, %159 : tensor<3xui32>
    %161 = stablehlo.or %158, %160 : tensor<3xui32>
    %162 = stablehlo.xor %156, %161 : tensor<3xui32>
    %163 = stablehlo.add %156, %162 : tensor<3xui32>
    %c_42 = stablehlo.constant dense<6> : tensor<ui32>
    %164 = stablehlo.broadcast_in_dim %c_42, dims = [] : (tensor<ui32>) -> tensor<3xui32>
    %165 = stablehlo.shift_left %162, %164 : tensor<3xui32>
    %c_43 = stablehlo.constant dense<26> : tensor<ui32>
    %166 = stablehlo.broadcast_in_dim %c_43, dims = [] : (tensor<ui32>) -> tensor<3xui32>
    %167 = stablehlo.shift_right_logical %162, %166 : tensor<3xui32>
    %168 = stablehlo.or %165, %167 : tensor<3xui32>
    %169 = stablehlo.xor %163, %168 : tensor<3xui32>
    %170 = stablehlo.broadcast_in_dim %1, dims = [] : (tensor<ui32>) -> tensor<3xui32>
    %171 = stablehlo.add %163, %170 : tensor<3xui32>
    %172 = stablehlo.broadcast_in_dim %arg0, dims = [] : (tensor<ui32>) -> tensor<3xui32>
    %173 = stablehlo.add %169, %172 : tensor<3xui32>
    %c_44 = stablehlo.constant dense<5> : tensor<ui32>
    %174 = stablehlo.broadcast_in_dim %c_44, dims = [] : (tensor<ui32>) -> tensor<3xui32>
    %175 = stablehlo.add %173, %174 : tensor<3xui32>
    return %171, %175 : tensor<3xui32>, tensor<3xui32>
  }
  func.func private @_normal_221(%arg0: tensor<2xui32>) -> tensor<2560x2560xf32> {
    %0 = call @_normal_real_222(%arg0) : (tensor<2xui32>) -> tensor<2560x2560xf32>
    return %0 : tensor<2560x2560xf32>
  }
  func.func private @_normal_real_222(%arg0: tensor<2xui32>) -> tensor<2560x2560xf32> {
    %cst = stablehlo.constant dense<-0.99999994> : tensor<f32>
    %cst_0 = stablehlo.constant dense<1.000000e+00> : tensor<f32>
    %0 = call @_uniform_223(%arg0, %cst, %cst_0) : (tensor<2xui32>, tensor<f32>, tensor<f32>) -> tensor<2560x2560xf32>
    %1 = chlo.erf_inv %0 : tensor<2560x2560xf32> -> tensor<2560x2560xf32>
    %cst_1 = stablehlo.constant dense<1.41421354> : tensor<f32>
    %2 = stablehlo.broadcast_in_dim %cst_1, dims = [] : (tensor<f32>) -> tensor<2560x2560xf32>
    %3 = stablehlo.multiply %2, %1 : tensor<2560x2560xf32>
    return %3 : tensor<2560x2560xf32>
  }
  func.func private @_uniform_223(%arg0: tensor<2xui32>, %arg1: tensor<f32>, %arg2: tensor<f32>) -> tensor<2560x2560xf32> {
    %0 = stablehlo.broadcast_in_dim %arg1, dims = [] : (tensor<f32>) -> tensor<1x1xf32>
    %1 = stablehlo.broadcast_in_dim %arg2, dims = [] : (tensor<f32>) -> tensor<1x1xf32>
    %2 = stablehlo.slice %arg0 [0:1] : (tensor<2xui32>) -> tensor<1xui32>
    %3 = stablehlo.reshape %2 : (tensor<1xui32>) -> tensor<ui32>
    %4 = stablehlo.slice %arg0 [1:2] : (tensor<2xui32>) -> tensor<1xui32>
    %5 = stablehlo.reshape %4 : (tensor<1xui32>) -> tensor<ui32>
    %6 = stablehlo.iota dim = 0 : tensor<2560x2560xui64>
    %7 = stablehlo.iota dim = 1 : tensor<2560x2560xui64>
    %c = stablehlo.constant dense<2560> : tensor<ui64>
    %8 = stablehlo.broadcast_in_dim %c, dims = [] : (tensor<ui64>) -> tensor<2560x2560xui64>
    %9 = stablehlo.multiply %8, %6 : tensor<2560x2560xui64>
    %c_0 = stablehlo.constant dense<1> : tensor<ui64>
    %10 = stablehlo.broadcast_in_dim %c_0, dims = [] : (tensor<ui64>) -> tensor<2560x2560xui64>
    %11 = stablehlo.multiply %10, %7 : tensor<2560x2560xui64>
    %12 = stablehlo.add %9, %11 : tensor<2560x2560xui64>
    %c_1 = stablehlo.constant dense<32> : tensor<ui64>
    %13 = stablehlo.broadcast_in_dim %c_1, dims = [] : (tensor<ui64>) -> tensor<2560x2560xui64>
    %14 = stablehlo.shift_right_logical %12, %13 : tensor<2560x2560xui64>
    %15 = stablehlo.convert %12 : (tensor<2560x2560xui64>) -> tensor<2560x2560xui32>
    %16 = stablehlo.convert %14 : (tensor<2560x2560xui64>) -> tensor<2560x2560xui32>
    %17:2 = call @threefry2x32_225(%3, %5, %16, %15) : (tensor<ui32>, tensor<ui32>, tensor<2560x2560xui32>, tensor<2560x2560xui32>) -> (tensor<2560x2560xui32>, tensor<2560x2560xui32>)
    %18 = stablehlo.xor %17#0, %17#1 : tensor<2560x2560xui32>
    %c_2 = stablehlo.constant dense<9> : tensor<ui32>
    %19 = stablehlo.broadcast_in_dim %c_2, dims = [] : (tensor<ui32>) -> tensor<2560x2560xui32>
    %20 = stablehlo.shift_right_logical %18, %19 : tensor<2560x2560xui32>
    %c_3 = stablehlo.constant dense<1065353216> : tensor<ui32>
    %21 = stablehlo.broadcast_in_dim %c_3, dims = [] : (tensor<ui32>) -> tensor<2560x2560xui32>
    %22 = stablehlo.or %20, %21 : tensor<2560x2560xui32>
    %23 = stablehlo.bitcast_convert %22 : (tensor<2560x2560xui32>) -> tensor<2560x2560xf32>
    %cst = stablehlo.constant dense<1.000000e+00> : tensor<f32>
    %24 = stablehlo.broadcast_in_dim %cst, dims = [] : (tensor<f32>) -> tensor<2560x2560xf32>
    %25 = stablehlo.subtract %23, %24 : tensor<2560x2560xf32>
    %26 = stablehlo.subtract %1, %0 : tensor<1x1xf32>
    %27 = stablehlo.broadcast_in_dim %26, dims = [0, 1] : (tensor<1x1xf32>) -> tensor<2560x2560xf32>
    %28 = stablehlo.multiply %25, %27 : tensor<2560x2560xf32>
    %29 = stablehlo.broadcast_in_dim %0, dims = [0, 1] : (tensor<1x1xf32>) -> tensor<2560x2560xf32>
    %30 = stablehlo.add %28, %29 : tensor<2560x2560xf32>
    %31 = stablehlo.broadcast_in_dim %0, dims = [0, 1] : (tensor<1x1xf32>) -> tensor<2560x2560xf32>
    %32 = stablehlo.maximum %31, %30 : tensor<2560x2560xf32>
    return %32 : tensor<2560x2560xf32>
  }
  func.func private @threefry2x32_225(%arg0: tensor<ui32>, %arg1: tensor<ui32>, %arg2: tensor<2560x2560xui32>, %arg3: tensor<2560x2560xui32>) -> (tensor<2560x2560xui32>, tensor<2560x2560xui32>) {
    %0 = stablehlo.xor %arg0, %arg1 : tensor<ui32>
    %c = stablehlo.constant dense<466688986> : tensor<ui32>
    %1 = stablehlo.xor %0, %c : tensor<ui32>
    %2 = stablehlo.broadcast_in_dim %arg0, dims = [] : (tensor<ui32>) -> tensor<2560x2560xui32>
    %3 = stablehlo.add %arg2, %2 : tensor<2560x2560xui32>
    %4 = stablehlo.broadcast_in_dim %arg1, dims = [] : (tensor<ui32>) -> tensor<2560x2560xui32>
    %5 = stablehlo.add %arg3, %4 : tensor<2560x2560xui32>
    %6 = stablehlo.add %3, %5 : tensor<2560x2560xui32>
    %c_0 = stablehlo.constant dense<13> : tensor<ui32>
    %7 = stablehlo.broadcast_in_dim %c_0, dims = [] : (tensor<ui32>) -> tensor<2560x2560xui32>
    %8 = stablehlo.shift_left %5, %7 : tensor<2560x2560xui32>
    %c_1 = stablehlo.constant dense<19> : tensor<ui32>
    %9 = stablehlo.broadcast_in_dim %c_1, dims = [] : (tensor<ui32>) -> tensor<2560x2560xui32>
    %10 = stablehlo.shift_right_logical %5, %9 : tensor<2560x2560xui32>
    %11 = stablehlo.or %8, %10 : tensor<2560x2560xui32>
    %12 = stablehlo.xor %6, %11 : tensor<2560x2560xui32>
    %13 = stablehlo.add %6, %12 : tensor<2560x2560xui32>
    %c_2 = stablehlo.constant dense<15> : tensor<ui32>
    %14 = stablehlo.broadcast_in_dim %c_2, dims = [] : (tensor<ui32>) -> tensor<2560x2560xui32>
    %15 = stablehlo.shift_left %12, %14 : tensor<2560x2560xui32>
    %c_3 = stablehlo.constant dense<17> : tensor<ui32>
    %16 = stablehlo.broadcast_in_dim %c_3, dims = [] : (tensor<ui32>) -> tensor<2560x2560xui32>
    %17 = stablehlo.shift_right_logical %12, %16 : tensor<2560x2560xui32>
    %18 = stablehlo.or %15, %17 : tensor<2560x2560xui32>
    %19 = stablehlo.xor %13, %18 : tensor<2560x2560xui32>
    %20 = stablehlo.add %13, %19 : tensor<2560x2560xui32>
    %c_4 = stablehlo.constant dense<26> : tensor<ui32>
    %21 = stablehlo.broadcast_in_dim %c_4, dims = [] : (tensor<ui32>) -> tensor<2560x2560xui32>
    %22 = stablehlo.shift_left %19, %21 : tensor<2560x2560xui32>
    %c_5 = stablehlo.constant dense<6> : tensor<ui32>
    %23 = stablehlo.broadcast_in_dim %c_5, dims = [] : (tensor<ui32>) -> tensor<2560x2560xui32>
    %24 = stablehlo.shift_right_logical %19, %23 : tensor<2560x2560xui32>
    %25 = stablehlo.or %22, %24 : tensor<2560x2560xui32>
    %26 = stablehlo.xor %20, %25 : tensor<2560x2560xui32>
    %27 = stablehlo.add %20, %26 : tensor<2560x2560xui32>
    %c_6 = stablehlo.constant dense<6> : tensor<ui32>
    %28 = stablehlo.broadcast_in_dim %c_6, dims = [] : (tensor<ui32>) -> tensor<2560x2560xui32>
    %29 = stablehlo.shift_left %26, %28 : tensor<2560x2560xui32>
    %c_7 = stablehlo.constant dense<26> : tensor<ui32>
    %30 = stablehlo.broadcast_in_dim %c_7, dims = [] : (tensor<ui32>) -> tensor<2560x2560xui32>
    %31 = stablehlo.shift_right_logical %26, %30 : tensor<2560x2560xui32>
    %32 = stablehlo.or %29, %31 : tensor<2560x2560xui32>
    %33 = stablehlo.xor %27, %32 : tensor<2560x2560xui32>
    %34 = stablehlo.broadcast_in_dim %arg1, dims = [] : (tensor<ui32>) -> tensor<2560x2560xui32>
    %35 = stablehlo.add %27, %34 : tensor<2560x2560xui32>
    %36 = stablehlo.broadcast_in_dim %1, dims = [] : (tensor<ui32>) -> tensor<2560x2560xui32>
    %37 = stablehlo.add %33, %36 : tensor<2560x2560xui32>
    %c_8 = stablehlo.constant dense<1> : tensor<ui32>
    %38 = stablehlo.broadcast_in_dim %c_8, dims = [] : (tensor<ui32>) -> tensor<2560x2560xui32>
    %39 = stablehlo.add %37, %38 : tensor<2560x2560xui32>
    %40 = stablehlo.add %35, %39 : tensor<2560x2560xui32>
    %c_9 = stablehlo.constant dense<17> : tensor<ui32>
    %41 = stablehlo.broadcast_in_dim %c_9, dims = [] : (tensor<ui32>) -> tensor<2560x2560xui32>
    %42 = stablehlo.shift_left %39, %41 : tensor<2560x2560xui32>
    %c_10 = stablehlo.constant dense<15> : tensor<ui32>
    %43 = stablehlo.broadcast_in_dim %c_10, dims = [] : (tensor<ui32>) -> tensor<2560x2560xui32>
    %44 = stablehlo.shift_right_logical %39, %43 : tensor<2560x2560xui32>
    %45 = stablehlo.or %42, %44 : tensor<2560x2560xui32>
    %46 = stablehlo.xor %40, %45 : tensor<2560x2560xui32>
    %47 = stablehlo.add %40, %46 : tensor<2560x2560xui32>
    %c_11 = stablehlo.constant dense<29> : tensor<ui32>
    %48 = stablehlo.broadcast_in_dim %c_11, dims = [] : (tensor<ui32>) -> tensor<2560x2560xui32>
    %49 = stablehlo.shift_left %46, %48 : tensor<2560x2560xui32>
    %c_12 = stablehlo.constant dense<3> : tensor<ui32>
    %50 = stablehlo.broadcast_in_dim %c_12, dims = [] : (tensor<ui32>) -> tensor<2560x2560xui32>
    %51 = stablehlo.shift_right_logical %46, %50 : tensor<2560x2560xui32>
    %52 = stablehlo.or %49, %51 : tensor<2560x2560xui32>
    %53 = stablehlo.xor %47, %52 : tensor<2560x2560xui32>
    %54 = stablehlo.add %47, %53 : tensor<2560x2560xui32>
    %c_13 = stablehlo.constant dense<16> : tensor<ui32>
    %55 = stablehlo.broadcast_in_dim %c_13, dims = [] : (tensor<ui32>) -> tensor<2560x2560xui32>
    %56 = stablehlo.shift_left %53, %55 : tensor<2560x2560xui32>
    %c_14 = stablehlo.constant dense<16> : tensor<ui32>
    %57 = stablehlo.broadcast_in_dim %c_14, dims = [] : (tensor<ui32>) -> tensor<2560x2560xui32>
    %58 = stablehlo.shift_right_logical %53, %57 : tensor<2560x2560xui32>
    %59 = stablehlo.or %56, %58 : tensor<2560x2560xui32>
    %60 = stablehlo.xor %54, %59 : tensor<2560x2560xui32>
    %61 = stablehlo.add %54, %60 : tensor<2560x2560xui32>
    %c_15 = stablehlo.constant dense<24> : tensor<ui32>
    %62 = stablehlo.broadcast_in_dim %c_15, dims = [] : (tensor<ui32>) -> tensor<2560x2560xui32>
    %63 = stablehlo.shift_left %60, %62 : tensor<2560x2560xui32>
    %c_16 = stablehlo.constant dense<8> : tensor<ui32>
    %64 = stablehlo.broadcast_in_dim %c_16, dims = [] : (tensor<ui32>) -> tensor<2560x2560xui32>
    %65 = stablehlo.shift_right_logical %60, %64 : tensor<2560x2560xui32>
    %66 = stablehlo.or %63, %65 : tensor<2560x2560xui32>
    %67 = stablehlo.xor %61, %66 : tensor<2560x2560xui32>
    %68 = stablehlo.broadcast_in_dim %1, dims = [] : (tensor<ui32>) -> tensor<2560x2560xui32>
    %69 = stablehlo.add %61, %68 : tensor<2560x2560xui32>
    %70 = stablehlo.broadcast_in_dim %arg0, dims = [] : (tensor<ui32>) -> tensor<2560x2560xui32>
    %71 = stablehlo.add %67, %70 : tensor<2560x2560xui32>
    %c_17 = stablehlo.constant dense<2> : tensor<ui32>
    %72 = stablehlo.broadcast_in_dim %c_17, dims = [] : (tensor<ui32>) -> tensor<2560x2560xui32>
    %73 = stablehlo.add %71, %72 : tensor<2560x2560xui32>
    %74 = stablehlo.add %69, %73 : tensor<2560x2560xui32>
    %c_18 = stablehlo.constant dense<13> : tensor<ui32>
    %75 = stablehlo.broadcast_in_dim %c_18, dims = [] : (tensor<ui32>) -> tensor<2560x2560xui32>
    %76 = stablehlo.shift_left %73, %75 : tensor<2560x2560xui32>
    %c_19 = stablehlo.constant dense<19> : tensor<ui32>
    %77 = stablehlo.broadcast_in_dim %c_19, dims = [] : (tensor<ui32>) -> tensor<2560x2560xui32>
    %78 = stablehlo.shift_right_logical %73, %77 : tensor<2560x2560xui32>
    %79 = stablehlo.or %76, %78 : tensor<2560x2560xui32>
    %80 = stablehlo.xor %74, %79 : tensor<2560x2560xui32>
    %81 = stablehlo.add %74, %80 : tensor<2560x2560xui32>
    %c_20 = stablehlo.constant dense<15> : tensor<ui32>
    %82 = stablehlo.broadcast_in_dim %c_20, dims = [] : (tensor<ui32>) -> tensor<2560x2560xui32>
    %83 = stablehlo.shift_left %80, %82 : tensor<2560x2560xui32>
    %c_21 = stablehlo.constant dense<17> : tensor<ui32>
    %84 = stablehlo.broadcast_in_dim %c_21, dims = [] : (tensor<ui32>) -> tensor<2560x2560xui32>
    %85 = stablehlo.shift_right_logical %80, %84 : tensor<2560x2560xui32>
    %86 = stablehlo.or %83, %85 : tensor<2560x2560xui32>
    %87 = stablehlo.xor %81, %86 : tensor<2560x2560xui32>
    %88 = stablehlo.add %81, %87 : tensor<2560x2560xui32>
    %c_22 = stablehlo.constant dense<26> : tensor<ui32>
    %89 = stablehlo.broadcast_in_dim %c_22, dims = [] : (tensor<ui32>) -> tensor<2560x2560xui32>
    %90 = stablehlo.shift_left %87, %89 : tensor<2560x2560xui32>
    %c_23 = stablehlo.constant dense<6> : tensor<ui32>
    %91 = stablehlo.broadcast_in_dim %c_23, dims = [] : (tensor<ui32>) -> tensor<2560x2560xui32>
    %92 = stablehlo.shift_right_logical %87, %91 : tensor<2560x2560xui32>
    %93 = stablehlo.or %90, %92 : tensor<2560x2560xui32>
    %94 = stablehlo.xor %88, %93 : tensor<2560x2560xui32>
    %95 = stablehlo.add %88, %94 : tensor<2560x2560xui32>
    %c_24 = stablehlo.constant dense<6> : tensor<ui32>
    %96 = stablehlo.broadcast_in_dim %c_24, dims = [] : (tensor<ui32>) -> tensor<2560x2560xui32>
    %97 = stablehlo.shift_left %94, %96 : tensor<2560x2560xui32>
    %c_25 = stablehlo.constant dense<26> : tensor<ui32>
    %98 = stablehlo.broadcast_in_dim %c_25, dims = [] : (tensor<ui32>) -> tensor<2560x2560xui32>
    %99 = stablehlo.shift_right_logical %94, %98 : tensor<2560x2560xui32>
    %100 = stablehlo.or %97, %99 : tensor<2560x2560xui32>
    %101 = stablehlo.xor %95, %100 : tensor<2560x2560xui32>
    %102 = stablehlo.broadcast_in_dim %arg0, dims = [] : (tensor<ui32>) -> tensor<2560x2560xui32>
    %103 = stablehlo.add %95, %102 : tensor<2560x2560xui32>
    %104 = stablehlo.broadcast_in_dim %arg1, dims = [] : (tensor<ui32>) -> tensor<2560x2560xui32>
    %105 = stablehlo.add %101, %104 : tensor<2560x2560xui32>
    %c_26 = stablehlo.constant dense<3> : tensor<ui32>
    %106 = stablehlo.broadcast_in_dim %c_26, dims = [] : (tensor<ui32>) -> tensor<2560x2560xui32>
    %107 = stablehlo.add %105, %106 : tensor<2560x2560xui32>
    %108 = stablehlo.add %103, %107 : tensor<2560x2560xui32>
    %c_27 = stablehlo.constant dense<17> : tensor<ui32>
    %109 = stablehlo.broadcast_in_dim %c_27, dims = [] : (tensor<ui32>) -> tensor<2560x2560xui32>
    %110 = stablehlo.shift_left %107, %109 : tensor<2560x2560xui32>
    %c_28 = stablehlo.constant dense<15> : tensor<ui32>
    %111 = stablehlo.broadcast_in_dim %c_28, dims = [] : (tensor<ui32>) -> tensor<2560x2560xui32>
    %112 = stablehlo.shift_right_logical %107, %111 : tensor<2560x2560xui32>
    %113 = stablehlo.or %110, %112 : tensor<2560x2560xui32>
    %114 = stablehlo.xor %108, %113 : tensor<2560x2560xui32>
    %115 = stablehlo.add %108, %114 : tensor<2560x2560xui32>
    %c_29 = stablehlo.constant dense<29> : tensor<ui32>
    %116 = stablehlo.broadcast_in_dim %c_29, dims = [] : (tensor<ui32>) -> tensor<2560x2560xui32>
    %117 = stablehlo.shift_left %114, %116 : tensor<2560x2560xui32>
    %c_30 = stablehlo.constant dense<3> : tensor<ui32>
    %118 = stablehlo.broadcast_in_dim %c_30, dims = [] : (tensor<ui32>) -> tensor<2560x2560xui32>
    %119 = stablehlo.shift_right_logical %114, %118 : tensor<2560x2560xui32>
    %120 = stablehlo.or %117, %119 : tensor<2560x2560xui32>
    %121 = stablehlo.xor %115, %120 : tensor<2560x2560xui32>
    %122 = stablehlo.add %115, %121 : tensor<2560x2560xui32>
    %c_31 = stablehlo.constant dense<16> : tensor<ui32>
    %123 = stablehlo.broadcast_in_dim %c_31, dims = [] : (tensor<ui32>) -> tensor<2560x2560xui32>
    %124 = stablehlo.shift_left %121, %123 : tensor<2560x2560xui32>
    %c_32 = stablehlo.constant dense<16> : tensor<ui32>
    %125 = stablehlo.broadcast_in_dim %c_32, dims = [] : (tensor<ui32>) -> tensor<2560x2560xui32>
    %126 = stablehlo.shift_right_logical %121, %125 : tensor<2560x2560xui32>
    %127 = stablehlo.or %124, %126 : tensor<2560x2560xui32>
    %128 = stablehlo.xor %122, %127 : tensor<2560x2560xui32>
    %129 = stablehlo.add %122, %128 : tensor<2560x2560xui32>
    %c_33 = stablehlo.constant dense<24> : tensor<ui32>
    %130 = stablehlo.broadcast_in_dim %c_33, dims = [] : (tensor<ui32>) -> tensor<2560x2560xui32>
    %131 = stablehlo.shift_left %128, %130 : tensor<2560x2560xui32>
    %c_34 = stablehlo.constant dense<8> : tensor<ui32>
    %132 = stablehlo.broadcast_in_dim %c_34, dims = [] : (tensor<ui32>) -> tensor<2560x2560xui32>
    %133 = stablehlo.shift_right_logical %128, %132 : tensor<2560x2560xui32>
    %134 = stablehlo.or %131, %133 : tensor<2560x2560xui32>
    %135 = stablehlo.xor %129, %134 : tensor<2560x2560xui32>
    %136 = stablehlo.broadcast_in_dim %arg1, dims = [] : (tensor<ui32>) -> tensor<2560x2560xui32>
    %137 = stablehlo.add %129, %136 : tensor<2560x2560xui32>
    %138 = stablehlo.broadcast_in_dim %1, dims = [] : (tensor<ui32>) -> tensor<2560x2560xui32>
    %139 = stablehlo.add %135, %138 : tensor<2560x2560xui32>
    %c_35 = stablehlo.constant dense<4> : tensor<ui32>
    %140 = stablehlo.broadcast_in_dim %c_35, dims = [] : (tensor<ui32>) -> tensor<2560x2560xui32>
    %141 = stablehlo.add %139, %140 : tensor<2560x2560xui32>
    %142 = stablehlo.add %137, %141 : tensor<2560x2560xui32>
    %c_36 = stablehlo.constant dense<13> : tensor<ui32>
    %143 = stablehlo.broadcast_in_dim %c_36, dims = [] : (tensor<ui32>) -> tensor<2560x2560xui32>
    %144 = stablehlo.shift_left %141, %143 : tensor<2560x2560xui32>
    %c_37 = stablehlo.constant dense<19> : tensor<ui32>
    %145 = stablehlo.broadcast_in_dim %c_37, dims = [] : (tensor<ui32>) -> tensor<2560x2560xui32>
    %146 = stablehlo.shift_right_logical %141, %145 : tensor<2560x2560xui32>
    %147 = stablehlo.or %144, %146 : tensor<2560x2560xui32>
    %148 = stablehlo.xor %142, %147 : tensor<2560x2560xui32>
    %149 = stablehlo.add %142, %148 : tensor<2560x2560xui32>
    %c_38 = stablehlo.constant dense<15> : tensor<ui32>
    %150 = stablehlo.broadcast_in_dim %c_38, dims = [] : (tensor<ui32>) -> tensor<2560x2560xui32>
    %151 = stablehlo.shift_left %148, %150 : tensor<2560x2560xui32>
    %c_39 = stablehlo.constant dense<17> : tensor<ui32>
    %152 = stablehlo.broadcast_in_dim %c_39, dims = [] : (tensor<ui32>) -> tensor<2560x2560xui32>
    %153 = stablehlo.shift_right_logical %148, %152 : tensor<2560x2560xui32>
    %154 = stablehlo.or %151, %153 : tensor<2560x2560xui32>
    %155 = stablehlo.xor %149, %154 : tensor<2560x2560xui32>
    %156 = stablehlo.add %149, %155 : tensor<2560x2560xui32>
    %c_40 = stablehlo.constant dense<26> : tensor<ui32>
    %157 = stablehlo.broadcast_in_dim %c_40, dims = [] : (tensor<ui32>) -> tensor<2560x2560xui32>
    %158 = stablehlo.shift_left %155, %157 : tensor<2560x2560xui32>
    %c_41 = stablehlo.constant dense<6> : tensor<ui32>
    %159 = stablehlo.broadcast_in_dim %c_41, dims = [] : (tensor<ui32>) -> tensor<2560x2560xui32>
    %160 = stablehlo.shift_right_logical %155, %159 : tensor<2560x2560xui32>
    %161 = stablehlo.or %158, %160 : tensor<2560x2560xui32>
    %162 = stablehlo.xor %156, %161 : tensor<2560x2560xui32>
    %163 = stablehlo.add %156, %162 : tensor<2560x2560xui32>
    %c_42 = stablehlo.constant dense<6> : tensor<ui32>
    %164 = stablehlo.broadcast_in_dim %c_42, dims = [] : (tensor<ui32>) -> tensor<2560x2560xui32>
    %165 = stablehlo.shift_left %162, %164 : tensor<2560x2560xui32>
    %c_43 = stablehlo.constant dense<26> : tensor<ui32>
    %166 = stablehlo.broadcast_in_dim %c_43, dims = [] : (tensor<ui32>) -> tensor<2560x2560xui32>
    %167 = stablehlo.shift_right_logical %162, %166 : tensor<2560x2560xui32>
    %168 = stablehlo.or %165, %167 : tensor<2560x2560xui32>
    %169 = stablehlo.xor %163, %168 : tensor<2560x2560xui32>
    %170 = stablehlo.broadcast_in_dim %1, dims = [] : (tensor<ui32>) -> tensor<2560x2560xui32>
    %171 = stablehlo.add %163, %170 : tensor<2560x2560xui32>
    %172 = stablehlo.broadcast_in_dim %arg0, dims = [] : (tensor<ui32>) -> tensor<2560x2560xui32>
    %173 = stablehlo.add %169, %172 : tensor<2560x2560xui32>
    %c_44 = stablehlo.constant dense<5> : tensor<ui32>
    %174 = stablehlo.broadcast_in_dim %c_44, dims = [] : (tensor<ui32>) -> tensor<2560x2560xui32>
    %175 = stablehlo.add %173, %174 : tensor<2560x2560xui32>
    return %171, %175 : tensor<2560x2560xui32>, tensor<2560x2560xui32>
  }
}
