module @jit_init_module attributes {mhlo.num_partitions = 1 : i32, mhlo.num_replicas = 1 : i32} {
  sdy.mesh @empty_mesh = <[]>
  func.func public @main(%arg0: tensor<2xui32>) -> (tensor<i32> {jax.result_info = "result[0]"}, tensor<30522x2560xf32> {jax.result_info = "result[1].bert.embeddings.word_embeddings.weight"}, tensor<512x2560xf32> {jax.result_info = "result[1].bert.embeddings.position_embeddings.weight"}, tensor<2x2560xf32> {jax.result_info = "result[1].bert.embeddings.token_type_embeddings.weight"}, tensor<2560xf32> {jax.result_info = "result[1].bert.embeddings.layer_norm.weight"}, tensor<2560xf32> {jax.result_info = "result[1].bert.embeddings.layer_norm.bias"}, tensor<2560x2560xf32> {jax.result_info = "result[1].bert.encoder.layers[0].attention.self_attention.query.weight"}, tensor<2560xf32> {jax.result_info = "result[1].bert.encoder.layers[0].attention.self_attention.query.bias"}, tensor<2560x2560xf32> {jax.result_info = "result[1].bert.encoder.layers[0].attention.self_attention.key.weight"}, tensor<2560xf32> {jax.result_info = "result[1].bert.encoder.layers[0].attention.self_attention.key.bias"}, tensor<2560x2560xf32> {jax.result_info = "result[1].bert.encoder.layers[0].attention.self_attention.value.weight"}, tensor<2560xf32> {jax.result_info = "result[1].bert.encoder.layers[0].attention.self_attention.value.bias"}, tensor<2560x2560xf32> {jax.result_info = "result[1].bert.encoder.layers[0].attention.output.dense.weight"}, tensor<2560xf32> {jax.result_info = "result[1].bert.encoder.layers[0].attention.output.dense.bias"}, tensor<2560xf32> {jax.result_info = "result[1].bert.encoder.layers[0].attention.output.layer_norm.weight"}, tensor<2560xf32> {jax.result_info = "result[1].bert.encoder.layers[0].attention.output.layer_norm.bias"}, tensor<10240x2560xf32> {jax.result_info = "result[1].bert.encoder.layers[0].intermediate.dense.weight"}, tensor<10240xf32> {jax.result_info = "result[1].bert.encoder.layers[0].intermediate.dense.bias"}, tensor<2560x10240xf32> {jax.result_info = "result[1].bert.encoder.layers[0].output.dense.weight"}, tensor<2560xf32> {jax.result_info = "result[1].bert.encoder.layers[0].output.dense.bias"}, tensor<2560xf32> {jax.result_info = "result[1].bert.encoder.layers[0].output.layer_norm.weight"}, tensor<2560xf32> {jax.result_info = "result[1].bert.encoder.layers[0].output.layer_norm.bias"}, tensor<2560x2560xf32> {jax.result_info = "result[1].bert.encoder.layers[1].attention.self_attention.query.weight"}, tensor<2560xf32> {jax.result_info = "result[1].bert.encoder.layers[1].attention.self_attention.query.bias"}, tensor<2560x2560xf32> {jax.result_info = "result[1].bert.encoder.layers[1].attention.self_attention.key.weight"}, tensor<2560xf32> {jax.result_info = "result[1].bert.encoder.layers[1].attention.self_attention.key.bias"}, tensor<2560x2560xf32> {jax.result_info = "result[1].bert.encoder.layers[1].attention.self_attention.value.weight"}, tensor<2560xf32> {jax.result_info = "result[1].bert.encoder.layers[1].attention.self_attention.value.bias"}, tensor<2560x2560xf32> {jax.result_info = "result[1].bert.encoder.layers[1].attention.output.dense.weight"}, tensor<2560xf32> {jax.result_info = "result[1].bert.encoder.layers[1].attention.output.dense.bias"}, tensor<2560xf32> {jax.result_info = "result[1].bert.encoder.layers[1].attention.output.layer_norm.weight"}, tensor<2560xf32> {jax.result_info = "result[1].bert.encoder.layers[1].attention.output.layer_norm.bias"}, tensor<10240x2560xf32> {jax.result_info = "result[1].bert.encoder.layers[1].intermediate.dense.weight"}, tensor<10240xf32> {jax.result_info = "result[1].bert.encoder.layers[1].intermediate.dense.bias"}, tensor<2560x10240xf32> {jax.result_info = "result[1].bert.encoder.layers[1].output.dense.weight"}, tensor<2560xf32> {jax.result_info = "result[1].bert.encoder.layers[1].output.dense.bias"}, tensor<2560xf32> {jax.result_info = "result[1].bert.encoder.layers[1].output.layer_norm.weight"}, tensor<2560xf32> {jax.result_info = "result[1].bert.encoder.layers[1].output.layer_norm.bias"}, tensor<2560x2560xf32> {jax.result_info = "result[1].bert.encoder.layers[2].attention.self_attention.query.weight"}, tensor<2560xf32> {jax.result_info = "result[1].bert.encoder.layers[2].attention.self_attention.query.bias"}, tensor<2560x2560xf32> {jax.result_info = "result[1].bert.encoder.layers[2].attention.self_attention.key.weight"}, tensor<2560xf32> {jax.result_info = "result[1].bert.encoder.layers[2].attention.self_attention.key.bias"}, tensor<2560x2560xf32> {jax.result_info = "result[1].bert.encoder.layers[2].attention.self_attention.value.weight"}, tensor<2560xf32> {jax.result_info = "result[1].bert.encoder.layers[2].attention.self_attention.value.bias"}, tensor<2560x2560xf32> {jax.result_info = "result[1].bert.encoder.layers[2].attention.output.dense.weight"}, tensor<2560xf32> {jax.result_info = "result[1].bert.encoder.layers[2].attention.output.dense.bias"}, tensor<2560xf32> {jax.result_info = "result[1].bert.encoder.layers[2].attention.output.layer_norm.weight"}, tensor<2560xf32> {jax.result_info = "result[1].bert.encoder.layers[2].attention.output.layer_norm.bias"}, tensor<10240x2560xf32> {jax.result_info = "result[1].bert.encoder.layers[2].intermediate.dense.weight"}, tensor<10240xf32> {jax.result_info = "result[1].bert.encoder.layers[2].intermediate.dense.bias"}, tensor<2560x10240xf32> {jax.result_info = "result[1].bert.encoder.layers[2].output.dense.weight"}, tensor<2560xf32> {jax.result_info = "result[1].bert.encoder.layers[2].output.dense.bias"}, tensor<2560xf32> {jax.result_info = "result[1].bert.encoder.layers[2].output.layer_norm.weight"}, tensor<2560xf32> {jax.result_info = "result[1].bert.encoder.layers[2].output.layer_norm.bias"}, tensor<2560x2560xf32> {jax.result_info = "result[1].bert.encoder.layers[3].attention.self_attention.query.weight"}, tensor<2560xf32> {jax.result_info = "result[1].bert.encoder.layers[3].attention.self_attention.query.bias"}, tensor<2560x2560xf32> {jax.result_info = "result[1].bert.encoder.layers[3].attention.self_attention.key.weight"}, tensor<2560xf32> {jax.result_info = "result[1].bert.encoder.layers[3].attention.self_attention.key.bias"}, tensor<2560x2560xf32> {jax.result_info = "result[1].bert.encoder.layers[3].attention.self_attention.value.weight"}, tensor<2560xf32> {jax.result_info = "result[1].bert.encoder.layers[3].attention.self_attention.value.bias"}, tensor<2560x2560xf32> {jax.result_info = "result[1].bert.encoder.layers[3].attention.output.dense.weight"}, tensor<2560xf32> {jax.result_info = "result[1].bert.encoder.layers[3].attention.output.dense.bias"}, tensor<2560xf32> {jax.result_info = "result[1].bert.encoder.layers[3].attention.output.layer_norm.weight"}, tensor<2560xf32> {jax.result_info = "result[1].bert.encoder.layers[3].attention.output.layer_norm.bias"}, tensor<10240x2560xf32> {jax.result_info = "result[1].bert.encoder.layers[3].intermediate.dense.weight"}, tensor<10240xf32> {jax.result_info = "result[1].bert.encoder.layers[3].intermediate.dense.bias"}, tensor<2560x10240xf32> {jax.result_info = "result[1].bert.encoder.layers[3].output.dense.weight"}, tensor<2560xf32> {jax.result_info = "result[1].bert.encoder.layers[3].output.dense.bias"}, tensor<2560xf32> {jax.result_info = "result[1].bert.encoder.layers[3].output.layer_norm.weight"}, tensor<2560xf32> {jax.result_info = "result[1].bert.encoder.layers[3].output.layer_norm.bias"}, tensor<2560x2560xf32> {jax.result_info = "result[1].bert.encoder.layers[4].attention.self_attention.query.weight"}, tensor<2560xf32> {jax.result_info = "result[1].bert.encoder.layers[4].attention.self_attention.query.bias"}, tensor<2560x2560xf32> {jax.result_info = "result[1].bert.encoder.layers[4].attention.self_attention.key.weight"}, tensor<2560xf32> {jax.result_info = "result[1].bert.encoder.layers[4].attention.self_attention.key.bias"}, tensor<2560x2560xf32> {jax.result_info = "result[1].bert.encoder.layers[4].attention.self_attention.value.weight"}, tensor<2560xf32> {jax.result_info = "result[1].bert.encoder.layers[4].attention.self_attention.value.bias"}, tensor<2560x2560xf32> {jax.result_info = "result[1].bert.encoder.layers[4].attention.output.dense.weight"}, tensor<2560xf32> {jax.result_info = "result[1].bert.encoder.layers[4].attention.output.dense.bias"}, tensor<2560xf32> {jax.result_info = "result[1].bert.encoder.layers[4].attention.output.layer_norm.weight"}, tensor<2560xf32> {jax.result_info = "result[1].bert.encoder.layers[4].attention.output.layer_norm.bias"}, tensor<10240x2560xf32> {jax.result_info = "result[1].bert.encoder.layers[4].intermediate.dense.weight"}, tensor<10240xf32> {jax.result_info = "result[1].bert.encoder.layers[4].intermediate.dense.bias"}, tensor<2560x10240xf32> {jax.result_info = "result[1].bert.encoder.layers[4].output.dense.weight"}, tensor<2560xf32> {jax.result_info = "result[1].bert.encoder.layers[4].output.dense.bias"}, tensor<2560xf32> {jax.result_info = "result[1].bert.encoder.layers[4].output.layer_norm.weight"}, tensor<2560xf32> {jax.result_info = "result[1].bert.encoder.layers[4].output.layer_norm.bias"}, tensor<2560x2560xf32> {jax.result_info = "result[1].bert.encoder.layers[5].attention.self_attention.query.weight"}, tensor<2560xf32> {jax.result_info = "result[1].bert.encoder.layers[5].attention.self_attention.query.bias"}, tensor<2560x2560xf32> {jax.result_info = "result[1].bert.encoder.layers[5].attention.self_attention.key.weight"}, tensor<2560xf32> {jax.result_info = "result[1].bert.encoder.layers[5].attention.self_attention.key.bias"}, tensor<2560x2560xf32> {jax.result_info = "result[1].bert.encoder.layers[5].attention.self_attention.value.weight"}, tensor<2560xf32> {jax.result_info = "result[1].bert.encoder.layers[5].attention.self_attention.value.bias"}, tensor<2560x2560xf32> {jax.result_info = "result[1].bert.encoder.layers[5].attention.output.dense.weight"}, tensor<2560xf32> {jax.result_info = "result[1].bert.encoder.layers[5].attention.output.dense.bias"}, tensor<2560xf32> {jax.result_info = "result[1].bert.encoder.layers[5].attention.output.layer_norm.weight"}, tensor<2560xf32> {jax.result_info = "result[1].bert.encoder.layers[5].attention.output.layer_norm.bias"}, tensor<10240x2560xf32> {jax.result_info = "result[1].bert.encoder.layers[5].intermediate.dense.weight"}, tensor<10240xf32> {jax.result_info = "result[1].bert.encoder.layers[5].intermediate.dense.bias"}, tensor<2560x10240xf32> {jax.result_info = "result[1].bert.encoder.layers[5].output.dense.weight"}, tensor<2560xf32> {jax.result_info = "result[1].bert.encoder.layers[5].output.dense.bias"}, tensor<2560xf32> {jax.result_info = "result[1].bert.encoder.layers[5].output.layer_norm.weight"}, tensor<2560xf32> {jax.result_info = "result[1].bert.encoder.layers[5].output.layer_norm.bias"}, tensor<2560x2560xf32> {jax.result_info = "result[1].bert.encoder.layers[6].attention.self_attention.query.weight"}, tensor<2560xf32> {jax.result_info = "result[1].bert.encoder.layers[6].attention.self_attention.query.bias"}, tensor<2560x2560xf32> {jax.result_info = "result[1].bert.encoder.layers[6].attention.self_attention.key.weight"}, tensor<2560xf32> {jax.result_info = "result[1].bert.encoder.layers[6].attention.self_attention.key.bias"}, tensor<2560x2560xf32> {jax.result_info = "result[1].bert.encoder.layers[6].attention.self_attention.value.weight"}, tensor<2560xf32> {jax.result_info = "result[1].bert.encoder.layers[6].attention.self_attention.value.bias"}, tensor<2560x2560xf32> {jax.result_info = "result[1].bert.encoder.layers[6].attention.output.dense.weight"}, tensor<2560xf32> {jax.result_info = "result[1].bert.encoder.layers[6].attention.output.dense.bias"}, tensor<2560xf32> {jax.result_info = "result[1].bert.encoder.layers[6].attention.output.layer_norm.weight"}, tensor<2560xf32> {jax.result_info = "result[1].bert.encoder.layers[6].attention.output.layer_norm.bias"}, tensor<10240x2560xf32> {jax.result_info = "result[1].bert.encoder.layers[6].intermediate.dense.weight"}, tensor<10240xf32> {jax.result_info = "result[1].bert.encoder.layers[6].intermediate.dense.bias"}, tensor<2560x10240xf32> {jax.result_info = "result[1].bert.encoder.layers[6].output.dense.weight"}, tensor<2560xf32> {jax.result_info = "result[1].bert.encoder.layers[6].output.dense.bias"}, tensor<2560xf32> {jax.result_info = "result[1].bert.encoder.layers[6].output.layer_norm.weight"}, tensor<2560xf32> {jax.result_info = "result[1].bert.encoder.layers[6].output.layer_norm.bias"}, tensor<2560x2560xf32> {jax.result_info = "result[1].bert.encoder.layers[7].attention.self_attention.query.weight"}, tensor<2560xf32> {jax.result_info = "result[1].bert.encoder.layers[7].attention.self_attention.query.bias"}, tensor<2560x2560xf32> {jax.result_info = "result[1].bert.encoder.layers[7].attention.self_attention.key.weight"}, tensor<2560xf32> {jax.result_info = "result[1].bert.encoder.layers[7].attention.self_attention.key.bias"}, tensor<2560x2560xf32> {jax.result_info = "result[1].bert.encoder.layers[7].attention.self_attention.value.weight"}, tensor<2560xf32> {jax.result_info = "result[1].bert.encoder.layers[7].attention.self_attention.value.bias"}, tensor<2560x2560xf32> {jax.result_info = "result[1].bert.encoder.layers[7].attention.output.dense.weight"}, tensor<2560xf32> {jax.result_info = "result[1].bert.encoder.layers[7].attention.output.dense.bias"}, tensor<2560xf32> {jax.result_info = "result[1].bert.encoder.layers[7].attention.output.layer_norm.weight"}, tensor<2560xf32> {jax.result_info = "result[1].bert.encoder.layers[7].attention.output.layer_norm.bias"}, tensor<10240x2560xf32> {jax.result_info = "result[1].bert.encoder.layers[7].intermediate.dense.weight"}, tensor<10240xf32> {jax.result_info = "result[1].bert.encoder.layers[7].intermediate.dense.bias"}, tensor<2560x10240xf32> {jax.result_info = "result[1].bert.encoder.layers[7].output.dense.weight"}, tensor<2560xf32> {jax.result_info = "result[1].bert.encoder.layers[7].output.dense.bias"}, tensor<2560xf32> {jax.result_info = "result[1].bert.encoder.layers[7].output.layer_norm.weight"}, tensor<2560xf32> {jax.result_info = "result[1].bert.encoder.layers[7].output.layer_norm.bias"}, tensor<2560x2560xf32> {jax.result_info = "result[1].bert.encoder.layers[8].attention.self_attention.query.weight"}, tensor<2560xf32> {jax.result_info = "result[1].bert.encoder.layers[8].attention.self_attention.query.bias"}, tensor<2560x2560xf32> {jax.result_info = "result[1].bert.encoder.layers[8].attention.self_attention.key.weight"}, tensor<2560xf32> {jax.result_info = "result[1].bert.encoder.layers[8].attention.self_attention.key.bias"}, tensor<2560x2560xf32> {jax.result_info = "result[1].bert.encoder.layers[8].attention.self_attention.value.weight"}, tensor<2560xf32> {jax.result_info = "result[1].bert.encoder.layers[8].attention.self_attention.value.bias"}, tensor<2560x2560xf32> {jax.result_info = "result[1].bert.encoder.layers[8].attention.output.dense.weight"}, tensor<2560xf32> {jax.result_info = "result[1].bert.encoder.layers[8].attention.output.dense.bias"}, tensor<2560xf32> {jax.result_info = "result[1].bert.encoder.layers[8].attention.output.layer_norm.weight"}, tensor<2560xf32> {jax.result_info = "result[1].bert.encoder.layers[8].attention.output.layer_norm.bias"}, tensor<10240x2560xf32> {jax.result_info = "result[1].bert.encoder.layers[8].intermediate.dense.weight"}, tensor<10240xf32> {jax.result_info = "result[1].bert.encoder.layers[8].intermediate.dense.bias"}, tensor<2560x10240xf32> {jax.result_info = "result[1].bert.encoder.layers[8].output.dense.weight"}, tensor<2560xf32> {jax.result_info = "result[1].bert.encoder.layers[8].output.dense.bias"}, tensor<2560xf32> {jax.result_info = "result[1].bert.encoder.layers[8].output.layer_norm.weight"}, tensor<2560xf32> {jax.result_info = "result[1].bert.encoder.layers[8].output.layer_norm.bias"}, tensor<2560x2560xf32> {jax.result_info = "result[1].bert.encoder.layers[9].attention.self_attention.query.weight"}, tensor<2560xf32> {jax.result_info = "result[1].bert.encoder.layers[9].attention.self_attention.query.bias"}, tensor<2560x2560xf32> {jax.result_info = "result[1].bert.encoder.layers[9].attention.self_attention.key.weight"}, tensor<2560xf32> {jax.result_info = "result[1].bert.encoder.layers[9].attention.self_attention.key.bias"}, tensor<2560x2560xf32> {jax.result_info = "result[1].bert.encoder.layers[9].attention.self_attention.value.weight"}, tensor<2560xf32> {jax.result_info = "result[1].bert.encoder.layers[9].attention.self_attention.value.bias"}, tensor<2560x2560xf32> {jax.result_info = "result[1].bert.encoder.layers[9].attention.output.dense.weight"}, tensor<2560xf32> {jax.result_info = "result[1].bert.encoder.layers[9].attention.output.dense.bias"}, tensor<2560xf32> {jax.result_info = "result[1].bert.encoder.layers[9].attention.output.layer_norm.weight"}, tensor<2560xf32> {jax.result_info = "result[1].bert.encoder.layers[9].attention.output.layer_norm.bias"}, tensor<10240x2560xf32> {jax.result_info = "result[1].bert.encoder.layers[9].intermediate.dense.weight"}, tensor<10240xf32> {jax.result_info = "result[1].bert.encoder.layers[9].intermediate.dense.bias"}, tensor<2560x10240xf32> {jax.result_info = "result[1].bert.encoder.layers[9].output.dense.weight"}, tensor<2560xf32> {jax.result_info = "result[1].bert.encoder.layers[9].output.dense.bias"}, tensor<2560xf32> {jax.result_info = "result[1].bert.encoder.layers[9].output.layer_norm.weight"}, tensor<2560xf32> {jax.result_info = "result[1].bert.encoder.layers[9].output.layer_norm.bias"}, tensor<2560x2560xf32> {jax.result_info = "result[1].bert.encoder.layers[10].attention.self_attention.query.weight"}, tensor<2560xf32> {jax.result_info = "result[1].bert.encoder.layers[10].attention.self_attention.query.bias"}, tensor<2560x2560xf32> {jax.result_info = "result[1].bert.encoder.layers[10].attention.self_attention.key.weight"}, tensor<2560xf32> {jax.result_info = "result[1].bert.encoder.layers[10].attention.self_attention.key.bias"}, tensor<2560x2560xf32> {jax.result_info = "result[1].bert.encoder.layers[10].attention.self_attention.value.weight"}, tensor<2560xf32> {jax.result_info = "result[1].bert.encoder.layers[10].attention.self_attention.value.bias"}, tensor<2560x2560xf32> {jax.result_info = "result[1].bert.encoder.layers[10].attention.output.dense.weight"}, tensor<2560xf32> {jax.result_info = "result[1].bert.encoder.layers[10].attention.output.dense.bias"}, tensor<2560xf32> {jax.result_info = "result[1].bert.encoder.layers[10].attention.output.layer_norm.weight"}, tensor<2560xf32> {jax.result_info = "result[1].bert.encoder.layers[10].attention.output.layer_norm.bias"}, tensor<10240x2560xf32> {jax.result_info = "result[1].bert.encoder.layers[10].intermediate.dense.weight"}, tensor<10240xf32> {jax.result_info = "result[1].bert.encoder.layers[10].intermediate.dense.bias"}, tensor<2560x10240xf32> {jax.result_info = "result[1].bert.encoder.layers[10].output.dense.weight"}, tensor<2560xf32> {jax.result_info = "result[1].bert.encoder.layers[10].output.dense.bias"}, tensor<2560xf32> {jax.result_info = "result[1].bert.encoder.layers[10].output.layer_norm.weight"}, tensor<2560xf32> {jax.result_info = "result[1].bert.encoder.layers[10].output.layer_norm.bias"}, tensor<2560x2560xf32> {jax.result_info = "result[1].bert.encoder.layers[11].attention.self_attention.query.weight"}, tensor<2560xf32> {jax.result_info = "result[1].bert.encoder.layers[11].attention.self_attention.query.bias"}, tensor<2560x2560xf32> {jax.result_info = "result[1].bert.encoder.layers[11].attention.self_attention.key.weight"}, tensor<2560xf32> {jax.result_info = "result[1].bert.encoder.layers[11].attention.self_attention.key.bias"}, tensor<2560x2560xf32> {jax.result_info = "result[1].bert.encoder.layers[11].attention.self_attention.value.weight"}, tensor<2560xf32> {jax.result_info = "result[1].bert.encoder.layers[11].attention.self_attention.value.bias"}, tensor<2560x2560xf32> {jax.result_info = "result[1].bert.encoder.layers[11].attention.output.dense.weight"}, tensor<2560xf32> {jax.result_info = "result[1].bert.encoder.layers[11].attention.output.dense.bias"}, tensor<2560xf32> {jax.result_info = "result[1].bert.encoder.layers[11].attention.output.layer_norm.weight"}, tensor<2560xf32> {jax.result_info = "result[1].bert.encoder.layers[11].attention.output.layer_norm.bias"}, tensor<10240x2560xf32> {jax.result_info = "result[1].bert.encoder.layers[11].intermediate.dense.weight"}, tensor<10240xf32> {jax.result_info = "result[1].bert.encoder.layers[11].intermediate.dense.bias"}, tensor<2560x10240xf32> {jax.result_info = "result[1].bert.encoder.layers[11].output.dense.weight"}, tensor<2560xf32> {jax.result_info = "result[1].bert.encoder.layers[11].output.dense.bias"}, tensor<2560xf32> {jax.result_info = "result[1].bert.encoder.layers[11].output.layer_norm.weight"}, tensor<2560xf32> {jax.result_info = "result[1].bert.encoder.layers[11].output.layer_norm.bias"}, tensor<2560x2560xf32> {jax.result_info = "result[1].bert.encoder.layers[12].attention.self_attention.query.weight"}, tensor<2560xf32> {jax.result_info = "result[1].bert.encoder.layers[12].attention.self_attention.query.bias"}, tensor<2560x2560xf32> {jax.result_info = "result[1].bert.encoder.layers[12].attention.self_attention.key.weight"}, tensor<2560xf32> {jax.result_info = "result[1].bert.encoder.layers[12].attention.self_attention.key.bias"}, tensor<2560x2560xf32> {jax.result_info = "result[1].bert.encoder.layers[12].attention.self_attention.value.weight"}, tensor<2560xf32> {jax.result_info = "result[1].bert.encoder.layers[12].attention.self_attention.value.bias"}, tensor<2560x2560xf32> {jax.result_info = "result[1].bert.encoder.layers[12].attention.output.dense.weight"}, tensor<2560xf32> {jax.result_info = "result[1].bert.encoder.layers[12].attention.output.dense.bias"}, tensor<2560xf32> {jax.result_info = "result[1].bert.encoder.layers[12].attention.output.layer_norm.weight"}, tensor<2560xf32> {jax.result_info = "result[1].bert.encoder.layers[12].attention.output.layer_norm.bias"}, tensor<10240x2560xf32> {jax.result_info = "result[1].bert.encoder.layers[12].intermediate.dense.weight"}, tensor<10240xf32> {jax.result_info = "result[1].bert.encoder.layers[12].intermediate.dense.bias"}, tensor<2560x10240xf32> {jax.result_info = "result[1].bert.encoder.layers[12].output.dense.weight"}, tensor<2560xf32> {jax.result_info = "result[1].bert.encoder.layers[12].output.dense.bias"}, tensor<2560xf32> {jax.result_info = "result[1].bert.encoder.layers[12].output.layer_norm.weight"}, tensor<2560xf32> {jax.result_info = "result[1].bert.encoder.layers[12].output.layer_norm.bias"}, tensor<2560x2560xf32> {jax.result_info = "result[1].bert.encoder.layers[13].attention.self_attention.query.weight"}, tensor<2560xf32> {jax.result_info = "result[1].bert.encoder.layers[13].attention.self_attention.query.bias"}, tensor<2560x2560xf32> {jax.result_info = "result[1].bert.encoder.layers[13].attention.self_attention.key.weight"}, tensor<2560xf32> {jax.result_info = "result[1].bert.encoder.layers[13].attention.self_attention.key.bias"}, tensor<2560x2560xf32> {jax.result_info = "result[1].bert.encoder.layers[13].attention.self_attention.value.weight"}, tensor<2560xf32> {jax.result_info = "result[1].bert.encoder.layers[13].attention.self_attention.value.bias"}, tensor<2560x2560xf32> {jax.result_info = "result[1].bert.encoder.layers[13].attention.output.dense.weight"}, tensor<2560xf32> {jax.result_info = "result[1].bert.encoder.layers[13].attention.output.dense.bias"}, tensor<2560xf32> {jax.result_info = "result[1].bert.encoder.layers[13].attention.output.layer_norm.weight"}, tensor<2560xf32> {jax.result_info = "result[1].bert.encoder.layers[13].attention.output.layer_norm.bias"}, tensor<10240x2560xf32> {jax.result_info = "result[1].bert.encoder.layers[13].intermediate.dense.weight"}, tensor<10240xf32> {jax.result_info = "result[1].bert.encoder.layers[13].intermediate.dense.bias"}, tensor<2560x10240xf32> {jax.result_info = "result[1].bert.encoder.layers[13].output.dense.weight"}, tensor<2560xf32> {jax.result_info = "result[1].bert.encoder.layers[13].output.dense.bias"}, tensor<2560xf32> {jax.result_info = "result[1].bert.encoder.layers[13].output.layer_norm.weight"}, tensor<2560xf32> {jax.result_info = "result[1].bert.encoder.layers[13].output.layer_norm.bias"}, tensor<2560x2560xf32> {jax.result_info = "result[1].bert.encoder.layers[14].attention.self_attention.query.weight"}, tensor<2560xf32> {jax.result_info = "result[1].bert.encoder.layers[14].attention.self_attention.query.bias"}, tensor<2560x2560xf32> {jax.result_info = "result[1].bert.encoder.layers[14].attention.self_attention.key.weight"}, tensor<2560xf32> {jax.result_info = "result[1].bert.encoder.layers[14].attention.self_attention.key.bias"}, tensor<2560x2560xf32> {jax.result_info = "result[1].bert.encoder.layers[14].attention.self_attention.value.weight"}, tensor<2560xf32> {jax.result_info = "result[1].bert.encoder.layers[14].attention.self_attention.value.bias"}, tensor<2560x2560xf32> {jax.result_info = "result[1].bert.encoder.layers[14].attention.output.dense.weight"}, tensor<2560xf32> {jax.result_info = "result[1].bert.encoder.layers[14].attention.output.dense.bias"}, tensor<2560xf32> {jax.result_info = "result[1].bert.encoder.layers[14].attention.output.layer_norm.weight"}, tensor<2560xf32> {jax.result_info = "result[1].bert.encoder.layers[14].attention.output.layer_norm.bias"}, tensor<10240x2560xf32> {jax.result_info = "result[1].bert.encoder.layers[14].intermediate.dense.weight"}, tensor<10240xf32> {jax.result_info = "result[1].bert.encoder.layers[14].intermediate.dense.bias"}, tensor<2560x10240xf32> {jax.result_info = "result[1].bert.encoder.layers[14].output.dense.weight"}, tensor<2560xf32> {jax.result_info = "result[1].bert.encoder.layers[14].output.dense.bias"}, tensor<2560xf32> {jax.result_info = "result[1].bert.encoder.layers[14].output.layer_norm.weight"}, tensor<2560xf32> {jax.result_info = "result[1].bert.encoder.layers[14].output.layer_norm.bias"}, tensor<2560x2560xf32> {jax.result_info = "result[1].bert.encoder.layers[15].attention.self_attention.query.weight"}, tensor<2560xf32> {jax.result_info = "result[1].bert.encoder.layers[15].attention.self_attention.query.bias"}, tensor<2560x2560xf32> {jax.result_info = "result[1].bert.encoder.layers[15].attention.self_attention.key.weight"}, tensor<2560xf32> {jax.result_info = "result[1].bert.encoder.layers[15].attention.self_attention.key.bias"}, tensor<2560x2560xf32> {jax.result_info = "result[1].bert.encoder.layers[15].attention.self_attention.value.weight"}, tensor<2560xf32> {jax.result_info = "result[1].bert.encoder.layers[15].attention.self_attention.value.bias"}, tensor<2560x2560xf32> {jax.result_info = "result[1].bert.encoder.layers[15].attention.output.dense.weight"}, tensor<2560xf32> {jax.result_info = "result[1].bert.encoder.layers[15].attention.output.dense.bias"}, tensor<2560xf32> {jax.result_info = "result[1].bert.encoder.layers[15].attention.output.layer_norm.weight"}, tensor<2560xf32> {jax.result_info = "result[1].bert.encoder.layers[15].attention.output.layer_norm.bias"}, tensor<10240x2560xf32> {jax.result_info = "result[1].bert.encoder.layers[15].intermediate.dense.weight"}, tensor<10240xf32> {jax.result_info = "result[1].bert.encoder.layers[15].intermediate.dense.bias"}, tensor<2560x10240xf32> {jax.result_info = "result[1].bert.encoder.layers[15].output.dense.weight"}, tensor<2560xf32> {jax.result_info = "result[1].bert.encoder.layers[15].output.dense.bias"}, tensor<2560xf32> {jax.result_info = "result[1].bert.encoder.layers[15].output.layer_norm.weight"}, tensor<2560xf32> {jax.result_info = "result[1].bert.encoder.layers[15].output.layer_norm.bias"}, tensor<2560x2560xf32> {jax.result_info = "result[1].bert.encoder.layers[16].attention.self_attention.query.weight"}, tensor<2560xf32> {jax.result_info = "result[1].bert.encoder.layers[16].attention.self_attention.query.bias"}, tensor<2560x2560xf32> {jax.result_info = "result[1].bert.encoder.layers[16].attention.self_attention.key.weight"}, tensor<2560xf32> {jax.result_info = "result[1].bert.encoder.layers[16].attention.self_attention.key.bias"}, tensor<2560x2560xf32> {jax.result_info = "result[1].bert.encoder.layers[16].attention.self_attention.value.weight"}, tensor<2560xf32> {jax.result_info = "result[1].bert.encoder.layers[16].attention.self_attention.value.bias"}, tensor<2560x2560xf32> {jax.result_info = "result[1].bert.encoder.layers[16].attention.output.dense.weight"}, tensor<2560xf32> {jax.result_info = "result[1].bert.encoder.layers[16].attention.output.dense.bias"}, tensor<2560xf32> {jax.result_info = "result[1].bert.encoder.layers[16].attention.output.layer_norm.weight"}, tensor<2560xf32> {jax.result_info = "result[1].bert.encoder.layers[16].attention.output.layer_norm.bias"}, tensor<10240x2560xf32> {jax.result_info = "result[1].bert.encoder.layers[16].intermediate.dense.weight"}, tensor<10240xf32> {jax.result_info = "result[1].bert.encoder.layers[16].intermediate.dense.bias"}, tensor<2560x10240xf32> {jax.result_info = "result[1].bert.encoder.layers[16].output.dense.weight"}, tensor<2560xf32> {jax.result_info = "result[1].bert.encoder.layers[16].output.dense.bias"}, tensor<2560xf32> {jax.result_info = "result[1].bert.encoder.layers[16].output.layer_norm.weight"}, tensor<2560xf32> {jax.result_info = "result[1].bert.encoder.layers[16].output.layer_norm.bias"}, tensor<2560x2560xf32> {jax.result_info = "result[1].bert.encoder.layers[17].attention.self_attention.query.weight"}, tensor<2560xf32> {jax.result_info = "result[1].bert.encoder.layers[17].attention.self_attention.query.bias"}, tensor<2560x2560xf32> {jax.result_info = "result[1].bert.encoder.layers[17].attention.self_attention.key.weight"}, tensor<2560xf32> {jax.result_info = "result[1].bert.encoder.layers[17].attention.self_attention.key.bias"}, tensor<2560x2560xf32> {jax.result_info = "result[1].bert.encoder.layers[17].attention.self_attention.value.weight"}, tensor<2560xf32> {jax.result_info = "result[1].bert.encoder.layers[17].attention.self_attention.value.bias"}, tensor<2560x2560xf32> {jax.result_info = "result[1].bert.encoder.layers[17].attention.output.dense.weight"}, tensor<2560xf32> {jax.result_info = "result[1].bert.encoder.layers[17].attention.output.dense.bias"}, tensor<2560xf32> {jax.result_info = "result[1].bert.encoder.layers[17].attention.output.layer_norm.weight"}, tensor<2560xf32> {jax.result_info = "result[1].bert.encoder.layers[17].attention.output.layer_norm.bias"}, tensor<10240x2560xf32> {jax.result_info = "result[1].bert.encoder.layers[17].intermediate.dense.weight"}, tensor<10240xf32> {jax.result_info = "result[1].bert.encoder.layers[17].intermediate.dense.bias"}, tensor<2560x10240xf32> {jax.result_info = "result[1].bert.encoder.layers[17].output.dense.weight"}, tensor<2560xf32> {jax.result_info = "result[1].bert.encoder.layers[17].output.dense.bias"}, tensor<2560xf32> {jax.result_info = "result[1].bert.encoder.layers[17].output.layer_norm.weight"}, tensor<2560xf32> {jax.result_info = "result[1].bert.encoder.layers[17].output.layer_norm.bias"}, tensor<2560x2560xf32> {jax.result_info = "result[1].bert.encoder.layers[18].attention.self_attention.query.weight"}, tensor<2560xf32> {jax.result_info = "result[1].bert.encoder.layers[18].attention.self_attention.query.bias"}, tensor<2560x2560xf32> {jax.result_info = "result[1].bert.encoder.layers[18].attention.self_attention.key.weight"}, tensor<2560xf32> {jax.result_info = "result[1].bert.encoder.layers[18].attention.self_attention.key.bias"}, tensor<2560x2560xf32> {jax.result_info = "result[1].bert.encoder.layers[18].attention.self_attention.value.weight"}, tensor<2560xf32> {jax.result_info = "result[1].bert.encoder.layers[18].attention.self_attention.value.bias"}, tensor<2560x2560xf32> {jax.result_info = "result[1].bert.encoder.layers[18].attention.output.dense.weight"}, tensor<2560xf32> {jax.result_info = "result[1].bert.encoder.layers[18].attention.output.dense.bias"}, tensor<2560xf32> {jax.result_info = "result[1].bert.encoder.layers[18].attention.output.layer_norm.weight"}, tensor<2560xf32> {jax.result_info = "result[1].bert.encoder.layers[18].attention.output.layer_norm.bias"}, tensor<10240x2560xf32> {jax.result_info = "result[1].bert.encoder.layers[18].intermediate.dense.weight"}, tensor<10240xf32> {jax.result_info = "result[1].bert.encoder.layers[18].intermediate.dense.bias"}, tensor<2560x10240xf32> {jax.result_info = "result[1].bert.encoder.layers[18].output.dense.weight"}, tensor<2560xf32> {jax.result_info = "result[1].bert.encoder.layers[18].output.dense.bias"}, tensor<2560xf32> {jax.result_info = "result[1].bert.encoder.layers[18].output.layer_norm.weight"}, tensor<2560xf32> {jax.result_info = "result[1].bert.encoder.layers[18].output.layer_norm.bias"}, tensor<2560x2560xf32> {jax.result_info = "result[1].bert.encoder.layers[19].attention.self_attention.query.weight"}, tensor<2560xf32> {jax.result_info = "result[1].bert.encoder.layers[19].attention.self_attention.query.bias"}, tensor<2560x2560xf32> {jax.result_info = "result[1].bert.encoder.layers[19].attention.self_attention.key.weight"}, tensor<2560xf32> {jax.result_info = "result[1].bert.encoder.layers[19].attention.self_attention.key.bias"}, tensor<2560x2560xf32> {jax.result_info = "result[1].bert.encoder.layers[19].attention.self_attention.value.weight"}, tensor<2560xf32> {jax.result_info = "result[1].bert.encoder.layers[19].attention.self_attention.value.bias"}, tensor<2560x2560xf32> {jax.result_info = "result[1].bert.encoder.layers[19].attention.output.dense.weight"}, tensor<2560xf32> {jax.result_info = "result[1].bert.encoder.layers[19].attention.output.dense.bias"}, tensor<2560xf32> {jax.result_info = "result[1].bert.encoder.layers[19].attention.output.layer_norm.weight"}, tensor<2560xf32> {jax.result_info = "result[1].bert.encoder.layers[19].attention.output.layer_norm.bias"}, tensor<10240x2560xf32> {jax.result_info = "result[1].bert.encoder.layers[19].intermediate.dense.weight"}, tensor<10240xf32> {jax.result_info = "result[1].bert.encoder.layers[19].intermediate.dense.bias"}, tensor<2560x10240xf32> {jax.result_info = "result[1].bert.encoder.layers[19].output.dense.weight"}, tensor<2560xf32> {jax.result_info = "result[1].bert.encoder.layers[19].output.dense.bias"}, tensor<2560xf32> {jax.result_info = "result[1].bert.encoder.layers[19].output.layer_norm.weight"}, tensor<2560xf32> {jax.result_info = "result[1].bert.encoder.layers[19].output.layer_norm.bias"}, tensor<2560x2560xf32> {jax.result_info = "result[1].bert.encoder.layers[20].attention.self_attention.query.weight"}, tensor<2560xf32> {jax.result_info = "result[1].bert.encoder.layers[20].attention.self_attention.query.bias"}, tensor<2560x2560xf32> {jax.result_info = "result[1].bert.encoder.layers[20].attention.self_attention.key.weight"}, tensor<2560xf32> {jax.result_info = "result[1].bert.encoder.layers[20].attention.self_attention.key.bias"}, tensor<2560x2560xf32> {jax.result_info = "result[1].bert.encoder.layers[20].attention.self_attention.value.weight"}, tensor<2560xf32> {jax.result_info = "result[1].bert.encoder.layers[20].attention.self_attention.value.bias"}, tensor<2560x2560xf32> {jax.result_info = "result[1].bert.encoder.layers[20].attention.output.dense.weight"}, tensor<2560xf32> {jax.result_info = "result[1].bert.encoder.layers[20].attention.output.dense.bias"}, tensor<2560xf32> {jax.result_info = "result[1].bert.encoder.layers[20].attention.output.layer_norm.weight"}, tensor<2560xf32> {jax.result_info = "result[1].bert.encoder.layers[20].attention.output.layer_norm.bias"}, tensor<10240x2560xf32> {jax.result_info = "result[1].bert.encoder.layers[20].intermediate.dense.weight"}, tensor<10240xf32> {jax.result_info = "result[1].bert.encoder.layers[20].intermediate.dense.bias"}, tensor<2560x10240xf32> {jax.result_info = "result[1].bert.encoder.layers[20].output.dense.weight"}, tensor<2560xf32> {jax.result_info = "result[1].bert.encoder.layers[20].output.dense.bias"}, tensor<2560xf32> {jax.result_info = "result[1].bert.encoder.layers[20].output.layer_norm.weight"}, tensor<2560xf32> {jax.result_info = "result[1].bert.encoder.layers[20].output.layer_norm.bias"}, tensor<2560x2560xf32> {jax.result_info = "result[1].bert.encoder.layers[21].attention.self_attention.query.weight"}, tensor<2560xf32> {jax.result_info = "result[1].bert.encoder.layers[21].attention.self_attention.query.bias"}, tensor<2560x2560xf32> {jax.result_info = "result[1].bert.encoder.layers[21].attention.self_attention.key.weight"}, tensor<2560xf32> {jax.result_info = "result[1].bert.encoder.layers[21].attention.self_attention.key.bias"}, tensor<2560x2560xf32> {jax.result_info = "result[1].bert.encoder.layers[21].attention.self_attention.value.weight"}, tensor<2560xf32> {jax.result_info = "result[1].bert.encoder.layers[21].attention.self_attention.value.bias"}, tensor<2560x2560xf32> {jax.result_info = "result[1].bert.encoder.layers[21].attention.output.dense.weight"}, tensor<2560xf32> {jax.result_info = "result[1].bert.encoder.layers[21].attention.output.dense.bias"}, tensor<2560xf32> {jax.result_info = "result[1].bert.encoder.layers[21].attention.output.layer_norm.weight"}, tensor<2560xf32> {jax.result_info = "result[1].bert.encoder.layers[21].attention.output.layer_norm.bias"}, tensor<10240x2560xf32> {jax.result_info = "result[1].bert.encoder.layers[21].intermediate.dense.weight"}, tensor<10240xf32> {jax.result_info = "result[1].bert.encoder.layers[21].intermediate.dense.bias"}, tensor<2560x10240xf32> {jax.result_info = "result[1].bert.encoder.layers[21].output.dense.weight"}, tensor<2560xf32> {jax.result_info = "result[1].bert.encoder.layers[21].output.dense.bias"}, tensor<2560xf32> {jax.result_info = "result[1].bert.encoder.layers[21].output.layer_norm.weight"}, tensor<2560xf32> {jax.result_info = "result[1].bert.encoder.layers[21].output.layer_norm.bias"}, tensor<2560x2560xf32> {jax.result_info = "result[1].bert.encoder.layers[22].attention.self_attention.query.weight"}, tensor<2560xf32> {jax.result_info = "result[1].bert.encoder.layers[22].attention.self_attention.query.bias"}, tensor<2560x2560xf32> {jax.result_info = "result[1].bert.encoder.layers[22].attention.self_attention.key.weight"}, tensor<2560xf32> {jax.result_info = "result[1].bert.encoder.layers[22].attention.self_attention.key.bias"}, tensor<2560x2560xf32> {jax.result_info = "result[1].bert.encoder.layers[22].attention.self_attention.value.weight"}, tensor<2560xf32> {jax.result_info = "result[1].bert.encoder.layers[22].attention.self_attention.value.bias"}, tensor<2560x2560xf32> {jax.result_info = "result[1].bert.encoder.layers[22].attention.output.dense.weight"}, tensor<2560xf32> {jax.result_info = "result[1].bert.encoder.layers[22].attention.output.dense.bias"}, tensor<2560xf32> {jax.result_info = "result[1].bert.encoder.layers[22].attention.output.layer_norm.weight"}, tensor<2560xf32> {jax.result_info = "result[1].bert.encoder.layers[22].attention.output.layer_norm.bias"}, tensor<10240x2560xf32> {jax.result_info = "result[1].bert.encoder.layers[22].intermediate.dense.weight"}, tensor<10240xf32> {jax.result_info = "result[1].bert.encoder.layers[22].intermediate.dense.bias"}, tensor<2560x10240xf32> {jax.result_info = "result[1].bert.encoder.layers[22].output.dense.weight"}, tensor<2560xf32> {jax.result_info = "result[1].bert.encoder.layers[22].output.dense.bias"}, tensor<2560xf32> {jax.result_info = "result[1].bert.encoder.layers[22].output.layer_norm.weight"}, tensor<2560xf32> {jax.result_info = "result[1].bert.encoder.layers[22].output.layer_norm.bias"}, tensor<2560x2560xf32> {jax.result_info = "result[1].bert.encoder.layers[23].attention.self_attention.query.weight"}, tensor<2560xf32> {jax.result_info = "result[1].bert.encoder.layers[23].attention.self_attention.query.bias"}, tensor<2560x2560xf32> {jax.result_info = "result[1].bert.encoder.layers[23].attention.self_attention.key.weight"}, tensor<2560xf32> {jax.result_info = "result[1].bert.encoder.layers[23].attention.self_attention.key.bias"}, tensor<2560x2560xf32> {jax.result_info = "result[1].bert.encoder.layers[23].attention.self_attention.value.weight"}, tensor<2560xf32> {jax.result_info = "result[1].bert.encoder.layers[23].attention.self_attention.value.bias"}, tensor<2560x2560xf32> {jax.result_info = "result[1].bert.encoder.layers[23].attention.output.dense.weight"}, tensor<2560xf32> {jax.result_info = "result[1].bert.encoder.layers[23].attention.output.dense.bias"}, tensor<2560xf32> {jax.result_info = "result[1].bert.encoder.layers[23].attention.output.layer_norm.weight"}, tensor<2560xf32> {jax.result_info = "result[1].bert.encoder.layers[23].attention.output.layer_norm.bias"}, tensor<10240x2560xf32> {jax.result_info = "result[1].bert.encoder.layers[23].intermediate.dense.weight"}, tensor<10240xf32> {jax.result_info = "result[1].bert.encoder.layers[23].intermediate.dense.bias"}, tensor<2560x10240xf32> {jax.result_info = "result[1].bert.encoder.layers[23].output.dense.weight"}, tensor<2560xf32> {jax.result_info = "result[1].bert.encoder.layers[23].output.dense.bias"}, tensor<2560xf32> {jax.result_info = "result[1].bert.encoder.layers[23].output.layer_norm.weight"}, tensor<2560xf32> {jax.result_info = "result[1].bert.encoder.layers[23].output.layer_norm.bias"}, tensor<2560x2560xf32> {jax.result_info = "result[1].bert.encoder.layers[24].attention.self_attention.query.weight"}, tensor<2560xf32> {jax.result_info = "result[1].bert.encoder.layers[24].attention.self_attention.query.bias"}, tensor<2560x2560xf32> {jax.result_info = "result[1].bert.encoder.layers[24].attention.self_attention.key.weight"}, tensor<2560xf32> {jax.result_info = "result[1].bert.encoder.layers[24].attention.self_attention.key.bias"}, tensor<2560x2560xf32> {jax.result_info = "result[1].bert.encoder.layers[24].attention.self_attention.value.weight"}, tensor<2560xf32> {jax.result_info = "result[1].bert.encoder.layers[24].attention.self_attention.value.bias"}, tensor<2560x2560xf32> {jax.result_info = "result[1].bert.encoder.layers[24].attention.output.dense.weight"}, tensor<2560xf32> {jax.result_info = "result[1].bert.encoder.layers[24].attention.output.dense.bias"}, tensor<2560xf32> {jax.result_info = "result[1].bert.encoder.layers[24].attention.output.layer_norm.weight"}, tensor<2560xf32> {jax.result_info = "result[1].bert.encoder.layers[24].attention.output.layer_norm.bias"}, tensor<10240x2560xf32> {jax.result_info = "result[1].bert.encoder.layers[24].intermediate.dense.weight"}, tensor<10240xf32> {jax.result_info = "result[1].bert.encoder.layers[24].intermediate.dense.bias"}, tensor<2560x10240xf32> {jax.result_info = "result[1].bert.encoder.layers[24].output.dense.weight"}, tensor<2560xf32> {jax.result_info = "result[1].bert.encoder.layers[24].output.dense.bias"}, tensor<2560xf32> {jax.result_info = "result[1].bert.encoder.layers[24].output.layer_norm.weight"}, tensor<2560xf32> {jax.result_info = "result[1].bert.encoder.layers[24].output.layer_norm.bias"}, tensor<2560x2560xf32> {jax.result_info = "result[1].bert.encoder.layers[25].attention.self_attention.query.weight"}, tensor<2560xf32> {jax.result_info = "result[1].bert.encoder.layers[25].attention.self_attention.query.bias"}, tensor<2560x2560xf32> {jax.result_info = "result[1].bert.encoder.layers[25].attention.self_attention.key.weight"}, tensor<2560xf32> {jax.result_info = "result[1].bert.encoder.layers[25].attention.self_attention.key.bias"}, tensor<2560x2560xf32> {jax.result_info = "result[1].bert.encoder.layers[25].attention.self_attention.value.weight"}, tensor<2560xf32> {jax.result_info = "result[1].bert.encoder.layers[25].attention.self_attention.value.bias"}, tensor<2560x2560xf32> {jax.result_info = "result[1].bert.encoder.layers[25].attention.output.dense.weight"}, tensor<2560xf32> {jax.result_info = "result[1].bert.encoder.layers[25].attention.output.dense.bias"}, tensor<2560xf32> {jax.result_info = "result[1].bert.encoder.layers[25].attention.output.layer_norm.weight"}, tensor<2560xf32> {jax.result_info = "result[1].bert.encoder.layers[25].attention.output.layer_norm.bias"}, tensor<10240x2560xf32> {jax.result_info = "result[1].bert.encoder.layers[25].intermediate.dense.weight"}, tensor<10240xf32> {jax.result_info = "result[1].bert.encoder.layers[25].intermediate.dense.bias"}, tensor<2560x10240xf32> {jax.result_info = "result[1].bert.encoder.layers[25].output.dense.weight"}, tensor<2560xf32> {jax.result_info = "result[1].bert.encoder.layers[25].output.dense.bias"}, tensor<2560xf32> {jax.result_info = "result[1].bert.encoder.layers[25].output.layer_norm.weight"}, tensor<2560xf32> {jax.result_info = "result[1].bert.encoder.layers[25].output.layer_norm.bias"}, tensor<2560x2560xf32> {jax.result_info = "result[1].bert.encoder.layers[26].attention.self_attention.query.weight"}, tensor<2560xf32> {jax.result_info = "result[1].bert.encoder.layers[26].attention.self_attention.query.bias"}, tensor<2560x2560xf32> {jax.result_info = "result[1].bert.encoder.layers[26].attention.self_attention.key.weight"}, tensor<2560xf32> {jax.result_info = "result[1].bert.encoder.layers[26].attention.self_attention.key.bias"}, tensor<2560x2560xf32> {jax.result_info = "result[1].bert.encoder.layers[26].attention.self_attention.value.weight"}, tensor<2560xf32> {jax.result_info = "result[1].bert.encoder.layers[26].attention.self_attention.value.bias"}, tensor<2560x2560xf32> {jax.result_info = "result[1].bert.encoder.layers[26].attention.output.dense.weight"}, tensor<2560xf32> {jax.result_info = "result[1].bert.encoder.layers[26].attention.output.dense.bias"}, tensor<2560xf32> {jax.result_info = "result[1].bert.encoder.layers[26].attention.output.layer_norm.weight"}, tensor<2560xf32> {jax.result_info = "result[1].bert.encoder.layers[26].attention.output.layer_norm.bias"}, tensor<10240x2560xf32> {jax.result_info = "result[1].bert.encoder.layers[26].intermediate.dense.weight"}, tensor<10240xf32> {jax.result_info = "result[1].bert.encoder.layers[26].intermediate.dense.bias"}, tensor<2560x10240xf32> {jax.result_info = "result[1].bert.encoder.layers[26].output.dense.weight"}, tensor<2560xf32> {jax.result_info = "result[1].bert.encoder.layers[26].output.dense.bias"}, tensor<2560xf32> {jax.result_info = "result[1].bert.encoder.layers[26].output.layer_norm.weight"}, tensor<2560xf32> {jax.result_info = "result[1].bert.encoder.layers[26].output.layer_norm.bias"}, tensor<2560x2560xf32> {jax.result_info = "result[1].bert.encoder.layers[27].attention.self_attention.query.weight"}, tensor<2560xf32> {jax.result_info = "result[1].bert.encoder.layers[27].attention.self_attention.query.bias"}, tensor<2560x2560xf32> {jax.result_info = "result[1].bert.encoder.layers[27].attention.self_attention.key.weight"}, tensor<2560xf32> {jax.result_info = "result[1].bert.encoder.layers[27].attention.self_attention.key.bias"}, tensor<2560x2560xf32> {jax.result_info = "result[1].bert.encoder.layers[27].attention.self_attention.value.weight"}, tensor<2560xf32> {jax.result_info = "result[1].bert.encoder.layers[27].attention.self_attention.value.bias"}, tensor<2560x2560xf32> {jax.result_info = "result[1].bert.encoder.layers[27].attention.output.dense.weight"}, tensor<2560xf32> {jax.result_info = "result[1].bert.encoder.layers[27].attention.output.dense.bias"}, tensor<2560xf32> {jax.result_info = "result[1].bert.encoder.layers[27].attention.output.layer_norm.weight"}, tensor<2560xf32> {jax.result_info = "result[1].bert.encoder.layers[27].attention.output.layer_norm.bias"}, tensor<10240x2560xf32> {jax.result_info = "result[1].bert.encoder.layers[27].intermediate.dense.weight"}, tensor<10240xf32> {jax.result_info = "result[1].bert.encoder.layers[27].intermediate.dense.bias"}, tensor<2560x10240xf32> {jax.result_info = "result[1].bert.encoder.layers[27].output.dense.weight"}, tensor<2560xf32> {jax.result_info = "result[1].bert.encoder.layers[27].output.dense.bias"}, tensor<2560xf32> {jax.result_info = "result[1].bert.encoder.layers[27].output.layer_norm.weight"}, tensor<2560xf32> {jax.result_info = "result[1].bert.encoder.layers[27].output.layer_norm.bias"}, tensor<2560x2560xf32> {jax.result_info = "result[1].bert.encoder.layers[28].attention.self_attention.query.weight"}, tensor<2560xf32> {jax.result_info = "result[1].bert.encoder.layers[28].attention.self_attention.query.bias"}, tensor<2560x2560xf32> {jax.result_info = "result[1].bert.encoder.layers[28].attention.self_attention.key.weight"}, tensor<2560xf32> {jax.result_info = "result[1].bert.encoder.layers[28].attention.self_attention.key.bias"}, tensor<2560x2560xf32> {jax.result_info = "result[1].bert.encoder.layers[28].attention.self_attention.value.weight"}, tensor<2560xf32> {jax.result_info = "result[1].bert.encoder.layers[28].attention.self_attention.value.bias"}, tensor<2560x2560xf32> {jax.result_info = "result[1].bert.encoder.layers[28].attention.output.dense.weight"}, tensor<2560xf32> {jax.result_info = "result[1].bert.encoder.layers[28].attention.output.dense.bias"}, tensor<2560xf32> {jax.result_info = "result[1].bert.encoder.layers[28].attention.output.layer_norm.weight"}, tensor<2560xf32> {jax.result_info = "result[1].bert.encoder.layers[28].attention.output.layer_norm.bias"}, tensor<10240x2560xf32> {jax.result_info = "result[1].bert.encoder.layers[28].intermediate.dense.weight"}, tensor<10240xf32> {jax.result_info = "result[1].bert.encoder.layers[28].intermediate.dense.bias"}, tensor<2560x10240xf32> {jax.result_info = "result[1].bert.encoder.layers[28].output.dense.weight"}, tensor<2560xf32> {jax.result_info = "result[1].bert.encoder.layers[28].output.dense.bias"}, tensor<2560xf32> {jax.result_info = "result[1].bert.encoder.layers[28].output.layer_norm.weight"}, tensor<2560xf32> {jax.result_info = "result[1].bert.encoder.layers[28].output.layer_norm.bias"}, tensor<2560x2560xf32> {jax.result_info = "result[1].bert.encoder.layers[29].attention.self_attention.query.weight"}, tensor<2560xf32> {jax.result_info = "result[1].bert.encoder.layers[29].attention.self_attention.query.bias"}, tensor<2560x2560xf32> {jax.result_info = "result[1].bert.encoder.layers[29].attention.self_attention.key.weight"}, tensor<2560xf32> {jax.result_info = "result[1].bert.encoder.layers[29].attention.self_attention.key.bias"}, tensor<2560x2560xf32> {jax.result_info = "result[1].bert.encoder.layers[29].attention.self_attention.value.weight"}, tensor<2560xf32> {jax.result_info = "result[1].bert.encoder.layers[29].attention.self_attention.value.bias"}, tensor<2560x2560xf32> {jax.result_info = "result[1].bert.encoder.layers[29].attention.output.dense.weight"}, tensor<2560xf32> {jax.result_info = "result[1].bert.encoder.layers[29].attention.output.dense.bias"}, tensor<2560xf32> {jax.result_info = "result[1].bert.encoder.layers[29].attention.output.layer_norm.weight"}, tensor<2560xf32> {jax.result_info = "result[1].bert.encoder.layers[29].attention.output.layer_norm.bias"}, tensor<10240x2560xf32> {jax.result_info = "result[1].bert.encoder.layers[29].intermediate.dense.weight"}, tensor<10240xf32> {jax.result_info = "result[1].bert.encoder.layers[29].intermediate.dense.bias"}, tensor<2560x10240xf32> {jax.result_info = "result[1].bert.encoder.layers[29].output.dense.weight"}, tensor<2560xf32> {jax.result_info = "result[1].bert.encoder.layers[29].output.dense.bias"}, tensor<2560xf32> {jax.result_info = "result[1].bert.encoder.layers[29].output.layer_norm.weight"}, tensor<2560xf32> {jax.result_info = "result[1].bert.encoder.layers[29].output.layer_norm.bias"}, tensor<2560x2560xf32> {jax.result_info = "result[1].bert.encoder.layers[30].attention.self_attention.query.weight"}, tensor<2560xf32> {jax.result_info = "result[1].bert.encoder.layers[30].attention.self_attention.query.bias"}, tensor<2560x2560xf32> {jax.result_info = "result[1].bert.encoder.layers[30].attention.self_attention.key.weight"}, tensor<2560xf32> {jax.result_info = "result[1].bert.encoder.layers[30].attention.self_attention.key.bias"}, tensor<2560x2560xf32> {jax.result_info = "result[1].bert.encoder.layers[30].attention.self_attention.value.weight"}, tensor<2560xf32> {jax.result_info = "result[1].bert.encoder.layers[30].attention.self_attention.value.bias"}, tensor<2560x2560xf32> {jax.result_info = "result[1].bert.encoder.layers[30].attention.output.dense.weight"}, tensor<2560xf32> {jax.result_info = "result[1].bert.encoder.layers[30].attention.output.dense.bias"}, tensor<2560xf32> {jax.result_info = "result[1].bert.encoder.layers[30].attention.output.layer_norm.weight"}, tensor<2560xf32> {jax.result_info = "result[1].bert.encoder.layers[30].attention.output.layer_norm.bias"}, tensor<10240x2560xf32> {jax.result_info = "result[1].bert.encoder.layers[30].intermediate.dense.weight"}, tensor<10240xf32> {jax.result_info = "result[1].bert.encoder.layers[30].intermediate.dense.bias"}, tensor<2560x10240xf32> {jax.result_info = "result[1].bert.encoder.layers[30].output.dense.weight"}, tensor<2560xf32> {jax.result_info = "result[1].bert.encoder.layers[30].output.dense.bias"}, tensor<2560xf32> {jax.result_info = "result[1].bert.encoder.layers[30].output.layer_norm.weight"}, tensor<2560xf32> {jax.result_info = "result[1].bert.encoder.layers[30].output.layer_norm.bias"}, tensor<2560x2560xf32> {jax.result_info = "result[1].bert.encoder.layers[31].attention.self_attention.query.weight"}, tensor<2560xf32> {jax.result_info = "result[1].bert.encoder.layers[31].attention.self_attention.query.bias"}, tensor<2560x2560xf32> {jax.result_info = "result[1].bert.encoder.layers[31].attention.self_attention.key.weight"}, tensor<2560xf32> {jax.result_info = "result[1].bert.encoder.layers[31].attention.self_attention.key.bias"}, tensor<2560x2560xf32> {jax.result_info = "result[1].bert.encoder.layers[31].attention.self_attention.value.weight"}, tensor<2560xf32> {jax.result_info = "result[1].bert.encoder.layers[31].attention.self_attention.value.bias"}, tensor<2560x2560xf32> {jax.result_info = "result[1].bert.encoder.layers[31].attention.output.dense.weight"}, tensor<2560xf32> {jax.result_info = "result[1].bert.encoder.layers[31].attention.output.dense.bias"}, tensor<2560xf32> {jax.result_info = "result[1].bert.encoder.layers[31].attention.output.layer_norm.weight"}, tensor<2560xf32> {jax.result_info = "result[1].bert.encoder.layers[31].attention.output.layer_norm.bias"}, tensor<10240x2560xf32> {jax.result_info = "result[1].bert.encoder.layers[31].intermediate.dense.weight"}, tensor<10240xf32> {jax.result_info = "result[1].bert.encoder.layers[31].intermediate.dense.bias"}, tensor<2560x10240xf32> {jax.result_info = "result[1].bert.encoder.layers[31].output.dense.weight"}, tensor<2560xf32> {jax.result_info = "result[1].bert.encoder.layers[31].output.dense.bias"}, tensor<2560xf32> {jax.result_info = "result[1].bert.encoder.layers[31].output.layer_norm.weight"}, tensor<2560xf32> {jax.result_info = "result[1].bert.encoder.layers[31].output.layer_norm.bias"}, tensor<2560x2560xf32> {jax.result_info = "result[1].mlm_head.dense.weight"}, tensor<2560xf32> {jax.result_info = "result[1].mlm_head.dense.bias"}, tensor<2560xf32> {jax.result_info = "result[1].mlm_head.layer_norm.weight"}, tensor<2560xf32> {jax.result_info = "result[1].mlm_head.layer_norm.bias"}, tensor<30522x2560xf32> {jax.result_info = "result[1].mlm_head.lm_head.pytree[0].weight"}, tensor<30522xf32> {jax.result_info = "result[1].mlm_head.bias"}) {
    %0 = sdy.sharding_constraint %arg0 <@empty_mesh, [{}]> : tensor<2xui32>
    %1 = call @_threefry_split(%0) : (tensor<2xui32>) -> tensor<2x2xui32>
    %2 = stablehlo.slice %1 [0:1, 0:2] : (tensor<2x2xui32>) -> tensor<1x2xui32>
    %3 = stablehlo.reshape %2 : (tensor<1x2xui32>) -> tensor<2xui32>
    %4 = stablehlo.slice %1 [1:2, 0:2] : (tensor<2x2xui32>) -> tensor<1x2xui32>
    %5 = stablehlo.reshape %4 : (tensor<1x2xui32>) -> tensor<2xui32>
    %6 = call @_threefry_split(%3) : (tensor<2xui32>) -> tensor<2x2xui32>
    %7 = stablehlo.slice %6 [0:1, 0:2] : (tensor<2x2xui32>) -> tensor<1x2xui32>
    %8 = stablehlo.reshape %7 : (tensor<1x2xui32>) -> tensor<2xui32>
    %9 = stablehlo.slice %6 [1:2, 0:2] : (tensor<2x2xui32>) -> tensor<1x2xui32>
    %10 = stablehlo.reshape %9 : (tensor<1x2xui32>) -> tensor<2xui32>
    %11 = call @_threefry_split_7(%8) : (tensor<2xui32>) -> tensor<4x2xui32>
    %12 = stablehlo.slice %11 [0:1, 0:2] : (tensor<4x2xui32>) -> tensor<1x2xui32>
    %13 = stablehlo.reshape %12 : (tensor<1x2xui32>) -> tensor<2xui32>
    %14 = stablehlo.slice %11 [1:2, 0:2] : (tensor<4x2xui32>) -> tensor<1x2xui32>
    %15 = stablehlo.reshape %14 : (tensor<1x2xui32>) -> tensor<2xui32>
    %16 = stablehlo.slice %11 [2:3, 0:2] : (tensor<4x2xui32>) -> tensor<1x2xui32>
    %17 = stablehlo.reshape %16 : (tensor<1x2xui32>) -> tensor<2xui32>
    %18 = call @_normal(%13) : (tensor<2xui32>) -> tensor<30522x2560xf32>
    %cst = stablehlo.constant dense<0.00999999977> : tensor<f32>
    %19 = stablehlo.broadcast_in_dim %cst, dims = [] : (tensor<f32>) -> tensor<30522x2560xf32>
    %20 = stablehlo.multiply %18, %19 : tensor<30522x2560xf32>
    %21 = call @_normal_35(%15) : (tensor<2xui32>) -> tensor<512x2560xf32>
    %cst_0 = stablehlo.constant dense<0.00999999977> : tensor<f32>
    %22 = stablehlo.broadcast_in_dim %cst_0, dims = [] : (tensor<f32>) -> tensor<512x2560xf32>
    %23 = stablehlo.multiply %21, %22 : tensor<512x2560xf32>
    %24 = call @_normal_56(%17) : (tensor<2xui32>) -> tensor<2x2560xf32>
    %cst_1 = stablehlo.constant dense<0.00999999977> : tensor<f32>
    %25 = stablehlo.broadcast_in_dim %cst_1, dims = [] : (tensor<f32>) -> tensor<2x2560xf32>
    %26 = stablehlo.multiply %24, %25 : tensor<2x2560xf32>
    %cst_2 = stablehlo.constant dense<1.000000e+00> : tensor<f32>
    %27 = stablehlo.broadcast_in_dim %cst_2, dims = [] : (tensor<f32>) -> tensor<2560xf32>
    %cst_3 = stablehlo.constant dense<0.000000e+00> : tensor<f32>
    %28 = stablehlo.broadcast_in_dim %cst_3, dims = [] : (tensor<f32>) -> tensor<2560xf32>
    %29 = call @_threefry_split_79(%10) : (tensor<2xui32>) -> tensor<32x2xui32>
    %30 = stablehlo.slice %29 [0:1, 0:2] : (tensor<32x2xui32>) -> tensor<1x2xui32>
    %31 = stablehlo.reshape %30 : (tensor<1x2xui32>) -> tensor<2xui32>
    %32 = call @_threefry_split_92(%31) : (tensor<2xui32>) -> tensor<3x2xui32>
    %33 = stablehlo.slice %32 [0:1, 0:2] : (tensor<3x2xui32>) -> tensor<1x2xui32>
    %34 = stablehlo.reshape %33 : (tensor<1x2xui32>) -> tensor<2xui32>
    %35 = stablehlo.slice %32 [1:2, 0:2] : (tensor<3x2xui32>) -> tensor<1x2xui32>
    %36 = stablehlo.reshape %35 : (tensor<1x2xui32>) -> tensor<2xui32>
    %37 = stablehlo.slice %32 [2:3, 0:2] : (tensor<3x2xui32>) -> tensor<1x2xui32>
    %38 = stablehlo.reshape %37 : (tensor<1x2xui32>) -> tensor<2xui32>
    %39 = call @_threefry_split(%34) : (tensor<2xui32>) -> tensor<2x2xui32>
    %40 = stablehlo.slice %39 [0:1, 0:2] : (tensor<2x2xui32>) -> tensor<1x2xui32>
    %41 = stablehlo.reshape %40 : (tensor<1x2xui32>) -> tensor<2xui32>
    %42 = stablehlo.slice %39 [1:2, 0:2] : (tensor<2x2xui32>) -> tensor<1x2xui32>
    %43 = stablehlo.reshape %42 : (tensor<1x2xui32>) -> tensor<2xui32>
    %44 = call @_threefry_split_92(%41) : (tensor<2xui32>) -> tensor<3x2xui32>
    %45 = stablehlo.slice %44 [0:1, 0:2] : (tensor<3x2xui32>) -> tensor<1x2xui32>
    %46 = stablehlo.reshape %45 : (tensor<1x2xui32>) -> tensor<2xui32>
    %47 = stablehlo.slice %44 [1:2, 0:2] : (tensor<3x2xui32>) -> tensor<1x2xui32>
    %48 = stablehlo.reshape %47 : (tensor<1x2xui32>) -> tensor<2xui32>
    %49 = stablehlo.slice %44 [2:3, 0:2] : (tensor<3x2xui32>) -> tensor<1x2xui32>
    %50 = stablehlo.reshape %49 : (tensor<1x2xui32>) -> tensor<2xui32>
    %51 = call @_threefry_split(%46) : (tensor<2xui32>) -> tensor<2x2xui32>
    %52 = stablehlo.slice %51 [0:1, 0:2] : (tensor<2x2xui32>) -> tensor<1x2xui32>
    %53 = stablehlo.reshape %52 : (tensor<1x2xui32>) -> tensor<2xui32>
    %54 = call @_normal_106(%53) : (tensor<2xui32>) -> tensor<2560x2560xf32>
    %cst_4 = stablehlo.constant dense<0.00999999977> : tensor<f32>
    %55 = stablehlo.broadcast_in_dim %cst_4, dims = [] : (tensor<f32>) -> tensor<2560x2560xf32>
    %56 = stablehlo.multiply %54, %55 : tensor<2560x2560xf32>
    %cst_5 = stablehlo.constant dense<0.000000e+00> : tensor<f32>
    %57 = stablehlo.broadcast_in_dim %cst_5, dims = [] : (tensor<f32>) -> tensor<2560xf32>
    %58 = call @_threefry_split(%48) : (tensor<2xui32>) -> tensor<2x2xui32>
    %59 = stablehlo.slice %58 [0:1, 0:2] : (tensor<2x2xui32>) -> tensor<1x2xui32>
    %60 = stablehlo.reshape %59 : (tensor<1x2xui32>) -> tensor<2xui32>
    %61 = call @_normal_106(%60) : (tensor<2xui32>) -> tensor<2560x2560xf32>
    %cst_6 = stablehlo.constant dense<0.00999999977> : tensor<f32>
    %62 = stablehlo.broadcast_in_dim %cst_6, dims = [] : (tensor<f32>) -> tensor<2560x2560xf32>
    %63 = stablehlo.multiply %61, %62 : tensor<2560x2560xf32>
    %cst_7 = stablehlo.constant dense<0.000000e+00> : tensor<f32>
    %64 = stablehlo.broadcast_in_dim %cst_7, dims = [] : (tensor<f32>) -> tensor<2560xf32>
    %65 = call @_threefry_split(%50) : (tensor<2xui32>) -> tensor<2x2xui32>
    %66 = stablehlo.slice %65 [0:1, 0:2] : (tensor<2x2xui32>) -> tensor<1x2xui32>
    %67 = stablehlo.reshape %66 : (tensor<1x2xui32>) -> tensor<2xui32>
    %68 = call @_normal_106(%67) : (tensor<2xui32>) -> tensor<2560x2560xf32>
    %cst_8 = stablehlo.constant dense<0.00999999977> : tensor<f32>
    %69 = stablehlo.broadcast_in_dim %cst_8, dims = [] : (tensor<f32>) -> tensor<2560x2560xf32>
    %70 = stablehlo.multiply %68, %69 : tensor<2560x2560xf32>
    %cst_9 = stablehlo.constant dense<0.000000e+00> : tensor<f32>
    %71 = stablehlo.broadcast_in_dim %cst_9, dims = [] : (tensor<f32>) -> tensor<2560xf32>
    %72 = call @_threefry_split(%43) : (tensor<2xui32>) -> tensor<2x2xui32>
    %73 = stablehlo.slice %72 [0:1, 0:2] : (tensor<2x2xui32>) -> tensor<1x2xui32>
    %74 = stablehlo.reshape %73 : (tensor<1x2xui32>) -> tensor<2xui32>
    %75 = call @_threefry_split(%74) : (tensor<2xui32>) -> tensor<2x2xui32>
    %76 = stablehlo.slice %75 [0:1, 0:2] : (tensor<2x2xui32>) -> tensor<1x2xui32>
    %77 = stablehlo.reshape %76 : (tensor<1x2xui32>) -> tensor<2xui32>
    %78 = call @_normal_106(%77) : (tensor<2xui32>) -> tensor<2560x2560xf32>
    %cst_10 = stablehlo.constant dense<0.00999999977> : tensor<f32>
    %79 = stablehlo.broadcast_in_dim %cst_10, dims = [] : (tensor<f32>) -> tensor<2560x2560xf32>
    %80 = stablehlo.multiply %78, %79 : tensor<2560x2560xf32>
    %cst_11 = stablehlo.constant dense<0.000000e+00> : tensor<f32>
    %81 = stablehlo.broadcast_in_dim %cst_11, dims = [] : (tensor<f32>) -> tensor<2560xf32>
    %cst_12 = stablehlo.constant dense<1.000000e+00> : tensor<f32>
    %82 = stablehlo.broadcast_in_dim %cst_12, dims = [] : (tensor<f32>) -> tensor<2560xf32>
    %cst_13 = stablehlo.constant dense<0.000000e+00> : tensor<f32>
    %83 = stablehlo.broadcast_in_dim %cst_13, dims = [] : (tensor<f32>) -> tensor<2560xf32>
    %84 = call @_threefry_split(%36) : (tensor<2xui32>) -> tensor<2x2xui32>
    %85 = stablehlo.slice %84 [0:1, 0:2] : (tensor<2x2xui32>) -> tensor<1x2xui32>
    %86 = stablehlo.reshape %85 : (tensor<1x2xui32>) -> tensor<2xui32>
    %87 = call @_normal_127(%86) : (tensor<2xui32>) -> tensor<10240x2560xf32>
    %cst_14 = stablehlo.constant dense<0.00999999977> : tensor<f32>
    %88 = stablehlo.broadcast_in_dim %cst_14, dims = [] : (tensor<f32>) -> tensor<10240x2560xf32>
    %89 = stablehlo.multiply %87, %88 : tensor<10240x2560xf32>
    %cst_15 = stablehlo.constant dense<0.000000e+00> : tensor<f32>
    %90 = stablehlo.broadcast_in_dim %cst_15, dims = [] : (tensor<f32>) -> tensor<10240xf32>
    %91 = call @_threefry_split(%38) : (tensor<2xui32>) -> tensor<2x2xui32>
    %92 = stablehlo.slice %91 [0:1, 0:2] : (tensor<2x2xui32>) -> tensor<1x2xui32>
    %93 = stablehlo.reshape %92 : (tensor<1x2xui32>) -> tensor<2xui32>
    %94 = call @_threefry_split(%93) : (tensor<2xui32>) -> tensor<2x2xui32>
    %95 = stablehlo.slice %94 [0:1, 0:2] : (tensor<2x2xui32>) -> tensor<1x2xui32>
    %96 = stablehlo.reshape %95 : (tensor<1x2xui32>) -> tensor<2xui32>
    %97 = call @_normal_149(%96) : (tensor<2xui32>) -> tensor<2560x10240xf32>
    %cst_16 = stablehlo.constant dense<0.00999999977> : tensor<f32>
    %98 = stablehlo.broadcast_in_dim %cst_16, dims = [] : (tensor<f32>) -> tensor<2560x10240xf32>
    %99 = stablehlo.multiply %97, %98 : tensor<2560x10240xf32>
    %cst_17 = stablehlo.constant dense<0.000000e+00> : tensor<f32>
    %100 = stablehlo.broadcast_in_dim %cst_17, dims = [] : (tensor<f32>) -> tensor<2560xf32>
    %cst_18 = stablehlo.constant dense<1.000000e+00> : tensor<f32>
    %101 = stablehlo.broadcast_in_dim %cst_18, dims = [] : (tensor<f32>) -> tensor<2560xf32>
    %cst_19 = stablehlo.constant dense<0.000000e+00> : tensor<f32>
    %102 = stablehlo.broadcast_in_dim %cst_19, dims = [] : (tensor<f32>) -> tensor<2560xf32>
    %103 = stablehlo.slice %29 [1:2, 0:2] : (tensor<32x2xui32>) -> tensor<1x2xui32>
    %104 = stablehlo.reshape %103 : (tensor<1x2xui32>) -> tensor<2xui32>
    %105 = call @_threefry_split_92(%104) : (tensor<2xui32>) -> tensor<3x2xui32>
    %106 = stablehlo.slice %105 [0:1, 0:2] : (tensor<3x2xui32>) -> tensor<1x2xui32>
    %107 = stablehlo.reshape %106 : (tensor<1x2xui32>) -> tensor<2xui32>
    %108 = stablehlo.slice %105 [1:2, 0:2] : (tensor<3x2xui32>) -> tensor<1x2xui32>
    %109 = stablehlo.reshape %108 : (tensor<1x2xui32>) -> tensor<2xui32>
    %110 = stablehlo.slice %105 [2:3, 0:2] : (tensor<3x2xui32>) -> tensor<1x2xui32>
    %111 = stablehlo.reshape %110 : (tensor<1x2xui32>) -> tensor<2xui32>
    %112 = call @_threefry_split(%107) : (tensor<2xui32>) -> tensor<2x2xui32>
    %113 = stablehlo.slice %112 [0:1, 0:2] : (tensor<2x2xui32>) -> tensor<1x2xui32>
    %114 = stablehlo.reshape %113 : (tensor<1x2xui32>) -> tensor<2xui32>
    %115 = stablehlo.slice %112 [1:2, 0:2] : (tensor<2x2xui32>) -> tensor<1x2xui32>
    %116 = stablehlo.reshape %115 : (tensor<1x2xui32>) -> tensor<2xui32>
    %117 = call @_threefry_split_92(%114) : (tensor<2xui32>) -> tensor<3x2xui32>
    %118 = stablehlo.slice %117 [0:1, 0:2] : (tensor<3x2xui32>) -> tensor<1x2xui32>
    %119 = stablehlo.reshape %118 : (tensor<1x2xui32>) -> tensor<2xui32>
    %120 = stablehlo.slice %117 [1:2, 0:2] : (tensor<3x2xui32>) -> tensor<1x2xui32>
    %121 = stablehlo.reshape %120 : (tensor<1x2xui32>) -> tensor<2xui32>
    %122 = stablehlo.slice %117 [2:3, 0:2] : (tensor<3x2xui32>) -> tensor<1x2xui32>
    %123 = stablehlo.reshape %122 : (tensor<1x2xui32>) -> tensor<2xui32>
    %124 = call @_threefry_split(%119) : (tensor<2xui32>) -> tensor<2x2xui32>
    %125 = stablehlo.slice %124 [0:1, 0:2] : (tensor<2x2xui32>) -> tensor<1x2xui32>
    %126 = stablehlo.reshape %125 : (tensor<1x2xui32>) -> tensor<2xui32>
    %127 = call @_normal_106(%126) : (tensor<2xui32>) -> tensor<2560x2560xf32>
    %cst_20 = stablehlo.constant dense<0.00999999977> : tensor<f32>
    %128 = stablehlo.broadcast_in_dim %cst_20, dims = [] : (tensor<f32>) -> tensor<2560x2560xf32>
    %129 = stablehlo.multiply %127, %128 : tensor<2560x2560xf32>
    %cst_21 = stablehlo.constant dense<0.000000e+00> : tensor<f32>
    %130 = stablehlo.broadcast_in_dim %cst_21, dims = [] : (tensor<f32>) -> tensor<2560xf32>
    %131 = call @_threefry_split(%121) : (tensor<2xui32>) -> tensor<2x2xui32>
    %132 = stablehlo.slice %131 [0:1, 0:2] : (tensor<2x2xui32>) -> tensor<1x2xui32>
    %133 = stablehlo.reshape %132 : (tensor<1x2xui32>) -> tensor<2xui32>
    %134 = call @_normal_106(%133) : (tensor<2xui32>) -> tensor<2560x2560xf32>
    %cst_22 = stablehlo.constant dense<0.00999999977> : tensor<f32>
    %135 = stablehlo.broadcast_in_dim %cst_22, dims = [] : (tensor<f32>) -> tensor<2560x2560xf32>
    %136 = stablehlo.multiply %134, %135 : tensor<2560x2560xf32>
    %cst_23 = stablehlo.constant dense<0.000000e+00> : tensor<f32>
    %137 = stablehlo.broadcast_in_dim %cst_23, dims = [] : (tensor<f32>) -> tensor<2560xf32>
    %138 = call @_threefry_split(%123) : (tensor<2xui32>) -> tensor<2x2xui32>
    %139 = stablehlo.slice %138 [0:1, 0:2] : (tensor<2x2xui32>) -> tensor<1x2xui32>
    %140 = stablehlo.reshape %139 : (tensor<1x2xui32>) -> tensor<2xui32>
    %141 = call @_normal_106(%140) : (tensor<2xui32>) -> tensor<2560x2560xf32>
    %cst_24 = stablehlo.constant dense<0.00999999977> : tensor<f32>
    %142 = stablehlo.broadcast_in_dim %cst_24, dims = [] : (tensor<f32>) -> tensor<2560x2560xf32>
    %143 = stablehlo.multiply %141, %142 : tensor<2560x2560xf32>
    %cst_25 = stablehlo.constant dense<0.000000e+00> : tensor<f32>
    %144 = stablehlo.broadcast_in_dim %cst_25, dims = [] : (tensor<f32>) -> tensor<2560xf32>
    %145 = call @_threefry_split(%116) : (tensor<2xui32>) -> tensor<2x2xui32>
    %146 = stablehlo.slice %145 [0:1, 0:2] : (tensor<2x2xui32>) -> tensor<1x2xui32>
    %147 = stablehlo.reshape %146 : (tensor<1x2xui32>) -> tensor<2xui32>
    %148 = call @_threefry_split(%147) : (tensor<2xui32>) -> tensor<2x2xui32>
    %149 = stablehlo.slice %148 [0:1, 0:2] : (tensor<2x2xui32>) -> tensor<1x2xui32>
    %150 = stablehlo.reshape %149 : (tensor<1x2xui32>) -> tensor<2xui32>
    %151 = call @_normal_106(%150) : (tensor<2xui32>) -> tensor<2560x2560xf32>
    %cst_26 = stablehlo.constant dense<0.00999999977> : tensor<f32>
    %152 = stablehlo.broadcast_in_dim %cst_26, dims = [] : (tensor<f32>) -> tensor<2560x2560xf32>
    %153 = stablehlo.multiply %151, %152 : tensor<2560x2560xf32>
    %cst_27 = stablehlo.constant dense<0.000000e+00> : tensor<f32>
    %154 = stablehlo.broadcast_in_dim %cst_27, dims = [] : (tensor<f32>) -> tensor<2560xf32>
    %cst_28 = stablehlo.constant dense<1.000000e+00> : tensor<f32>
    %155 = stablehlo.broadcast_in_dim %cst_28, dims = [] : (tensor<f32>) -> tensor<2560xf32>
    %cst_29 = stablehlo.constant dense<0.000000e+00> : tensor<f32>
    %156 = stablehlo.broadcast_in_dim %cst_29, dims = [] : (tensor<f32>) -> tensor<2560xf32>
    %157 = call @_threefry_split(%109) : (tensor<2xui32>) -> tensor<2x2xui32>
    %158 = stablehlo.slice %157 [0:1, 0:2] : (tensor<2x2xui32>) -> tensor<1x2xui32>
    %159 = stablehlo.reshape %158 : (tensor<1x2xui32>) -> tensor<2xui32>
    %160 = call @_normal_127(%159) : (tensor<2xui32>) -> tensor<10240x2560xf32>
    %cst_30 = stablehlo.constant dense<0.00999999977> : tensor<f32>
    %161 = stablehlo.broadcast_in_dim %cst_30, dims = [] : (tensor<f32>) -> tensor<10240x2560xf32>
    %162 = stablehlo.multiply %160, %161 : tensor<10240x2560xf32>
    %cst_31 = stablehlo.constant dense<0.000000e+00> : tensor<f32>
    %163 = stablehlo.broadcast_in_dim %cst_31, dims = [] : (tensor<f32>) -> tensor<10240xf32>
    %164 = call @_threefry_split(%111) : (tensor<2xui32>) -> tensor<2x2xui32>
    %165 = stablehlo.slice %164 [0:1, 0:2] : (tensor<2x2xui32>) -> tensor<1x2xui32>
    %166 = stablehlo.reshape %165 : (tensor<1x2xui32>) -> tensor<2xui32>
    %167 = call @_threefry_split(%166) : (tensor<2xui32>) -> tensor<2x2xui32>
    %168 = stablehlo.slice %167 [0:1, 0:2] : (tensor<2x2xui32>) -> tensor<1x2xui32>
    %169 = stablehlo.reshape %168 : (tensor<1x2xui32>) -> tensor<2xui32>
    %170 = call @_normal_149(%169) : (tensor<2xui32>) -> tensor<2560x10240xf32>
    %cst_32 = stablehlo.constant dense<0.00999999977> : tensor<f32>
    %171 = stablehlo.broadcast_in_dim %cst_32, dims = [] : (tensor<f32>) -> tensor<2560x10240xf32>
    %172 = stablehlo.multiply %170, %171 : tensor<2560x10240xf32>
    %cst_33 = stablehlo.constant dense<0.000000e+00> : tensor<f32>
    %173 = stablehlo.broadcast_in_dim %cst_33, dims = [] : (tensor<f32>) -> tensor<2560xf32>
    %cst_34 = stablehlo.constant dense<1.000000e+00> : tensor<f32>
    %174 = stablehlo.broadcast_in_dim %cst_34, dims = [] : (tensor<f32>) -> tensor<2560xf32>
    %cst_35 = stablehlo.constant dense<0.000000e+00> : tensor<f32>
    %175 = stablehlo.broadcast_in_dim %cst_35, dims = [] : (tensor<f32>) -> tensor<2560xf32>
    %176 = stablehlo.slice %29 [2:3, 0:2] : (tensor<32x2xui32>) -> tensor<1x2xui32>
    %177 = stablehlo.reshape %176 : (tensor<1x2xui32>) -> tensor<2xui32>
    %178 = call @_threefry_split_92(%177) : (tensor<2xui32>) -> tensor<3x2xui32>
    %179 = stablehlo.slice %178 [0:1, 0:2] : (tensor<3x2xui32>) -> tensor<1x2xui32>
    %180 = stablehlo.reshape %179 : (tensor<1x2xui32>) -> tensor<2xui32>
    %181 = stablehlo.slice %178 [1:2, 0:2] : (tensor<3x2xui32>) -> tensor<1x2xui32>
    %182 = stablehlo.reshape %181 : (tensor<1x2xui32>) -> tensor<2xui32>
    %183 = stablehlo.slice %178 [2:3, 0:2] : (tensor<3x2xui32>) -> tensor<1x2xui32>
    %184 = stablehlo.reshape %183 : (tensor<1x2xui32>) -> tensor<2xui32>
    %185 = call @_threefry_split(%180) : (tensor<2xui32>) -> tensor<2x2xui32>
    %186 = stablehlo.slice %185 [0:1, 0:2] : (tensor<2x2xui32>) -> tensor<1x2xui32>
    %187 = stablehlo.reshape %186 : (tensor<1x2xui32>) -> tensor<2xui32>
    %188 = stablehlo.slice %185 [1:2, 0:2] : (tensor<2x2xui32>) -> tensor<1x2xui32>
    %189 = stablehlo.reshape %188 : (tensor<1x2xui32>) -> tensor<2xui32>
    %190 = call @_threefry_split_92(%187) : (tensor<2xui32>) -> tensor<3x2xui32>
    %191 = stablehlo.slice %190 [0:1, 0:2] : (tensor<3x2xui32>) -> tensor<1x2xui32>
    %192 = stablehlo.reshape %191 : (tensor<1x2xui32>) -> tensor<2xui32>
    %193 = stablehlo.slice %190 [1:2, 0:2] : (tensor<3x2xui32>) -> tensor<1x2xui32>
    %194 = stablehlo.reshape %193 : (tensor<1x2xui32>) -> tensor<2xui32>
    %195 = stablehlo.slice %190 [2:3, 0:2] : (tensor<3x2xui32>) -> tensor<1x2xui32>
    %196 = stablehlo.reshape %195 : (tensor<1x2xui32>) -> tensor<2xui32>
    %197 = call @_threefry_split(%192) : (tensor<2xui32>) -> tensor<2x2xui32>
    %198 = stablehlo.slice %197 [0:1, 0:2] : (tensor<2x2xui32>) -> tensor<1x2xui32>
    %199 = stablehlo.reshape %198 : (tensor<1x2xui32>) -> tensor<2xui32>
    %200 = call @_normal_106(%199) : (tensor<2xui32>) -> tensor<2560x2560xf32>
    %cst_36 = stablehlo.constant dense<0.00999999977> : tensor<f32>
    %201 = stablehlo.broadcast_in_dim %cst_36, dims = [] : (tensor<f32>) -> tensor<2560x2560xf32>
    %202 = stablehlo.multiply %200, %201 : tensor<2560x2560xf32>
    %cst_37 = stablehlo.constant dense<0.000000e+00> : tensor<f32>
    %203 = stablehlo.broadcast_in_dim %cst_37, dims = [] : (tensor<f32>) -> tensor<2560xf32>
    %204 = call @_threefry_split(%194) : (tensor<2xui32>) -> tensor<2x2xui32>
    %205 = stablehlo.slice %204 [0:1, 0:2] : (tensor<2x2xui32>) -> tensor<1x2xui32>
    %206 = stablehlo.reshape %205 : (tensor<1x2xui32>) -> tensor<2xui32>
    %207 = call @_normal_106(%206) : (tensor<2xui32>) -> tensor<2560x2560xf32>
    %cst_38 = stablehlo.constant dense<0.00999999977> : tensor<f32>
    %208 = stablehlo.broadcast_in_dim %cst_38, dims = [] : (tensor<f32>) -> tensor<2560x2560xf32>
    %209 = stablehlo.multiply %207, %208 : tensor<2560x2560xf32>
    %cst_39 = stablehlo.constant dense<0.000000e+00> : tensor<f32>
    %210 = stablehlo.broadcast_in_dim %cst_39, dims = [] : (tensor<f32>) -> tensor<2560xf32>
    %211 = call @_threefry_split(%196) : (tensor<2xui32>) -> tensor<2x2xui32>
    %212 = stablehlo.slice %211 [0:1, 0:2] : (tensor<2x2xui32>) -> tensor<1x2xui32>
    %213 = stablehlo.reshape %212 : (tensor<1x2xui32>) -> tensor<2xui32>
    %214 = call @_normal_106(%213) : (tensor<2xui32>) -> tensor<2560x2560xf32>
    %cst_40 = stablehlo.constant dense<0.00999999977> : tensor<f32>
    %215 = stablehlo.broadcast_in_dim %cst_40, dims = [] : (tensor<f32>) -> tensor<2560x2560xf32>
    %216 = stablehlo.multiply %214, %215 : tensor<2560x2560xf32>
    %cst_41 = stablehlo.constant dense<0.000000e+00> : tensor<f32>
    %217 = stablehlo.broadcast_in_dim %cst_41, dims = [] : (tensor<f32>) -> tensor<2560xf32>
    %218 = call @_threefry_split(%189) : (tensor<2xui32>) -> tensor<2x2xui32>
    %219 = stablehlo.slice %218 [0:1, 0:2] : (tensor<2x2xui32>) -> tensor<1x2xui32>
    %220 = stablehlo.reshape %219 : (tensor<1x2xui32>) -> tensor<2xui32>
    %221 = call @_threefry_split(%220) : (tensor<2xui32>) -> tensor<2x2xui32>
    %222 = stablehlo.slice %221 [0:1, 0:2] : (tensor<2x2xui32>) -> tensor<1x2xui32>
    %223 = stablehlo.reshape %222 : (tensor<1x2xui32>) -> tensor<2xui32>
    %224 = call @_normal_106(%223) : (tensor<2xui32>) -> tensor<2560x2560xf32>
    %cst_42 = stablehlo.constant dense<0.00999999977> : tensor<f32>
    %225 = stablehlo.broadcast_in_dim %cst_42, dims = [] : (tensor<f32>) -> tensor<2560x2560xf32>
    %226 = stablehlo.multiply %224, %225 : tensor<2560x2560xf32>
    %cst_43 = stablehlo.constant dense<0.000000e+00> : tensor<f32>
    %227 = stablehlo.broadcast_in_dim %cst_43, dims = [] : (tensor<f32>) -> tensor<2560xf32>
    %cst_44 = stablehlo.constant dense<1.000000e+00> : tensor<f32>
    %228 = stablehlo.broadcast_in_dim %cst_44, dims = [] : (tensor<f32>) -> tensor<2560xf32>
    %cst_45 = stablehlo.constant dense<0.000000e+00> : tensor<f32>
    %229 = stablehlo.broadcast_in_dim %cst_45, dims = [] : (tensor<f32>) -> tensor<2560xf32>
    %230 = call @_threefry_split(%182) : (tensor<2xui32>) -> tensor<2x2xui32>
    %231 = stablehlo.slice %230 [0:1, 0:2] : (tensor<2x2xui32>) -> tensor<1x2xui32>
    %232 = stablehlo.reshape %231 : (tensor<1x2xui32>) -> tensor<2xui32>
    %233 = call @_normal_127(%232) : (tensor<2xui32>) -> tensor<10240x2560xf32>
    %cst_46 = stablehlo.constant dense<0.00999999977> : tensor<f32>
    %234 = stablehlo.broadcast_in_dim %cst_46, dims = [] : (tensor<f32>) -> tensor<10240x2560xf32>
    %235 = stablehlo.multiply %233, %234 : tensor<10240x2560xf32>
    %cst_47 = stablehlo.constant dense<0.000000e+00> : tensor<f32>
    %236 = stablehlo.broadcast_in_dim %cst_47, dims = [] : (tensor<f32>) -> tensor<10240xf32>
    %237 = call @_threefry_split(%184) : (tensor<2xui32>) -> tensor<2x2xui32>
    %238 = stablehlo.slice %237 [0:1, 0:2] : (tensor<2x2xui32>) -> tensor<1x2xui32>
    %239 = stablehlo.reshape %238 : (tensor<1x2xui32>) -> tensor<2xui32>
    %240 = call @_threefry_split(%239) : (tensor<2xui32>) -> tensor<2x2xui32>
    %241 = stablehlo.slice %240 [0:1, 0:2] : (tensor<2x2xui32>) -> tensor<1x2xui32>
    %242 = stablehlo.reshape %241 : (tensor<1x2xui32>) -> tensor<2xui32>
    %243 = call @_normal_149(%242) : (tensor<2xui32>) -> tensor<2560x10240xf32>
    %cst_48 = stablehlo.constant dense<0.00999999977> : tensor<f32>
    %244 = stablehlo.broadcast_in_dim %cst_48, dims = [] : (tensor<f32>) -> tensor<2560x10240xf32>
    %245 = stablehlo.multiply %243, %244 : tensor<2560x10240xf32>
    %cst_49 = stablehlo.constant dense<0.000000e+00> : tensor<f32>
    %246 = stablehlo.broadcast_in_dim %cst_49, dims = [] : (tensor<f32>) -> tensor<2560xf32>
    %cst_50 = stablehlo.constant dense<1.000000e+00> : tensor<f32>
    %247 = stablehlo.broadcast_in_dim %cst_50, dims = [] : (tensor<f32>) -> tensor<2560xf32>
    %cst_51 = stablehlo.constant dense<0.000000e+00> : tensor<f32>
    %248 = stablehlo.broadcast_in_dim %cst_51, dims = [] : (tensor<f32>) -> tensor<2560xf32>
    %249 = stablehlo.slice %29 [3:4, 0:2] : (tensor<32x2xui32>) -> tensor<1x2xui32>
    %250 = stablehlo.reshape %249 : (tensor<1x2xui32>) -> tensor<2xui32>
    %251 = call @_threefry_split_92(%250) : (tensor<2xui32>) -> tensor<3x2xui32>
    %252 = stablehlo.slice %251 [0:1, 0:2] : (tensor<3x2xui32>) -> tensor<1x2xui32>
    %253 = stablehlo.reshape %252 : (tensor<1x2xui32>) -> tensor<2xui32>
    %254 = stablehlo.slice %251 [1:2, 0:2] : (tensor<3x2xui32>) -> tensor<1x2xui32>
    %255 = stablehlo.reshape %254 : (tensor<1x2xui32>) -> tensor<2xui32>
    %256 = stablehlo.slice %251 [2:3, 0:2] : (tensor<3x2xui32>) -> tensor<1x2xui32>
    %257 = stablehlo.reshape %256 : (tensor<1x2xui32>) -> tensor<2xui32>
    %258 = call @_threefry_split(%253) : (tensor<2xui32>) -> tensor<2x2xui32>
    %259 = stablehlo.slice %258 [0:1, 0:2] : (tensor<2x2xui32>) -> tensor<1x2xui32>
    %260 = stablehlo.reshape %259 : (tensor<1x2xui32>) -> tensor<2xui32>
    %261 = stablehlo.slice %258 [1:2, 0:2] : (tensor<2x2xui32>) -> tensor<1x2xui32>
    %262 = stablehlo.reshape %261 : (tensor<1x2xui32>) -> tensor<2xui32>
    %263 = call @_threefry_split_92(%260) : (tensor<2xui32>) -> tensor<3x2xui32>
    %264 = stablehlo.slice %263 [0:1, 0:2] : (tensor<3x2xui32>) -> tensor<1x2xui32>
    %265 = stablehlo.reshape %264 : (tensor<1x2xui32>) -> tensor<2xui32>
    %266 = stablehlo.slice %263 [1:2, 0:2] : (tensor<3x2xui32>) -> tensor<1x2xui32>
    %267 = stablehlo.reshape %266 : (tensor<1x2xui32>) -> tensor<2xui32>
    %268 = stablehlo.slice %263 [2:3, 0:2] : (tensor<3x2xui32>) -> tensor<1x2xui32>
    %269 = stablehlo.reshape %268 : (tensor<1x2xui32>) -> tensor<2xui32>
    %270 = call @_threefry_split(%265) : (tensor<2xui32>) -> tensor<2x2xui32>
    %271 = stablehlo.slice %270 [0:1, 0:2] : (tensor<2x2xui32>) -> tensor<1x2xui32>
    %272 = stablehlo.reshape %271 : (tensor<1x2xui32>) -> tensor<2xui32>
    %273 = call @_normal_106(%272) : (tensor<2xui32>) -> tensor<2560x2560xf32>
    %cst_52 = stablehlo.constant dense<0.00999999977> : tensor<f32>
    %274 = stablehlo.broadcast_in_dim %cst_52, dims = [] : (tensor<f32>) -> tensor<2560x2560xf32>
    %275 = stablehlo.multiply %273, %274 : tensor<2560x2560xf32>
    %cst_53 = stablehlo.constant dense<0.000000e+00> : tensor<f32>
    %276 = stablehlo.broadcast_in_dim %cst_53, dims = [] : (tensor<f32>) -> tensor<2560xf32>
    %277 = call @_threefry_split(%267) : (tensor<2xui32>) -> tensor<2x2xui32>
    %278 = stablehlo.slice %277 [0:1, 0:2] : (tensor<2x2xui32>) -> tensor<1x2xui32>
    %279 = stablehlo.reshape %278 : (tensor<1x2xui32>) -> tensor<2xui32>
    %280 = call @_normal_106(%279) : (tensor<2xui32>) -> tensor<2560x2560xf32>
    %cst_54 = stablehlo.constant dense<0.00999999977> : tensor<f32>
    %281 = stablehlo.broadcast_in_dim %cst_54, dims = [] : (tensor<f32>) -> tensor<2560x2560xf32>
    %282 = stablehlo.multiply %280, %281 : tensor<2560x2560xf32>
    %cst_55 = stablehlo.constant dense<0.000000e+00> : tensor<f32>
    %283 = stablehlo.broadcast_in_dim %cst_55, dims = [] : (tensor<f32>) -> tensor<2560xf32>
    %284 = call @_threefry_split(%269) : (tensor<2xui32>) -> tensor<2x2xui32>
    %285 = stablehlo.slice %284 [0:1, 0:2] : (tensor<2x2xui32>) -> tensor<1x2xui32>
    %286 = stablehlo.reshape %285 : (tensor<1x2xui32>) -> tensor<2xui32>
    %287 = call @_normal_106(%286) : (tensor<2xui32>) -> tensor<2560x2560xf32>
    %cst_56 = stablehlo.constant dense<0.00999999977> : tensor<f32>
    %288 = stablehlo.broadcast_in_dim %cst_56, dims = [] : (tensor<f32>) -> tensor<2560x2560xf32>
    %289 = stablehlo.multiply %287, %288 : tensor<2560x2560xf32>
    %cst_57 = stablehlo.constant dense<0.000000e+00> : tensor<f32>
    %290 = stablehlo.broadcast_in_dim %cst_57, dims = [] : (tensor<f32>) -> tensor<2560xf32>
    %291 = call @_threefry_split(%262) : (tensor<2xui32>) -> tensor<2x2xui32>
    %292 = stablehlo.slice %291 [0:1, 0:2] : (tensor<2x2xui32>) -> tensor<1x2xui32>
    %293 = stablehlo.reshape %292 : (tensor<1x2xui32>) -> tensor<2xui32>
    %294 = call @_threefry_split(%293) : (tensor<2xui32>) -> tensor<2x2xui32>
    %295 = stablehlo.slice %294 [0:1, 0:2] : (tensor<2x2xui32>) -> tensor<1x2xui32>
    %296 = stablehlo.reshape %295 : (tensor<1x2xui32>) -> tensor<2xui32>
    %297 = call @_normal_106(%296) : (tensor<2xui32>) -> tensor<2560x2560xf32>
    %cst_58 = stablehlo.constant dense<0.00999999977> : tensor<f32>
    %298 = stablehlo.broadcast_in_dim %cst_58, dims = [] : (tensor<f32>) -> tensor<2560x2560xf32>
    %299 = stablehlo.multiply %297, %298 : tensor<2560x2560xf32>
    %cst_59 = stablehlo.constant dense<0.000000e+00> : tensor<f32>
    %300 = stablehlo.broadcast_in_dim %cst_59, dims = [] : (tensor<f32>) -> tensor<2560xf32>
    %cst_60 = stablehlo.constant dense<1.000000e+00> : tensor<f32>
    %301 = stablehlo.broadcast_in_dim %cst_60, dims = [] : (tensor<f32>) -> tensor<2560xf32>
    %cst_61 = stablehlo.constant dense<0.000000e+00> : tensor<f32>
    %302 = stablehlo.broadcast_in_dim %cst_61, dims = [] : (tensor<f32>) -> tensor<2560xf32>
    %303 = call @_threefry_split(%255) : (tensor<2xui32>) -> tensor<2x2xui32>
    %304 = stablehlo.slice %303 [0:1, 0:2] : (tensor<2x2xui32>) -> tensor<1x2xui32>
    %305 = stablehlo.reshape %304 : (tensor<1x2xui32>) -> tensor<2xui32>
    %306 = call @_normal_127(%305) : (tensor<2xui32>) -> tensor<10240x2560xf32>
    %cst_62 = stablehlo.constant dense<0.00999999977> : tensor<f32>
    %307 = stablehlo.broadcast_in_dim %cst_62, dims = [] : (tensor<f32>) -> tensor<10240x2560xf32>
    %308 = stablehlo.multiply %306, %307 : tensor<10240x2560xf32>
    %cst_63 = stablehlo.constant dense<0.000000e+00> : tensor<f32>
    %309 = stablehlo.broadcast_in_dim %cst_63, dims = [] : (tensor<f32>) -> tensor<10240xf32>
    %310 = call @_threefry_split(%257) : (tensor<2xui32>) -> tensor<2x2xui32>
    %311 = stablehlo.slice %310 [0:1, 0:2] : (tensor<2x2xui32>) -> tensor<1x2xui32>
    %312 = stablehlo.reshape %311 : (tensor<1x2xui32>) -> tensor<2xui32>
    %313 = call @_threefry_split(%312) : (tensor<2xui32>) -> tensor<2x2xui32>
    %314 = stablehlo.slice %313 [0:1, 0:2] : (tensor<2x2xui32>) -> tensor<1x2xui32>
    %315 = stablehlo.reshape %314 : (tensor<1x2xui32>) -> tensor<2xui32>
    %316 = call @_normal_149(%315) : (tensor<2xui32>) -> tensor<2560x10240xf32>
    %cst_64 = stablehlo.constant dense<0.00999999977> : tensor<f32>
    %317 = stablehlo.broadcast_in_dim %cst_64, dims = [] : (tensor<f32>) -> tensor<2560x10240xf32>
    %318 = stablehlo.multiply %316, %317 : tensor<2560x10240xf32>
    %cst_65 = stablehlo.constant dense<0.000000e+00> : tensor<f32>
    %319 = stablehlo.broadcast_in_dim %cst_65, dims = [] : (tensor<f32>) -> tensor<2560xf32>
    %cst_66 = stablehlo.constant dense<1.000000e+00> : tensor<f32>
    %320 = stablehlo.broadcast_in_dim %cst_66, dims = [] : (tensor<f32>) -> tensor<2560xf32>
    %cst_67 = stablehlo.constant dense<0.000000e+00> : tensor<f32>
    %321 = stablehlo.broadcast_in_dim %cst_67, dims = [] : (tensor<f32>) -> tensor<2560xf32>
    %322 = stablehlo.slice %29 [4:5, 0:2] : (tensor<32x2xui32>) -> tensor<1x2xui32>
    %323 = stablehlo.reshape %322 : (tensor<1x2xui32>) -> tensor<2xui32>
    %324 = call @_threefry_split_92(%323) : (tensor<2xui32>) -> tensor<3x2xui32>
    %325 = stablehlo.slice %324 [0:1, 0:2] : (tensor<3x2xui32>) -> tensor<1x2xui32>
    %326 = stablehlo.reshape %325 : (tensor<1x2xui32>) -> tensor<2xui32>
    %327 = stablehlo.slice %324 [1:2, 0:2] : (tensor<3x2xui32>) -> tensor<1x2xui32>
    %328 = stablehlo.reshape %327 : (tensor<1x2xui32>) -> tensor<2xui32>
    %329 = stablehlo.slice %324 [2:3, 0:2] : (tensor<3x2xui32>) -> tensor<1x2xui32>
    %330 = stablehlo.reshape %329 : (tensor<1x2xui32>) -> tensor<2xui32>
    %331 = call @_threefry_split(%326) : (tensor<2xui32>) -> tensor<2x2xui32>
    %332 = stablehlo.slice %331 [0:1, 0:2] : (tensor<2x2xui32>) -> tensor<1x2xui32>
    %333 = stablehlo.reshape %332 : (tensor<1x2xui32>) -> tensor<2xui32>
    %334 = stablehlo.slice %331 [1:2, 0:2] : (tensor<2x2xui32>) -> tensor<1x2xui32>
    %335 = stablehlo.reshape %334 : (tensor<1x2xui32>) -> tensor<2xui32>
    %336 = call @_threefry_split_92(%333) : (tensor<2xui32>) -> tensor<3x2xui32>
    %337 = stablehlo.slice %336 [0:1, 0:2] : (tensor<3x2xui32>) -> tensor<1x2xui32>
    %338 = stablehlo.reshape %337 : (tensor<1x2xui32>) -> tensor<2xui32>
    %339 = stablehlo.slice %336 [1:2, 0:2] : (tensor<3x2xui32>) -> tensor<1x2xui32>
    %340 = stablehlo.reshape %339 : (tensor<1x2xui32>) -> tensor<2xui32>
    %341 = stablehlo.slice %336 [2:3, 0:2] : (tensor<3x2xui32>) -> tensor<1x2xui32>
    %342 = stablehlo.reshape %341 : (tensor<1x2xui32>) -> tensor<2xui32>
    %343 = call @_threefry_split(%338) : (tensor<2xui32>) -> tensor<2x2xui32>
    %344 = stablehlo.slice %343 [0:1, 0:2] : (tensor<2x2xui32>) -> tensor<1x2xui32>
    %345 = stablehlo.reshape %344 : (tensor<1x2xui32>) -> tensor<2xui32>
    %346 = call @_normal_106(%345) : (tensor<2xui32>) -> tensor<2560x2560xf32>
    %cst_68 = stablehlo.constant dense<0.00999999977> : tensor<f32>
    %347 = stablehlo.broadcast_in_dim %cst_68, dims = [] : (tensor<f32>) -> tensor<2560x2560xf32>
    %348 = stablehlo.multiply %346, %347 : tensor<2560x2560xf32>
    %cst_69 = stablehlo.constant dense<0.000000e+00> : tensor<f32>
    %349 = stablehlo.broadcast_in_dim %cst_69, dims = [] : (tensor<f32>) -> tensor<2560xf32>
    %350 = call @_threefry_split(%340) : (tensor<2xui32>) -> tensor<2x2xui32>
    %351 = stablehlo.slice %350 [0:1, 0:2] : (tensor<2x2xui32>) -> tensor<1x2xui32>
    %352 = stablehlo.reshape %351 : (tensor<1x2xui32>) -> tensor<2xui32>
    %353 = call @_normal_106(%352) : (tensor<2xui32>) -> tensor<2560x2560xf32>
    %cst_70 = stablehlo.constant dense<0.00999999977> : tensor<f32>
    %354 = stablehlo.broadcast_in_dim %cst_70, dims = [] : (tensor<f32>) -> tensor<2560x2560xf32>
    %355 = stablehlo.multiply %353, %354 : tensor<2560x2560xf32>
    %cst_71 = stablehlo.constant dense<0.000000e+00> : tensor<f32>
    %356 = stablehlo.broadcast_in_dim %cst_71, dims = [] : (tensor<f32>) -> tensor<2560xf32>
    %357 = call @_threefry_split(%342) : (tensor<2xui32>) -> tensor<2x2xui32>
    %358 = stablehlo.slice %357 [0:1, 0:2] : (tensor<2x2xui32>) -> tensor<1x2xui32>
    %359 = stablehlo.reshape %358 : (tensor<1x2xui32>) -> tensor<2xui32>
    %360 = call @_normal_106(%359) : (tensor<2xui32>) -> tensor<2560x2560xf32>
    %cst_72 = stablehlo.constant dense<0.00999999977> : tensor<f32>
    %361 = stablehlo.broadcast_in_dim %cst_72, dims = [] : (tensor<f32>) -> tensor<2560x2560xf32>
    %362 = stablehlo.multiply %360, %361 : tensor<2560x2560xf32>
    %cst_73 = stablehlo.constant dense<0.000000e+00> : tensor<f32>
    %363 = stablehlo.broadcast_in_dim %cst_73, dims = [] : (tensor<f32>) -> tensor<2560xf32>
    %364 = call @_threefry_split(%335) : (tensor<2xui32>) -> tensor<2x2xui32>
    %365 = stablehlo.slice %364 [0:1, 0:2] : (tensor<2x2xui32>) -> tensor<1x2xui32>
    %366 = stablehlo.reshape %365 : (tensor<1x2xui32>) -> tensor<2xui32>
    %367 = call @_threefry_split(%366) : (tensor<2xui32>) -> tensor<2x2xui32>
    %368 = stablehlo.slice %367 [0:1, 0:2] : (tensor<2x2xui32>) -> tensor<1x2xui32>
    %369 = stablehlo.reshape %368 : (tensor<1x2xui32>) -> tensor<2xui32>
    %370 = call @_normal_106(%369) : (tensor<2xui32>) -> tensor<2560x2560xf32>
    %cst_74 = stablehlo.constant dense<0.00999999977> : tensor<f32>
    %371 = stablehlo.broadcast_in_dim %cst_74, dims = [] : (tensor<f32>) -> tensor<2560x2560xf32>
    %372 = stablehlo.multiply %370, %371 : tensor<2560x2560xf32>
    %cst_75 = stablehlo.constant dense<0.000000e+00> : tensor<f32>
    %373 = stablehlo.broadcast_in_dim %cst_75, dims = [] : (tensor<f32>) -> tensor<2560xf32>
    %cst_76 = stablehlo.constant dense<1.000000e+00> : tensor<f32>
    %374 = stablehlo.broadcast_in_dim %cst_76, dims = [] : (tensor<f32>) -> tensor<2560xf32>
    %cst_77 = stablehlo.constant dense<0.000000e+00> : tensor<f32>
    %375 = stablehlo.broadcast_in_dim %cst_77, dims = [] : (tensor<f32>) -> tensor<2560xf32>
    %376 = call @_threefry_split(%328) : (tensor<2xui32>) -> tensor<2x2xui32>
    %377 = stablehlo.slice %376 [0:1, 0:2] : (tensor<2x2xui32>) -> tensor<1x2xui32>
    %378 = stablehlo.reshape %377 : (tensor<1x2xui32>) -> tensor<2xui32>
    %379 = call @_normal_127(%378) : (tensor<2xui32>) -> tensor<10240x2560xf32>
    %cst_78 = stablehlo.constant dense<0.00999999977> : tensor<f32>
    %380 = stablehlo.broadcast_in_dim %cst_78, dims = [] : (tensor<f32>) -> tensor<10240x2560xf32>
    %381 = stablehlo.multiply %379, %380 : tensor<10240x2560xf32>
    %cst_79 = stablehlo.constant dense<0.000000e+00> : tensor<f32>
    %382 = stablehlo.broadcast_in_dim %cst_79, dims = [] : (tensor<f32>) -> tensor<10240xf32>
    %383 = call @_threefry_split(%330) : (tensor<2xui32>) -> tensor<2x2xui32>
    %384 = stablehlo.slice %383 [0:1, 0:2] : (tensor<2x2xui32>) -> tensor<1x2xui32>
    %385 = stablehlo.reshape %384 : (tensor<1x2xui32>) -> tensor<2xui32>
    %386 = call @_threefry_split(%385) : (tensor<2xui32>) -> tensor<2x2xui32>
    %387 = stablehlo.slice %386 [0:1, 0:2] : (tensor<2x2xui32>) -> tensor<1x2xui32>
    %388 = stablehlo.reshape %387 : (tensor<1x2xui32>) -> tensor<2xui32>
    %389 = call @_normal_149(%388) : (tensor<2xui32>) -> tensor<2560x10240xf32>
    %cst_80 = stablehlo.constant dense<0.00999999977> : tensor<f32>
    %390 = stablehlo.broadcast_in_dim %cst_80, dims = [] : (tensor<f32>) -> tensor<2560x10240xf32>
    %391 = stablehlo.multiply %389, %390 : tensor<2560x10240xf32>
    %cst_81 = stablehlo.constant dense<0.000000e+00> : tensor<f32>
    %392 = stablehlo.broadcast_in_dim %cst_81, dims = [] : (tensor<f32>) -> tensor<2560xf32>
    %cst_82 = stablehlo.constant dense<1.000000e+00> : tensor<f32>
    %393 = stablehlo.broadcast_in_dim %cst_82, dims = [] : (tensor<f32>) -> tensor<2560xf32>
    %cst_83 = stablehlo.constant dense<0.000000e+00> : tensor<f32>
    %394 = stablehlo.broadcast_in_dim %cst_83, dims = [] : (tensor<f32>) -> tensor<2560xf32>
    %395 = stablehlo.slice %29 [5:6, 0:2] : (tensor<32x2xui32>) -> tensor<1x2xui32>
    %396 = stablehlo.reshape %395 : (tensor<1x2xui32>) -> tensor<2xui32>
    %397 = call @_threefry_split_92(%396) : (tensor<2xui32>) -> tensor<3x2xui32>
    %398 = stablehlo.slice %397 [0:1, 0:2] : (tensor<3x2xui32>) -> tensor<1x2xui32>
    %399 = stablehlo.reshape %398 : (tensor<1x2xui32>) -> tensor<2xui32>
    %400 = stablehlo.slice %397 [1:2, 0:2] : (tensor<3x2xui32>) -> tensor<1x2xui32>
    %401 = stablehlo.reshape %400 : (tensor<1x2xui32>) -> tensor<2xui32>
    %402 = stablehlo.slice %397 [2:3, 0:2] : (tensor<3x2xui32>) -> tensor<1x2xui32>
    %403 = stablehlo.reshape %402 : (tensor<1x2xui32>) -> tensor<2xui32>
    %404 = call @_threefry_split(%399) : (tensor<2xui32>) -> tensor<2x2xui32>
    %405 = stablehlo.slice %404 [0:1, 0:2] : (tensor<2x2xui32>) -> tensor<1x2xui32>
    %406 = stablehlo.reshape %405 : (tensor<1x2xui32>) -> tensor<2xui32>
    %407 = stablehlo.slice %404 [1:2, 0:2] : (tensor<2x2xui32>) -> tensor<1x2xui32>
    %408 = stablehlo.reshape %407 : (tensor<1x2xui32>) -> tensor<2xui32>
    %409 = call @_threefry_split_92(%406) : (tensor<2xui32>) -> tensor<3x2xui32>
    %410 = stablehlo.slice %409 [0:1, 0:2] : (tensor<3x2xui32>) -> tensor<1x2xui32>
    %411 = stablehlo.reshape %410 : (tensor<1x2xui32>) -> tensor<2xui32>
    %412 = stablehlo.slice %409 [1:2, 0:2] : (tensor<3x2xui32>) -> tensor<1x2xui32>
    %413 = stablehlo.reshape %412 : (tensor<1x2xui32>) -> tensor<2xui32>
    %414 = stablehlo.slice %409 [2:3, 0:2] : (tensor<3x2xui32>) -> tensor<1x2xui32>
    %415 = stablehlo.reshape %414 : (tensor<1x2xui32>) -> tensor<2xui32>
    %416 = call @_threefry_split(%411) : (tensor<2xui32>) -> tensor<2x2xui32>
    %417 = stablehlo.slice %416 [0:1, 0:2] : (tensor<2x2xui32>) -> tensor<1x2xui32>
    %418 = stablehlo.reshape %417 : (tensor<1x2xui32>) -> tensor<2xui32>
    %419 = call @_normal_106(%418) : (tensor<2xui32>) -> tensor<2560x2560xf32>
    %cst_84 = stablehlo.constant dense<0.00999999977> : tensor<f32>
    %420 = stablehlo.broadcast_in_dim %cst_84, dims = [] : (tensor<f32>) -> tensor<2560x2560xf32>
    %421 = stablehlo.multiply %419, %420 : tensor<2560x2560xf32>
    %cst_85 = stablehlo.constant dense<0.000000e+00> : tensor<f32>
    %422 = stablehlo.broadcast_in_dim %cst_85, dims = [] : (tensor<f32>) -> tensor<2560xf32>
    %423 = call @_threefry_split(%413) : (tensor<2xui32>) -> tensor<2x2xui32>
    %424 = stablehlo.slice %423 [0:1, 0:2] : (tensor<2x2xui32>) -> tensor<1x2xui32>
    %425 = stablehlo.reshape %424 : (tensor<1x2xui32>) -> tensor<2xui32>
    %426 = call @_normal_106(%425) : (tensor<2xui32>) -> tensor<2560x2560xf32>
    %cst_86 = stablehlo.constant dense<0.00999999977> : tensor<f32>
    %427 = stablehlo.broadcast_in_dim %cst_86, dims = [] : (tensor<f32>) -> tensor<2560x2560xf32>
    %428 = stablehlo.multiply %426, %427 : tensor<2560x2560xf32>
    %cst_87 = stablehlo.constant dense<0.000000e+00> : tensor<f32>
    %429 = stablehlo.broadcast_in_dim %cst_87, dims = [] : (tensor<f32>) -> tensor<2560xf32>
    %430 = call @_threefry_split(%415) : (tensor<2xui32>) -> tensor<2x2xui32>
    %431 = stablehlo.slice %430 [0:1, 0:2] : (tensor<2x2xui32>) -> tensor<1x2xui32>
    %432 = stablehlo.reshape %431 : (tensor<1x2xui32>) -> tensor<2xui32>
    %433 = call @_normal_106(%432) : (tensor<2xui32>) -> tensor<2560x2560xf32>
    %cst_88 = stablehlo.constant dense<0.00999999977> : tensor<f32>
    %434 = stablehlo.broadcast_in_dim %cst_88, dims = [] : (tensor<f32>) -> tensor<2560x2560xf32>
    %435 = stablehlo.multiply %433, %434 : tensor<2560x2560xf32>
    %cst_89 = stablehlo.constant dense<0.000000e+00> : tensor<f32>
    %436 = stablehlo.broadcast_in_dim %cst_89, dims = [] : (tensor<f32>) -> tensor<2560xf32>
    %437 = call @_threefry_split(%408) : (tensor<2xui32>) -> tensor<2x2xui32>
    %438 = stablehlo.slice %437 [0:1, 0:2] : (tensor<2x2xui32>) -> tensor<1x2xui32>
    %439 = stablehlo.reshape %438 : (tensor<1x2xui32>) -> tensor<2xui32>
    %440 = call @_threefry_split(%439) : (tensor<2xui32>) -> tensor<2x2xui32>
    %441 = stablehlo.slice %440 [0:1, 0:2] : (tensor<2x2xui32>) -> tensor<1x2xui32>
    %442 = stablehlo.reshape %441 : (tensor<1x2xui32>) -> tensor<2xui32>
    %443 = call @_normal_106(%442) : (tensor<2xui32>) -> tensor<2560x2560xf32>
    %cst_90 = stablehlo.constant dense<0.00999999977> : tensor<f32>
    %444 = stablehlo.broadcast_in_dim %cst_90, dims = [] : (tensor<f32>) -> tensor<2560x2560xf32>
    %445 = stablehlo.multiply %443, %444 : tensor<2560x2560xf32>
    %cst_91 = stablehlo.constant dense<0.000000e+00> : tensor<f32>
    %446 = stablehlo.broadcast_in_dim %cst_91, dims = [] : (tensor<f32>) -> tensor<2560xf32>
    %cst_92 = stablehlo.constant dense<1.000000e+00> : tensor<f32>
    %447 = stablehlo.broadcast_in_dim %cst_92, dims = [] : (tensor<f32>) -> tensor<2560xf32>
    %cst_93 = stablehlo.constant dense<0.000000e+00> : tensor<f32>
    %448 = stablehlo.broadcast_in_dim %cst_93, dims = [] : (tensor<f32>) -> tensor<2560xf32>
    %449 = call @_threefry_split(%401) : (tensor<2xui32>) -> tensor<2x2xui32>
    %450 = stablehlo.slice %449 [0:1, 0:2] : (tensor<2x2xui32>) -> tensor<1x2xui32>
    %451 = stablehlo.reshape %450 : (tensor<1x2xui32>) -> tensor<2xui32>
    %452 = call @_normal_127(%451) : (tensor<2xui32>) -> tensor<10240x2560xf32>
    %cst_94 = stablehlo.constant dense<0.00999999977> : tensor<f32>
    %453 = stablehlo.broadcast_in_dim %cst_94, dims = [] : (tensor<f32>) -> tensor<10240x2560xf32>
    %454 = stablehlo.multiply %452, %453 : tensor<10240x2560xf32>
    %cst_95 = stablehlo.constant dense<0.000000e+00> : tensor<f32>
    %455 = stablehlo.broadcast_in_dim %cst_95, dims = [] : (tensor<f32>) -> tensor<10240xf32>
    %456 = call @_threefry_split(%403) : (tensor<2xui32>) -> tensor<2x2xui32>
    %457 = stablehlo.slice %456 [0:1, 0:2] : (tensor<2x2xui32>) -> tensor<1x2xui32>
    %458 = stablehlo.reshape %457 : (tensor<1x2xui32>) -> tensor<2xui32>
    %459 = call @_threefry_split(%458) : (tensor<2xui32>) -> tensor<2x2xui32>
    %460 = stablehlo.slice %459 [0:1, 0:2] : (tensor<2x2xui32>) -> tensor<1x2xui32>
    %461 = stablehlo.reshape %460 : (tensor<1x2xui32>) -> tensor<2xui32>
    %462 = call @_normal_149(%461) : (tensor<2xui32>) -> tensor<2560x10240xf32>
    %cst_96 = stablehlo.constant dense<0.00999999977> : tensor<f32>
    %463 = stablehlo.broadcast_in_dim %cst_96, dims = [] : (tensor<f32>) -> tensor<2560x10240xf32>
    %464 = stablehlo.multiply %462, %463 : tensor<2560x10240xf32>
    %cst_97 = stablehlo.constant dense<0.000000e+00> : tensor<f32>
    %465 = stablehlo.broadcast_in_dim %cst_97, dims = [] : (tensor<f32>) -> tensor<2560xf32>
    %cst_98 = stablehlo.constant dense<1.000000e+00> : tensor<f32>
    %466 = stablehlo.broadcast_in_dim %cst_98, dims = [] : (tensor<f32>) -> tensor<2560xf32>
    %cst_99 = stablehlo.constant dense<0.000000e+00> : tensor<f32>
    %467 = stablehlo.broadcast_in_dim %cst_99, dims = [] : (tensor<f32>) -> tensor<2560xf32>
    %468 = stablehlo.slice %29 [6:7, 0:2] : (tensor<32x2xui32>) -> tensor<1x2xui32>
    %469 = stablehlo.reshape %468 : (tensor<1x2xui32>) -> tensor<2xui32>
    %470 = call @_threefry_split_92(%469) : (tensor<2xui32>) -> tensor<3x2xui32>
    %471 = stablehlo.slice %470 [0:1, 0:2] : (tensor<3x2xui32>) -> tensor<1x2xui32>
    %472 = stablehlo.reshape %471 : (tensor<1x2xui32>) -> tensor<2xui32>
    %473 = stablehlo.slice %470 [1:2, 0:2] : (tensor<3x2xui32>) -> tensor<1x2xui32>
    %474 = stablehlo.reshape %473 : (tensor<1x2xui32>) -> tensor<2xui32>
    %475 = stablehlo.slice %470 [2:3, 0:2] : (tensor<3x2xui32>) -> tensor<1x2xui32>
    %476 = stablehlo.reshape %475 : (tensor<1x2xui32>) -> tensor<2xui32>
    %477 = call @_threefry_split(%472) : (tensor<2xui32>) -> tensor<2x2xui32>
    %478 = stablehlo.slice %477 [0:1, 0:2] : (tensor<2x2xui32>) -> tensor<1x2xui32>
    %479 = stablehlo.reshape %478 : (tensor<1x2xui32>) -> tensor<2xui32>
    %480 = stablehlo.slice %477 [1:2, 0:2] : (tensor<2x2xui32>) -> tensor<1x2xui32>
    %481 = stablehlo.reshape %480 : (tensor<1x2xui32>) -> tensor<2xui32>
    %482 = call @_threefry_split_92(%479) : (tensor<2xui32>) -> tensor<3x2xui32>
    %483 = stablehlo.slice %482 [0:1, 0:2] : (tensor<3x2xui32>) -> tensor<1x2xui32>
    %484 = stablehlo.reshape %483 : (tensor<1x2xui32>) -> tensor<2xui32>
    %485 = stablehlo.slice %482 [1:2, 0:2] : (tensor<3x2xui32>) -> tensor<1x2xui32>
    %486 = stablehlo.reshape %485 : (tensor<1x2xui32>) -> tensor<2xui32>
    %487 = stablehlo.slice %482 [2:3, 0:2] : (tensor<3x2xui32>) -> tensor<1x2xui32>
    %488 = stablehlo.reshape %487 : (tensor<1x2xui32>) -> tensor<2xui32>
    %489 = call @_threefry_split(%484) : (tensor<2xui32>) -> tensor<2x2xui32>
    %490 = stablehlo.slice %489 [0:1, 0:2] : (tensor<2x2xui32>) -> tensor<1x2xui32>
    %491 = stablehlo.reshape %490 : (tensor<1x2xui32>) -> tensor<2xui32>
    %492 = call @_normal_106(%491) : (tensor<2xui32>) -> tensor<2560x2560xf32>
    %cst_100 = stablehlo.constant dense<0.00999999977> : tensor<f32>
    %493 = stablehlo.broadcast_in_dim %cst_100, dims = [] : (tensor<f32>) -> tensor<2560x2560xf32>
    %494 = stablehlo.multiply %492, %493 : tensor<2560x2560xf32>
    %cst_101 = stablehlo.constant dense<0.000000e+00> : tensor<f32>
    %495 = stablehlo.broadcast_in_dim %cst_101, dims = [] : (tensor<f32>) -> tensor<2560xf32>
    %496 = call @_threefry_split(%486) : (tensor<2xui32>) -> tensor<2x2xui32>
    %497 = stablehlo.slice %496 [0:1, 0:2] : (tensor<2x2xui32>) -> tensor<1x2xui32>
    %498 = stablehlo.reshape %497 : (tensor<1x2xui32>) -> tensor<2xui32>
    %499 = call @_normal_106(%498) : (tensor<2xui32>) -> tensor<2560x2560xf32>
    %cst_102 = stablehlo.constant dense<0.00999999977> : tensor<f32>
    %500 = stablehlo.broadcast_in_dim %cst_102, dims = [] : (tensor<f32>) -> tensor<2560x2560xf32>
    %501 = stablehlo.multiply %499, %500 : tensor<2560x2560xf32>
    %cst_103 = stablehlo.constant dense<0.000000e+00> : tensor<f32>
    %502 = stablehlo.broadcast_in_dim %cst_103, dims = [] : (tensor<f32>) -> tensor<2560xf32>
    %503 = call @_threefry_split(%488) : (tensor<2xui32>) -> tensor<2x2xui32>
    %504 = stablehlo.slice %503 [0:1, 0:2] : (tensor<2x2xui32>) -> tensor<1x2xui32>
    %505 = stablehlo.reshape %504 : (tensor<1x2xui32>) -> tensor<2xui32>
    %506 = call @_normal_106(%505) : (tensor<2xui32>) -> tensor<2560x2560xf32>
    %cst_104 = stablehlo.constant dense<0.00999999977> : tensor<f32>
    %507 = stablehlo.broadcast_in_dim %cst_104, dims = [] : (tensor<f32>) -> tensor<2560x2560xf32>
    %508 = stablehlo.multiply %506, %507 : tensor<2560x2560xf32>
    %cst_105 = stablehlo.constant dense<0.000000e+00> : tensor<f32>
    %509 = stablehlo.broadcast_in_dim %cst_105, dims = [] : (tensor<f32>) -> tensor<2560xf32>
    %510 = call @_threefry_split(%481) : (tensor<2xui32>) -> tensor<2x2xui32>
    %511 = stablehlo.slice %510 [0:1, 0:2] : (tensor<2x2xui32>) -> tensor<1x2xui32>
    %512 = stablehlo.reshape %511 : (tensor<1x2xui32>) -> tensor<2xui32>
    %513 = call @_threefry_split(%512) : (tensor<2xui32>) -> tensor<2x2xui32>
    %514 = stablehlo.slice %513 [0:1, 0:2] : (tensor<2x2xui32>) -> tensor<1x2xui32>
    %515 = stablehlo.reshape %514 : (tensor<1x2xui32>) -> tensor<2xui32>
    %516 = call @_normal_106(%515) : (tensor<2xui32>) -> tensor<2560x2560xf32>
    %cst_106 = stablehlo.constant dense<0.00999999977> : tensor<f32>
    %517 = stablehlo.broadcast_in_dim %cst_106, dims = [] : (tensor<f32>) -> tensor<2560x2560xf32>
    %518 = stablehlo.multiply %516, %517 : tensor<2560x2560xf32>
    %cst_107 = stablehlo.constant dense<0.000000e+00> : tensor<f32>
    %519 = stablehlo.broadcast_in_dim %cst_107, dims = [] : (tensor<f32>) -> tensor<2560xf32>
    %cst_108 = stablehlo.constant dense<1.000000e+00> : tensor<f32>
    %520 = stablehlo.broadcast_in_dim %cst_108, dims = [] : (tensor<f32>) -> tensor<2560xf32>
    %cst_109 = stablehlo.constant dense<0.000000e+00> : tensor<f32>
    %521 = stablehlo.broadcast_in_dim %cst_109, dims = [] : (tensor<f32>) -> tensor<2560xf32>
    %522 = call @_threefry_split(%474) : (tensor<2xui32>) -> tensor<2x2xui32>
    %523 = stablehlo.slice %522 [0:1, 0:2] : (tensor<2x2xui32>) -> tensor<1x2xui32>
    %524 = stablehlo.reshape %523 : (tensor<1x2xui32>) -> tensor<2xui32>
    %525 = call @_normal_127(%524) : (tensor<2xui32>) -> tensor<10240x2560xf32>
    %cst_110 = stablehlo.constant dense<0.00999999977> : tensor<f32>
    %526 = stablehlo.broadcast_in_dim %cst_110, dims = [] : (tensor<f32>) -> tensor<10240x2560xf32>
    %527 = stablehlo.multiply %525, %526 : tensor<10240x2560xf32>
    %cst_111 = stablehlo.constant dense<0.000000e+00> : tensor<f32>
    %528 = stablehlo.broadcast_in_dim %cst_111, dims = [] : (tensor<f32>) -> tensor<10240xf32>
    %529 = call @_threefry_split(%476) : (tensor<2xui32>) -> tensor<2x2xui32>
    %530 = stablehlo.slice %529 [0:1, 0:2] : (tensor<2x2xui32>) -> tensor<1x2xui32>
    %531 = stablehlo.reshape %530 : (tensor<1x2xui32>) -> tensor<2xui32>
    %532 = call @_threefry_split(%531) : (tensor<2xui32>) -> tensor<2x2xui32>
    %533 = stablehlo.slice %532 [0:1, 0:2] : (tensor<2x2xui32>) -> tensor<1x2xui32>
    %534 = stablehlo.reshape %533 : (tensor<1x2xui32>) -> tensor<2xui32>
    %535 = call @_normal_149(%534) : (tensor<2xui32>) -> tensor<2560x10240xf32>
    %cst_112 = stablehlo.constant dense<0.00999999977> : tensor<f32>
    %536 = stablehlo.broadcast_in_dim %cst_112, dims = [] : (tensor<f32>) -> tensor<2560x10240xf32>
    %537 = stablehlo.multiply %535, %536 : tensor<2560x10240xf32>
    %cst_113 = stablehlo.constant dense<0.000000e+00> : tensor<f32>
    %538 = stablehlo.broadcast_in_dim %cst_113, dims = [] : (tensor<f32>) -> tensor<2560xf32>
    %cst_114 = stablehlo.constant dense<1.000000e+00> : tensor<f32>
    %539 = stablehlo.broadcast_in_dim %cst_114, dims = [] : (tensor<f32>) -> tensor<2560xf32>
    %cst_115 = stablehlo.constant dense<0.000000e+00> : tensor<f32>
    %540 = stablehlo.broadcast_in_dim %cst_115, dims = [] : (tensor<f32>) -> tensor<2560xf32>
    %541 = stablehlo.slice %29 [7:8, 0:2] : (tensor<32x2xui32>) -> tensor<1x2xui32>
    %542 = stablehlo.reshape %541 : (tensor<1x2xui32>) -> tensor<2xui32>
    %543 = call @_threefry_split_92(%542) : (tensor<2xui32>) -> tensor<3x2xui32>
    %544 = stablehlo.slice %543 [0:1, 0:2] : (tensor<3x2xui32>) -> tensor<1x2xui32>
    %545 = stablehlo.reshape %544 : (tensor<1x2xui32>) -> tensor<2xui32>
    %546 = stablehlo.slice %543 [1:2, 0:2] : (tensor<3x2xui32>) -> tensor<1x2xui32>
    %547 = stablehlo.reshape %546 : (tensor<1x2xui32>) -> tensor<2xui32>
    %548 = stablehlo.slice %543 [2:3, 0:2] : (tensor<3x2xui32>) -> tensor<1x2xui32>
    %549 = stablehlo.reshape %548 : (tensor<1x2xui32>) -> tensor<2xui32>
    %550 = call @_threefry_split(%545) : (tensor<2xui32>) -> tensor<2x2xui32>
    %551 = stablehlo.slice %550 [0:1, 0:2] : (tensor<2x2xui32>) -> tensor<1x2xui32>
    %552 = stablehlo.reshape %551 : (tensor<1x2xui32>) -> tensor<2xui32>
    %553 = stablehlo.slice %550 [1:2, 0:2] : (tensor<2x2xui32>) -> tensor<1x2xui32>
    %554 = stablehlo.reshape %553 : (tensor<1x2xui32>) -> tensor<2xui32>
    %555 = call @_threefry_split_92(%552) : (tensor<2xui32>) -> tensor<3x2xui32>
    %556 = stablehlo.slice %555 [0:1, 0:2] : (tensor<3x2xui32>) -> tensor<1x2xui32>
    %557 = stablehlo.reshape %556 : (tensor<1x2xui32>) -> tensor<2xui32>
    %558 = stablehlo.slice %555 [1:2, 0:2] : (tensor<3x2xui32>) -> tensor<1x2xui32>
    %559 = stablehlo.reshape %558 : (tensor<1x2xui32>) -> tensor<2xui32>
    %560 = stablehlo.slice %555 [2:3, 0:2] : (tensor<3x2xui32>) -> tensor<1x2xui32>
    %561 = stablehlo.reshape %560 : (tensor<1x2xui32>) -> tensor<2xui32>
    %562 = call @_threefry_split(%557) : (tensor<2xui32>) -> tensor<2x2xui32>
    %563 = stablehlo.slice %562 [0:1, 0:2] : (tensor<2x2xui32>) -> tensor<1x2xui32>
    %564 = stablehlo.reshape %563 : (tensor<1x2xui32>) -> tensor<2xui32>
    %565 = call @_normal_106(%564) : (tensor<2xui32>) -> tensor<2560x2560xf32>
    %cst_116 = stablehlo.constant dense<0.00999999977> : tensor<f32>
    %566 = stablehlo.broadcast_in_dim %cst_116, dims = [] : (tensor<f32>) -> tensor<2560x2560xf32>
    %567 = stablehlo.multiply %565, %566 : tensor<2560x2560xf32>
    %cst_117 = stablehlo.constant dense<0.000000e+00> : tensor<f32>
    %568 = stablehlo.broadcast_in_dim %cst_117, dims = [] : (tensor<f32>) -> tensor<2560xf32>
    %569 = call @_threefry_split(%559) : (tensor<2xui32>) -> tensor<2x2xui32>
    %570 = stablehlo.slice %569 [0:1, 0:2] : (tensor<2x2xui32>) -> tensor<1x2xui32>
    %571 = stablehlo.reshape %570 : (tensor<1x2xui32>) -> tensor<2xui32>
    %572 = call @_normal_106(%571) : (tensor<2xui32>) -> tensor<2560x2560xf32>
    %cst_118 = stablehlo.constant dense<0.00999999977> : tensor<f32>
    %573 = stablehlo.broadcast_in_dim %cst_118, dims = [] : (tensor<f32>) -> tensor<2560x2560xf32>
    %574 = stablehlo.multiply %572, %573 : tensor<2560x2560xf32>
    %cst_119 = stablehlo.constant dense<0.000000e+00> : tensor<f32>
    %575 = stablehlo.broadcast_in_dim %cst_119, dims = [] : (tensor<f32>) -> tensor<2560xf32>
    %576 = call @_threefry_split(%561) : (tensor<2xui32>) -> tensor<2x2xui32>
    %577 = stablehlo.slice %576 [0:1, 0:2] : (tensor<2x2xui32>) -> tensor<1x2xui32>
    %578 = stablehlo.reshape %577 : (tensor<1x2xui32>) -> tensor<2xui32>
    %579 = call @_normal_106(%578) : (tensor<2xui32>) -> tensor<2560x2560xf32>
    %cst_120 = stablehlo.constant dense<0.00999999977> : tensor<f32>
    %580 = stablehlo.broadcast_in_dim %cst_120, dims = [] : (tensor<f32>) -> tensor<2560x2560xf32>
    %581 = stablehlo.multiply %579, %580 : tensor<2560x2560xf32>
    %cst_121 = stablehlo.constant dense<0.000000e+00> : tensor<f32>
    %582 = stablehlo.broadcast_in_dim %cst_121, dims = [] : (tensor<f32>) -> tensor<2560xf32>
    %583 = call @_threefry_split(%554) : (tensor<2xui32>) -> tensor<2x2xui32>
    %584 = stablehlo.slice %583 [0:1, 0:2] : (tensor<2x2xui32>) -> tensor<1x2xui32>
    %585 = stablehlo.reshape %584 : (tensor<1x2xui32>) -> tensor<2xui32>
    %586 = call @_threefry_split(%585) : (tensor<2xui32>) -> tensor<2x2xui32>
    %587 = stablehlo.slice %586 [0:1, 0:2] : (tensor<2x2xui32>) -> tensor<1x2xui32>
    %588 = stablehlo.reshape %587 : (tensor<1x2xui32>) -> tensor<2xui32>
    %589 = call @_normal_106(%588) : (tensor<2xui32>) -> tensor<2560x2560xf32>
    %cst_122 = stablehlo.constant dense<0.00999999977> : tensor<f32>
    %590 = stablehlo.broadcast_in_dim %cst_122, dims = [] : (tensor<f32>) -> tensor<2560x2560xf32>
    %591 = stablehlo.multiply %589, %590 : tensor<2560x2560xf32>
    %cst_123 = stablehlo.constant dense<0.000000e+00> : tensor<f32>
    %592 = stablehlo.broadcast_in_dim %cst_123, dims = [] : (tensor<f32>) -> tensor<2560xf32>
    %cst_124 = stablehlo.constant dense<1.000000e+00> : tensor<f32>
    %593 = stablehlo.broadcast_in_dim %cst_124, dims = [] : (tensor<f32>) -> tensor<2560xf32>
    %cst_125 = stablehlo.constant dense<0.000000e+00> : tensor<f32>
    %594 = stablehlo.broadcast_in_dim %cst_125, dims = [] : (tensor<f32>) -> tensor<2560xf32>
    %595 = call @_threefry_split(%547) : (tensor<2xui32>) -> tensor<2x2xui32>
    %596 = stablehlo.slice %595 [0:1, 0:2] : (tensor<2x2xui32>) -> tensor<1x2xui32>
    %597 = stablehlo.reshape %596 : (tensor<1x2xui32>) -> tensor<2xui32>
    %598 = call @_normal_127(%597) : (tensor<2xui32>) -> tensor<10240x2560xf32>
    %cst_126 = stablehlo.constant dense<0.00999999977> : tensor<f32>
    %599 = stablehlo.broadcast_in_dim %cst_126, dims = [] : (tensor<f32>) -> tensor<10240x2560xf32>
    %600 = stablehlo.multiply %598, %599 : tensor<10240x2560xf32>
    %cst_127 = stablehlo.constant dense<0.000000e+00> : tensor<f32>
    %601 = stablehlo.broadcast_in_dim %cst_127, dims = [] : (tensor<f32>) -> tensor<10240xf32>
    %602 = call @_threefry_split(%549) : (tensor<2xui32>) -> tensor<2x2xui32>
    %603 = stablehlo.slice %602 [0:1, 0:2] : (tensor<2x2xui32>) -> tensor<1x2xui32>
    %604 = stablehlo.reshape %603 : (tensor<1x2xui32>) -> tensor<2xui32>
    %605 = call @_threefry_split(%604) : (tensor<2xui32>) -> tensor<2x2xui32>
    %606 = stablehlo.slice %605 [0:1, 0:2] : (tensor<2x2xui32>) -> tensor<1x2xui32>
    %607 = stablehlo.reshape %606 : (tensor<1x2xui32>) -> tensor<2xui32>
    %608 = call @_normal_149(%607) : (tensor<2xui32>) -> tensor<2560x10240xf32>
    %cst_128 = stablehlo.constant dense<0.00999999977> : tensor<f32>
    %609 = stablehlo.broadcast_in_dim %cst_128, dims = [] : (tensor<f32>) -> tensor<2560x10240xf32>
    %610 = stablehlo.multiply %608, %609 : tensor<2560x10240xf32>
    %cst_129 = stablehlo.constant dense<0.000000e+00> : tensor<f32>
    %611 = stablehlo.broadcast_in_dim %cst_129, dims = [] : (tensor<f32>) -> tensor<2560xf32>
    %cst_130 = stablehlo.constant dense<1.000000e+00> : tensor<f32>
    %612 = stablehlo.broadcast_in_dim %cst_130, dims = [] : (tensor<f32>) -> tensor<2560xf32>
    %cst_131 = stablehlo.constant dense<0.000000e+00> : tensor<f32>
    %613 = stablehlo.broadcast_in_dim %cst_131, dims = [] : (tensor<f32>) -> tensor<2560xf32>
    %614 = stablehlo.slice %29 [8:9, 0:2] : (tensor<32x2xui32>) -> tensor<1x2xui32>
    %615 = stablehlo.reshape %614 : (tensor<1x2xui32>) -> tensor<2xui32>
    %616 = call @_threefry_split_92(%615) : (tensor<2xui32>) -> tensor<3x2xui32>
    %617 = stablehlo.slice %616 [0:1, 0:2] : (tensor<3x2xui32>) -> tensor<1x2xui32>
    %618 = stablehlo.reshape %617 : (tensor<1x2xui32>) -> tensor<2xui32>
    %619 = stablehlo.slice %616 [1:2, 0:2] : (tensor<3x2xui32>) -> tensor<1x2xui32>
    %620 = stablehlo.reshape %619 : (tensor<1x2xui32>) -> tensor<2xui32>
    %621 = stablehlo.slice %616 [2:3, 0:2] : (tensor<3x2xui32>) -> tensor<1x2xui32>
    %622 = stablehlo.reshape %621 : (tensor<1x2xui32>) -> tensor<2xui32>
    %623 = call @_threefry_split(%618) : (tensor<2xui32>) -> tensor<2x2xui32>
    %624 = stablehlo.slice %623 [0:1, 0:2] : (tensor<2x2xui32>) -> tensor<1x2xui32>
    %625 = stablehlo.reshape %624 : (tensor<1x2xui32>) -> tensor<2xui32>
    %626 = stablehlo.slice %623 [1:2, 0:2] : (tensor<2x2xui32>) -> tensor<1x2xui32>
    %627 = stablehlo.reshape %626 : (tensor<1x2xui32>) -> tensor<2xui32>
    %628 = call @_threefry_split_92(%625) : (tensor<2xui32>) -> tensor<3x2xui32>
    %629 = stablehlo.slice %628 [0:1, 0:2] : (tensor<3x2xui32>) -> tensor<1x2xui32>
    %630 = stablehlo.reshape %629 : (tensor<1x2xui32>) -> tensor<2xui32>
    %631 = stablehlo.slice %628 [1:2, 0:2] : (tensor<3x2xui32>) -> tensor<1x2xui32>
    %632 = stablehlo.reshape %631 : (tensor<1x2xui32>) -> tensor<2xui32>
    %633 = stablehlo.slice %628 [2:3, 0:2] : (tensor<3x2xui32>) -> tensor<1x2xui32>
    %634 = stablehlo.reshape %633 : (tensor<1x2xui32>) -> tensor<2xui32>
    %635 = call @_threefry_split(%630) : (tensor<2xui32>) -> tensor<2x2xui32>
    %636 = stablehlo.slice %635 [0:1, 0:2] : (tensor<2x2xui32>) -> tensor<1x2xui32>
    %637 = stablehlo.reshape %636 : (tensor<1x2xui32>) -> tensor<2xui32>
    %638 = call @_normal_106(%637) : (tensor<2xui32>) -> tensor<2560x2560xf32>
    %cst_132 = stablehlo.constant dense<0.00999999977> : tensor<f32>
    %639 = stablehlo.broadcast_in_dim %cst_132, dims = [] : (tensor<f32>) -> tensor<2560x2560xf32>
    %640 = stablehlo.multiply %638, %639 : tensor<2560x2560xf32>
    %cst_133 = stablehlo.constant dense<0.000000e+00> : tensor<f32>
    %641 = stablehlo.broadcast_in_dim %cst_133, dims = [] : (tensor<f32>) -> tensor<2560xf32>
    %642 = call @_threefry_split(%632) : (tensor<2xui32>) -> tensor<2x2xui32>
    %643 = stablehlo.slice %642 [0:1, 0:2] : (tensor<2x2xui32>) -> tensor<1x2xui32>
    %644 = stablehlo.reshape %643 : (tensor<1x2xui32>) -> tensor<2xui32>
    %645 = call @_normal_106(%644) : (tensor<2xui32>) -> tensor<2560x2560xf32>
    %cst_134 = stablehlo.constant dense<0.00999999977> : tensor<f32>
    %646 = stablehlo.broadcast_in_dim %cst_134, dims = [] : (tensor<f32>) -> tensor<2560x2560xf32>
    %647 = stablehlo.multiply %645, %646 : tensor<2560x2560xf32>
    %cst_135 = stablehlo.constant dense<0.000000e+00> : tensor<f32>
    %648 = stablehlo.broadcast_in_dim %cst_135, dims = [] : (tensor<f32>) -> tensor<2560xf32>
    %649 = call @_threefry_split(%634) : (tensor<2xui32>) -> tensor<2x2xui32>
    %650 = stablehlo.slice %649 [0:1, 0:2] : (tensor<2x2xui32>) -> tensor<1x2xui32>
    %651 = stablehlo.reshape %650 : (tensor<1x2xui32>) -> tensor<2xui32>
    %652 = call @_normal_106(%651) : (tensor<2xui32>) -> tensor<2560x2560xf32>
    %cst_136 = stablehlo.constant dense<0.00999999977> : tensor<f32>
    %653 = stablehlo.broadcast_in_dim %cst_136, dims = [] : (tensor<f32>) -> tensor<2560x2560xf32>
    %654 = stablehlo.multiply %652, %653 : tensor<2560x2560xf32>
    %cst_137 = stablehlo.constant dense<0.000000e+00> : tensor<f32>
    %655 = stablehlo.broadcast_in_dim %cst_137, dims = [] : (tensor<f32>) -> tensor<2560xf32>
    %656 = call @_threefry_split(%627) : (tensor<2xui32>) -> tensor<2x2xui32>
    %657 = stablehlo.slice %656 [0:1, 0:2] : (tensor<2x2xui32>) -> tensor<1x2xui32>
    %658 = stablehlo.reshape %657 : (tensor<1x2xui32>) -> tensor<2xui32>
    %659 = call @_threefry_split(%658) : (tensor<2xui32>) -> tensor<2x2xui32>
    %660 = stablehlo.slice %659 [0:1, 0:2] : (tensor<2x2xui32>) -> tensor<1x2xui32>
    %661 = stablehlo.reshape %660 : (tensor<1x2xui32>) -> tensor<2xui32>
    %662 = call @_normal_106(%661) : (tensor<2xui32>) -> tensor<2560x2560xf32>
    %cst_138 = stablehlo.constant dense<0.00999999977> : tensor<f32>
    %663 = stablehlo.broadcast_in_dim %cst_138, dims = [] : (tensor<f32>) -> tensor<2560x2560xf32>
    %664 = stablehlo.multiply %662, %663 : tensor<2560x2560xf32>
    %cst_139 = stablehlo.constant dense<0.000000e+00> : tensor<f32>
    %665 = stablehlo.broadcast_in_dim %cst_139, dims = [] : (tensor<f32>) -> tensor<2560xf32>
    %cst_140 = stablehlo.constant dense<1.000000e+00> : tensor<f32>
    %666 = stablehlo.broadcast_in_dim %cst_140, dims = [] : (tensor<f32>) -> tensor<2560xf32>
    %cst_141 = stablehlo.constant dense<0.000000e+00> : tensor<f32>
    %667 = stablehlo.broadcast_in_dim %cst_141, dims = [] : (tensor<f32>) -> tensor<2560xf32>
    %668 = call @_threefry_split(%620) : (tensor<2xui32>) -> tensor<2x2xui32>
    %669 = stablehlo.slice %668 [0:1, 0:2] : (tensor<2x2xui32>) -> tensor<1x2xui32>
    %670 = stablehlo.reshape %669 : (tensor<1x2xui32>) -> tensor<2xui32>
    %671 = call @_normal_127(%670) : (tensor<2xui32>) -> tensor<10240x2560xf32>
    %cst_142 = stablehlo.constant dense<0.00999999977> : tensor<f32>
    %672 = stablehlo.broadcast_in_dim %cst_142, dims = [] : (tensor<f32>) -> tensor<10240x2560xf32>
    %673 = stablehlo.multiply %671, %672 : tensor<10240x2560xf32>
    %cst_143 = stablehlo.constant dense<0.000000e+00> : tensor<f32>
    %674 = stablehlo.broadcast_in_dim %cst_143, dims = [] : (tensor<f32>) -> tensor<10240xf32>
    %675 = call @_threefry_split(%622) : (tensor<2xui32>) -> tensor<2x2xui32>
    %676 = stablehlo.slice %675 [0:1, 0:2] : (tensor<2x2xui32>) -> tensor<1x2xui32>
    %677 = stablehlo.reshape %676 : (tensor<1x2xui32>) -> tensor<2xui32>
    %678 = call @_threefry_split(%677) : (tensor<2xui32>) -> tensor<2x2xui32>
    %679 = stablehlo.slice %678 [0:1, 0:2] : (tensor<2x2xui32>) -> tensor<1x2xui32>
    %680 = stablehlo.reshape %679 : (tensor<1x2xui32>) -> tensor<2xui32>
    %681 = call @_normal_149(%680) : (tensor<2xui32>) -> tensor<2560x10240xf32>
    %cst_144 = stablehlo.constant dense<0.00999999977> : tensor<f32>
    %682 = stablehlo.broadcast_in_dim %cst_144, dims = [] : (tensor<f32>) -> tensor<2560x10240xf32>
    %683 = stablehlo.multiply %681, %682 : tensor<2560x10240xf32>
    %cst_145 = stablehlo.constant dense<0.000000e+00> : tensor<f32>
    %684 = stablehlo.broadcast_in_dim %cst_145, dims = [] : (tensor<f32>) -> tensor<2560xf32>
    %cst_146 = stablehlo.constant dense<1.000000e+00> : tensor<f32>
    %685 = stablehlo.broadcast_in_dim %cst_146, dims = [] : (tensor<f32>) -> tensor<2560xf32>
    %cst_147 = stablehlo.constant dense<0.000000e+00> : tensor<f32>
    %686 = stablehlo.broadcast_in_dim %cst_147, dims = [] : (tensor<f32>) -> tensor<2560xf32>
    %687 = stablehlo.slice %29 [9:10, 0:2] : (tensor<32x2xui32>) -> tensor<1x2xui32>
    %688 = stablehlo.reshape %687 : (tensor<1x2xui32>) -> tensor<2xui32>
    %689 = call @_threefry_split_92(%688) : (tensor<2xui32>) -> tensor<3x2xui32>
    %690 = stablehlo.slice %689 [0:1, 0:2] : (tensor<3x2xui32>) -> tensor<1x2xui32>
    %691 = stablehlo.reshape %690 : (tensor<1x2xui32>) -> tensor<2xui32>
    %692 = stablehlo.slice %689 [1:2, 0:2] : (tensor<3x2xui32>) -> tensor<1x2xui32>
    %693 = stablehlo.reshape %692 : (tensor<1x2xui32>) -> tensor<2xui32>
    %694 = stablehlo.slice %689 [2:3, 0:2] : (tensor<3x2xui32>) -> tensor<1x2xui32>
    %695 = stablehlo.reshape %694 : (tensor<1x2xui32>) -> tensor<2xui32>
    %696 = call @_threefry_split(%691) : (tensor<2xui32>) -> tensor<2x2xui32>
    %697 = stablehlo.slice %696 [0:1, 0:2] : (tensor<2x2xui32>) -> tensor<1x2xui32>
    %698 = stablehlo.reshape %697 : (tensor<1x2xui32>) -> tensor<2xui32>
    %699 = stablehlo.slice %696 [1:2, 0:2] : (tensor<2x2xui32>) -> tensor<1x2xui32>
    %700 = stablehlo.reshape %699 : (tensor<1x2xui32>) -> tensor<2xui32>
    %701 = call @_threefry_split_92(%698) : (tensor<2xui32>) -> tensor<3x2xui32>
    %702 = stablehlo.slice %701 [0:1, 0:2] : (tensor<3x2xui32>) -> tensor<1x2xui32>
    %703 = stablehlo.reshape %702 : (tensor<1x2xui32>) -> tensor<2xui32>
    %704 = stablehlo.slice %701 [1:2, 0:2] : (tensor<3x2xui32>) -> tensor<1x2xui32>
    %705 = stablehlo.reshape %704 : (tensor<1x2xui32>) -> tensor<2xui32>
    %706 = stablehlo.slice %701 [2:3, 0:2] : (tensor<3x2xui32>) -> tensor<1x2xui32>
    %707 = stablehlo.reshape %706 : (tensor<1x2xui32>) -> tensor<2xui32>
    %708 = call @_threefry_split(%703) : (tensor<2xui32>) -> tensor<2x2xui32>
    %709 = stablehlo.slice %708 [0:1, 0:2] : (tensor<2x2xui32>) -> tensor<1x2xui32>
    %710 = stablehlo.reshape %709 : (tensor<1x2xui32>) -> tensor<2xui32>
    %711 = call @_normal_106(%710) : (tensor<2xui32>) -> tensor<2560x2560xf32>
    %cst_148 = stablehlo.constant dense<0.00999999977> : tensor<f32>
    %712 = stablehlo.broadcast_in_dim %cst_148, dims = [] : (tensor<f32>) -> tensor<2560x2560xf32>
    %713 = stablehlo.multiply %711, %712 : tensor<2560x2560xf32>
    %cst_149 = stablehlo.constant dense<0.000000e+00> : tensor<f32>
    %714 = stablehlo.broadcast_in_dim %cst_149, dims = [] : (tensor<f32>) -> tensor<2560xf32>
    %715 = call @_threefry_split(%705) : (tensor<2xui32>) -> tensor<2x2xui32>
    %716 = stablehlo.slice %715 [0:1, 0:2] : (tensor<2x2xui32>) -> tensor<1x2xui32>
    %717 = stablehlo.reshape %716 : (tensor<1x2xui32>) -> tensor<2xui32>
    %718 = call @_normal_106(%717) : (tensor<2xui32>) -> tensor<2560x2560xf32>
    %cst_150 = stablehlo.constant dense<0.00999999977> : tensor<f32>
    %719 = stablehlo.broadcast_in_dim %cst_150, dims = [] : (tensor<f32>) -> tensor<2560x2560xf32>
    %720 = stablehlo.multiply %718, %719 : tensor<2560x2560xf32>
    %cst_151 = stablehlo.constant dense<0.000000e+00> : tensor<f32>
    %721 = stablehlo.broadcast_in_dim %cst_151, dims = [] : (tensor<f32>) -> tensor<2560xf32>
    %722 = call @_threefry_split(%707) : (tensor<2xui32>) -> tensor<2x2xui32>
    %723 = stablehlo.slice %722 [0:1, 0:2] : (tensor<2x2xui32>) -> tensor<1x2xui32>
    %724 = stablehlo.reshape %723 : (tensor<1x2xui32>) -> tensor<2xui32>
    %725 = call @_normal_106(%724) : (tensor<2xui32>) -> tensor<2560x2560xf32>
    %cst_152 = stablehlo.constant dense<0.00999999977> : tensor<f32>
    %726 = stablehlo.broadcast_in_dim %cst_152, dims = [] : (tensor<f32>) -> tensor<2560x2560xf32>
    %727 = stablehlo.multiply %725, %726 : tensor<2560x2560xf32>
    %cst_153 = stablehlo.constant dense<0.000000e+00> : tensor<f32>
    %728 = stablehlo.broadcast_in_dim %cst_153, dims = [] : (tensor<f32>) -> tensor<2560xf32>
    %729 = call @_threefry_split(%700) : (tensor<2xui32>) -> tensor<2x2xui32>
    %730 = stablehlo.slice %729 [0:1, 0:2] : (tensor<2x2xui32>) -> tensor<1x2xui32>
    %731 = stablehlo.reshape %730 : (tensor<1x2xui32>) -> tensor<2xui32>
    %732 = call @_threefry_split(%731) : (tensor<2xui32>) -> tensor<2x2xui32>
    %733 = stablehlo.slice %732 [0:1, 0:2] : (tensor<2x2xui32>) -> tensor<1x2xui32>
    %734 = stablehlo.reshape %733 : (tensor<1x2xui32>) -> tensor<2xui32>
    %735 = call @_normal_106(%734) : (tensor<2xui32>) -> tensor<2560x2560xf32>
    %cst_154 = stablehlo.constant dense<0.00999999977> : tensor<f32>
    %736 = stablehlo.broadcast_in_dim %cst_154, dims = [] : (tensor<f32>) -> tensor<2560x2560xf32>
    %737 = stablehlo.multiply %735, %736 : tensor<2560x2560xf32>
    %cst_155 = stablehlo.constant dense<0.000000e+00> : tensor<f32>
    %738 = stablehlo.broadcast_in_dim %cst_155, dims = [] : (tensor<f32>) -> tensor<2560xf32>
    %cst_156 = stablehlo.constant dense<1.000000e+00> : tensor<f32>
    %739 = stablehlo.broadcast_in_dim %cst_156, dims = [] : (tensor<f32>) -> tensor<2560xf32>
    %cst_157 = stablehlo.constant dense<0.000000e+00> : tensor<f32>
    %740 = stablehlo.broadcast_in_dim %cst_157, dims = [] : (tensor<f32>) -> tensor<2560xf32>
    %741 = call @_threefry_split(%693) : (tensor<2xui32>) -> tensor<2x2xui32>
    %742 = stablehlo.slice %741 [0:1, 0:2] : (tensor<2x2xui32>) -> tensor<1x2xui32>
    %743 = stablehlo.reshape %742 : (tensor<1x2xui32>) -> tensor<2xui32>
    %744 = call @_normal_127(%743) : (tensor<2xui32>) -> tensor<10240x2560xf32>
    %cst_158 = stablehlo.constant dense<0.00999999977> : tensor<f32>
    %745 = stablehlo.broadcast_in_dim %cst_158, dims = [] : (tensor<f32>) -> tensor<10240x2560xf32>
    %746 = stablehlo.multiply %744, %745 : tensor<10240x2560xf32>
    %cst_159 = stablehlo.constant dense<0.000000e+00> : tensor<f32>
    %747 = stablehlo.broadcast_in_dim %cst_159, dims = [] : (tensor<f32>) -> tensor<10240xf32>
    %748 = call @_threefry_split(%695) : (tensor<2xui32>) -> tensor<2x2xui32>
    %749 = stablehlo.slice %748 [0:1, 0:2] : (tensor<2x2xui32>) -> tensor<1x2xui32>
    %750 = stablehlo.reshape %749 : (tensor<1x2xui32>) -> tensor<2xui32>
    %751 = call @_threefry_split(%750) : (tensor<2xui32>) -> tensor<2x2xui32>
    %752 = stablehlo.slice %751 [0:1, 0:2] : (tensor<2x2xui32>) -> tensor<1x2xui32>
    %753 = stablehlo.reshape %752 : (tensor<1x2xui32>) -> tensor<2xui32>
    %754 = call @_normal_149(%753) : (tensor<2xui32>) -> tensor<2560x10240xf32>
    %cst_160 = stablehlo.constant dense<0.00999999977> : tensor<f32>
    %755 = stablehlo.broadcast_in_dim %cst_160, dims = [] : (tensor<f32>) -> tensor<2560x10240xf32>
    %756 = stablehlo.multiply %754, %755 : tensor<2560x10240xf32>
    %cst_161 = stablehlo.constant dense<0.000000e+00> : tensor<f32>
    %757 = stablehlo.broadcast_in_dim %cst_161, dims = [] : (tensor<f32>) -> tensor<2560xf32>
    %cst_162 = stablehlo.constant dense<1.000000e+00> : tensor<f32>
    %758 = stablehlo.broadcast_in_dim %cst_162, dims = [] : (tensor<f32>) -> tensor<2560xf32>
    %cst_163 = stablehlo.constant dense<0.000000e+00> : tensor<f32>
    %759 = stablehlo.broadcast_in_dim %cst_163, dims = [] : (tensor<f32>) -> tensor<2560xf32>
    %760 = stablehlo.slice %29 [10:11, 0:2] : (tensor<32x2xui32>) -> tensor<1x2xui32>
    %761 = stablehlo.reshape %760 : (tensor<1x2xui32>) -> tensor<2xui32>
    %762 = call @_threefry_split_92(%761) : (tensor<2xui32>) -> tensor<3x2xui32>
    %763 = stablehlo.slice %762 [0:1, 0:2] : (tensor<3x2xui32>) -> tensor<1x2xui32>
    %764 = stablehlo.reshape %763 : (tensor<1x2xui32>) -> tensor<2xui32>
    %765 = stablehlo.slice %762 [1:2, 0:2] : (tensor<3x2xui32>) -> tensor<1x2xui32>
    %766 = stablehlo.reshape %765 : (tensor<1x2xui32>) -> tensor<2xui32>
    %767 = stablehlo.slice %762 [2:3, 0:2] : (tensor<3x2xui32>) -> tensor<1x2xui32>
    %768 = stablehlo.reshape %767 : (tensor<1x2xui32>) -> tensor<2xui32>
    %769 = call @_threefry_split(%764) : (tensor<2xui32>) -> tensor<2x2xui32>
    %770 = stablehlo.slice %769 [0:1, 0:2] : (tensor<2x2xui32>) -> tensor<1x2xui32>
    %771 = stablehlo.reshape %770 : (tensor<1x2xui32>) -> tensor<2xui32>
    %772 = stablehlo.slice %769 [1:2, 0:2] : (tensor<2x2xui32>) -> tensor<1x2xui32>
    %773 = stablehlo.reshape %772 : (tensor<1x2xui32>) -> tensor<2xui32>
    %774 = call @_threefry_split_92(%771) : (tensor<2xui32>) -> tensor<3x2xui32>
    %775 = stablehlo.slice %774 [0:1, 0:2] : (tensor<3x2xui32>) -> tensor<1x2xui32>
    %776 = stablehlo.reshape %775 : (tensor<1x2xui32>) -> tensor<2xui32>
    %777 = stablehlo.slice %774 [1:2, 0:2] : (tensor<3x2xui32>) -> tensor<1x2xui32>
    %778 = stablehlo.reshape %777 : (tensor<1x2xui32>) -> tensor<2xui32>
    %779 = stablehlo.slice %774 [2:3, 0:2] : (tensor<3x2xui32>) -> tensor<1x2xui32>
    %780 = stablehlo.reshape %779 : (tensor<1x2xui32>) -> tensor<2xui32>
    %781 = call @_threefry_split(%776) : (tensor<2xui32>) -> tensor<2x2xui32>
    %782 = stablehlo.slice %781 [0:1, 0:2] : (tensor<2x2xui32>) -> tensor<1x2xui32>
    %783 = stablehlo.reshape %782 : (tensor<1x2xui32>) -> tensor<2xui32>
    %784 = call @_normal_106(%783) : (tensor<2xui32>) -> tensor<2560x2560xf32>
    %cst_164 = stablehlo.constant dense<0.00999999977> : tensor<f32>
    %785 = stablehlo.broadcast_in_dim %cst_164, dims = [] : (tensor<f32>) -> tensor<2560x2560xf32>
    %786 = stablehlo.multiply %784, %785 : tensor<2560x2560xf32>
    %cst_165 = stablehlo.constant dense<0.000000e+00> : tensor<f32>
    %787 = stablehlo.broadcast_in_dim %cst_165, dims = [] : (tensor<f32>) -> tensor<2560xf32>
    %788 = call @_threefry_split(%778) : (tensor<2xui32>) -> tensor<2x2xui32>
    %789 = stablehlo.slice %788 [0:1, 0:2] : (tensor<2x2xui32>) -> tensor<1x2xui32>
    %790 = stablehlo.reshape %789 : (tensor<1x2xui32>) -> tensor<2xui32>
    %791 = call @_normal_106(%790) : (tensor<2xui32>) -> tensor<2560x2560xf32>
    %cst_166 = stablehlo.constant dense<0.00999999977> : tensor<f32>
    %792 = stablehlo.broadcast_in_dim %cst_166, dims = [] : (tensor<f32>) -> tensor<2560x2560xf32>
    %793 = stablehlo.multiply %791, %792 : tensor<2560x2560xf32>
    %cst_167 = stablehlo.constant dense<0.000000e+00> : tensor<f32>
    %794 = stablehlo.broadcast_in_dim %cst_167, dims = [] : (tensor<f32>) -> tensor<2560xf32>
    %795 = call @_threefry_split(%780) : (tensor<2xui32>) -> tensor<2x2xui32>
    %796 = stablehlo.slice %795 [0:1, 0:2] : (tensor<2x2xui32>) -> tensor<1x2xui32>
    %797 = stablehlo.reshape %796 : (tensor<1x2xui32>) -> tensor<2xui32>
    %798 = call @_normal_106(%797) : (tensor<2xui32>) -> tensor<2560x2560xf32>
    %cst_168 = stablehlo.constant dense<0.00999999977> : tensor<f32>
    %799 = stablehlo.broadcast_in_dim %cst_168, dims = [] : (tensor<f32>) -> tensor<2560x2560xf32>
    %800 = stablehlo.multiply %798, %799 : tensor<2560x2560xf32>
    %cst_169 = stablehlo.constant dense<0.000000e+00> : tensor<f32>
    %801 = stablehlo.broadcast_in_dim %cst_169, dims = [] : (tensor<f32>) -> tensor<2560xf32>
    %802 = call @_threefry_split(%773) : (tensor<2xui32>) -> tensor<2x2xui32>
    %803 = stablehlo.slice %802 [0:1, 0:2] : (tensor<2x2xui32>) -> tensor<1x2xui32>
    %804 = stablehlo.reshape %803 : (tensor<1x2xui32>) -> tensor<2xui32>
    %805 = call @_threefry_split(%804) : (tensor<2xui32>) -> tensor<2x2xui32>
    %806 = stablehlo.slice %805 [0:1, 0:2] : (tensor<2x2xui32>) -> tensor<1x2xui32>
    %807 = stablehlo.reshape %806 : (tensor<1x2xui32>) -> tensor<2xui32>
    %808 = call @_normal_106(%807) : (tensor<2xui32>) -> tensor<2560x2560xf32>
    %cst_170 = stablehlo.constant dense<0.00999999977> : tensor<f32>
    %809 = stablehlo.broadcast_in_dim %cst_170, dims = [] : (tensor<f32>) -> tensor<2560x2560xf32>
    %810 = stablehlo.multiply %808, %809 : tensor<2560x2560xf32>
    %cst_171 = stablehlo.constant dense<0.000000e+00> : tensor<f32>
    %811 = stablehlo.broadcast_in_dim %cst_171, dims = [] : (tensor<f32>) -> tensor<2560xf32>
    %cst_172 = stablehlo.constant dense<1.000000e+00> : tensor<f32>
    %812 = stablehlo.broadcast_in_dim %cst_172, dims = [] : (tensor<f32>) -> tensor<2560xf32>
    %cst_173 = stablehlo.constant dense<0.000000e+00> : tensor<f32>
    %813 = stablehlo.broadcast_in_dim %cst_173, dims = [] : (tensor<f32>) -> tensor<2560xf32>
    %814 = call @_threefry_split(%766) : (tensor<2xui32>) -> tensor<2x2xui32>
    %815 = stablehlo.slice %814 [0:1, 0:2] : (tensor<2x2xui32>) -> tensor<1x2xui32>
    %816 = stablehlo.reshape %815 : (tensor<1x2xui32>) -> tensor<2xui32>
    %817 = call @_normal_127(%816) : (tensor<2xui32>) -> tensor<10240x2560xf32>
    %cst_174 = stablehlo.constant dense<0.00999999977> : tensor<f32>
    %818 = stablehlo.broadcast_in_dim %cst_174, dims = [] : (tensor<f32>) -> tensor<10240x2560xf32>
    %819 = stablehlo.multiply %817, %818 : tensor<10240x2560xf32>
    %cst_175 = stablehlo.constant dense<0.000000e+00> : tensor<f32>
    %820 = stablehlo.broadcast_in_dim %cst_175, dims = [] : (tensor<f32>) -> tensor<10240xf32>
    %821 = call @_threefry_split(%768) : (tensor<2xui32>) -> tensor<2x2xui32>
    %822 = stablehlo.slice %821 [0:1, 0:2] : (tensor<2x2xui32>) -> tensor<1x2xui32>
    %823 = stablehlo.reshape %822 : (tensor<1x2xui32>) -> tensor<2xui32>
    %824 = call @_threefry_split(%823) : (tensor<2xui32>) -> tensor<2x2xui32>
    %825 = stablehlo.slice %824 [0:1, 0:2] : (tensor<2x2xui32>) -> tensor<1x2xui32>
    %826 = stablehlo.reshape %825 : (tensor<1x2xui32>) -> tensor<2xui32>
    %827 = call @_normal_149(%826) : (tensor<2xui32>) -> tensor<2560x10240xf32>
    %cst_176 = stablehlo.constant dense<0.00999999977> : tensor<f32>
    %828 = stablehlo.broadcast_in_dim %cst_176, dims = [] : (tensor<f32>) -> tensor<2560x10240xf32>
    %829 = stablehlo.multiply %827, %828 : tensor<2560x10240xf32>
    %cst_177 = stablehlo.constant dense<0.000000e+00> : tensor<f32>
    %830 = stablehlo.broadcast_in_dim %cst_177, dims = [] : (tensor<f32>) -> tensor<2560xf32>
    %cst_178 = stablehlo.constant dense<1.000000e+00> : tensor<f32>
    %831 = stablehlo.broadcast_in_dim %cst_178, dims = [] : (tensor<f32>) -> tensor<2560xf32>
    %cst_179 = stablehlo.constant dense<0.000000e+00> : tensor<f32>
    %832 = stablehlo.broadcast_in_dim %cst_179, dims = [] : (tensor<f32>) -> tensor<2560xf32>
    %833 = stablehlo.slice %29 [11:12, 0:2] : (tensor<32x2xui32>) -> tensor<1x2xui32>
    %834 = stablehlo.reshape %833 : (tensor<1x2xui32>) -> tensor<2xui32>
    %835 = call @_threefry_split_92(%834) : (tensor<2xui32>) -> tensor<3x2xui32>
    %836 = stablehlo.slice %835 [0:1, 0:2] : (tensor<3x2xui32>) -> tensor<1x2xui32>
    %837 = stablehlo.reshape %836 : (tensor<1x2xui32>) -> tensor<2xui32>
    %838 = stablehlo.slice %835 [1:2, 0:2] : (tensor<3x2xui32>) -> tensor<1x2xui32>
    %839 = stablehlo.reshape %838 : (tensor<1x2xui32>) -> tensor<2xui32>
    %840 = stablehlo.slice %835 [2:3, 0:2] : (tensor<3x2xui32>) -> tensor<1x2xui32>
    %841 = stablehlo.reshape %840 : (tensor<1x2xui32>) -> tensor<2xui32>
    %842 = call @_threefry_split(%837) : (tensor<2xui32>) -> tensor<2x2xui32>
    %843 = stablehlo.slice %842 [0:1, 0:2] : (tensor<2x2xui32>) -> tensor<1x2xui32>
    %844 = stablehlo.reshape %843 : (tensor<1x2xui32>) -> tensor<2xui32>
    %845 = stablehlo.slice %842 [1:2, 0:2] : (tensor<2x2xui32>) -> tensor<1x2xui32>
    %846 = stablehlo.reshape %845 : (tensor<1x2xui32>) -> tensor<2xui32>
    %847 = call @_threefry_split_92(%844) : (tensor<2xui32>) -> tensor<3x2xui32>
    %848 = stablehlo.slice %847 [0:1, 0:2] : (tensor<3x2xui32>) -> tensor<1x2xui32>
    %849 = stablehlo.reshape %848 : (tensor<1x2xui32>) -> tensor<2xui32>
    %850 = stablehlo.slice %847 [1:2, 0:2] : (tensor<3x2xui32>) -> tensor<1x2xui32>
    %851 = stablehlo.reshape %850 : (tensor<1x2xui32>) -> tensor<2xui32>
    %852 = stablehlo.slice %847 [2:3, 0:2] : (tensor<3x2xui32>) -> tensor<1x2xui32>
    %853 = stablehlo.reshape %852 : (tensor<1x2xui32>) -> tensor<2xui32>
    %854 = call @_threefry_split(%849) : (tensor<2xui32>) -> tensor<2x2xui32>
    %855 = stablehlo.slice %854 [0:1, 0:2] : (tensor<2x2xui32>) -> tensor<1x2xui32>
    %856 = stablehlo.reshape %855 : (tensor<1x2xui32>) -> tensor<2xui32>
    %857 = call @_normal_106(%856) : (tensor<2xui32>) -> tensor<2560x2560xf32>
    %cst_180 = stablehlo.constant dense<0.00999999977> : tensor<f32>
    %858 = stablehlo.broadcast_in_dim %cst_180, dims = [] : (tensor<f32>) -> tensor<2560x2560xf32>
    %859 = stablehlo.multiply %857, %858 : tensor<2560x2560xf32>
    %cst_181 = stablehlo.constant dense<0.000000e+00> : tensor<f32>
    %860 = stablehlo.broadcast_in_dim %cst_181, dims = [] : (tensor<f32>) -> tensor<2560xf32>
    %861 = call @_threefry_split(%851) : (tensor<2xui32>) -> tensor<2x2xui32>
    %862 = stablehlo.slice %861 [0:1, 0:2] : (tensor<2x2xui32>) -> tensor<1x2xui32>
    %863 = stablehlo.reshape %862 : (tensor<1x2xui32>) -> tensor<2xui32>
    %864 = call @_normal_106(%863) : (tensor<2xui32>) -> tensor<2560x2560xf32>
    %cst_182 = stablehlo.constant dense<0.00999999977> : tensor<f32>
    %865 = stablehlo.broadcast_in_dim %cst_182, dims = [] : (tensor<f32>) -> tensor<2560x2560xf32>
    %866 = stablehlo.multiply %864, %865 : tensor<2560x2560xf32>
    %cst_183 = stablehlo.constant dense<0.000000e+00> : tensor<f32>
    %867 = stablehlo.broadcast_in_dim %cst_183, dims = [] : (tensor<f32>) -> tensor<2560xf32>
    %868 = call @_threefry_split(%853) : (tensor<2xui32>) -> tensor<2x2xui32>
    %869 = stablehlo.slice %868 [0:1, 0:2] : (tensor<2x2xui32>) -> tensor<1x2xui32>
    %870 = stablehlo.reshape %869 : (tensor<1x2xui32>) -> tensor<2xui32>
    %871 = call @_normal_106(%870) : (tensor<2xui32>) -> tensor<2560x2560xf32>
    %cst_184 = stablehlo.constant dense<0.00999999977> : tensor<f32>
    %872 = stablehlo.broadcast_in_dim %cst_184, dims = [] : (tensor<f32>) -> tensor<2560x2560xf32>
    %873 = stablehlo.multiply %871, %872 : tensor<2560x2560xf32>
    %cst_185 = stablehlo.constant dense<0.000000e+00> : tensor<f32>
    %874 = stablehlo.broadcast_in_dim %cst_185, dims = [] : (tensor<f32>) -> tensor<2560xf32>
    %875 = call @_threefry_split(%846) : (tensor<2xui32>) -> tensor<2x2xui32>
    %876 = stablehlo.slice %875 [0:1, 0:2] : (tensor<2x2xui32>) -> tensor<1x2xui32>
    %877 = stablehlo.reshape %876 : (tensor<1x2xui32>) -> tensor<2xui32>
    %878 = call @_threefry_split(%877) : (tensor<2xui32>) -> tensor<2x2xui32>
    %879 = stablehlo.slice %878 [0:1, 0:2] : (tensor<2x2xui32>) -> tensor<1x2xui32>
    %880 = stablehlo.reshape %879 : (tensor<1x2xui32>) -> tensor<2xui32>
    %881 = call @_normal_106(%880) : (tensor<2xui32>) -> tensor<2560x2560xf32>
    %cst_186 = stablehlo.constant dense<0.00999999977> : tensor<f32>
    %882 = stablehlo.broadcast_in_dim %cst_186, dims = [] : (tensor<f32>) -> tensor<2560x2560xf32>
    %883 = stablehlo.multiply %881, %882 : tensor<2560x2560xf32>
    %cst_187 = stablehlo.constant dense<0.000000e+00> : tensor<f32>
    %884 = stablehlo.broadcast_in_dim %cst_187, dims = [] : (tensor<f32>) -> tensor<2560xf32>
    %cst_188 = stablehlo.constant dense<1.000000e+00> : tensor<f32>
    %885 = stablehlo.broadcast_in_dim %cst_188, dims = [] : (tensor<f32>) -> tensor<2560xf32>
    %cst_189 = stablehlo.constant dense<0.000000e+00> : tensor<f32>
    %886 = stablehlo.broadcast_in_dim %cst_189, dims = [] : (tensor<f32>) -> tensor<2560xf32>
    %887 = call @_threefry_split(%839) : (tensor<2xui32>) -> tensor<2x2xui32>
    %888 = stablehlo.slice %887 [0:1, 0:2] : (tensor<2x2xui32>) -> tensor<1x2xui32>
    %889 = stablehlo.reshape %888 : (tensor<1x2xui32>) -> tensor<2xui32>
    %890 = call @_normal_127(%889) : (tensor<2xui32>) -> tensor<10240x2560xf32>
    %cst_190 = stablehlo.constant dense<0.00999999977> : tensor<f32>
    %891 = stablehlo.broadcast_in_dim %cst_190, dims = [] : (tensor<f32>) -> tensor<10240x2560xf32>
    %892 = stablehlo.multiply %890, %891 : tensor<10240x2560xf32>
    %cst_191 = stablehlo.constant dense<0.000000e+00> : tensor<f32>
    %893 = stablehlo.broadcast_in_dim %cst_191, dims = [] : (tensor<f32>) -> tensor<10240xf32>
    %894 = call @_threefry_split(%841) : (tensor<2xui32>) -> tensor<2x2xui32>
    %895 = stablehlo.slice %894 [0:1, 0:2] : (tensor<2x2xui32>) -> tensor<1x2xui32>
    %896 = stablehlo.reshape %895 : (tensor<1x2xui32>) -> tensor<2xui32>
    %897 = call @_threefry_split(%896) : (tensor<2xui32>) -> tensor<2x2xui32>
    %898 = stablehlo.slice %897 [0:1, 0:2] : (tensor<2x2xui32>) -> tensor<1x2xui32>
    %899 = stablehlo.reshape %898 : (tensor<1x2xui32>) -> tensor<2xui32>
    %900 = call @_normal_149(%899) : (tensor<2xui32>) -> tensor<2560x10240xf32>
    %cst_192 = stablehlo.constant dense<0.00999999977> : tensor<f32>
    %901 = stablehlo.broadcast_in_dim %cst_192, dims = [] : (tensor<f32>) -> tensor<2560x10240xf32>
    %902 = stablehlo.multiply %900, %901 : tensor<2560x10240xf32>
    %cst_193 = stablehlo.constant dense<0.000000e+00> : tensor<f32>
    %903 = stablehlo.broadcast_in_dim %cst_193, dims = [] : (tensor<f32>) -> tensor<2560xf32>
    %cst_194 = stablehlo.constant dense<1.000000e+00> : tensor<f32>
    %904 = stablehlo.broadcast_in_dim %cst_194, dims = [] : (tensor<f32>) -> tensor<2560xf32>
    %cst_195 = stablehlo.constant dense<0.000000e+00> : tensor<f32>
    %905 = stablehlo.broadcast_in_dim %cst_195, dims = [] : (tensor<f32>) -> tensor<2560xf32>
    %906 = stablehlo.slice %29 [12:13, 0:2] : (tensor<32x2xui32>) -> tensor<1x2xui32>
    %907 = stablehlo.reshape %906 : (tensor<1x2xui32>) -> tensor<2xui32>
    %908 = call @_threefry_split_92(%907) : (tensor<2xui32>) -> tensor<3x2xui32>
    %909 = stablehlo.slice %908 [0:1, 0:2] : (tensor<3x2xui32>) -> tensor<1x2xui32>
    %910 = stablehlo.reshape %909 : (tensor<1x2xui32>) -> tensor<2xui32>
    %911 = stablehlo.slice %908 [1:2, 0:2] : (tensor<3x2xui32>) -> tensor<1x2xui32>
    %912 = stablehlo.reshape %911 : (tensor<1x2xui32>) -> tensor<2xui32>
    %913 = stablehlo.slice %908 [2:3, 0:2] : (tensor<3x2xui32>) -> tensor<1x2xui32>
    %914 = stablehlo.reshape %913 : (tensor<1x2xui32>) -> tensor<2xui32>
    %915 = call @_threefry_split(%910) : (tensor<2xui32>) -> tensor<2x2xui32>
    %916 = stablehlo.slice %915 [0:1, 0:2] : (tensor<2x2xui32>) -> tensor<1x2xui32>
    %917 = stablehlo.reshape %916 : (tensor<1x2xui32>) -> tensor<2xui32>
    %918 = stablehlo.slice %915 [1:2, 0:2] : (tensor<2x2xui32>) -> tensor<1x2xui32>
    %919 = stablehlo.reshape %918 : (tensor<1x2xui32>) -> tensor<2xui32>
    %920 = call @_threefry_split_92(%917) : (tensor<2xui32>) -> tensor<3x2xui32>
    %921 = stablehlo.slice %920 [0:1, 0:2] : (tensor<3x2xui32>) -> tensor<1x2xui32>
    %922 = stablehlo.reshape %921 : (tensor<1x2xui32>) -> tensor<2xui32>
    %923 = stablehlo.slice %920 [1:2, 0:2] : (tensor<3x2xui32>) -> tensor<1x2xui32>
    %924 = stablehlo.reshape %923 : (tensor<1x2xui32>) -> tensor<2xui32>
    %925 = stablehlo.slice %920 [2:3, 0:2] : (tensor<3x2xui32>) -> tensor<1x2xui32>
    %926 = stablehlo.reshape %925 : (tensor<1x2xui32>) -> tensor<2xui32>
    %927 = call @_threefry_split(%922) : (tensor<2xui32>) -> tensor<2x2xui32>
    %928 = stablehlo.slice %927 [0:1, 0:2] : (tensor<2x2xui32>) -> tensor<1x2xui32>
    %929 = stablehlo.reshape %928 : (tensor<1x2xui32>) -> tensor<2xui32>
    %930 = call @_normal_106(%929) : (tensor<2xui32>) -> tensor<2560x2560xf32>
    %cst_196 = stablehlo.constant dense<0.00999999977> : tensor<f32>
    %931 = stablehlo.broadcast_in_dim %cst_196, dims = [] : (tensor<f32>) -> tensor<2560x2560xf32>
    %932 = stablehlo.multiply %930, %931 : tensor<2560x2560xf32>
    %cst_197 = stablehlo.constant dense<0.000000e+00> : tensor<f32>
    %933 = stablehlo.broadcast_in_dim %cst_197, dims = [] : (tensor<f32>) -> tensor<2560xf32>
    %934 = call @_threefry_split(%924) : (tensor<2xui32>) -> tensor<2x2xui32>
    %935 = stablehlo.slice %934 [0:1, 0:2] : (tensor<2x2xui32>) -> tensor<1x2xui32>
    %936 = stablehlo.reshape %935 : (tensor<1x2xui32>) -> tensor<2xui32>
    %937 = call @_normal_106(%936) : (tensor<2xui32>) -> tensor<2560x2560xf32>
    %cst_198 = stablehlo.constant dense<0.00999999977> : tensor<f32>
    %938 = stablehlo.broadcast_in_dim %cst_198, dims = [] : (tensor<f32>) -> tensor<2560x2560xf32>
    %939 = stablehlo.multiply %937, %938 : tensor<2560x2560xf32>
    %cst_199 = stablehlo.constant dense<0.000000e+00> : tensor<f32>
    %940 = stablehlo.broadcast_in_dim %cst_199, dims = [] : (tensor<f32>) -> tensor<2560xf32>
    %941 = call @_threefry_split(%926) : (tensor<2xui32>) -> tensor<2x2xui32>
    %942 = stablehlo.slice %941 [0:1, 0:2] : (tensor<2x2xui32>) -> tensor<1x2xui32>
    %943 = stablehlo.reshape %942 : (tensor<1x2xui32>) -> tensor<2xui32>
    %944 = call @_normal_106(%943) : (tensor<2xui32>) -> tensor<2560x2560xf32>
    %cst_200 = stablehlo.constant dense<0.00999999977> : tensor<f32>
    %945 = stablehlo.broadcast_in_dim %cst_200, dims = [] : (tensor<f32>) -> tensor<2560x2560xf32>
    %946 = stablehlo.multiply %944, %945 : tensor<2560x2560xf32>
    %cst_201 = stablehlo.constant dense<0.000000e+00> : tensor<f32>
    %947 = stablehlo.broadcast_in_dim %cst_201, dims = [] : (tensor<f32>) -> tensor<2560xf32>
    %948 = call @_threefry_split(%919) : (tensor<2xui32>) -> tensor<2x2xui32>
    %949 = stablehlo.slice %948 [0:1, 0:2] : (tensor<2x2xui32>) -> tensor<1x2xui32>
    %950 = stablehlo.reshape %949 : (tensor<1x2xui32>) -> tensor<2xui32>
    %951 = call @_threefry_split(%950) : (tensor<2xui32>) -> tensor<2x2xui32>
    %952 = stablehlo.slice %951 [0:1, 0:2] : (tensor<2x2xui32>) -> tensor<1x2xui32>
    %953 = stablehlo.reshape %952 : (tensor<1x2xui32>) -> tensor<2xui32>
    %954 = call @_normal_106(%953) : (tensor<2xui32>) -> tensor<2560x2560xf32>
    %cst_202 = stablehlo.constant dense<0.00999999977> : tensor<f32>
    %955 = stablehlo.broadcast_in_dim %cst_202, dims = [] : (tensor<f32>) -> tensor<2560x2560xf32>
    %956 = stablehlo.multiply %954, %955 : tensor<2560x2560xf32>
    %cst_203 = stablehlo.constant dense<0.000000e+00> : tensor<f32>
    %957 = stablehlo.broadcast_in_dim %cst_203, dims = [] : (tensor<f32>) -> tensor<2560xf32>
    %cst_204 = stablehlo.constant dense<1.000000e+00> : tensor<f32>
    %958 = stablehlo.broadcast_in_dim %cst_204, dims = [] : (tensor<f32>) -> tensor<2560xf32>
    %cst_205 = stablehlo.constant dense<0.000000e+00> : tensor<f32>
    %959 = stablehlo.broadcast_in_dim %cst_205, dims = [] : (tensor<f32>) -> tensor<2560xf32>
    %960 = call @_threefry_split(%912) : (tensor<2xui32>) -> tensor<2x2xui32>
    %961 = stablehlo.slice %960 [0:1, 0:2] : (tensor<2x2xui32>) -> tensor<1x2xui32>
    %962 = stablehlo.reshape %961 : (tensor<1x2xui32>) -> tensor<2xui32>
    %963 = call @_normal_127(%962) : (tensor<2xui32>) -> tensor<10240x2560xf32>
    %cst_206 = stablehlo.constant dense<0.00999999977> : tensor<f32>
    %964 = stablehlo.broadcast_in_dim %cst_206, dims = [] : (tensor<f32>) -> tensor<10240x2560xf32>
    %965 = stablehlo.multiply %963, %964 : tensor<10240x2560xf32>
    %cst_207 = stablehlo.constant dense<0.000000e+00> : tensor<f32>
    %966 = stablehlo.broadcast_in_dim %cst_207, dims = [] : (tensor<f32>) -> tensor<10240xf32>
    %967 = call @_threefry_split(%914) : (tensor<2xui32>) -> tensor<2x2xui32>
    %968 = stablehlo.slice %967 [0:1, 0:2] : (tensor<2x2xui32>) -> tensor<1x2xui32>
    %969 = stablehlo.reshape %968 : (tensor<1x2xui32>) -> tensor<2xui32>
    %970 = call @_threefry_split(%969) : (tensor<2xui32>) -> tensor<2x2xui32>
    %971 = stablehlo.slice %970 [0:1, 0:2] : (tensor<2x2xui32>) -> tensor<1x2xui32>
    %972 = stablehlo.reshape %971 : (tensor<1x2xui32>) -> tensor<2xui32>
    %973 = call @_normal_149(%972) : (tensor<2xui32>) -> tensor<2560x10240xf32>
    %cst_208 = stablehlo.constant dense<0.00999999977> : tensor<f32>
    %974 = stablehlo.broadcast_in_dim %cst_208, dims = [] : (tensor<f32>) -> tensor<2560x10240xf32>
    %975 = stablehlo.multiply %973, %974 : tensor<2560x10240xf32>
    %cst_209 = stablehlo.constant dense<0.000000e+00> : tensor<f32>
    %976 = stablehlo.broadcast_in_dim %cst_209, dims = [] : (tensor<f32>) -> tensor<2560xf32>
    %cst_210 = stablehlo.constant dense<1.000000e+00> : tensor<f32>
    %977 = stablehlo.broadcast_in_dim %cst_210, dims = [] : (tensor<f32>) -> tensor<2560xf32>
    %cst_211 = stablehlo.constant dense<0.000000e+00> : tensor<f32>
    %978 = stablehlo.broadcast_in_dim %cst_211, dims = [] : (tensor<f32>) -> tensor<2560xf32>
    %979 = stablehlo.slice %29 [13:14, 0:2] : (tensor<32x2xui32>) -> tensor<1x2xui32>
    %980 = stablehlo.reshape %979 : (tensor<1x2xui32>) -> tensor<2xui32>
    %981 = call @_threefry_split_92(%980) : (tensor<2xui32>) -> tensor<3x2xui32>
    %982 = stablehlo.slice %981 [0:1, 0:2] : (tensor<3x2xui32>) -> tensor<1x2xui32>
    %983 = stablehlo.reshape %982 : (tensor<1x2xui32>) -> tensor<2xui32>
    %984 = stablehlo.slice %981 [1:2, 0:2] : (tensor<3x2xui32>) -> tensor<1x2xui32>
    %985 = stablehlo.reshape %984 : (tensor<1x2xui32>) -> tensor<2xui32>
    %986 = stablehlo.slice %981 [2:3, 0:2] : (tensor<3x2xui32>) -> tensor<1x2xui32>
    %987 = stablehlo.reshape %986 : (tensor<1x2xui32>) -> tensor<2xui32>
    %988 = call @_threefry_split(%983) : (tensor<2xui32>) -> tensor<2x2xui32>
    %989 = stablehlo.slice %988 [0:1, 0:2] : (tensor<2x2xui32>) -> tensor<1x2xui32>
    %990 = stablehlo.reshape %989 : (tensor<1x2xui32>) -> tensor<2xui32>
…
    %65 = stablehlo.shift_right_logical %60, %64 : tensor<2560x2560xui32>
    %66 = stablehlo.or %63, %65 : tensor<2560x2560xui32>
    %67 = stablehlo.xor %61, %66 : tensor<2560x2560xui32>
    %68 = stablehlo.broadcast_in_dim %1, dims = [] : (tensor<ui32>) -> tensor<2560x2560xui32>
    %69 = stablehlo.add %61, %68 : tensor<2560x2560xui32>
    %70 = stablehlo.broadcast_in_dim %arg0, dims = [] : (tensor<ui32>) -> tensor<2560x2560xui32>
    %71 = stablehlo.add %67, %70 : tensor<2560x2560xui32>
    %c_17 = stablehlo.constant dense<2> : tensor<ui32>
    %72 = stablehlo.broadcast_in_dim %c_17, dims = [] : (tensor<ui32>) -> tensor<2560x2560xui32>
    %73 = stablehlo.add %71, %72 : tensor<2560x2560xui32>
    %74 = stablehlo.add %69, %73 : tensor<2560x2560xui32>
    %c_18 = stablehlo.constant dense<13> : tensor<ui32>
    %75 = stablehlo.broadcast_in_dim %c_18, dims = [] : (tensor<ui32>) -> tensor<2560x2560xui32>
    %76 = stablehlo.shift_left %73, %75 : tensor<2560x2560xui32>
    %c_19 = stablehlo.constant dense<19> : tensor<ui32>
    %77 = stablehlo.broadcast_in_dim %c_19, dims = [] : (tensor<ui32>) -> tensor<2560x2560xui32>
    %78 = stablehlo.shift_right_logical %73, %77 : tensor<2560x2560xui32>
    %79 = stablehlo.or %76, %78 : tensor<2560x2560xui32>
    %80 = stablehlo.xor %74, %79 : tensor<2560x2560xui32>
    %81 = stablehlo.add %74, %80 : tensor<2560x2560xui32>
    %c_20 = stablehlo.constant dense<15> : tensor<ui32>
    %82 = stablehlo.broadcast_in_dim %c_20, dims = [] : (tensor<ui32>) -> tensor<2560x2560xui32>
    %83 = stablehlo.shift_left %80, %82 : tensor<2560x2560xui32>
    %c_21 = stablehlo.constant dense<17> : tensor<ui32>
    %84 = stablehlo.broadcast_in_dim %c_21, dims = [] : (tensor<ui32>) -> tensor<2560x2560xui32>
    %85 = stablehlo.shift_right_logical %80, %84 : tensor<2560x2560xui32>
    %86 = stablehlo.or %83, %85 : tensor<2560x2560xui32>
    %87 = stablehlo.xor %81, %86 : tensor<2560x2560xui32>
    %88 = stablehlo.add %81, %87 : tensor<2560x2560xui32>
    %c_22 = stablehlo.constant dense<26> : tensor<ui32>
    %89 = stablehlo.broadcast_in_dim %c_22, dims = [] : (tensor<ui32>) -> tensor<2560x2560xui32>
    %90 = stablehlo.shift_left %87, %89 : tensor<2560x2560xui32>
    %c_23 = stablehlo.constant dense<6> : tensor<ui32>
    %91 = stablehlo.broadcast_in_dim %c_23, dims = [] : (tensor<ui32>) -> tensor<2560x2560xui32>
    %92 = stablehlo.shift_right_logical %87, %91 : tensor<2560x2560xui32>
    %93 = stablehlo.or %90, %92 : tensor<2560x2560xui32>
    %94 = stablehlo.xor %88, %93 : tensor<2560x2560xui32>
    %95 = stablehlo.add %88, %94 : tensor<2560x2560xui32>
    %c_24 = stablehlo.constant dense<6> : tensor<ui32>
    %96 = stablehlo.broadcast_in_dim %c_24, dims = [] : (tensor<ui32>) -> tensor<2560x2560xui32>
    %97 = stablehlo.shift_left %94, %96 : tensor<2560x2560xui32>
    %c_25 = stablehlo.constant dense<26> : tensor<ui32>
    %98 = stablehlo.broadcast_in_dim %c_25, dims = [] : (tensor<ui32>) -> tensor<2560x2560xui32>
    %99 = stablehlo.shift_right_logical %94, %98 : tensor<2560x2560xui32>
    %100 = stablehlo.or %97, %99 : tensor<2560x2560xui32>
    %101 = stablehlo.xor %95, %100 : tensor<2560x2560xui32>
    %102 = stablehlo.broadcast_in_dim %arg0, dims = [] : (tensor<ui32>) -> tensor<2560x2560xui32>
    %103 = stablehlo.add %95, %102 : tensor<2560x2560xui32>
    %104 = stablehlo.broadcast_in_dim %arg1, dims = [] : (tensor<ui32>) -> tensor<2560x2560xui32>
    %105 = stablehlo.add %101, %104 : tensor<2560x2560xui32>
    %c_26 = stablehlo.constant dense<3> : tensor<ui32>
    %106 = stablehlo.broadcast_in_dim %c_26, dims = [] : (tensor<ui32>) -> tensor<2560x2560xui32>
    %107 = stablehlo.add %105, %106 : tensor<2560x2560xui32>
    %108 = stablehlo.add %103, %107 : tensor<2560x2560xui32>
    %c_27 = stablehlo.constant dense<17> : tensor<ui32>
    %109 = stablehlo.broadcast_in_dim %c_27, dims = [] : (tensor<ui32>) -> tensor<2560x2560xui32>
    %110 = stablehlo.shift_left %107, %109 : tensor<2560x2560xui32>
    %c_28 = stablehlo.constant dense<15> : tensor<ui32>
    %111 = stablehlo.broadcast_in_dim %c_28, dims = [] : (tensor<ui32>) -> tensor<2560x2560xui32>
    %112 = stablehlo.shift_right_logical %107, %111 : tensor<2560x2560xui32>
    %113 = stablehlo.or %110, %112 : tensor<2560x2560xui32>
    %114 = stablehlo.xor %108, %113 : tensor<2560x2560xui32>
    %115 = stablehlo.add %108, %114 : tensor<2560x2560xui32>
    %c_29 = stablehlo.constant dense<29> : tensor<ui32>
    %116 = stablehlo.broadcast_in_dim %c_29, dims = [] : (tensor<ui32>) -> tensor<2560x2560xui32>
    %117 = stablehlo.shift_left %114, %116 : tensor<2560x2560xui32>
    %c_30 = stablehlo.constant dense<3> : tensor<ui32>
    %118 = stablehlo.broadcast_in_dim %c_30, dims = [] : (tensor<ui32>) -> tensor<2560x2560xui32>
    %119 = stablehlo.shift_right_logical %114, %118 : tensor<2560x2560xui32>
    %120 = stablehlo.or %117, %119 : tensor<2560x2560xui32>
    %121 = stablehlo.xor %115, %120 : tensor<2560x2560xui32>
    %122 = stablehlo.add %115, %121 : tensor<2560x2560xui32>
    %c_31 = stablehlo.constant dense<16> : tensor<ui32>
    %123 = stablehlo.broadcast_in_dim %c_31, dims = [] : (tensor<ui32>) -> tensor<2560x2560xui32>
    %124 = stablehlo.shift_left %121, %123 : tensor<2560x2560xui32>
    %c_32 = stablehlo.constant dense<16> : tensor<ui32>
    %125 = stablehlo.broadcast_in_dim %c_32, dims = [] : (tensor<ui32>) -> tensor<2560x2560xui32>
    %126 = stablehlo.shift_right_logical %121, %125 : tensor<2560x2560xui32>
    %127 = stablehlo.or %124, %126 : tensor<2560x2560xui32>
    %128 = stablehlo.xor %122, %127 : tensor<2560x2560xui32>
    %129 = stablehlo.add %122, %128 : tensor<2560x2560xui32>
    %c_33 = stablehlo.constant dense<24> : tensor<ui32>
    %130 = stablehlo.broadcast_in_dim %c_33, dims = [] : (tensor<ui32>) -> tensor<2560x2560xui32>
    %131 = stablehlo.shift_left %128, %130 : tensor<2560x2560xui32>
    %c_34 = stablehlo.constant dense<8> : tensor<ui32>
    %132 = stablehlo.broadcast_in_dim %c_34, dims = [] : (tensor<ui32>) -> tensor<2560x2560xui32>
    %133 = stablehlo.shift_right_logical %128, %132 : tensor<2560x2560xui32>
    %134 = stablehlo.or %131, %133 : tensor<2560x2560xui32>
    %135 = stablehlo.xor %129, %134 : tensor<2560x2560xui32>
    %136 = stablehlo.broadcast_in_dim %arg1, dims = [] : (tensor<ui32>) -> tensor<2560x2560xui32>
    %137 = stablehlo.add %129, %136 : tensor<2560x2560xui32>
    %138 = stablehlo.broadcast_in_dim %1, dims = [] : (tensor<ui32>) -> tensor<2560x2560xui32>
    %139 = stablehlo.add %135, %138 : tensor<2560x2560xui32>
    %c_35 = stablehlo.constant dense<4> : tensor<ui32>
    %140 = stablehlo.broadcast_in_dim %c_35, dims = [] : (tensor<ui32>) -> tensor<2560x2560xui32>
    %141 = stablehlo.add %139, %140 : tensor<2560x2560xui32>
    %142 = stablehlo.add %137, %141 : tensor<2560x2560xui32>
    %c_36 = stablehlo.constant dense<13> : tensor<ui32>
    %143 = stablehlo.broadcast_in_dim %c_36, dims = [] : (tensor<ui32>) -> tensor<2560x2560xui32>
    %144 = stablehlo.shift_left %141, %143 : tensor<2560x2560xui32>
    %c_37 = stablehlo.constant dense<19> : tensor<ui32>
    %145 = stablehlo.broadcast_in_dim %c_37, dims = [] : (tensor<ui32>) -> tensor<2560x2560xui32>
    %146 = stablehlo.shift_right_logical %141, %145 : tensor<2560x2560xui32>
    %147 = stablehlo.or %144, %146 : tensor<2560x2560xui32>
    %148 = stablehlo.xor %142, %147 : tensor<2560x2560xui32>
    %149 = stablehlo.add %142, %148 : tensor<2560x2560xui32>
    %c_38 = stablehlo.constant dense<15> : tensor<ui32>
    %150 = stablehlo.broadcast_in_dim %c_38, dims = [] : (tensor<ui32>) -> tensor<2560x2560xui32>
    %151 = stablehlo.shift_left %148, %150 : tensor<2560x2560xui32>
    %c_39 = stablehlo.constant dense<17> : tensor<ui32>
    %152 = stablehlo.broadcast_in_dim %c_39, dims = [] : (tensor<ui32>) -> tensor<2560x2560xui32>
    %153 = stablehlo.shift_right_logical %148, %152 : tensor<2560x2560xui32>
    %154 = stablehlo.or %151, %153 : tensor<2560x2560xui32>
    %155 = stablehlo.xor %149, %154 : tensor<2560x2560xui32>
    %156 = stablehlo.add %149, %155 : tensor<2560x2560xui32>
    %c_40 = stablehlo.constant dense<26> : tensor<ui32>
    %157 = stablehlo.broadcast_in_dim %c_40, dims = [] : (tensor<ui32>) -> tensor<2560x2560xui32>
    %158 = stablehlo.shift_left %155, %157 : tensor<2560x2560xui32>
    %c_41 = stablehlo.constant dense<6> : tensor<ui32>
    %159 = stablehlo.broadcast_in_dim %c_41, dims = [] : (tensor<ui32>) -> tensor<2560x2560xui32>
    %160 = stablehlo.shift_right_logical %155, %159 : tensor<2560x2560xui32>
    %161 = stablehlo.or %158, %160 : tensor<2560x2560xui32>
    %162 = stablehlo.xor %156, %161 : tensor<2560x2560xui32>
    %163 = stablehlo.add %156, %162 : tensor<2560x2560xui32>
    %c_42 = stablehlo.constant dense<6> : tensor<ui32>
    %164 = stablehlo.broadcast_in_dim %c_42, dims = [] : (tensor<ui32>) -> tensor<2560x2560xui32>
    %165 = stablehlo.shift_left %162, %164 : tensor<2560x2560xui32>
    %c_43 = stablehlo.constant dense<26> : tensor<ui32>
    %166 = stablehlo.broadcast_in_dim %c_43, dims = [] : (tensor<ui32>) -> tensor<2560x2560xui32>
    %167 = stablehlo.shift_right_logical %162, %166 : tensor<2560x2560xui32>
    %168 = stablehlo.or %165, %167 : tensor<2560x2560xui32>
    %169 = stablehlo.xor %163, %168 : tensor<2560x2560xui32>
    %170 = stablehlo.broadcast_in_dim %1, dims = [] : (tensor<ui32>) -> tensor<2560x2560xui32>
    %171 = stablehlo.add %163, %170 : tensor<2560x2560xui32>
    %172 = stablehlo.broadcast_in_dim %arg0, dims = [] : (tensor<ui32>) -> tensor<2560x2560xui32>
    %173 = stablehlo.add %169, %172 : tensor<2560x2560xui32>
    %c_44 = stablehlo.constant dense<5> : tensor<ui32>
    %174 = stablehlo.broadcast_in_dim %c_44, dims = [] : (tensor<ui32>) -> tensor<2560x2560xui32>
    %175 = stablehlo.add %173, %174 : tensor<2560x2560xui32>
    return %171, %175 : tensor<2560x2560xui32>, tensor<2560x2560xui32>
  }
  func.func private @_normal_127(%arg0: tensor<2xui32>) -> tensor<10240x2560xf32> {
    %0 = call @_normal_real_128(%arg0) : (tensor<2xui32>) -> tensor<10240x2560xf32>
    return %0 : tensor<10240x2560xf32>
  }
  func.func private @_normal_real_128(%arg0: tensor<2xui32>) -> tensor<10240x2560xf32> {
    %cst = stablehlo.constant dense<-0.99999994> : tensor<f32>
    %cst_0 = stablehlo.constant dense<1.000000e+00> : tensor<f32>
    %0 = call @_uniform_129(%arg0, %cst, %cst_0) : (tensor<2xui32>, tensor<f32>, tensor<f32>) -> tensor<10240x2560xf32>
    %1 = chlo.erf_inv %0 : tensor<10240x2560xf32> -> tensor<10240x2560xf32>
    %cst_1 = stablehlo.constant dense<1.41421354> : tensor<f32>
    %2 = stablehlo.broadcast_in_dim %cst_1, dims = [] : (tensor<f32>) -> tensor<10240x2560xf32>
    %3 = stablehlo.multiply %2, %1 : tensor<10240x2560xf32>
    return %3 : tensor<10240x2560xf32>
  }
  func.func private @_uniform_129(%arg0: tensor<2xui32>, %arg1: tensor<f32>, %arg2: tensor<f32>) -> tensor<10240x2560xf32> {
    %0 = stablehlo.broadcast_in_dim %arg1, dims = [] : (tensor<f32>) -> tensor<1x1xf32>
    %1 = stablehlo.broadcast_in_dim %arg2, dims = [] : (tensor<f32>) -> tensor<1x1xf32>
    %2 = stablehlo.slice %arg0 [0:1] : (tensor<2xui32>) -> tensor<1xui32>
    %3 = stablehlo.reshape %2 : (tensor<1xui32>) -> tensor<ui32>
    %4 = stablehlo.slice %arg0 [1:2] : (tensor<2xui32>) -> tensor<1xui32>
    %5 = stablehlo.reshape %4 : (tensor<1xui32>) -> tensor<ui32>
    %6 = stablehlo.iota dim = 0 : tensor<10240x2560xui64>
    %7 = stablehlo.iota dim = 1 : tensor<10240x2560xui64>
    %c = stablehlo.constant dense<2560> : tensor<ui64>
    %8 = stablehlo.broadcast_in_dim %c, dims = [] : (tensor<ui64>) -> tensor<10240x2560xui64>
    %9 = stablehlo.multiply %8, %6 : tensor<10240x2560xui64>
    %c_0 = stablehlo.constant dense<1> : tensor<ui64>
    %10 = stablehlo.broadcast_in_dim %c_0, dims = [] : (tensor<ui64>) -> tensor<10240x2560xui64>
    %11 = stablehlo.multiply %10, %7 : tensor<10240x2560xui64>
    %12 = stablehlo.add %9, %11 : tensor<10240x2560xui64>
    %c_1 = stablehlo.constant dense<32> : tensor<ui64>
    %13 = stablehlo.broadcast_in_dim %c_1, dims = [] : (tensor<ui64>) -> tensor<10240x2560xui64>
    %14 = stablehlo.shift_right_logical %12, %13 : tensor<10240x2560xui64>
    %15 = stablehlo.convert %12 : (tensor<10240x2560xui64>) -> tensor<10240x2560xui32>
    %16 = stablehlo.convert %14 : (tensor<10240x2560xui64>) -> tensor<10240x2560xui32>
    %17:2 = call @threefry2x32_132(%3, %5, %16, %15) : (tensor<ui32>, tensor<ui32>, tensor<10240x2560xui32>, tensor<10240x2560xui32>) -> (tensor<10240x2560xui32>, tensor<10240x2560xui32>)
    %18 = stablehlo.xor %17#0, %17#1 : tensor<10240x2560xui32>
    %c_2 = stablehlo.constant dense<9> : tensor<ui32>
    %19 = stablehlo.broadcast_in_dim %c_2, dims = [] : (tensor<ui32>) -> tensor<10240x2560xui32>
    %20 = stablehlo.shift_right_logical %18, %19 : tensor<10240x2560xui32>
    %c_3 = stablehlo.constant dense<1065353216> : tensor<ui32>
    %21 = stablehlo.broadcast_in_dim %c_3, dims = [] : (tensor<ui32>) -> tensor<10240x2560xui32>
    %22 = stablehlo.or %20, %21 : tensor<10240x2560xui32>
    %23 = stablehlo.bitcast_convert %22 : (tensor<10240x2560xui32>) -> tensor<10240x2560xf32>
    %cst = stablehlo.constant dense<1.000000e+00> : tensor<f32>
    %24 = stablehlo.broadcast_in_dim %cst, dims = [] : (tensor<f32>) -> tensor<10240x2560xf32>
    %25 = stablehlo.subtract %23, %24 : tensor<10240x2560xf32>
    %26 = stablehlo.subtract %1, %0 : tensor<1x1xf32>
    %27 = stablehlo.broadcast_in_dim %26, dims = [0, 1] : (tensor<1x1xf32>) -> tensor<10240x2560xf32>
    %28 = stablehlo.multiply %25, %27 : tensor<10240x2560xf32>
    %29 = stablehlo.broadcast_in_dim %0, dims = [0, 1] : (tensor<1x1xf32>) -> tensor<10240x2560xf32>
    %30 = stablehlo.add %28, %29 : tensor<10240x2560xf32>
    %31 = stablehlo.broadcast_in_dim %0, dims = [0, 1] : (tensor<1x1xf32>) -> tensor<10240x2560xf32>
    %32 = stablehlo.maximum %31, %30 : tensor<10240x2560xf32>
    return %32 : tensor<10240x2560xf32>
  }
  func.func private @threefry2x32_132(%arg0: tensor<ui32>, %arg1: tensor<ui32>, %arg2: tensor<10240x2560xui32>, %arg3: tensor<10240x2560xui32>) -> (tensor<10240x2560xui32>, tensor<10240x2560xui32>) {
    %0 = stablehlo.xor %arg0, %arg1 : tensor<ui32>
    %c = stablehlo.constant dense<466688986> : tensor<ui32>
    %1 = stablehlo.xor %0, %c : tensor<ui32>
    %2 = stablehlo.broadcast_in_dim %arg0, dims = [] : (tensor<ui32>) -> tensor<10240x2560xui32>
    %3 = stablehlo.add %arg2, %2 : tensor<10240x2560xui32>
    %4 = stablehlo.broadcast_in_dim %arg1, dims = [] : (tensor<ui32>) -> tensor<10240x2560xui32>
    %5 = stablehlo.add %arg3, %4 : tensor<10240x2560xui32>
    %6 = stablehlo.add %3, %5 : tensor<10240x2560xui32>
    %c_0 = stablehlo.constant dense<13> : tensor<ui32>
    %7 = stablehlo.broadcast_in_dim %c_0, dims = [] : (tensor<ui32>) -> tensor<10240x2560xui32>
    %8 = stablehlo.shift_left %5, %7 : tensor<10240x2560xui32>
    %c_1 = stablehlo.constant dense<19> : tensor<ui32>
    %9 = stablehlo.broadcast_in_dim %c_1, dims = [] : (tensor<ui32>) -> tensor<10240x2560xui32>
    %10 = stablehlo.shift_right_logical %5, %9 : tensor<10240x2560xui32>
    %11 = stablehlo.or %8, %10 : tensor<10240x2560xui32>
    %12 = stablehlo.xor %6, %11 : tensor<10240x2560xui32>
    %13 = stablehlo.add %6, %12 : tensor<10240x2560xui32>
    %c_2 = stablehlo.constant dense<15> : tensor<ui32>
    %14 = stablehlo.broadcast_in_dim %c_2, dims = [] : (tensor<ui32>) -> tensor<10240x2560xui32>
    %15 = stablehlo.shift_left %12, %14 : tensor<10240x2560xui32>
    %c_3 = stablehlo.constant dense<17> : tensor<ui32>
    %16 = stablehlo.broadcast_in_dim %c_3, dims = [] : (tensor<ui32>) -> tensor<10240x2560xui32>
    %17 = stablehlo.shift_right_logical %12, %16 : tensor<10240x2560xui32>
    %18 = stablehlo.or %15, %17 : tensor<10240x2560xui32>
    %19 = stablehlo.xor %13, %18 : tensor<10240x2560xui32>
    %20 = stablehlo.add %13, %19 : tensor<10240x2560xui32>
    %c_4 = stablehlo.constant dense<26> : tensor<ui32>
    %21 = stablehlo.broadcast_in_dim %c_4, dims = [] : (tensor<ui32>) -> tensor<10240x2560xui32>
    %22 = stablehlo.shift_left %19, %21 : tensor<10240x2560xui32>
    %c_5 = stablehlo.constant dense<6> : tensor<ui32>
    %23 = stablehlo.broadcast_in_dim %c_5, dims = [] : (tensor<ui32>) -> tensor<10240x2560xui32>
    %24 = stablehlo.shift_right_logical %19, %23 : tensor<10240x2560xui32>
    %25 = stablehlo.or %22, %24 : tensor<10240x2560xui32>
    %26 = stablehlo.xor %20, %25 : tensor<10240x2560xui32>
    %27 = stablehlo.add %20, %26 : tensor<10240x2560xui32>
    %c_6 = stablehlo.constant dense<6> : tensor<ui32>
    %28 = stablehlo.broadcast_in_dim %c_6, dims = [] : (tensor<ui32>) -> tensor<10240x2560xui32>
    %29 = stablehlo.shift_left %26, %28 : tensor<10240x2560xui32>
    %c_7 = stablehlo.constant dense<26> : tensor<ui32>
    %30 = stablehlo.broadcast_in_dim %c_7, dims = [] : (tensor<ui32>) -> tensor<10240x2560xui32>
    %31 = stablehlo.shift_right_logical %26, %30 : tensor<10240x2560xui32>
    %32 = stablehlo.or %29, %31 : tensor<10240x2560xui32>
    %33 = stablehlo.xor %27, %32 : tensor<10240x2560xui32>
    %34 = stablehlo.broadcast_in_dim %arg1, dims = [] : (tensor<ui32>) -> tensor<10240x2560xui32>
    %35 = stablehlo.add %27, %34 : tensor<10240x2560xui32>
    %36 = stablehlo.broadcast_in_dim %1, dims = [] : (tensor<ui32>) -> tensor<10240x2560xui32>
    %37 = stablehlo.add %33, %36 : tensor<10240x2560xui32>
    %c_8 = stablehlo.constant dense<1> : tensor<ui32>
    %38 = stablehlo.broadcast_in_dim %c_8, dims = [] : (tensor<ui32>) -> tensor<10240x2560xui32>
    %39 = stablehlo.add %37, %38 : tensor<10240x2560xui32>
    %40 = stablehlo.add %35, %39 : tensor<10240x2560xui32>
    %c_9 = stablehlo.constant dense<17> : tensor<ui32>
    %41 = stablehlo.broadcast_in_dim %c_9, dims = [] : (tensor<ui32>) -> tensor<10240x2560xui32>
    %42 = stablehlo.shift_left %39, %41 : tensor<10240x2560xui32>
    %c_10 = stablehlo.constant dense<15> : tensor<ui32>
    %43 = stablehlo.broadcast_in_dim %c_10, dims = [] : (tensor<ui32>) -> tensor<10240x2560xui32>
    %44 = stablehlo.shift_right_logical %39, %43 : tensor<10240x2560xui32>
    %45 = stablehlo.or %42, %44 : tensor<10240x2560xui32>
    %46 = stablehlo.xor %40, %45 : tensor<10240x2560xui32>
    %47 = stablehlo.add %40, %46 : tensor<10240x2560xui32>
    %c_11 = stablehlo.constant dense<29> : tensor<ui32>
    %48 = stablehlo.broadcast_in_dim %c_11, dims = [] : (tensor<ui32>) -> tensor<10240x2560xui32>
    %49 = stablehlo.shift_left %46, %48 : tensor<10240x2560xui32>
    %c_12 = stablehlo.constant dense<3> : tensor<ui32>
    %50 = stablehlo.broadcast_in_dim %c_12, dims = [] : (tensor<ui32>) -> tensor<10240x2560xui32>
    %51 = stablehlo.shift_right_logical %46, %50 : tensor<10240x2560xui32>
    %52 = stablehlo.or %49, %51 : tensor<10240x2560xui32>
    %53 = stablehlo.xor %47, %52 : tensor<10240x2560xui32>
    %54 = stablehlo.add %47, %53 : tensor<10240x2560xui32>
    %c_13 = stablehlo.constant dense<16> : tensor<ui32>
    %55 = stablehlo.broadcast_in_dim %c_13, dims = [] : (tensor<ui32>) -> tensor<10240x2560xui32>
    %56 = stablehlo.shift_left %53, %55 : tensor<10240x2560xui32>
    %c_14 = stablehlo.constant dense<16> : tensor<ui32>
    %57 = stablehlo.broadcast_in_dim %c_14, dims = [] : (tensor<ui32>) -> tensor<10240x2560xui32>
    %58 = stablehlo.shift_right_logical %53, %57 : tensor<10240x2560xui32>
    %59 = stablehlo.or %56, %58 : tensor<10240x2560xui32>
    %60 = stablehlo.xor %54, %59 : tensor<10240x2560xui32>
    %61 = stablehlo.add %54, %60 : tensor<10240x2560xui32>
    %c_15 = stablehlo.constant dense<24> : tensor<ui32>
    %62 = stablehlo.broadcast_in_dim %c_15, dims = [] : (tensor<ui32>) -> tensor<10240x2560xui32>
    %63 = stablehlo.shift_left %60, %62 : tensor<10240x2560xui32>
    %c_16 = stablehlo.constant dense<8> : tensor<ui32>
    %64 = stablehlo.broadcast_in_dim %c_16, dims = [] : (tensor<ui32>) -> tensor<10240x2560xui32>
    %65 = stablehlo.shift_right_logical %60, %64 : tensor<10240x2560xui32>
    %66 = stablehlo.or %63, %65 : tensor<10240x2560xui32>
    %67 = stablehlo.xor %61, %66 : tensor<10240x2560xui32>
    %68 = stablehlo.broadcast_in_dim %1, dims = [] : (tensor<ui32>) -> tensor<10240x2560xui32>
    %69 = stablehlo.add %61, %68 : tensor<10240x2560xui32>
    %70 = stablehlo.broadcast_in_dim %arg0, dims = [] : (tensor<ui32>) -> tensor<10240x2560xui32>
    %71 = stablehlo.add %67, %70 : tensor<10240x2560xui32>
    %c_17 = stablehlo.constant dense<2> : tensor<ui32>
    %72 = stablehlo.broadcast_in_dim %c_17, dims = [] : (tensor<ui32>) -> tensor<10240x2560xui32>
    %73 = stablehlo.add %71, %72 : tensor<10240x2560xui32>
    %74 = stablehlo.add %69, %73 : tensor<10240x2560xui32>
    %c_18 = stablehlo.constant dense<13> : tensor<ui32>
    %75 = stablehlo.broadcast_in_dim %c_18, dims = [] : (tensor<ui32>) -> tensor<10240x2560xui32>
    %76 = stablehlo.shift_left %73, %75 : tensor<10240x2560xui32>
    %c_19 = stablehlo.constant dense<19> : tensor<ui32>
    %77 = stablehlo.broadcast_in_dim %c_19, dims = [] : (tensor<ui32>) -> tensor<10240x2560xui32>
    %78 = stablehlo.shift_right_logical %73, %77 : tensor<10240x2560xui32>
    %79 = stablehlo.or %76, %78 : tensor<10240x2560xui32>
    %80 = stablehlo.xor %74, %79 : tensor<10240x2560xui32>
    %81 = stablehlo.add %74, %80 : tensor<10240x2560xui32>
    %c_20 = stablehlo.constant dense<15> : tensor<ui32>
    %82 = stablehlo.broadcast_in_dim %c_20, dims = [] : (tensor<ui32>) -> tensor<10240x2560xui32>
    %83 = stablehlo.shift_left %80, %82 : tensor<10240x2560xui32>
    %c_21 = stablehlo.constant dense<17> : tensor<ui32>
    %84 = stablehlo.broadcast_in_dim %c_21, dims = [] : (tensor<ui32>) -> tensor<10240x2560xui32>
    %85 = stablehlo.shift_right_logical %80, %84 : tensor<10240x2560xui32>
    %86 = stablehlo.or %83, %85 : tensor<10240x2560xui32>
    %87 = stablehlo.xor %81, %86 : tensor<10240x2560xui32>
    %88 = stablehlo.add %81, %87 : tensor<10240x2560xui32>
    %c_22 = stablehlo.constant dense<26> : tensor<ui32>
    %89 = stablehlo.broadcast_in_dim %c_22, dims = [] : (tensor<ui32>) -> tensor<10240x2560xui32>
    %90 = stablehlo.shift_left %87, %89 : tensor<10240x2560xui32>
    %c_23 = stablehlo.constant dense<6> : tensor<ui32>
    %91 = stablehlo.broadcast_in_dim %c_23, dims = [] : (tensor<ui32>) -> tensor<10240x2560xui32>
    %92 = stablehlo.shift_right_logical %87, %91 : tensor<10240x2560xui32>
    %93 = stablehlo.or %90, %92 : tensor<10240x2560xui32>
    %94 = stablehlo.xor %88, %93 : tensor<10240x2560xui32>
    %95 = stablehlo.add %88, %94 : tensor<10240x2560xui32>
    %c_24 = stablehlo.constant dense<6> : tensor<ui32>
    %96 = stablehlo.broadcast_in_dim %c_24, dims = [] : (tensor<ui32>) -> tensor<10240x2560xui32>
    %97 = stablehlo.shift_left %94, %96 : tensor<10240x2560xui32>
    %c_25 = stablehlo.constant dense<26> : tensor<ui32>
    %98 = stablehlo.broadcast_in_dim %c_25, dims = [] : (tensor<ui32>) -> tensor<10240x2560xui32>
    %99 = stablehlo.shift_right_logical %94, %98 : tensor<10240x2560xui32>
    %100 = stablehlo.or %97, %99 : tensor<10240x2560xui32>
    %101 = stablehlo.xor %95, %100 : tensor<10240x2560xui32>
    %102 = stablehlo.broadcast_in_dim %arg0, dims = [] : (tensor<ui32>) -> tensor<10240x2560xui32>
    %103 = stablehlo.add %95, %102 : tensor<10240x2560xui32>
    %104 = stablehlo.broadcast_in_dim %arg1, dims = [] : (tensor<ui32>) -> tensor<10240x2560xui32>
    %105 = stablehlo.add %101, %104 : tensor<10240x2560xui32>
    %c_26 = stablehlo.constant dense<3> : tensor<ui32>
    %106 = stablehlo.broadcast_in_dim %c_26, dims = [] : (tensor<ui32>) -> tensor<10240x2560xui32>
    %107 = stablehlo.add %105, %106 : tensor<10240x2560xui32>
    %108 = stablehlo.add %103, %107 : tensor<10240x2560xui32>
    %c_27 = stablehlo.constant dense<17> : tensor<ui32>
    %109 = stablehlo.broadcast_in_dim %c_27, dims = [] : (tensor<ui32>) -> tensor<10240x2560xui32>
    %110 = stablehlo.shift_left %107, %109 : tensor<10240x2560xui32>
    %c_28 = stablehlo.constant dense<15> : tensor<ui32>
    %111 = stablehlo.broadcast_in_dim %c_28, dims = [] : (tensor<ui32>) -> tensor<10240x2560xui32>
    %112 = stablehlo.shift_right_logical %107, %111 : tensor<10240x2560xui32>
    %113 = stablehlo.or %110, %112 : tensor<10240x2560xui32>
    %114 = stablehlo.xor %108, %113 : tensor<10240x2560xui32>
    %115 = stablehlo.add %108, %114 : tensor<10240x2560xui32>
    %c_29 = stablehlo.constant dense<29> : tensor<ui32>
    %116 = stablehlo.broadcast_in_dim %c_29, dims = [] : (tensor<ui32>) -> tensor<10240x2560xui32>
    %117 = stablehlo.shift_left %114, %116 : tensor<10240x2560xui32>
    %c_30 = stablehlo.constant dense<3> : tensor<ui32>
    %118 = stablehlo.broadcast_in_dim %c_30, dims = [] : (tensor<ui32>) -> tensor<10240x2560xui32>
    %119 = stablehlo.shift_right_logical %114, %118 : tensor<10240x2560xui32>
    %120 = stablehlo.or %117, %119 : tensor<10240x2560xui32>
    %121 = stablehlo.xor %115, %120 : tensor<10240x2560xui32>
    %122 = stablehlo.add %115, %121 : tensor<10240x2560xui32>
    %c_31 = stablehlo.constant dense<16> : tensor<ui32>
    %123 = stablehlo.broadcast_in_dim %c_31, dims = [] : (tensor<ui32>) -> tensor<10240x2560xui32>
    %124 = stablehlo.shift_left %121, %123 : tensor<10240x2560xui32>
    %c_32 = stablehlo.constant dense<16> : tensor<ui32>
    %125 = stablehlo.broadcast_in_dim %c_32, dims = [] : (tensor<ui32>) -> tensor<10240x2560xui32>
    %126 = stablehlo.shift_right_logical %121, %125 : tensor<10240x2560xui32>
    %127 = stablehlo.or %124, %126 : tensor<10240x2560xui32>
    %128 = stablehlo.xor %122, %127 : tensor<10240x2560xui32>
    %129 = stablehlo.add %122, %128 : tensor<10240x2560xui32>
    %c_33 = stablehlo.constant dense<24> : tensor<ui32>
    %130 = stablehlo.broadcast_in_dim %c_33, dims = [] : (tensor<ui32>) -> tensor<10240x2560xui32>
    %131 = stablehlo.shift_left %128, %130 : tensor<10240x2560xui32>
    %c_34 = stablehlo.constant dense<8> : tensor<ui32>
    %132 = stablehlo.broadcast_in_dim %c_34, dims = [] : (tensor<ui32>) -> tensor<10240x2560xui32>
    %133 = stablehlo.shift_right_logical %128, %132 : tensor<10240x2560xui32>
    %134 = stablehlo.or %131, %133 : tensor<10240x2560xui32>
    %135 = stablehlo.xor %129, %134 : tensor<10240x2560xui32>
    %136 = stablehlo.broadcast_in_dim %arg1, dims = [] : (tensor<ui32>) -> tensor<10240x2560xui32>
    %137 = stablehlo.add %129, %136 : tensor<10240x2560xui32>
    %138 = stablehlo.broadcast_in_dim %1, dims = [] : (tensor<ui32>) -> tensor<10240x2560xui32>
    %139 = stablehlo.add %135, %138 : tensor<10240x2560xui32>
    %c_35 = stablehlo.constant dense<4> : tensor<ui32>
    %140 = stablehlo.broadcast_in_dim %c_35, dims = [] : (tensor<ui32>) -> tensor<10240x2560xui32>
    %141 = stablehlo.add %139, %140 : tensor<10240x2560xui32>
    %142 = stablehlo.add %137, %141 : tensor<10240x2560xui32>
    %c_36 = stablehlo.constant dense<13> : tensor<ui32>
    %143 = stablehlo.broadcast_in_dim %c_36, dims = [] : (tensor<ui32>) -> tensor<10240x2560xui32>
    %144 = stablehlo.shift_left %141, %143 : tensor<10240x2560xui32>
    %c_37 = stablehlo.constant dense<19> : tensor<ui32>
    %145 = stablehlo.broadcast_in_dim %c_37, dims = [] : (tensor<ui32>) -> tensor<10240x2560xui32>
    %146 = stablehlo.shift_right_logical %141, %145 : tensor<10240x2560xui32>
    %147 = stablehlo.or %144, %146 : tensor<10240x2560xui32>
    %148 = stablehlo.xor %142, %147 : tensor<10240x2560xui32>
    %149 = stablehlo.add %142, %148 : tensor<10240x2560xui32>
    %c_38 = stablehlo.constant dense<15> : tensor<ui32>
    %150 = stablehlo.broadcast_in_dim %c_38, dims = [] : (tensor<ui32>) -> tensor<10240x2560xui32>
    %151 = stablehlo.shift_left %148, %150 : tensor<10240x2560xui32>
    %c_39 = stablehlo.constant dense<17> : tensor<ui32>
    %152 = stablehlo.broadcast_in_dim %c_39, dims = [] : (tensor<ui32>) -> tensor<10240x2560xui32>
    %153 = stablehlo.shift_right_logical %148, %152 : tensor<10240x2560xui32>
    %154 = stablehlo.or %151, %153 : tensor<10240x2560xui32>
    %155 = stablehlo.xor %149, %154 : tensor<10240x2560xui32>
    %156 = stablehlo.add %149, %155 : tensor<10240x2560xui32>
    %c_40 = stablehlo.constant dense<26> : tensor<ui32>
    %157 = stablehlo.broadcast_in_dim %c_40, dims = [] : (tensor<ui32>) -> tensor<10240x2560xui32>
    %158 = stablehlo.shift_left %155, %157 : tensor<10240x2560xui32>
    %c_41 = stablehlo.constant dense<6> : tensor<ui32>
    %159 = stablehlo.broadcast_in_dim %c_41, dims = [] : (tensor<ui32>) -> tensor<10240x2560xui32>
    %160 = stablehlo.shift_right_logical %155, %159 : tensor<10240x2560xui32>
    %161 = stablehlo.or %158, %160 : tensor<10240x2560xui32>
    %162 = stablehlo.xor %156, %161 : tensor<10240x2560xui32>
    %163 = stablehlo.add %156, %162 : tensor<10240x2560xui32>
    %c_42 = stablehlo.constant dense<6> : tensor<ui32>
    %164 = stablehlo.broadcast_in_dim %c_42, dims = [] : (tensor<ui32>) -> tensor<10240x2560xui32>
    %165 = stablehlo.shift_left %162, %164 : tensor<10240x2560xui32>
    %c_43 = stablehlo.constant dense<26> : tensor<ui32>
    %166 = stablehlo.broadcast_in_dim %c_43, dims = [] : (tensor<ui32>) -> tensor<10240x2560xui32>
    %167 = stablehlo.shift_right_logical %162, %166 : tensor<10240x2560xui32>
    %168 = stablehlo.or %165, %167 : tensor<10240x2560xui32>
    %169 = stablehlo.xor %163, %168 : tensor<10240x2560xui32>
    %170 = stablehlo.broadcast_in_dim %1, dims = [] : (tensor<ui32>) -> tensor<10240x2560xui32>
    %171 = stablehlo.add %163, %170 : tensor<10240x2560xui32>
    %172 = stablehlo.broadcast_in_dim %arg0, dims = [] : (tensor<ui32>) -> tensor<10240x2560xui32>
    %173 = stablehlo.add %169, %172 : tensor<10240x2560xui32>
    %c_44 = stablehlo.constant dense<5> : tensor<ui32>
    %174 = stablehlo.broadcast_in_dim %c_44, dims = [] : (tensor<ui32>) -> tensor<10240x2560xui32>
    %175 = stablehlo.add %173, %174 : tensor<10240x2560xui32>
    return %171, %175 : tensor<10240x2560xui32>, tensor<10240x2560xui32>
  }
  func.func private @_normal_149(%arg0: tensor<2xui32>) -> tensor<2560x10240xf32> {
    %0 = call @_normal_real_150(%arg0) : (tensor<2xui32>) -> tensor<2560x10240xf32>
    return %0 : tensor<2560x10240xf32>
  }
  func.func private @_normal_real_150(%arg0: tensor<2xui32>) -> tensor<2560x10240xf32> {
    %cst = stablehlo.constant dense<-0.99999994> : tensor<f32>
    %cst_0 = stablehlo.constant dense<1.000000e+00> : tensor<f32>
    %0 = call @_uniform_151(%arg0, %cst, %cst_0) : (tensor<2xui32>, tensor<f32>, tensor<f32>) -> tensor<2560x10240xf32>
    %1 = chlo.erf_inv %0 : tensor<2560x10240xf32> -> tensor<2560x10240xf32>
    %cst_1 = stablehlo.constant dense<1.41421354> : tensor<f32>
    %2 = stablehlo.broadcast_in_dim %cst_1, dims = [] : (tensor<f32>) -> tensor<2560x10240xf32>
    %3 = stablehlo.multiply %2, %1 : tensor<2560x10240xf32>
    return %3 : tensor<2560x10240xf32>
  }
  func.func private @_uniform_151(%arg0: tensor<2xui32>, %arg1: tensor<f32>, %arg2: tensor<f32>) -> tensor<2560x10240xf32> {
    %0 = stablehlo.broadcast_in_dim %arg1, dims = [] : (tensor<f32>) -> tensor<1x1xf32>
    %1 = stablehlo.broadcast_in_dim %arg2, dims = [] : (tensor<f32>) -> tensor<1x1xf32>
    %2 = stablehlo.slice %arg0 [0:1] : (tensor<2xui32>) -> tensor<1xui32>
    %3 = stablehlo.reshape %2 : (tensor<1xui32>) -> tensor<ui32>
    %4 = stablehlo.slice %arg0 [1:2] : (tensor<2xui32>) -> tensor<1xui32>
    %5 = stablehlo.reshape %4 : (tensor<1xui32>) -> tensor<ui32>
    %6 = stablehlo.iota dim = 0 : tensor<2560x10240xui64>
    %7 = stablehlo.iota dim = 1 : tensor<2560x10240xui64>
    %c = stablehlo.constant dense<10240> : tensor<ui64>
    %8 = stablehlo.broadcast_in_dim %c, dims = [] : (tensor<ui64>) -> tensor<2560x10240xui64>
    %9 = stablehlo.multiply %8, %6 : tensor<2560x10240xui64>
    %c_0 = stablehlo.constant dense<1> : tensor<ui64>
    %10 = stablehlo.broadcast_in_dim %c_0, dims = [] : (tensor<ui64>) -> tensor<2560x10240xui64>
    %11 = stablehlo.multiply %10, %7 : tensor<2560x10240xui64>
    %12 = stablehlo.add %9, %11 : tensor<2560x10240xui64>
    %c_1 = stablehlo.constant dense<32> : tensor<ui64>
    %13 = stablehlo.broadcast_in_dim %c_1, dims = [] : (tensor<ui64>) -> tensor<2560x10240xui64>
    %14 = stablehlo.shift_right_logical %12, %13 : tensor<2560x10240xui64>
    %15 = stablehlo.convert %12 : (tensor<2560x10240xui64>) -> tensor<2560x10240xui32>
    %16 = stablehlo.convert %14 : (tensor<2560x10240xui64>) -> tensor<2560x10240xui32>
    %17:2 = call @threefry2x32_154(%3, %5, %16, %15) : (tensor<ui32>, tensor<ui32>, tensor<2560x10240xui32>, tensor<2560x10240xui32>) -> (tensor<2560x10240xui32>, tensor<2560x10240xui32>)
    %18 = stablehlo.xor %17#0, %17#1 : tensor<2560x10240xui32>
    %c_2 = stablehlo.constant dense<9> : tensor<ui32>
    %19 = stablehlo.broadcast_in_dim %c_2, dims = [] : (tensor<ui32>) -> tensor<2560x10240xui32>
    %20 = stablehlo.shift_right_logical %18, %19 : tensor<2560x10240xui32>
    %c_3 = stablehlo.constant dense<1065353216> : tensor<ui32>
    %21 = stablehlo.broadcast_in_dim %c_3, dims = [] : (tensor<ui32>) -> tensor<2560x10240xui32>
    %22 = stablehlo.or %20, %21 : tensor<2560x10240xui32>
    %23 = stablehlo.bitcast_convert %22 : (tensor<2560x10240xui32>) -> tensor<2560x10240xf32>
    %cst = stablehlo.constant dense<1.000000e+00> : tensor<f32>
    %24 = stablehlo.broadcast_in_dim %cst, dims = [] : (tensor<f32>) -> tensor<2560x10240xf32>
    %25 = stablehlo.subtract %23, %24 : tensor<2560x10240xf32>
    %26 = stablehlo.subtract %1, %0 : tensor<1x1xf32>
    %27 = stablehlo.broadcast_in_dim %26, dims = [0, 1] : (tensor<1x1xf32>) -> tensor<2560x10240xf32>
    %28 = stablehlo.multiply %25, %27 : tensor<2560x10240xf32>
    %29 = stablehlo.broadcast_in_dim %0, dims = [0, 1] : (tensor<1x1xf32>) -> tensor<2560x10240xf32>
    %30 = stablehlo.add %28, %29 : tensor<2560x10240xf32>
    %31 = stablehlo.broadcast_in_dim %0, dims = [0, 1] : (tensor<1x1xf32>) -> tensor<2560x10240xf32>
    %32 = stablehlo.maximum %31, %30 : tensor<2560x10240xf32>
    return %32 : tensor<2560x10240xf32>
  }
  func.func private @threefry2x32_154(%arg0: tensor<ui32>, %arg1: tensor<ui32>, %arg2: tensor<2560x10240xui32>, %arg3: tensor<2560x10240xui32>) -> (tensor<2560x10240xui32>, tensor<2560x10240xui32>) {
    %0 = stablehlo.xor %arg0, %arg1 : tensor<ui32>
    %c = stablehlo.constant dense<466688986> : tensor<ui32>
    %1 = stablehlo.xor %0, %c : tensor<ui32>
    %2 = stablehlo.broadcast_in_dim %arg0, dims = [] : (tensor<ui32>) -> tensor<2560x10240xui32>
    %3 = stablehlo.add %arg2, %2 : tensor<2560x10240xui32>
    %4 = stablehlo.broadcast_in_dim %arg1, dims = [] : (tensor<ui32>) -> tensor<2560x10240xui32>
    %5 = stablehlo.add %arg3, %4 : tensor<2560x10240xui32>
    %6 = stablehlo.add %3, %5 : tensor<2560x10240xui32>
    %c_0 = stablehlo.constant dense<13> : tensor<ui32>
    %7 = stablehlo.broadcast_in_dim %c_0, dims = [] : (tensor<ui32>) -> tensor<2560x10240xui32>
    %8 = stablehlo.shift_left %5, %7 : tensor<2560x10240xui32>
    %c_1 = stablehlo.constant dense<19> : tensor<ui32>
    %9 = stablehlo.broadcast_in_dim %c_1, dims = [] : (tensor<ui32>) -> tensor<2560x10240xui32>
    %10 = stablehlo.shift_right_logical %5, %9 : tensor<2560x10240xui32>
    %11 = stablehlo.or %8, %10 : tensor<2560x10240xui32>
    %12 = stablehlo.xor %6, %11 : tensor<2560x10240xui32>
    %13 = stablehlo.add %6, %12 : tensor<2560x10240xui32>
    %c_2 = stablehlo.constant dense<15> : tensor<ui32>
    %14 = stablehlo.broadcast_in_dim %c_2, dims = [] : (tensor<ui32>) -> tensor<2560x10240xui32>
    %15 = stablehlo.shift_left %12, %14 : tensor<2560x10240xui32>
    %c_3 = stablehlo.constant dense<17> : tensor<ui32>
    %16 = stablehlo.broadcast_in_dim %c_3, dims = [] : (tensor<ui32>) -> tensor<2560x10240xui32>
    %17 = stablehlo.shift_right_logical %12, %16 : tensor<2560x10240xui32>
    %18 = stablehlo.or %15, %17 : tensor<2560x10240xui32>
    %19 = stablehlo.xor %13, %18 : tensor<2560x10240xui32>
    %20 = stablehlo.add %13, %19 : tensor<2560x10240xui32>
    %c_4 = stablehlo.constant dense<26> : tensor<ui32>
    %21 = stablehlo.broadcast_in_dim %c_4, dims = [] : (tensor<ui32>) -> tensor<2560x10240xui32>
    %22 = stablehlo.shift_left %19, %21 : tensor<2560x10240xui32>
    %c_5 = stablehlo.constant dense<6> : tensor<ui32>
    %23 = stablehlo.broadcast_in_dim %c_5, dims = [] : (tensor<ui32>) -> tensor<2560x10240xui32>
    %24 = stablehlo.shift_right_logical %19, %23 : tensor<2560x10240xui32>
    %25 = stablehlo.or %22, %24 : tensor<2560x10240xui32>
    %26 = stablehlo.xor %20, %25 : tensor<2560x10240xui32>
    %27 = stablehlo.add %20, %26 : tensor<2560x10240xui32>
    %c_6 = stablehlo.constant dense<6> : tensor<ui32>
    %28 = stablehlo.broadcast_in_dim %c_6, dims = [] : (tensor<ui32>) -> tensor<2560x10240xui32>
    %29 = stablehlo.shift_left %26, %28 : tensor<2560x10240xui32>
    %c_7 = stablehlo.constant dense<26> : tensor<ui32>
    %30 = stablehlo.broadcast_in_dim %c_7, dims = [] : (tensor<ui32>) -> tensor<2560x10240xui32>
    %31 = stablehlo.shift_right_logical %26, %30 : tensor<2560x10240xui32>
    %32 = stablehlo.or %29, %31 : tensor<2560x10240xui32>
    %33 = stablehlo.xor %27, %32 : tensor<2560x10240xui32>
    %34 = stablehlo.broadcast_in_dim %arg1, dims = [] : (tensor<ui32>) -> tensor<2560x10240xui32>
    %35 = stablehlo.add %27, %34 : tensor<2560x10240xui32>
    %36 = stablehlo.broadcast_in_dim %1, dims = [] : (tensor<ui32>) -> tensor<2560x10240xui32>
    %37 = stablehlo.add %33, %36 : tensor<2560x10240xui32>
    %c_8 = stablehlo.constant dense<1> : tensor<ui32>
    %38 = stablehlo.broadcast_in_dim %c_8, dims = [] : (tensor<ui32>) -> tensor<2560x10240xui32>
    %39 = stablehlo.add %37, %38 : tensor<2560x10240xui32>
    %40 = stablehlo.add %35, %39 : tensor<2560x10240xui32>
    %c_9 = stablehlo.constant dense<17> : tensor<ui32>
    %41 = stablehlo.broadcast_in_dim %c_9, dims = [] : (tensor<ui32>) -> tensor<2560x10240xui32>
    %42 = stablehlo.shift_left %39, %41 : tensor<2560x10240xui32>
    %c_10 = stablehlo.constant dense<15> : tensor<ui32>
    %43 = stablehlo.broadcast_in_dim %c_10, dims = [] : (tensor<ui32>) -> tensor<2560x10240xui32>
    %44 = stablehlo.shift_right_logical %39, %43 : tensor<2560x10240xui32>
    %45 = stablehlo.or %42, %44 : tensor<2560x10240xui32>
    %46 = stablehlo.xor %40, %45 : tensor<2560x10240xui32>
    %47 = stablehlo.add %40, %46 : tensor<2560x10240xui32>
    %c_11 = stablehlo.constant dense<29> : tensor<ui32>
    %48 = stablehlo.broadcast_in_dim %c_11, dims = [] : (tensor<ui32>) -> tensor<2560x10240xui32>
    %49 = stablehlo.shift_left %46, %48 : tensor<2560x10240xui32>
    %c_12 = stablehlo.constant dense<3> : tensor<ui32>
    %50 = stablehlo.broadcast_in_dim %c_12, dims = [] : (tensor<ui32>) -> tensor<2560x10240xui32>
    %51 = stablehlo.shift_right_logical %46, %50 : tensor<2560x10240xui32>
    %52 = stablehlo.or %49, %51 : tensor<2560x10240xui32>
    %53 = stablehlo.xor %47, %52 : tensor<2560x10240xui32>
    %54 = stablehlo.add %47, %53 : tensor<2560x10240xui32>
    %c_13 = stablehlo.constant dense<16> : tensor<ui32>
    %55 = stablehlo.broadcast_in_dim %c_13, dims = [] : (tensor<ui32>) -> tensor<2560x10240xui32>
    %56 = stablehlo.shift_left %53, %55 : tensor<2560x10240xui32>
    %c_14 = stablehlo.constant dense<16> : tensor<ui32>
    %57 = stablehlo.broadcast_in_dim %c_14, dims = [] : (tensor<ui32>) -> tensor<2560x10240xui32>
    %58 = stablehlo.shift_right_logical %53, %57 : tensor<2560x10240xui32>
    %59 = stablehlo.or %56, %58 : tensor<2560x10240xui32>
    %60 = stablehlo.xor %54, %59 : tensor<2560x10240xui32>
    %61 = stablehlo.add %54, %60 : tensor<2560x10240xui32>
    %c_15 = stablehlo.constant dense<24> : tensor<ui32>
    %62 = stablehlo.broadcast_in_dim %c_15, dims = [] : (tensor<ui32>) -> tensor<2560x10240xui32>
    %63 = stablehlo.shift_left %60, %62 : tensor<2560x10240xui32>
    %c_16 = stablehlo.constant dense<8> : tensor<ui32>
    %64 = stablehlo.broadcast_in_dim %c_16, dims = [] : (tensor<ui32>) -> tensor<2560x10240xui32>
    %65 = stablehlo.shift_right_logical %60, %64 : tensor<2560x10240xui32>
    %66 = stablehlo.or %63, %65 : tensor<2560x10240xui32>
    %67 = stablehlo.xor %61, %66 : tensor<2560x10240xui32>
    %68 = stablehlo.broadcast_in_dim %1, dims = [] : (tensor<ui32>) -> tensor<2560x10240xui32>
    %69 = stablehlo.add %61, %68 : tensor<2560x10240xui32>
    %70 = stablehlo.broadcast_in_dim %arg0, dims = [] : (tensor<ui32>) -> tensor<2560x10240xui32>
    %71 = stablehlo.add %67, %70 : tensor<2560x10240xui32>
    %c_17 = stablehlo.constant dense<2> : tensor<ui32>
    %72 = stablehlo.broadcast_in_dim %c_17, dims = [] : (tensor<ui32>) -> tensor<2560x10240xui32>
    %73 = stablehlo.add %71, %72 : tensor<2560x10240xui32>
    %74 = stablehlo.add %69, %73 : tensor<2560x10240xui32>
    %c_18 = stablehlo.constant dense<13> : tensor<ui32>
    %75 = stablehlo.broadcast_in_dim %c_18, dims = [] : (tensor<ui32>) -> tensor<2560x10240xui32>
    %76 = stablehlo.shift_left %73, %75 : tensor<2560x10240xui32>
    %c_19 = stablehlo.constant dense<19> : tensor<ui32>
    %77 = stablehlo.broadcast_in_dim %c_19, dims = [] : (tensor<ui32>) -> tensor<2560x10240xui32>
    %78 = stablehlo.shift_right_logical %73, %77 : tensor<2560x10240xui32>
    %79 = stablehlo.or %76, %78 : tensor<2560x10240xui32>
    %80 = stablehlo.xor %74, %79 : tensor<2560x10240xui32>
    %81 = stablehlo.add %74, %80 : tensor<2560x10240xui32>
    %c_20 = stablehlo.constant dense<15> : tensor<ui32>
    %82 = stablehlo.broadcast_in_dim %c_20, dims = [] : (tensor<ui32>) -> tensor<2560x10240xui32>
    %83 = stablehlo.shift_left %80, %82 : tensor<2560x10240xui32>
    %c_21 = stablehlo.constant dense<17> : tensor<ui32>
    %84 = stablehlo.broadcast_in_dim %c_21, dims = [] : (tensor<ui32>) -> tensor<2560x10240xui32>
    %85 = stablehlo.shift_right_logical %80, %84 : tensor<2560x10240xui32>
    %86 = stablehlo.or %83, %85 : tensor<2560x10240xui32>
    %87 = stablehlo.xor %81, %86 : tensor<2560x10240xui32>
    %88 = stablehlo.add %81, %87 : tensor<2560x10240xui32>
    %c_22 = stablehlo.constant dense<26> : tensor<ui32>
    %89 = stablehlo.broadcast_in_dim %c_22, dims = [] : (tensor<ui32>) -> tensor<2560x10240xui32>
    %90 = stablehlo.shift_left %87, %89 : tensor<2560x10240xui32>
    %c_23 = stablehlo.constant dense<6> : tensor<ui32>
    %91 = stablehlo.broadcast_in_dim %c_23, dims = [] : (tensor<ui32>) -> tensor<2560x10240xui32>
    %92 = stablehlo.shift_right_logical %87, %91 : tensor<2560x10240xui32>
    %93 = stablehlo.or %90, %92 : tensor<2560x10240xui32>
    %94 = stablehlo.xor %88, %93 : tensor<2560x10240xui32>
    %95 = stablehlo.add %88, %94 : tensor<2560x10240xui32>
    %c_24 = stablehlo.constant dense<6> : tensor<ui32>
    %96 = stablehlo.broadcast_in_dim %c_24, dims = [] : (tensor<ui32>) -> tensor<2560x10240xui32>
    %97 = stablehlo.shift_left %94, %96 : tensor<2560x10240xui32>
    %c_25 = stablehlo.constant dense<26> : tensor<ui32>
    %98 = stablehlo.broadcast_in_dim %c_25, dims = [] : (tensor<ui32>) -> tensor<2560x10240xui32>
    %99 = stablehlo.shift_right_logical %94, %98 : tensor<2560x10240xui32>
    %100 = stablehlo.or %97, %99 : tensor<2560x10240xui32>
    %101 = stablehlo.xor %95, %100 : tensor<2560x10240xui32>
    %102 = stablehlo.broadcast_in_dim %arg0, dims = [] : (tensor<ui32>) -> tensor<2560x10240xui32>
    %103 = stablehlo.add %95, %102 : tensor<2560x10240xui32>
    %104 = stablehlo.broadcast_in_dim %arg1, dims = [] : (tensor<ui32>) -> tensor<2560x10240xui32>
    %105 = stablehlo.add %101, %104 : tensor<2560x10240xui32>
    %c_26 = stablehlo.constant dense<3> : tensor<ui32>
    %106 = stablehlo.broadcast_in_dim %c_26, dims = [] : (tensor<ui32>) -> tensor<2560x10240xui32>
    %107 = stablehlo.add %105, %106 : tensor<2560x10240xui32>
    %108 = stablehlo.add %103, %107 : tensor<2560x10240xui32>
    %c_27 = stablehlo.constant dense<17> : tensor<ui32>
    %109 = stablehlo.broadcast_in_dim %c_27, dims = [] : (tensor<ui32>) -> tensor<2560x10240xui32>
    %110 = stablehlo.shift_left %107, %109 : tensor<2560x10240xui32>
    %c_28 = stablehlo.constant dense<15> : tensor<ui32>
    %111 = stablehlo.broadcast_in_dim %c_28, dims = [] : (tensor<ui32>) -> tensor<2560x10240xui32>
    %112 = stablehlo.shift_right_logical %107, %111 : tensor<2560x10240xui32>
    %113 = stablehlo.or %110, %112 : tensor<2560x10240xui32>
    %114 = stablehlo.xor %108, %113 : tensor<2560x10240xui32>
    %115 = stablehlo.add %108, %114 : tensor<2560x10240xui32>
    %c_29 = stablehlo.constant dense<29> : tensor<ui32>
    %116 = stablehlo.broadcast_in_dim %c_29, dims = [] : (tensor<ui32>) -> tensor<2560x10240xui32>
    %117 = stablehlo.shift_left %114, %116 : tensor<2560x10240xui32>
    %c_30 = stablehlo.constant dense<3> : tensor<ui32>
    %118 = stablehlo.broadcast_in_dim %c_30, dims = [] : (tensor<ui32>) -> tensor<2560x10240xui32>
    %119 = stablehlo.shift_right_logical %114, %118 : tensor<2560x10240xui32>
    %120 = stablehlo.or %117, %119 : tensor<2560x10240xui32>
    %121 = stablehlo.xor %115, %120 : tensor<2560x10240xui32>
    %122 = stablehlo.add %115, %121 : tensor<2560x10240xui32>
    %c_31 = stablehlo.constant dense<16> : tensor<ui32>
    %123 = stablehlo.broadcast_in_dim %c_31, dims = [] : (tensor<ui32>) -> tensor<2560x10240xui32>
    %124 = stablehlo.shift_left %121, %123 : tensor<2560x10240xui32>
    %c_32 = stablehlo.constant dense<16> : tensor<ui32>
    %125 = stablehlo.broadcast_in_dim %c_32, dims = [] : (tensor<ui32>) -> tensor<2560x10240xui32>
    %126 = stablehlo.shift_right_logical %121, %125 : tensor<2560x10240xui32>
    %127 = stablehlo.or %124, %126 : tensor<2560x10240xui32>
    %128 = stablehlo.xor %122, %127 : tensor<2560x10240xui32>
    %129 = stablehlo.add %122, %128 : tensor<2560x10240xui32>
    %c_33 = stablehlo.constant dense<24> : tensor<ui32>
    %130 = stablehlo.broadcast_in_dim %c_33, dims = [] : (tensor<ui32>) -> tensor<2560x10240xui32>
    %131 = stablehlo.shift_left %128, %130 : tensor<2560x10240xui32>
    %c_34 = stablehlo.constant dense<8> : tensor<ui32>
    %132 = stablehlo.broadcast_in_dim %c_34, dims = [] : (tensor<ui32>) -> tensor<2560x10240xui32>
    %133 = stablehlo.shift_right_logical %128, %132 : tensor<2560x10240xui32>
    %134 = stablehlo.or %131, %133 : tensor<2560x10240xui32>
    %135 = stablehlo.xor %129, %134 : tensor<2560x10240xui32>
    %136 = stablehlo.broadcast_in_dim %arg1, dims = [] : (tensor<ui32>) -> tensor<2560x10240xui32>
    %137 = stablehlo.add %129, %136 : tensor<2560x10240xui32>
    %138 = stablehlo.broadcast_in_dim %1, dims = [] : (tensor<ui32>) -> tensor<2560x10240xui32>
    %139 = stablehlo.add %135, %138 : tensor<2560x10240xui32>
    %c_35 = stablehlo.constant dense<4> : tensor<ui32>
    %140 = stablehlo.broadcast_in_dim %c_35, dims = [] : (tensor<ui32>) -> tensor<2560x10240xui32>
    %141 = stablehlo.add %139, %140 : tensor<2560x10240xui32>
    %142 = stablehlo.add %137, %141 : tensor<2560x10240xui32>
    %c_36 = stablehlo.constant dense<13> : tensor<ui32>
    %143 = stablehlo.broadcast_in_dim %c_36, dims = [] : (tensor<ui32>) -> tensor<2560x10240xui32>
    %144 = stablehlo.shift_left %141, %143 : tensor<2560x10240xui32>
    %c_37 = stablehlo.constant dense<19> : tensor<ui32>
    %145 = stablehlo.broadcast_in_dim %c_37, dims = [] : (tensor<ui32>) -> tensor<2560x10240xui32>
    %146 = stablehlo.shift_right_logical %141, %145 : tensor<2560x10240xui32>
    %147 = stablehlo.or %144, %146 : tensor<2560x10240xui32>
    %148 = stablehlo.xor %142, %147 : tensor<2560x10240xui32>
    %149 = stablehlo.add %142, %148 : tensor<2560x10240xui32>
    %c_38 = stablehlo.constant dense<15> : tensor<ui32>
    %150 = stablehlo.broadcast_in_dim %c_38, dims = [] : (tensor<ui32>) -> tensor<2560x10240xui32>
    %151 = stablehlo.shift_left %148, %150 : tensor<2560x10240xui32>
    %c_39 = stablehlo.constant dense<17> : tensor<ui32>
    %152 = stablehlo.broadcast_in_dim %c_39, dims = [] : (tensor<ui32>) -> tensor<2560x10240xui32>
    %153 = stablehlo.shift_right_logical %148, %152 : tensor<2560x10240xui32>
    %154 = stablehlo.or %151, %153 : tensor<2560x10240xui32>
    %155 = stablehlo.xor %149, %154 : tensor<2560x10240xui32>
    %156 = stablehlo.add %149, %155 : tensor<2560x10240xui32>
    %c_40 = stablehlo.constant dense<26> : tensor<ui32>
    %157 = stablehlo.broadcast_in_dim %c_40, dims = [] : (tensor<ui32>) -> tensor<2560x10240xui32>
    %158 = stablehlo.shift_left %155, %157 : tensor<2560x10240xui32>
    %c_41 = stablehlo.constant dense<6> : tensor<ui32>
    %159 = stablehlo.broadcast_in_dim %c_41, dims = [] : (tensor<ui32>) -> tensor<2560x10240xui32>
    %160 = stablehlo.shift_right_logical %155, %159 : tensor<2560x10240xui32>
    %161 = stablehlo.or %158, %160 : tensor<2560x10240xui32>
    %162 = stablehlo.xor %156, %161 : tensor<2560x10240xui32>
    %163 = stablehlo.add %156, %162 : tensor<2560x10240xui32>
    %c_42 = stablehlo.constant dense<6> : tensor<ui32>
    %164 = stablehlo.broadcast_in_dim %c_42, dims = [] : (tensor<ui32>) -> tensor<2560x10240xui32>
    %165 = stablehlo.shift_left %162, %164 : tensor<2560x10240xui32>
    %c_43 = stablehlo.constant dense<26> : tensor<ui32>
    %166 = stablehlo.broadcast_in_dim %c_43, dims = [] : (tensor<ui32>) -> tensor<2560x10240xui32>
    %167 = stablehlo.shift_right_logical %162, %166 : tensor<2560x10240xui32>
    %168 = stablehlo.or %165, %167 : tensor<2560x10240xui32>
    %169 = stablehlo.xor %163, %168 : tensor<2560x10240xui32>
    %170 = stablehlo.broadcast_in_dim %1, dims = [] : (tensor<ui32>) -> tensor<2560x10240xui32>
    %171 = stablehlo.add %163, %170 : tensor<2560x10240xui32>
    %172 = stablehlo.broadcast_in_dim %arg0, dims = [] : (tensor<ui32>) -> tensor<2560x10240xui32>
    %173 = stablehlo.add %169, %172 : tensor<2560x10240xui32>
    %c_44 = stablehlo.constant dense<5> : tensor<ui32>
    %174 = stablehlo.broadcast_in_dim %c_44, dims = [] : (tensor<ui32>) -> tensor<2560x10240xui32>
    %175 = stablehlo.add %173, %174 : tensor<2560x10240xui32>
    return %171, %175 : tensor<2560x10240xui32>, tensor<2560x10240xui32>
  }
}
